TD3/models/second_training_attempt/train_500_episodes_critic_2.pth (torch, 531051 bytes, 5 tensors)

l1.weight f4 [400, 28]
000000 87 50 90 3e 45 e9 ff 3e b4 c0 20 be 3b a8 9b be
       0.28186437 0.49982658 -0.1569851 -0.30401787
000010 f1 fb dc bc 1d 6e 31 3d 80 74 01 3e 48 ec 18 be
       -0.026975604 0.043317903 0.12642097 -0.14933884
000020 ff c7 ce bd dc a6 c7 bd d6 a2 dd bc 19 61 84 bd
       -0.1009674 -0.09748623 -0.027055185 -0.064638324
000030 67 c8 91 3e 0d 6b a9 be 49 89 a8 3d 4a b0 1e 3e
       0.28473207 -0.33089486 0.0822931 0.15496936
000040 ab 2a af bc ac a0 f9 3d d3 65 03 be f2 2f f4 3d
       -0.02138265 0.12188849 -0.12831812 0.11923207
000050 28 64 ae 3a b6 82 ce bc d1 df 0c 3d 88 72 b2 3c
       0.0013304995 -0.025208812 0.034393135 0.021783128
000060 ee 1c 55 bc 9f 28 f2 3c 63 dd 88 bc ba 02 3d bd
       -0.013007386 0.029560385 -0.016707128 -0.04614518
000070 1c f2 1d 3d a6 5f 8b 3e 1d b0 75 be dc 1c 57 be
       0.03856097 0.2722141 -0.23992963 -0.21007103
000080 e8 bc 83 3e 9e d4 ef bc d4 94 6f 3d ac 1a 04 be
       0.25730062 -0.029276188 0.058491543 -0.129008
000090 3a cf 72 bd 57 b6 5d bd d7 13 80 3c 1c e5 19 3e
       -0.059279658 -0.05412897 0.01563446 0.15028805
0000a0 a6 71 17 3e 37 4c 9d be 76 f9 7c ba 22 8a 4d 3d
       0.14789447 -0.3072221 -0.00096502097 0.05018056
0000b0 f8 91 be 3c 75 6b 48 be 8d 26 54 be fe ab 43 3d
       0.023262963 -0.19572242 -0.20717831 0.047771446
0000c0 f3 65 92 bc e6 ff 87 be f3 e9 bc 3d e1 d5 4a be
       -0.017870879 -0.26562423 0.0922431 -0.19808151
0000d0 69 f6 e1 3c 6a 77 f6 3c 65 39 b8 3d e5 55 04 be
       0.027583318 0.030086238 0.08995322 -0.12923391
0000e0 ae 94 80 bd a9 23 93 3c 14 03 62 be 7c 52 60 bd
       -0.062783584 0.01796134 -0.22071487 -0.054766163
0000f0 d5 a9 51 3e 9d ea 1d be 4c 3b 08 be 1d 17 a5 bd
       0.20474942 -0.15421529 -0.1330387 -0.08061049
000100 6f 15 a8 bd dd d2 90 bc d6 56 08 be ba 64 f7 3d
       -0.08207213 -0.017678672 -0.13314375 0.12079759
000110 f9 61 31 3e 0c eb 91 b9 c1 66 29 bd 21 45 68 be
       0.1732253 -0.0002783168 -0.04135776 -0.2268262
000120 69 0c 11 bd 4e 08 4d 3d b3 16 be 3d f7 bc 50 bd
       -0.035412226 0.050056748 0.09281673 -0.05096146
000130 c7 9e 25 3d c5 a1 37 3b 60 61 a0 bd d3 ee aa bd
       0.040434625 0.0028020006 -0.07831073 -0.08346333
000140 bd c8 90 bd 5c ca 5d bd 02 10 9e bb 1c f9 ab bd
       -0.07069538 -0.054148063 -0.0048236856 -0.08397123
000150 60 1a 3c 3e a6 c4 80 3d 79 4d 78 bd a0 ba 0a bf
       0.18369436 0.06287508 -0.06062076 -0.5419102
000160 23 0e 06 3e c2 90 57 bc 49 88 1a be f0 10 f1 3d
       0.1309133 -0.013157072 -0.15091051 0.11770809
000170 c1 68 e6 bd 0a 2c 51 be c0 93 52 3c 38 12 01 3c
       -0.11250449 -0.20426956 0.012852609 0.007877879
000180 ed b0 ba bc 6a a1 b1 be 7b b7 ec 3d 0a 19 e0 bd
       -0.022789443 -0.34693462 0.115584336 -0.10942276
000190 c4 c3 46 3c 96 96 25 3e 7e 1f ed bd 51 b7 27 bd
       0.012131635 0.16170725 -0.11578272 -0.04094631
0001a0 f3 3b a8 bd b0 8d 85 bd af 9e 88 ba 9f b4 67 3e
       -0.082145594 -0.06521165 -0.0010423268 0.22627495
0001b0 0a f8 55 3d 19 7e 9b bd e9 12 78 3b 8e 01 9f 3d
       0.0522385 -0.075924106 0.0037853068 0.077639684
0001c0 00 ec 80 3e 54 b0 ea bc f8 b4 5e bd 9f 33 bc 3e
       0.25180054 -0.028648533 -0.054371804 0.36758134
0001d0 e6 26 11 3d 89 ca 48 3c b8 bc 90 be 4e b1 26 3e
       0.035437487 0.012255319 -0.2826898 0.16278574
0001e0 da 85 bb 3d ad 7b 1a 3e b5 b3 6c be 53 af e5 bd
       0.091563895 0.15086241 -0.23115428 -0.11215081
0001f0 bc 05 16 3d 9c 30 01 3e 3a 3b 7c 3c 92 20 96 bd
       0.036626562 0.126162 0.01539498 -0.07330431
000200 f6 44 05 bd ab 02 16 3e 65 08 c0 bb ce 2a e7 bd
       -0.03253647 0.14649455 -0.0058603757 -0.11287461
000210 16 3b d2 3b 1a dc 2f 3e f0 dc d4 3d ea c4 f1 bd
       0.006415735 0.17173806 0.10393703 -0.118051365
000220 5f 42 08 3e f8 c0 11 bc d8 6b 85 bd 1d 02 23 3d
       0.13306569 -0.008896105 -0.0651471 0.039796937
000230 94 39 73 be 1b a1 ec bd 55 72 b3 3e 7e a8 3d be
       -0.23752433 -0.11554166 0.35048166 -0.18521306
000240 17 15 82 be a6 8c 4d 3e be 76 ef 3d bc d9 2f 3d
       -0.25406715 0.20073184 0.1169257 0.042932257
000250 b8 16 33 bb d2 7a c2 bc 5e ff 38 3e 79 16 d9 3c
       -0.0027326774 -0.023740206 0.18066165 0.026499974
000260 b2 70 9c bd bb 54 88 3c 85 de ce 3d 76 ba 38 3e
       -0.076386824 0.016641965 0.10101036 0.18039879
000270 24 b2 9a bd ae 82 27 3d ef 4b e7 3b 4c 0f 58 bd
       -0.07553509 0.04089611 0.0070586125 -0.052748963
000280 e7 c4 37 be 3a 47 02 be d0 48 1a be f5 1c 6d 3d
       -0.17946206 -0.12722483 -0.15066838 0.057888944
000290 75 83 1c be fc d2 1b 3e 79 9b 00 be 7c 55 88 bd
       -0.15284522 0.15217203 -0.12559308 -0.0665693
0002a0 50 6b 6f 3e 6d ec bb 3e a9 7b a0 be a2 13 75 be
       0.2338078 0.36703816 -0.31344345 -0.2393327
0002b0 00 65 a4 3e cc fa bb bd a1 77 a3 bc 17 32 44 be
       0.32108307 -0.09178695 -0.019954504 -0.19159733
0002c0 21 fb 87 bd 93 a0 ee 3c 33 19 09 be 39 23 95 3c
       -0.06639696 0.029129302 -0.13388519 0.018205272
0002d0 f3 28 e9 3c f3 0c 12 be ea b5 e8 bc bc 5b ce 3d
       0.028461909 -0.14262752 -0.028407056 0.10076091
0002e0 2b 3a a1 3c 78 78 71 bd 81 77 1c 3e 41 78 ed 3c
       0.019681057 -0.05895278 0.15279962 0.028988006
0002f0 c7 b0 c2 bd 20 15 e5 bd 3f 13 15 3e ce fe 5e bd
       -0.09506374 -0.1118567 0.14558123 -0.05444222
000300 2a 1a 5c 3d d2 25 3f 3d b4 f9 db bb 72 ec 8a 3b
       0.05373589 0.046666928 -0.0067131165 0.0042396123
000310 64 73 fb 3e d3 91 24 3e c8 72 85 be e2 2c e2 3a
       0.49111474 0.16071253 -0.26064134 0.0017255808
000320 b9 7a 12 bc 1c 9f 17 3e 69 9f b2 3d c0 12 f5 3d
       -0.008940392 0.14806789 0.08721811 0.11966467
000330 49 b5 d8 bc db af 83 3e 96 9d 00 3e 7c d0 06 bc
       -0.026453631 0.25720105 0.12560114 -0.0082284175
000340 a7 fc fd bd e6 55 d2 3c d2 5e 3f 3e 19 c9 3b 3e
       -0.12401705 0.025675725 0.18688515 0.18338431
000350 dc 26 e3 3c 44 9c 1f 3e 76 c7 02 be 7c 26 da 3c
       0.02772849 0.15586954 -0.12771401 0.026629679
000360 07 ec 95 3d 34 cf 6f 3d 00 3b fc bd ba 14 b5 3c
       0.07320409 0.058547214 -0.12315941 0.02210461
000370 a2 36 78 bc b2 a3 03 3d b5 dc 2e 3c d9 13 11 bd
       -0.015149744 0.032138534 0.010672738 -0.03541932
000380 93 ef 6c 3d d6 90 d2 3d 64 b1 72 be 1e 2f db be
       0.057845663 0.102815315 -0.23700482 -0.42809385
000390 f7 ca 57 3c cf e5 1c 3c 54 d1 c0 bd ea df 0d 3c
       0.013170949 0.009576275 -0.09414926 0.008659342
0003a0 c2 8e 8b bd ed 8b a8 be 78 38 5e bd 30 bf 84 3d
       -0.06814338 -0.32919255 -0.05425307 0.064817786
0003b0 a8 da fe 3d b8 49 38 be 1f b5 fd bd 7d c9 5a be
       0.12444049 -0.17996871 -0.12388062 -0.21365924
0003c0 ac a2 3e be 52 53 8e 3d 1e db 25 be 03 23 90 3d
       -0.18616742 0.06949486 -0.16196868 0.07037928
0003d0 35 e1 f6 3d 30 70 25 3d 07 9a 16 3e 1e 36 61 bd
       0.120546736 0.040390193 0.14707194 -0.05498325
0003e0 08 f9 db 3a 4f bd ba 3b 26 2d 42 bd 06 fb 97 bc
       0.0016782591 0.005698837 -0.04740634 -0.018552314
0003f0 86 7b 8c 3d 69 45 7c 3e c7 6f 09 be 0a 4a 54 be
       0.06859498 0.24635853 -0.13421546 -0.20731369

l1.bias f4 [400]
000000 ab c8 01 bd 2b 96 80 be d8 35 94 bd 01 2e 4f 3e
       -0.031685513 -0.2511457 -0.072368324 0.20232393
000010 5b 02 1e 3e 7b 74 3c 3d f6 c6 72 3d 61 d5 3b 3e
       0.15430586 0.046009522 0.059271775 0.18343116
000020 e3 04 36 3e 63 f6 bb 3d 2b 60 14 3d 1c f5 49 3e
       0.17775302 0.09177854 0.036224525 0.19722408
000030 54 b6 f5 3d 80 cd dc bc b8 1a cf bd 46 3b 3b bc
       0.11997667 -0.026953459 -0.10112518 -0.011427706
000040 3f ba c8 bd fa 0a 25 3e d4 07 a3 bd f8 a9 13 bd
       -0.098011486 0.16117468 -0.079604775 -0.036050767
000050 f1 fd 10 be f5 a1 76 bb 89 de 18 3e 16 1b d0 3c
       -0.14159371 -0.0037633155 0.1492864 0.02540354
000060 f8 86 51 3d e9 30 ff bd 85 14 a6 3a b8 0f 19 3e
       0.051154107 -0.12460501 0.001267091 0.14947402
000070 aa e7 d0 3c 52 ac ee 3b dd a6 73 be 79 f8 87 3e
       0.025501091 0.007283726 -0.23794122 0.26556757
000080 6f 3c 01 3e b3 c0 6f bd 24 7d c2 bd 14 86 68 be
       0.1262071 -0.05853338 -0.09496525 -0.22707397
000090 3d 99 05 3e cf 01 02 be f1 57 12 3e ab fb 44 be
       0.13046737 -0.12696002 0.1429136 -0.19236629
0000a0 52 e5 1b 3e 09 e1 4e be d3 be 82 3c 67 3d 8f bb
       0.15224198 -0.20203032 0.015960133 -0.0043713334
0000b0 7e 1c 8f 3d e5 d0 3c 3d ee 2e db 3d d7 4a 21 3e
       0.06987856 0.046097655 0.107023105 0.15751205
0000c0 59 30 37 3e 91 65 86 bd 4e 3e 7a 3e 6c 0d 10 be
       0.17889537 -0.06562341 0.2443783 -0.1406762
0000d0 21 4b 9e bd 7a 18 4b 3e 8d 68 32 be c7 0c 35 3e
       -0.077291735 0.19833556 -0.17422695 0.17680655
0000e0 0d a0 19 3d db f7 31 3e ea ea 10 bb 3e ac 88 3d
       0.037506152 0.17379706 -0.0022112676 0.066734776
0000f0 76 33 9f bd a0 04 23 be ce 96 10 3e 81 43 46 be
       -0.07773487 -0.15919733 0.14120027 -0.19361688
000100 91 a5 fb 3c ad 58 f7 3a 28 71 f3 3c 4d 36 b6 bd
       0.030718597 0.0018871032 0.029717043 -0.08897076
000110 86 7c 4d be 23 05 5b be 7a 56 bf 3d 51 b3 65 3e
       -0.20067033 -0.21388678 0.09342666 0.22431685
000120 72 b3 e9 bc 37 1c 2f 3d 22 0a 2f 3d b1 16 78 bc
       -0.028527949 0.042751517 0.042734273 -0.015142129
000130 16 44 62 bd 19 62 3a 3c 40 b3 76 bb 9b 23 42 bd
       -0.055240713 0.011375927 -0.0037643462 -0.047397237
000140 1f ec a6 3d bd a2 fc 3d 8f e0 9a 3d 17 32 32 3e
       0.08150505 0.12335727 0.075623624 0.1740192
000150 ca 04 ce bd 8f dd d1 3b e7 9b 99 3d 2e 07 49 bd
       -0.10059507 0.0064045857 0.07500439 -0.049079113
000160 9e 6b 63 bd 4a 62 d1 3d 2a dd 02 bd 1d 8b 62 3e
       -0.055522554 0.10223825 -0.0319492 0.2212338
000170 9a 5b d6 bd 63 49 b1 3a 5e 5b ea bd 78 a7 ac 3d
       -0.1046669 0.0013525899 -0.11443208 0.0843038
000180 8e 59 70 3d b0 7a 9e bd 26 54 e6 3d 49 50 12 3e
       0.058679156 -0.077382445 0.11246519 0.14288439
000190 cf 7f 9b 3b 85 c6 80 3e af ff 63 bd 1a b8 ad 3b
       0.0047454606 0.25151458 -0.05566376 0.0053014876
0001a0 53 0a 15 3e 78 b2 47 be ce ec 1a be ad 2a 6a 3d
       0.1455472 -0.19501674 -0.15129396 0.057169605
0001b0 8a 47 1b 3e e6 3d 52 bc ba 3b bc bd 36 f0 94 be
       0.15164009 -0.012832141 -0.091910794 -0.29089516
0001c0 67 c0 41 3e 0c e0 94 bb 6c 03 40 be ad cf fe 3b
       0.18921052 -0.00454331 -0.18751305 0.0077762217
0001d0 0e af 93 3d ef dc 26 3e e2 aa 24 be 93 3b 7d be
       0.072111234 0.16295217 -0.16080812 -0.24729757
0001e0 2d 75 c2 bd 45 48 86 bc 05 5f 17 3e a9 1d cf bc
       -0.09495006 -0.016391883 0.14782341 -0.025282698
0001f0 1f 9d 3e 3e aa 4a 60 3e 9e a7 c9 bc a6 67 71 be
       0.18614624 0.21903482 -0.024616059 -0.23574695
000200 6f 62 4b 3e fe ca f2 3d c7 9f 0a 3e c5 e6 9b 3d
       0.19861768 0.11855124 0.13537513 0.07612375
000210 d8 68 cd bd eb 4e 06 be 23 1b 25 3e 8b 80 8f bd
       -0.10029763 -0.13116042 0.16123633 -0.070069395
000220 ea 4f e2 3c 05 f1 28 bd 0c d3 62 bc e7 c2 33 3d
       0.027625997 -0.04124548 -0.013844263 0.043887045
000230 53 68 b4 3d 95 80 1c 3e 9d e6 54 3e 6d 19 9c bd
       0.08808961 0.15283425 0.20791097 -0.07622037
000240 31 c4 31 3d d7 84 b3 3d 9c 58 2f bd d0 f1 09 3e
       0.043399993 0.087655716 -0.042809114 0.1347115
000250 1f f5 37 be 0a 53 61 3e 61 63 16 be 8c 68 1a 3d
       -0.179646 0.22004333 -0.14686348 0.03769736
000260 23 11 07 3e fd 30 3b 3d 57 a1 b6 bd a1 ad 7f 3d
       0.13190131 0.045701016 -0.08917492 0.062421445
000270 51 93 c6 bd d7 16 15 3e 5a 9a 07 3e cd a2 33 3d
       -0.09696067 0.14559494 0.13242474 0.04385643
000280 11 2e ab 3d 65 5b ab 3d 86 0e f9 3d 81 2c fe 3c
       0.08358396 0.083670415 0.12160973 0.03102708
000290 84 0f db bc 90 38 03 bd 5c 28 ab bd 00 fc 99 3d
       -0.026740797 -0.032036364 -0.08357307 0.07518768
0002a0 ec 4e 02 3e 90 e5 20 be 44 ad 01 3d ff 92 92 3d
       0.12725419 -0.15712571 0.03165938 0.071569435
0002b0 4e fe 95 3e ea 76 8f 3c 9c d6 36 bd de 67 88 3e
       0.29295582 0.017512757 -0.04463826 0.26641744
0002c0 87 37 8a bd 2a 2c 6d 3d 8c 1a 11 ba 51 bc 60 be
       -0.06748872 0.057903446 -0.0005535267 -0.21946837
0002d0 d7 7b d5 3d 3d 23 6e 3e b9 a2 89 3e 67 49 79 3e
       0.10424011 0.2325563 0.2688196 0.24344407
0002e0 07 5a 88 3e 9f cb e1 3d 03 49 ba bd 00 11 98 3d
       0.26631185 0.11025166 -0.09095957 0.074251175
0002f0 68 17 55 be b0 15 3e 3d b0 fd 4d bd dd c8 07 3e
       -0.2080971 0.0464074 -0.050290763 0.13260217
000300 c8 5e c7 bd 32 8c ae bd 73 8d 2a be c9 10 f6 bd
       -0.09734875 -0.08522834 -0.16655521 -0.1201492
000310 87 30 d6 3c 43 2e 81 3b cf 28 22 be d0 73 dd 3d
       0.026146187 0.0039422824 -0.1583588 0.10813105
000320 ad fe 08 bc dd 8c 0f be fd 84 27 bd 67 63 2d 3e
       -0.008361501 -0.14018579 -0.040898312 0.1693245
000330 9b 2c 4f 3e 10 7f 36 be eb 2b 59 3d 99 cc 47 3c
       0.2023186 -0.17821908 0.0530204 0.012194776
000340 cc 71 18 3e 07 e4 11 3e 94 19 56 be ec 61 d6 3d
       0.1488716 0.14247142 -0.20908195 0.10467896
000350 c4 0a 86 3c 51 87 a7 bd d8 83 78 3e 8f 1d 91 bc
       0.016362555 -0.081801064 0.24269044 -0.01771429
000360 5b d7 8e bd f2 0c 08 be e7 39 09 bd 4c 04 af bd
       -0.069746695 -0.13286188 -0.033502486 -0.085457414
000370 e7 6d 1c bb 3d 55 d2 3c 36 5d 02 3e 52 e1 33 be
       -0.0023869218 0.02567541 0.1273087 -0.17566422
000380 ae 89 25 be 9b a6 42 3e 15 25 26 3e db 1e 38 3d
       -0.16165802 0.19008867 0.16225083 0.0449513
000390 ae c7 ab 3d df 0a 54 3e 25 bc ee bd 17 d7 fa 3d
       0.08387695 0.20707272 -0.116569795 0.122480564
0003a0 00 c9 27 be d0 eb 36 3e f1 3b e2 39 db bf 8a bc
       -0.16385269 0.17863393 0.0004315074 -0.016937187
0003b0 1f 90 b2 bd 32 97 77 3d be f6 eb 3c 30 39 dc 3d
       -0.08718895 0.060446925 0.02880418 0.10753095
0003c0 70 62 98 3c c2 8c f9 3d 41 01 ff bd fd 0c c1 ba
       0.018601626 0.121850505 -0.12451411 -0.0014728602
0003d0 c4 2e da bd 53 31 ce bd 36 ff df 3d 30 bc 58 bd
       -0.10653451 -0.100680016 0.109373495 -0.052913845
0003e0 35 c4 00 3e 3d d2 07 3e 76 1b 30 3a c9 55 a1 bc
       0.12574847 0.13263793 0.0006717959 -0.019694226
0003f0 0e 7b c2 bd 58 14 c6 bd 1b f1 cd bd 3a 64 94 bd
       -0.09496127 -0.09671849 -0.10055753 -0.07245679

l2.weight f4 [300, 400]
000000 1a f8 28 3c 3e a2 02 3d 4a fc f4 3a 72 bf a8 bb
       0.010313058 0.031893007 0.0018690911 -0.005149775
000010 05 0f cb 3c 3d 9b 30 bd cb 06 a4 bc 8b 65 72 bc
       0.024787435 -0.043116797 -0.02002277 -0.014794718
000020 09 16 47 bd 43 83 9e 3b ed 48 33 3b 56 40 92 bc
       -0.048605 0.004837425 0.00273567 -0.017852943
000030 97 7b a5 bc b4 68 2c 3c 98 a6 8e 3b 7c ce fa 38
       -0.020200534 0.01052301 0.0043533556 0.0001195939
000040 8a cc 92 bc ff e6 b8 bb 81 de de 3c e0 4b 11 3d
       -0.017919797 -0.0056427713 0.027205708 0.03547275
000050 15 e7 5b bc 9f dc 54 bc 69 e5 0d 3d c1 a1 07 3d
       -0.0134217935 -0.012992053 0.03464261 0.033113245
000060 a7 b8 34 bd df 98 55 bc 62 f8 c1 bb 9d 8e cb bb
       -0.04412141 -0.013036936 -0.005919502 -0.006212069
000070 96 39 9c 3c ca 46 82 3c 92 de 3c bd 42 1f 42 bd
       0.019070428 0.015902895 -0.046110697 -0.04739309
000080 d1 91 fc bc 83 26 01 3d 9f ce 1b 3c 00 d0 d3 3a
       -0.03083125 0.03153087 0.0095097115 0.0016160011
000090 e2 ae 13 ba a6 10 93 bd 1f 22 5b bd 9f 91 10 3d
       -0.00056336646 -0.0718091 -0.053499337 0.035295125
0000a0 cf 9e 29 bd db 93 35 3d ca 46 f3 bc 73 5e 20 3d
       -0.041411217 0.04433046 -0.02969684 0.039152574
0000b0 e4 c8 25 bd 87 63 9b bc b1 ef 82 3c 1f d0 b2 bc
       -0.040474787 -0.018968357 0.015983434 -0.021827755
0000c0 b3 33 44 bd 55 dc b1 3c 01 b2 34 bd 83 3a a1 bc
       -0.047900867 0.021711508 -0.04411507 -0.01968122
0000d0 32 14 0c bd 51 c1 7a 3c 80 89 9e bc 36 e7 9f bc
       -0.034198947 0.015304879 -0.019352674 -0.01951943
0000e0 f2 60 26 bc 1d 03 84 3c c6 f5 a1 3b 34 ae 98 bc
       -0.0101549495 0.016114766 0.0049426286 -0.018637754
0000f0 1a e4 d6 3b 9a 85 ea 3c ed 4f 23 3d 5c b0 66 bc
       0.0065579535 0.02862816 0.039871145 -0.014080133
000100 35 11 b7 bc b3 17 eb bc f4 c1 d0 bc 3d d7 05 3d
       -0.022347072 -0.028697824 -0.025483109 0.03267597
000110 0e 7f 5e 3b 40 f0 ae 3b a4 ad 09 bd fc 8e b0 bc
       0.0033950242 0.0053386986 -0.033612862 -0.021552555
000120 b3 a8 10 3c 82 a9 3f bc 8d fb 02 3d ec 92 0d 3c
       0.0088292835 -0.011698129 0.03197818 0.008640986
000130 99 e2 d5 3b d4 d6 14 3d d9 8d 39 bd a8 02 40 bc
       0.0065272567 0.03633769 -0.045301292 -0.011719383
000140 f8 74 b2 3c 00 6e db bc a0 8c 47 3b b0 c4 1f bb
       0.02178429 -0.02678585 0.003044881 -0.002437871
000150 1a 98 00 bd b3 63 eb bc 99 79 f4 bc ef af 48 3c
       -0.031395055 -0.028734064 -0.029843139 0.012248977
000160 bd 53 4b 3d 3d db 0b bc 28 c5 83 3c 98 35 b6 bb
       0.049640406 -0.008536157 0.016085222 -0.005560588
000170 e7 28 fb bc 08 6a 2c 3d a3 79 db bc 5f e3 2f 3d
       -0.030659152 0.042093307 -0.0267914 0.042941447
000180 e2 cd 1f bd f9 35 df 3c e2 41 a3 3c 66 a8 9d bc
       -0.039014705 0.027247416 0.019928876 -0.019245338
000190 3d 6f 4c bd 0d 30 2a bc 5b 2c 01 bd e8 e9 cd 3b
       -0.049910773 -0.010387433 -0.03153644 0.0062839873
0001a0 49 95 6a 3c 65 de 2d bd 44 e3 0e bd c8 85 59 bc
       0.014317819 -0.04244842 -0.034884706 -0.013276525
0001b0 46 cf 1e bc 6a e7 2f bd 6d 1a 15 3c 9b e6 28 bd
       -0.0096929725 -0.042945303 0.009100539 -0.041235548
0001c0 4a ba 14 bd b2 d4 9b 3c 4c 41 64 3c 4b a2 48 bd
       -0.03631047 0.01902232 0.013931584 -0.0489829
0001d0 af af 56 bd 12 dd 35 bc 90 1e 78 bd f9 85 0c 3d
       -0.05241364 -0.011100071 -0.06057602 0.034307454
0001e0 12 5b d8 bb 4b b1 23 3c 1e 7f c5 3c c3 a7 98 3c
       -0.0066026533 0.009991 0.024108466 0.018634683
0001f0 7a da c0 3c 11 56 4d bc d8 2b d4 bb 6b 01 be bc
       0.023541678 -0.012532727 -0.006474953 -0.023194036
000200 4e 73 2c bd 15 84 28 bd af 57 98 3c 36 18 c9 3c
       -0.04210215 -0.04114159 0.018596498 0.024547677
000210 e5 21 e2 bb 30 c4 4b bd b7 52 63 3c 0e 97 35 bd
       -0.006901013 -0.049747646 0.013874701 -0.04433351
000220 5c 96 1d bd f0 26 0f 3d a3 29 83 3a 13 2c d5 bc
       -0.038473472 0.034949243 0.0010006916 -0.026021993
000230 59 e7 f1 3c 48 c0 b4 bc 44 97 c7 3c 38 ff 3e bd
       0.02952926 -0.022064343 0.024364121 -0.046630114
000240 11 53 0d bd d2 f6 46 3c d4 90 2f 3d 63 b2 ed bc
       -0.034503046 0.0121438075 0.04286273 -0.029015725
000250 92 f8 05 3c d9 28 e0 bc 9f b9 35 3d 73 68 d0 3c
       0.00817694 -0.027363228 0.044366475 0.02544043
000260 93 6f 70 bc cd b6 38 3d 1c 6d e3 bc e8 af 06 bb
       -0.014675039 0.045096207 -0.027761988 -0.0020551626
000270 2f c2 29 bd 04 12 19 3d 4b 87 f7 3b cd ef a4 3c
       -0.041444954 0.037370697 0.00755397 0.020133877
000280 65 c0 f2 3c 65 20 09 bd 88 a8 3b bd 5d 15 c3 3c
       0.029632756 -0.03347816 -0.04581502 0.023813898
000290 47 56 3b 3b d5 11 ab bb f0 79 36 3c 42 be 04 3d
       0.002858536 -0.0052206316 0.011137471 0.032408006
0002a0 1b 74 2d bd e6 27 a3 3c d1 67 b6 bb f0 3c fb 3b
       -0.042347055 0.019916486 -0.005566575 0.0076671764
0002b0 77 e3 9d bc 37 06 85 bc 07 72 36 3c 3d 94 2e 3d
       -0.019273503 -0.016238315 0.011135585 0.04262184
0002c0 01 7a 19 3d 02 1a 1b bd d0 5a b6 bb cd 80 92 39
       0.037469868 -0.0378666 -0.005565025 0.00027943254
0002d0 fa 3f d7 bc 71 70 25 bc cd cf 20 bd f4 1e 44 bd
       -0.026275624 -0.010097609 -0.039260674 -0.04788108
0002e0 ce db bf 3c 7c c4 1d 3d d7 af 26 bd db dd 7e bd
       0.02342024 0.03851746 -0.040695038 -0.062223297
0002f0 56 a0 e8 3c fa a5 ba 3c 68 f9 cf bc e8 ca 58 3d
       0.028396767 0.022784222 -0.02538748 0.05292788
000300 5c ab 0d 3d 88 13 88 3c 0e 38 d3 3c 30 a4 43 3c
       0.03458725 0.016610876 0.025783565 0.011941001
000310 53 43 0b bc 42 d7 a4 bb e9 21 9b 3c 9d d3 14 bd
       -0.008499938 -0.0050305435 0.018937068 -0.036334623
000320 ed fa 81 3c 6d 6b 1f 3d 20 d3 63 bc 04 46 37 bc
       0.015866721 0.03892081 -0.013905317 -0.011186127
000330 59 4a ad ba 2e 8a f4 bc 2c 70 92 bc 2b fa c8 bc
       -0.001322101 -0.029851045 -0.017875753 -0.024533352
000340 b6 1d 82 bd 05 50 90 bc b9 bb 15 3d ba ce 7d 3c
       -0.06353323 -0.017616281 0.03655598 0.015491182
000350 e8 c5 44 bd 59 05 91 3b d2 8b 97 3c 68 98 6e 3c
       -0.0480403 0.0044256863 0.018499289 0.014562704
000360 03 8d 12 3b 32 a8 f8 3c 1a 01 af bc e7 a4 95 3c
       0.0022361882 0.03035364 -0.02136283 0.018267108
000370 8c 4f 35 3c d7 eb af bc f6 fe b9 3c 7b 52 eb 3c
       0.011066329 -0.021474762 0.022704583 0.028725853
000380 3b 58 f3 3c c9 17 da bc a8 ed b0 3b dc 4b b6 3c
       0.029705158 -0.02662267 0.0053994246 0.02225297
000390 8d 26 c5 3c f7 71 62 3c e2 bd 98 3c 49 f9 24 bd
       0.024066234 0.013821117 0.01864523 -0.0402768
0003a0 d9 58 3b 3d 0e af f6 bb 38 eb 2b bc e2 f8 09 3d
       0.04573903 -0.0075281924 -0.010493092 0.03368462
0003b0 d7 95 49 bc cb 9a cd b9 a8 de 50 ba e0 b0 8b bc
       -0.012303791 -0.00039215977 -0.00079677487 -0.017052114
0003c0 26 26 81 3c f2 5a 3f 3c 29 cb 44 3d 20 d6 16 bb
       0.01576526 0.011679398 0.04804531 -0.0023015812
0003d0 3a 48 42 bd e0 22 09 3b ed 48 40 bd a0 7f 0e 3d
       -0.047432162 0.0020925328 -0.046944547 0.03478968
0003e0 d6 01 2d bd a0 f7 c5 bc 49 9e 98 bc 48 a4 4c bd
       -0.04223808 -0.024165928 -0.018630164 -0.04996136
0003f0 e0 b2 3b 3d f2 d5 8b 3c 25 2f 56 3b a0 55 e2 ba
       0.045824885 0.01706979 0.003268191 -0.001726795

l2.bias f4 [300]
000000 26 89 54 bc 16 29 94 3d 9e 73 e8 3c ac 21 82 bd
       -0.012972152 0.07234399 0.028375443 -0.06354079
000010 2b 4e 6e 3a 51 3a 49 bd 44 d3 3a bd 33 93 d0 bb
       0.00090906274 -0.04912788 -0.045611635 -0.0063652038
000020 06 ed 0b bc 75 63 0e 3e a9 d0 11 3e 10 71 e9 3d
       -0.0085403975 0.13905127 0.14239754 0.11398518
000030 74 20 e3 3d 69 f1 f1 bb fe a8 de bd 3a e1 c2 bc
       0.11090174 -0.0073835147 -0.108720765 -0.023789037
000040 9e 3b d4 3d b1 8d 8f 3d 8e b6 99 3d e8 f0 3e 3e
       0.103629336 0.07009447 0.07505523 0.18646586
000050 5f 70 83 bd 66 07 55 3b 24 88 aa 3d ec 7c 3d bd
       -0.064179175 0.003250563 0.08326748 -0.046261713
000060 03 8d b5 bd f0 6d 73 3d 3e 6a 4f 3b 29 c4 a8 3d
       -0.088647865 0.059431016 0.0031649019 0.082405396
000070 14 bc a2 bd d5 93 96 3d e7 3e 4f 3d aa b8 3e bc
       -0.07946029 0.073524155 0.050597098 -0.011640707
000080 09 3e 77 bc 1e f4 bb bd 7f aa 4b bc 48 fd 94 3c
       -0.015090474 -0.09177421 -0.012430786 0.01818718
000090 27 88 05 3e ad 3a 42 3d 05 b4 27 3e 37 05 0e 3e
       0.13040219 0.04741924 0.16377266 0.13869177
0000a0 06 ea 88 3a ef d1 4c 3d 59 17 20 bb 26 f8 2f 3c
       0.0010445721 0.050004896 -0.0024427979 0.010740316
0000b0 0e 4e d6 3c aa 68 7c 3c 01 df 47 bd 5a 36 6c bd
       0.026160266 0.015405813 -0.048796657 -0.05766902
0000c0 83 79 06 3c b8 26 f8 3d 9a da 79 bc 3b 78 be 3d
       0.008207682 0.1211676 -0.015249873 0.09300276
0000d0 17 12 2f 3e ef 77 17 3e 59 08 52 bd b2 00 39 bd
       0.17096744 0.14791845 -0.051277492 -0.04516668
0000e0 01 a5 cf 3d 8e 77 b3 3d 33 86 50 bb c6 77 55 3e
       0.10138894 0.087630376 -0.003181827 0.20846471
0000f0 f1 4d 7b 3d c9 ac 72 bd be 86 98 3c 4c 0e b1 3d
       0.061353628 -0.059246812 0.018618938 0.08645305
000100 dc c7 20 3d 3d 80 0d 3e f5 4b dc bd 2e 44 0d bd
       0.0392531 0.1381845 -0.10756675 -0.03448885
000110 dd f5 8b 3c 06 3f cc 3d d0 c1 6f bd a5 f8 6c bd
       0.01708501 0.09972958 -0.058534443 -0.057854313
000120 0d 81 ae 3d 39 8c c7 3d ec 0a a5 3c b7 b7 a1 3d
       0.08520708 0.09743542 0.02014681 0.07896369
000130 5a 7f 28 bd b5 dd 26 bc 16 c8 14 be 48 86 11 bd
       -0.041137077 -0.010184695 -0.14529452 -0.03552845
000140 f1 c9 ee bd 02 f7 9e bd 70 75 cc 3c 44 4f c3 3b
       -0.11659611 -0.07761957 0.024958342 0.005960377
000150 76 10 26 3e e6 f6 cd 3d 49 5d 2d bd ef cc c9 3d
       0.16217217 0.10056858 -0.04232529 0.09853541
000160 ff 5e 12 3d 84 1b e9 bd c3 3a 0d 3e 2a f8 53 bd
       0.035735127 -0.11382201 0.13791947 -0.05175034
000170 94 f3 28 bc e2 70 f8 bc 46 49 14 3e 5d ec 12 3e
       -0.01031198 -0.030327264 0.14481077 0.14347978
000180 6b 8e 3c 3d f2 25 b2 3d c8 68 b8 3d d8 d1 e0 bb
       0.046034258 0.08698644 0.090043604 -0.006860953
000190 60 8f 0e 3e 70 08 d8 3d 18 63 5a 3d eb 65 0e 3e
       0.1392188 0.10548484 0.05331716 0.13906066
0001a0 c5 72 cd 3d 5e 7a d2 bc 79 95 45 bb 9d f4 df 3d
       0.10031656 -0.025693115 -0.0030148907 0.10935328
0001b0 6f 4f 5f 3d 8c 29 93 3e 38 8d ab 3c e0 ad ac bc
       0.054519113 0.28742635 0.020941362 -0.021079004
0001c0 4f 01 a4 3d 11 ce 06 3c 86 d5 97 3c 30 e9 bc 3b
       0.08008062 0.008227841 0.018534433 0.005765103
0001d0 09 5f 4d 3b 27 49 0e bd 5e ab d8 bc 61 ef f0 3d
       0.0031337163 -0.034737732 -0.026448902 0.11764408
0001e0 99 3e 08 bd c9 5f 59 bd 91 4c 43 3d f2 6a b4 3d
       -0.033262823 -0.053069863 0.04768044 0.08809461
0001f0 32 32 6f bd 90 9e 8c 3e 7b 7b 74 bc 5f 63 62 bd
       -0.05839748 0.27464724 -0.014922018 -0.05527055
000200 5d 25 e1 bc a3 26 2b 3e cc 44 62 bd a4 9a 4b 3c
       -0.027483637 0.16713957 -0.05524139 0.012427006
000210 5f b8 88 bc fe 43 1e 3e 80 dc 0f bd a7 b1 0f 3e
       -0.016689477 0.15455624 -0.035122395 0.14032613
000220 55 bc d9 3b 52 83 ab bc e4 09 10 3e 16 28 67 3c
       0.0066447654 -0.020936642 0.14066273 0.014108678
000230 f9 77 9a bc eb 48 22 bd 4f 44 cd 3d e7 0f ce bc
       -0.018856036 -0.03962032 0.100227945 -0.025154067
000240 52 8f 80 bd 62 6f df 3d 21 07 c8 3c b1 a7 0a 3e
       -0.06277336 0.109099165 0.024417462 0.13540532
000250 3b 9a 97 bc 23 92 0a 3e 60 0e db 3d 89 6a 8a bc
       -0.01850616 0.13532309 0.10696101 -0.016896503
000260 a0 1f 02 bb 87 b0 30 3e 62 a7 09 3e c6 18 df 3d
       -0.0019855276 0.1725484 0.13442758 0.10893397
000270 d9 22 40 3c a0 c1 82 3d 92 9d d2 3c 6e 10 1f bd
       0.011727058 0.06384587 0.025709901 -0.038834028
000280 af 7b a0 3d 7f 7e 60 ba 60 48 8a bd b6 54 37 bc
       0.07836091 -0.0008563771 -0.06752086 -0.01118963
000290 44 4c 24 bd 5b ed 71 3d 7e f4 d5 3c 29 7c 6a bd
       -0.040111795 0.05906425 0.02611756 -0.057247315
0002a0 b2 d8 1d 3e 5d 00 1f 3e 57 f0 27 3e b9 ef b7 3d
       0.15414694 0.15527482 0.16400276 0.0898127
0002b0 97 19 e8 3d cc ce 2e 3c 71 ad a0 bc 44 c7 2a 3e
       0.11333006 0.010669421 -0.019613953 0.16677576
0002c0 d8 ee 2e bd d0 99 2e 3e d7 cc 55 bd 0d 2e 5a bd
       -0.042708248 0.17050862 -0.052197304 -0.053266574
0002d0 3f 25 b5 3d 02 de 08 3e 5c 2c cc 3d 4a 10 06 be
       0.08844995 0.1336594 0.099693984 -0.13092151
0002e0 62 6a 8b 3d a8 00 9d 3d 68 e3 78 3e 92 ee ce 3d
       0.068074 0.07666141 0.24305499 0.101040974
0002f0 37 2f fa bc 33 51 14 3e 23 a5 72 bd 6b bf 83 bc
       -0.030540092 0.144841 -0.059239518 -0.016082486
000300 15 e4 12 3e 19 64 5b be 92 0a 3e bd 90 34 a4 3d
       0.14344819 -0.21424903 -0.0463968 0.08017838
000310 35 e7 d5 3d a7 62 92 3c 2f 9f fc 3b 1d b8 b1 bc
       0.1044449 0.017869307 0.007709406 -0.021694237
000320 20 d4 81 bd 38 0b 10 bd 97 ce 92 3d 02 5f 75 bc
       -0.06339288 -0.03516695 0.0716831 -0.014976265
000330 f0 fc 14 3e b2 68 34 3e 68 28 a5 bc f3 4a ff 3d
       0.14549613 0.17618063 -0.020160869 0.12465467
000340 2b 33 18 3d 1e 06 f6 3d a3 4a 15 3c 88 93 9b 3d
       0.037158173 0.120128855 0.009112033 0.07596499
000350 9c 0b 01 bd 37 22 ff 3d 55 48 89 bd c3 ea 6c bd
       -0.031505212 0.12457698 -0.06703249 -0.057841074
000360 e6 e7 1a 3c 1d 4f 9b 3d 0b 40 0f bc b5 a2 78 3d
       0.009454703 0.07583449 -0.008743296 0.060702045
000370 3b c5 9b bd f0 e6 82 bd 59 8c fd 3d 9d a0 ab bc
       -0.07605978 -0.06391704 0.12380285 -0.02095061
000380 9f f3 af bb 2d 72 07 3e d9 1c e3 bc 62 10 4f bd
       -0.005369618 0.13227148 -0.027723717 -0.050552733
000390 f3 37 46 bc 22 6c dd 3d 3d d2 61 3c 05 06 11 3e
       -0.0120983 0.1081164 0.013783035 0.14162453
0003a0 7b e9 e4 bb f2 db e7 3d e1 88 83 3d bf f6 45 3a
       -0.006985841 0.11321248 0.06422592 0.00075517216
0003b0 b4 df 23 bc 68 39 2f bc 44 c0 b8 3d b3 9f 33 bd
       -0.010002065 -0.010694839 0.09021047 -0.043853473
0003c0 ba 9d b5 3c 0c 8c 22 3e f0 83 64 3d 09 c0 97 3c
       0.022169936 0.15873736 0.055789888 0.018524187
0003d0 7a 2a dc ba 4d 9f 45 bd 40 ae e3 3a 25 1f 19 bd
       -0.0016797327 -0.048247624 0.0017370656 -0.037383217
0003e0 b4 69 2d 3e 38 75 31 bd d8 cc 58 3c 83 52 ee 3d
       0.16934854 -0.04332468 0.013232432 0.116368316
0003f0 c4 cf e7 3d a1 9e e2 bc b1 92 1d 3e c3 6a f4 3d
       0.11318925 -0.02766353 0.1538799 0.11934426

l3.weight f4 [1, 300]
000000 3b ec 8d 3b 1b 13 b9 bd db ca 82 3a 01 30 89 3c
       0.0043311394 -0.09036847 0.0009978669 0.016746523
000010 bb 33 f4 3c d4 30 53 3c 34 7a 22 3d 7e e7 0e b9
       0.029809823 0.0128900595 0.039667323 -0.00013628413
000020 07 75 6d 3c d5 5b 1d be 83 cc d9 bd 09 34 25 be
       0.0144932335 -0.15367062 -0.10634711 -0.16133131
000030 a9 32 22 be 4a 72 fd 3c b3 f0 80 3a 99 ac 41 3d
       -0.15839638 0.030938286 0.0009837359 0.047283743
000040 a4 7d 81 bd e0 44 23 be a6 3b 18 be 18 6d 84 be
       -0.06322792 -0.15944242 -0.14866504 -0.25864482
000050 cb 3f b9 3c 31 60 1c ba 72 64 82 bd 80 d5 03 3d
       0.022613427 -0.00059652614 -0.06366815 0.03218603
000060 70 2e 15 bc 4f 1c 25 be 21 0b b0 3c 8c 9b e9 bd
       -0.00910531 -0.1612408 0.021489682 -0.11406621
000070 0a 80 49 3b d7 26 27 be 46 07 0c be 60 ae 93 3c
       0.0030746483 -0.1632341 -0.1367465 0.018027484
000080 aa ad a5 3b ea 4c 14 bc 96 08 34 bd 9a 32 b5 39
       0.0050561028 -0.009051541 -0.0439535 0.0003456071
000090 94 cc e0 bd fd 86 0c be 34 0e b2 bd 7e fe dd bd
       -0.1097652 -0.13723369 -0.08694115 -0.10839556
0000a0 96 79 ad ba 5a 15 82 bb 93 6e 0c 3c 3f a4 71 3b
       -0.0013235088 -0.0039698305 0.008571285 0.003687158
0000b0 8b 30 c8 3c 33 61 b5 ba f2 cb 0a 3c 29 ea d6 bb
       0.02443721 -0.0013838172 0.008471476 -0.006558676
0000c0 84 9f 17 bb b8 1c 1c be 51 58 e2 3c cd d2 17 be
       -0.002313585 -0.1524533 0.027630003 -0.14826508
0000d0 0c c5 ad bd 19 16 17 be 9d 58 29 3d 82 48 4a 3c
       -0.08484849 -0.14754523 0.041344274 0.012346389
0000e0 6e 94 12 be ee e5 0a be d0 cf 1e 3c 8f 8f 6c be
       -0.14314434 -0.13564274 0.009693101 -0.23101638
0000f0 7f cc 1a be ec d1 f6 3b 5e 37 98 3c bb e0 32 be
       -0.15117072 0.007532349 0.018581089 -0.1746854
000100 79 a1 43 be 37 9b af bd 9f 1b 3f 3a 90 35 5b 3b
       -0.19104566 -0.08574527 0.00072901876 0.0033448674
000110 33 eb 8f 3b 18 d4 00 be 34 90 2a bd d6 58 f1 bb
       0.0043920516 -0.12580907 -0.04164143 -0.0073653264
000120 84 84 d5 bd 0f c4 ae bd 92 d1 25 bd 2b 85 13 be
       -0.10425666 -0.08533489 -0.040483065 -0.14406268
000130 a8 72 ea 3b 33 77 05 3c cb be 5e 3e e9 f4 6a 3c
       0.0071547814 0.008146095 0.21752469 0.014340618
000140 dc 95 80 3c 07 74 a2 3d 16 b6 b5 3c ff 68 45 3b
       0.015696459 0.07932287 0.022181552 0.0030122397
000150 61 2b e2 bd 24 db 1f be f3 e3 50 bc a8 18 eb bd
       -0.1104343 -0.1561094 -0.01274966 -0.11479312
000160 b6 b3 0e be ea 6c 95 bd 23 5b 2c be 34 54 56 3c
       -0.13935742 -0.07296164 -0.16831641 0.013081599
000170 ef 1d 05 bc d6 ae b8 b8 3f 3f 2b be 88 7a fc bd
       -0.0081248125 -8.8063694e-05 -0.16723345 -0.123280585
000180 54 b0 4e 3d 90 fc 22 be e3 09 1d be c3 05 10 bd
       0.05046113 -0.15916657 -0.15335803 -0.035161745
000190 52 d1 05 be 90 a2 02 be 2d ce 2c be 37 47 1e be
       -0.1306813 -0.12757325 -0.16875525 -0.15456854
0001a0 6d 09 0c be 4f 5a 96 b9 85 5e 23 be 36 ff 1e be
       -0.1367547 -0.00028677515 -0.15954025 -0.15527043
0001b0 23 56 08 be ed 16 46 be 64 41 01 be ca 7d 3d 3b
       -0.13314109 -0.19344683 -0.12622601 0.0028914087
0001c0 5f f6 f5 bd 56 5b 31 3d c4 e1 8c bb 84 55 22 be
       -0.12009882 0.043299995 -0.0042993743 -0.15852934
0001d0 56 e3 89 bb 2d f3 f0 3b 4c ba d4 bb db d4 2a be
       -0.0042080088 0.0073532076 -0.006491935 -0.1668276
0001e0 d0 6c 90 3c af 68 ec bc 4f e3 20 be 90 51 26 be
       0.01763001 -0.02885851 -0.15711711 -0.16242051
0001f0 a3 6e 03 3c 01 7c 2d be f7 e0 81 3c 5b 00 d7 3c
       0.008021983 -0.16941835 0.015854342 0.026245287
000200 9d 92 f4 ba 0a c7 ce bd 57 e6 cc 3c 68 f4 76 3c
       -0.0018659417 -0.100965574 0.025012178 0.015072919
000210 15 de bc 3c 2b 31 1e be db e9 12 3d 6d 75 b3 bd
       0.023055116 -0.15448444 0.035867553 -0.087626316
000220 9f 7a 06 3d 8b f9 e6 3c 13 56 16 be 7d f9 c9 3c
       0.032831784 0.028195163 -0.14681272 0.024655098
000230 3c ab 2e 3d 90 72 1e 3d 2b 6c 00 be e9 29 12 3c
       0.04264377 0.038683474 -0.12541263 0.008921125
000240 f5 ab e1 bb b5 8b 21 be b1 26 df bc 96 09 d2 bd
       -0.006886954 -0.1577595 -0.02724013 -0.102557346
000250 65 e2 2d bc 67 2c d4 bd da cb 25 be aa 8c 2e 3d
       -0.010613059 -0.103600316 -0.16191044 0.042614616
000260 35 7c a4 3c a8 39 6c be cb ca ee bd 47 e7 f0 bd
       0.020078758 -0.23068869 -0.116597734 -0.11762863
000270 e5 5d 63 3c 5c 84 11 be 46 2a d6 bb 43 49 22 3d
       0.013877367 -0.14210647 -0.006535801 0.03962065
000280 2b ff 1c be cf 70 1a ba 99 74 71 3c 56 33 8a 3c
       -0.15331714 -0.00058914436 0.014737272 0.016870182
000290 cc bc c5 bb 93 0f 02 be 2b 35 25 be 8b be 19 3d
       -0.006034469 -0.12701254 -0.16133563 0.03753523
0002a0 41 de fb bd 7b 06 95 bd f9 11 bf bd 13 17 f8 bd
       -0.12298251 -0.07276627 -0.093296 -0.12113776
0002b0 e5 d9 0a be 19 59 0d 3c ac 33 40 3c f1 ee 83 bd
       -0.13559683 0.0086272 0.01173107 -0.06442059
0002c0 c1 68 c3 3a ea aa b2 bd 07 4e 31 bd 1a 0a 43 3b
       0.0014908538 -0.087240055 -0.043287303 0.002976066
0002d0 4d 06 2b be a8 7c 14 be 5a 8d 2b be b8 14 26 3a
       -0.16701622 -0.14500678 -0.1675314 0.0006335485
0002e0 97 98 08 be df 58 26 be c8 e6 12 be 94 cb 1e be
       -0.13339458 -0.16244839 -0.14345849 -0.15507346
0002f0 8b 65 20 3b 29 56 8d bd e5 5e 90 bc a6 8d 02 3d
       0.0024474587 -0.06901199 -0.017623374 0.031873368
000300 4f d2 04 be 87 5b 17 3e 44 84 06 3c 00 43 d7 bd
       -0.12970851 0.14781009 0.0082102455 -0.10510826
000310 9b 40 d4 bd 44 5e 2c 3d b5 c6 6b bb 91 61 07 bc
       -0.10363885 0.042082086 -0.0035976593 -0.008263008
000320 9d f1 b6 bb 86 8b 15 3d d8 70 18 be 3f 75 d0 3c
       -0.0055830018 0.036510013 -0.14886796 0.025446532
000330 87 a0 2b be f2 50 b9 bd c1 32 a0 bc 80 cf 0e be
       -0.16760455 -0.09048642 -0.019555451 -0.13946342
000340 71 3b 32 3c a0 24 e3 bd 43 7f 40 3b 26 ab 24 be
       0.01087843 -0.1109097 0.002937273 -0.16080913
000350 5e 9f a2 3c 0b 12 0d be 7b b6 a8 39 d1 13 94 bb
       0.019851383 -0.13776414 0.00032179416 -0.004518964
000360 5d 6a 18 3d 3f 4d 41 bd 9d 28 fa 3c 8f 70 28 be
       0.03721081 -0.04719281 0.030536944 -0.16449188
000370 4e 22 c8 bb 68 9d 4d 39 dd c1 a5 bd 08 76 23 be
       -0.006107605 0.00019608962 -0.08093617 -0.15962994
000380 ec 97 f3 b8 fc a2 17 be 6b 92 d6 bb 6c 9d f8 bb
       -0.000116154406 -0.14808267 -0.006548216 -0.0075871255
000390 df bb 1a 3c 7e a7 26 be bd ea 11 be 38 1a 20 be
       0.009444206 -0.1627483 -0.14249702 -0.15635002
0003a0 41 4d 41 bd b5 93 d8 bd f3 9a de bd 6e ec ee 3c
       -0.047192816 -0.10575048 -0.10869398 0.029165473
0003b0 08 c3 b4 3c 5a 77 fa 3b 53 35 f6 bd a6 14 0e 3c
       0.022065654 0.0076436223 -0.120218895 0.008671915
0003c0 88 7c db 3b 50 2c 04 be 14 2e 14 be 35 69 8e 3c
       0.006698195 -0.12907529 -0.14470702 0.017384151
0003d0 0b f5 3c 3c 68 5f 3f 3c ba 55 cd 39 80 f1 15 be
       0.011533032 0.0116804615 0.00039164518 -0.14642906
0003e0 04 3b db bd 99 b1 5f 3c f0 ea c6 3c 2e ec 07 be
       -0.10704616 0.013653182 0.024281949 -0.13273689
0003f0 0f 18 2b be 7b 07 90 bc 80 cd b9 bd 8f c0 f1 bd
       -0.16708396 -0.017581692 -0.09072399 -0.11804306
