TD3/models/second_training_attempt/train_200_episodes_critic_2.pth (torch, 531051 bytes, 5 tensors)

l1.weight f4 [400, 28]
00000000: bea1 763e 086f f43e 9a56 22be a6df a1be
00000010: 54c5 d3bc 38da 803d fc0e fb3d 5002 14be
00000020: 0345 3ebe 0e89 febd 1be5 62ba 3dab 7ebd
00000030: dc63 9e3e 0d6b a9be bce6 9f3d 125f 1a3e
00000040: 74b5 d1bc 23fe f03d 11b7 07be 658d eb3d
00000050: 9d26 3dbb a00d f1bc 8e34 f73c a13d 8f3c
00000060: eafa dabb d7e3 513c b397 e8bc 4eda 68bd
00000070: bc9d a8bc 1885 6c3e 8e61 7bbe 9df3 94be
00000080: f6f0 873e 50aa 62bd c0fa 28bc 7ab3 1bbe
00000090: f24d 44bd 12f2 94bc dc35 d73c a0d6 683e
000000a0: 0056 223e 374c 9dbe 59b6 4d3d 2c9a cf3d
000000b0: 9179 983d 0801 14be 1fbc 1fbe 0eab ca3d
000000c0: 1977 083d 7495 5bbe 6fdf 123e 4a86 16be
000000d0: bd81 573d ea83 2a3d 399c ce3d 9d95 1bbe
000000e0: daeb 66bd f647 c73c 9ba1 68be b558 46bd
000000f0: 9e02 5d3e 9cdf 1dbe 5ade 01be 1d17 a5bd
00000100: 6f15 a8bd 4ed1 c3bc d656 08be 8aa4 ea3d
00000110: db62 2b3e 0ceb 91b9 976a 41bd 1f46 6ebe
00000120: 4210 29bd 7804 353d dc14 b23d cbc0 68bd
00000130: f19a 0d3d 079c 48bb 3b63 acbd adf0 b6bd
00000140: 2f05 95bd 2860 60bd e7a3 02bc b759 a2bd
00000150: 0f1d 2b3e 0aa5 a83d c167 cdbd 7d75 06bf
00000160: 1fbc 3a3e b2d4 44bd f0f8 cabd a622 ca3d
00000170: 28bc 4abe 3a6d 33be 8a20 00bd 071a 00bc
00000180: 9b61 dbbb 6aa1 b1be b231 9e3d 584f 17be
00000190: 6bb5 d6bc 6ea7 fc3d 97d2 1dbe 7461 a2bd
000001a0: b5c1 f6bd 7b13 d4bd 3807 21bd 5495 403e
000001b0: 07e2 443d f1db 9abd 8d69 f5bc a71c a43d
000001c0: 8da1 7d3e 37e4 93bd 0a2f e83b 41fc 933e
000001d0: e59d 49bd d908 013d 8115 b4be da1e 393e
000001e0: f4dc 463e e1e0 043e a696 4dbe b198 c7bd
000001f0: f4a0 bd3b c3f8 cd3d 1008 e03d f58f a93c
00000200: 0ec4 7b3d 7b46 763e 899f b43d c8ef 99bc
00000210: 18d1 cd3d ad1c 883e 9611 4b3e 984c bdbc
00000220: 67a9 fc3d 48b4 eabc 5891 b2bd 8646 993b
00000230: cbad 57be be88 a6bd 6eb8 993e 5e20 30be
00000240: 0394 61be 4661 323e 0a11 c93d f112 be3c
00000250: ceae 263c b9c5 3f3c 1c07 0e3e d7b7 7d3d
00000260: b48d 90bd 0707 f93c ac3d ad3d d3e6 273e
00000270: 6b54 bcbd e578 c83c 88b5 19bc 4eb8 8dbd
00000280: 799f 48be d017 13be 4502 2bbe 46ea 183d
00000290: 98e7 36be bc51 3d3e 4ac0 24be ad45 a0bd
000002a0: 51ef 673e 6890 c03e 4292 afbe 2a55 7cbe
000002b0: 4d05 a93e bdd5 d8bd daab 3cbc 2be3 41be
000002c0: f841 10be a115 3c3c c15e 08be 4e2c 353c
000002d0: 02cc 5c3c f30c 12be ee9b 1fbd 3fbb b83d
000002e0: 8f70 153c 945c 8ebd 0ca7 113e 6ef6 963c
000002f0: 3b51 d8bd 93b5 fabd cd42 0a3e bd1f 85bd
00000300: 31b6 713d 20dd 693d d5b8 92bb f2d2 d73a
00000310: 0aba e23e f5da e53d a1d9 79be 5d8d 12bd
00000320: 1ddc bbbc 555c 0f3e ef38 ff3d 7fcc 233e
00000330: 9875 eebd c91c 853e 9dc6 fb3d 4c4a 6cbd
00000340: d75d fdbd 3b6d a3bc f506 4b3e 1e74 473e
00000350: 7f3f 203d 3b49 2b3e 4213 eebd 9d33 1c3d
00000360: 457a ad3d 6f85 8f3d 5411 e4bd 2748 0f3d
00000370: a16a 5abd 11c7 5b3d cabc 2fbc 46a2 54bd
00000380: 2710 173d 3f7f df3d 556c 88be 7cc7 e4be
00000390: 2a14 1b3d a6b0 b2bc a7cd a8bd 7ecf f938
000003a0: 2fa7 15be 541d 91be 550e cbbd 18c9 b73d
000003b0: 4a6b 113e 2ff8 32be 86d5 f2bd a359 55be
000003c0: d532 39be 0833 993d 466b 20be b502 9b3d
000003d0: 73e0 003e c62f 3b3d 6a10 1c3e 3f01 4bbd
000003e0: dc28 56ba 6dce 923b 24e9 53bd 9e07 14bd
000003f0: cae5 ae3d 0e93 913e de07 40be c4b9 67be
0.24085137 0.4774096 -0.15853348 -0.31615943 -0.02585093 0.06291622 0.122587174 -0.14454007
-0.18581013 -0.12428485 -0.0008655355 -0.062175024 0.30935562 -0.33089486 0.07807681 0.15075329
-0.025599219 0.11767223 -0.13253428 0.11501578 -0.0028862127 -0.029425442 0.030176427 0.017485442
-0.0066827433 0.012810669 -0.028392648 -0.056848817 -0.020583026 0.23097646 -0.24548933 -0.29092112
0.26551026 -0.055338204 -0.01031369 -0.15205184 -0.047925897 -0.018181834 0.0262708 0.22738123
0.15853119 -0.3072221 0.05022273 0.10136828 0.07445062 -0.14453518 -0.15599106 0.09895907
0.033316705 -0.2144373 0.14343046 -0.14699665 0.052613962 0.04162971 0.10088391 -0.15193792
-0.05637727 0.024326306 -0.22717898 -0.04842444 0.2158303 -0.15417331 -0.12682477 -0.08061049
-0.08207213 -0.023903515 -0.13314375 0.114571646 0.16736929 -0.0002783168 -0.047220793 -0.23268937
-0.04127527 0.044193715 0.08695385 -0.056824487 0.03457159 -0.0030610578 -0.08417364 -0.08932624
-0.07276379 -0.0547792 -0.007973648 -0.07927268 0.16710304 0.08234604 -0.10029555 -0.5252302
0.18235825 -0.048054405 -0.09910762 0.0986989 -0.19798338 -0.17522135 -0.03128103 -0.007818705
-0.006694985 -0.34693462 0.077243224 -0.14776361 -0.026209554 0.12336622 -0.15412365 -0.07928744
-0.120486654 -0.10355278 -0.039313525 0.18806964 0.04806712 -0.07561482 -0.029957557 0.080132775
0.24768658 -0.07221263 0.0070856856 0.28903392 -0.049222846 0.03150258 -0.35172656 0.18078175
0.19420224 0.1297641 -0.20076999 -0.097459204 0.0057870094 0.10057213 0.10939038 0.020698527
0.06146627 0.24050324 0.088194914 -0.018791094 0.10049647 0.26584378 0.19830927 -0.023107812
0.123369984 -0.028650418 -0.08719128 0.0046775965 -0.2106239 -0.0813155 0.3002352 -0.17199847
-0.22029118 0.1741992 0.09817703 0.023202391 0.010173513 0.011704856 0.138699 0.0619429
-0.07058278 0.030398859 0.084590286 0.16396646 -0.09195789 0.02447171 -0.009381659 -0.06919919
-0.19592084 -0.14364552 -0.16700085 0.037332796 -0.17861784 0.1848821 -0.16088977 -0.078257896
0.22649886 0.37610173 -0.34291273 -0.24641863 0.33011857 -0.10587642 -0.011515582 -0.18934314
-0.14087665 0.011479766 -0.13317396 0.011057926 0.013476374 -0.14262752 -0.038967066 0.09020089
0.009121074 -0.069512516 0.1422388 0.018428054 -0.105623685 -0.12241664 0.13502045 -0.06500194
0.059011642 0.057095647 -0.0044776 0.0016466065 0.44282562 0.11223403 -0.24399425 -0.035779346
-0.022932107 0.14000066 0.12462031 0.15995978 -0.11643523 0.25998524 0.12293742 -0.057688043
-0.12371414 -0.019949546 0.19826873 0.19477889 0.039123055 0.16727154 -0.11624767 0.03813516
0.08470587 0.07007872 -0.111361176 0.03498092 -0.053324345 0.05365664 -0.010726163 -0.05191257
0.03688064 0.10912942 -0.2664515 -0.44683444 0.037861027 -0.021812748 -0.0824235 0.00011911894
-0.14614557 -0.28342688 -0.09914843 0.089739025 0.14201084 -0.17477487 -0.118571326 -0.20834975
-0.18085797 0.074804366 -0.15665922 0.07568876 0.1258562 0.045699857 0.15240636 -0.049561735
-0.00081695407 0.0044801743 -0.051736012 -0.036140077 0.085399225 0.28432506 -0.18753001 -0.22629458

l1.bias f4 [400]
00000000: 066c 04bd c873 3abe 02f6 a0bd b839 2c3e
00000010: 7bff 7e3e 3bc9 073d a89d 563d 646d 4a3e
00000020: 7780 3d3e 7ccc c83d 90a1 e93c 1a2a 423e
00000030: a17a c13d ef96 b93c 5d36 eebd 4ea1 2e3c
00000040: 5188 b9bd 56bf 1b3e 101b 97bd df24 84bc
00000050: 5106 1ebe a4f0 0bbd 587e 013e fda0 f63d
00000060: 18d2 693d ed0c d6bd 6153 473d ab86 393e
00000070: 5066 313d 2f90 8ebc dda6 73be 10cb 843e
00000080: c116 f13d 4465 00bd 1a39 b6bd 1486 68be
00000090: 4196 ef3d dfa8 d3bd a144 5a3e e977 2cbe
000000a0: 7ed9 013e 0a47 2abe 5109 a63c e72a e3bb
000000b0: b19c cd3d 143f 4b3d 2b5c b93d 1007 263e
000000c0: ab67 1e3e 4f77 f9bd da84 7e3e 770b babd
000000d0: 5dae e9bc fd98 393e baf9 21be 90cd 1f3e
000000e0: 2d1d 4c3d 79f1 2c3e 58c0 bbbc c931 8a3d
000000f0: 3cc1 83bd 2957 18be 8cf9 db3d 6922 31be
00000100: efaa 213d a9bc 8fbc 64cf 4c3c f632 e1bd
00000110: 7bd5 27be ff67 42be 798b 9d3d 8871 673e
00000120: 93f1 0ebd a276 283d ac13 d83d 4486 e4ba
00000130: f324 a0bd 29c8 753c c6b9 4cbb 9b23 42bd
00000140: 0545 643d c8aa 183e cfa7 733d e190 1a3e
00000150: ca04 cebd cc05 9d3d 8bd9 d73d 091f d5bc
00000160: f6c6 0cbd bdcc a43d cca0 cabc 6197 613e
00000170: 7f11 e6bd e320 1f3d 465a 04be a5e0 a43d
00000180: 6fa5 013e f148 b9bd eb07 5e3e 484f 083e
00000190: a14a 163c e6e6 683e ba5b 74bc e9e5 073d
000001a0: 9299 003e 2e8a 23be 1f04 a5bd a467 873d
000001b0: 80dd 4f3e 284f 733d bf07 8cbd d11e 87be
000001c0: 5d69 423e c57a 633c 6c03 40be c275 c53b
000001d0: db4f 4d3d e92b 113e 1f9e 2fbe 166c 4ebe
000001e0: b847 d2bd ac2f 3ebd 1277 653e 47ca 433d
000001f0: 6ba4 1f3e 3d6e 753e 3c13 b1ba 88a5 67be
00000200: 3850 363e 6722 fd3d 5aee 2d3e bcbe 513d
00000210: 7393 8cbd bb8e 0bbe ed63 233e 8ebc debc
00000220: 3796 e73b 69f9 76bd eddb 20bd 4f1c e53c
00000230: 1f38 333d c3f6 2e3e 63ff 443e 4518 3cbd
00000240: 4810 9a3d dd5b 483e daa6 0bbd c924 f23d
00000250: 8268 2bbe 0dec 493e 3ea1 0cbe 01b9 c63c
00000260: e62b 153e f7b1 953c d919 dfbd 2154 233d
00000270: 7f20 24bd 45b7 183e e171 203e 747c ae3c
00000280: c0f2 c93d 52ff ce3d a552 a03d e87d a33c
00000290: 2566 2fbd 8c3c 0dbc 8546 b2bd 4dde 7b3d
000002a0: 7495 c33d 67c3 02be d3cf 6c3d 4975 9d3d
000002b0: b040 853e 54d5 2abc a220 11bd b81a 7a3e
000002c0: 196a 9bbd 3ac9 e83c 7eb1 e7bc 339b 42be
000002d0: f682 d43d 0232 543e d6d9 7a3e 2fb0 543e
000002e0: 629f 803e 1794 193e 64c3 e8bd 6a79 a53d
000002f0: 81f4 2fbe d8f7 953d 8897 98bd fa8b 0d3e
00000300: 6bb1 f0bd 85e4 25bd 77fa 2cbe cc88 bfbd
00000310: 9de2 363c 1da8 26bb f621 29be 8425 ca3d
00000320: 24a6 3c3d f24e cbbd 1b8f 87bc 66ee 293e
00000330: 87c3 243e 0bda 09be 43e3 133d c228 403d
00000340: ca70 183e 674e eb3d 5bb9 37be 9f3c df3d
00000350: ccb3 c03c 3f08 b7bd b657 613e dfdb 023c
00000360: 1704 25bd eeb6 0dbe 4ec7 57bd bccb 52bd
00000370: c451 1cbb c57e b13c fe97 0d3e 841f 2abe
00000380: f123 f4bd 1486 3e3e 3991 363e f7ac 823d
00000390: 13bd a33d 26cd 4a3e 0bab 6cbd 6aba 053e
000003a0: af86 d0bd af83 163e 6e65 82bc b1e4 d5bc
000003b0: dc31 53bd 22d6 363e b6da 6b3c d52c ce3d
000003c0: fcc1 be3a 2d2c f23d c1d6 17be abf1 6c3b
000003d0: 82a0 c0bd 243a cbbd 0adb 103e 9fb3 a1bd
000003e0: 1de8 d43d 6edc d63d 8c20 3abb 17f8 66bd
000003f0: 1dae b7bd 35b5 b2bd 4b1b b7bd b09e 9abd
-0.03232958 -0.1820823 -0.07859422 0.16818893 0.24902146 0.033150893 0.052396446 0.19768292
0.18506037 0.09804627 0.028519422 0.18961373 0.09447218 0.022654979 -0.11631463 0.010658575
-0.090592034 0.15209708 -0.07378209 -0.016130863 -0.15432097 -0.03416504 0.12645853 0.12042425
0.057085127 -0.10451684 0.0486635 0.18117778 0.043310463 -0.017402736 -0.23794122 0.25936174
0.11771918 -0.031346574 -0.0889761 -0.22707397 0.116985805 -0.10334944 0.21315242 -0.16842617
0.12680623 -0.16628662 0.020268114 -0.0069326046 0.10039652 0.049620703 0.09050783 0.16213632
0.15469234 -0.121809594 0.24855366 -0.09084218 -0.028525526 0.18124767 -0.1581792 0.1560576
0.04983251 0.1688899 -0.022918865 0.06747777 -0.06433341 -0.14876999 0.10740957 -0.17298283
0.039469656 -0.017546015 0.012500618 -0.10996048 -0.1639003 -0.18984984 0.07692618 0.22601902
-0.034898352 0.041128762 0.10550627 -0.0017435034 -0.078195475 0.015001335 -0.003123866 -0.047397237
0.055729885 0.14908898 0.059486207 0.1509433 -0.10059507 0.07667121 0.1053954 -0.026015775
-0.03436943 0.08046863 -0.024734877 0.22030403 -0.11233806 0.038849723 -0.12925062 0.0805066
0.12660764 -0.090471156 0.21682708 0.13311493 0.009173066 0.22744331 -0.014914447 0.033178244
0.12558582 -0.1597068 -0.08057427 0.06611565 0.2029934 0.05940166 -0.06837415 -0.263907
0.18985505 0.013884251 -0.18751305 0.0060260007 0.050124984 0.14176907 -0.17150162 -0.20158419
-0.102675855 -0.046432182 0.22408703 0.04780033 0.15590064 0.23967834 -0.0013509761 -0.22621739
0.17804039 0.12360077 0.16985455 0.05120729 -0.06864061 -0.13628666 0.15956087 -0.02718952
0.0070674676 -0.06029645 -0.039272238 0.0279676 0.043754693 0.1708632 0.19238047 -0.045921583
0.07522637 0.19566293 -0.03409467 0.118234225 -0.16739085 0.19718952 -0.13733384 0.024258139
0.14567527 0.018273337 -0.10893602 0.039875153 -0.040070053 0.14913662 0.15668441 0.021299578
0.09860754 0.10107292 0.07828263 0.019957498 -0.042822022 -0.0086203925 -0.08704857 0.0614913
0.0954999 -0.12769853 0.057815384 0.07688386 0.26025915 -0.010426838 -0.03543151 0.24424255
-0.07588596 0.028416265 -0.028282877 -0.19004516 0.10376541 0.20722201 0.2449716 0.20770334
0.251216 0.14997898 -0.11365393 0.080797985 -0.17183115 0.07322663 -0.07450777 0.13822928
-0.1175259 -0.040501136 -0.1689242 -0.09352264 0.011162427 -0.0025429793 -0.16516861 0.09870437
0.04605688 -0.09927167 -0.01654773 0.16594848 0.16090213 -0.13462083 0.036105406 0.04691387
0.14886776 0.114895634 -0.17941801 0.109002344 0.023523234 -0.0893712 0.22006115 0.007986992
-0.040287104 -0.13839313 -0.052680306 -0.051463827 -0.0023852447 0.021666894 0.13827512 -0.16613585
-0.11920918 0.18605834 0.17828836 0.06380647 0.079950474 0.1980482 -0.057780307 0.13059393
-0.10181939 0.14698671 -0.015917506 -0.026110025 -0.05156122 0.17855123 0.0143954065 0.10067145
0.0014553661 0.11824832 -0.14828016 0.0036154788 -0.094056144 -0.09923199 0.14146057 -0.07895588
0.103958346 0.104912624 -0.0028400747 -0.05638894 -0.08968756 -0.08725969 -0.089407526 -0.075497985

l2.weight f4 [300, 400]
00000000: 1af8 283c 3ea2 023d 4afc f43a 72bf a8bb
00000010: 050f cb3c 3d9b 30bd cb06 a4bc 8b65 72bc
00000020: 0916 47bd 4383 9e3b ed48 333b 5640 92bc
00000030: 977b a5bc b468 2c3c 98a6 8e3b 7cce fa38
00000040: 8acc 92bc ffe6 b8bb 81de de3c e04b 113d
00000050: 15e7 5bbc 9fdc 54bc 69e5 0d3d c1a1 073d
00000060: a7b8 34bd df98 55bc 62f8 c1bb 9d8e cbbb
00000070: 9639 9c3c ca46 823c 92de 3cbd 421f 42bd
00000080: d191 fcbc 8326 013d 9fce 1b3c 00d0 d33a
00000090: e2ae 13ba a610 93bd 1f22 5bbd 9f91 103d
000000a0: cf9e 29bd db93 353d ca46 f3bc 735e 203d
000000b0: e4c8 25bd 8763 9bbc b1ef 823c 1fd0 b2bc
000000c0: b333 44bd 55dc b13c 01b2 34bd 833a a1bc
000000d0: 3214 0cbd 51c1 7a3c 8089 9ebc 36e7 9fbc
000000e0: f260 26bc 1d03 843c c6f5 a13b 34ae 98bc
000000f0: 1ae4 d63b 9a85 ea3c ed4f 233d 5cb0 66bc
00000100: 3511 b7bc b317 ebbc f4c1 d0bc 3dd7 053d
00000110: 0e7f 5e3b 40f0 ae3b a4ad 09bd fc8e b0bc
00000120: b3a8 103c 82a9 3fbc 8dfb 023d ec92 0d3c
00000130: 99e2 d53b d4d6 143d d98d 39bd a802 40bc
00000140: f874 b23c 006e dbbc a08c 473b b0c4 1fbb
00000150: 1a98 00bd b363 ebbc 9979 f4bc efaf 483c
00000160: bd53 4b3d 3ddb 0bbc 28c5 833c 9835 b6bb
00000170: e728 fbbc 086a 2c3d a379 dbbc 5fe3 2f3d
00000180: e2cd 1fbd f935 df3c e241 a33c 66a8 9dbc
00000190: 3d6f 4cbd 0d30 2abc 5b2c 01bd e8e9 cd3b
000001a0: 4995 6a3c 65de 2dbd 44e3 0ebd c885 59bc
000001b0: 46cf 1ebc 6ae7 2fbd 6d1a 153c 9be6 28bd
000001c0: 4aba 14bd b2d4 9b3c 4c41 643c 4ba2 48bd
000001d0: afaf 56bd 12dd 35bc 901e 78bd f985 0c3d
000001e0: 125b d8bb 4bb1 233c 1e7f c53c c3a7 983c
000001f0: 7ada c03c 1156 4dbc d82b d4bb 6b01 bebc
00000200: 4e73 2cbd 1584 28bd af57 983c 3618 c93c
00000210: e521 e2bb 30c4 4bbd b752 633c 0e97 35bd
00000220: 5c96 1dbd f026 0f3d a329 833a 132c d5bc
00000230: 59e7 f13c 48c0 b4bc 4497 c73c 38ff 3ebd
00000240: 1153 0dbd d2f6 463c d490 2f3d 63b2 edbc
00000250: 92f8 053c d928 e0bc 9fb9 353d 7368 d03c
00000260: 936f 70bc cdb6 383d 1c6d e3bc e8af 06bb
00000270: 2fc2 29bd 0412 193d 4b87 f73b cdef a43c
00000280: 65c0 f23c 6520 09bd 88a8 3bbd 5d15 c33c
00000290: 4756 3b3b d511 abbb f079 363c 42be 043d
000002a0: 1b74 2dbd e627 a33c d167 b6bb f03c fb3b
000002b0: 77e3 9dbc 3706 85bc 0772 363c 3d94 2e3d
000002c0: 017a 193d 021a 1bbd d05a b6bb cd80 9239
000002d0: fa3f d7bc 7170 25bc cdcf 20bd f41e 44bd
000002e0: cedb bf3c 7cc4 1d3d d7af 26bd dbdd 7ebd
000002f0: 56a0 e83c faa5 ba3c 68f9 cfbc e8ca 583d
00000300: 5cab 0d3d 8813 883c 0e38 d33c 30a4 433c
00000310: 5343 0bbc 42d7 a4bb e921 9b3c 9dd3 14bd
00000320: edfa 813c 6d6b 1f3d 20d3 63bc 0446 37bc
00000330: 594a adba 2e8a f4bc 2c70 92bc 2bfa c8bc
00000340: b61d 82bd 0550 90bc b9bb 153d bace 7d3c
00000350: e8c5 44bd 5905 913b d28b 973c 6898 6e3c
00000360: 038d 123b 32a8 f83c 1a01 afbc e7a4 953c
00000370: 8c4f 353c d7eb afbc f6fe b93c 7b52 eb3c
00000380: 3b58 f33c c917 dabc a8ed b03b dc4b b63c
00000390: 8d26 c53c f771 623c e2bd 983c 49f9 24bd
000003a0: d958 3b3d 0eaf f6bb 38eb 2bbc e2f8 093d
000003b0: d795 49bc cb9a cdb9 a8de 50ba e0b0 8bbc
000003c0: 2626 813c f25a 3f3c 29cb 443d 20d6 16bb
000003d0: 3a48 42bd e022 093b ed48 40bd a07f 0e3d
000003e0: d601 2dbd a0f7 c5bc 499e 98bc 48a4 4cbd
000003f0: e0b2 3b3d f2d5 8b3c 252f 563b a055 e2ba
0.010313058 0.031893007 0.0018690911 -0.005149775 0.024787435 -0.043116797 -0.02002277 -0.014794718
-0.048605 0.004837425 0.00273567 -0.017852943 -0.020200534 0.01052301 0.0043533556 0.0001195939
-0.017919797 -0.0056427713 0.027205708 0.03547275 -0.0134217935 -0.012992053 0.03464261 0.033113245
-0.04412141 -0.013036936 -0.005919502 -0.006212069 0.019070428 0.015902895 -0.046110697 -0.04739309
-0.03083125 0.03153087 0.0095097115 0.0016160011 -0.00056336646 -0.0718091 -0.053499337 0.035295125
-0.041411217 0.04433046 -0.02969684 0.039152574 -0.040474787 -0.018968357 0.015983434 -0.021827755
-0.047900867 0.021711508 -0.04411507 -0.01968122 -0.034198947 0.015304879 -0.019352674 -0.01951943
-0.0101549495 0.016114766 0.0049426286 -0.018637754 0.0065579535 0.02862816 0.039871145 -0.014080133
-0.022347072 -0.028697824 -0.025483109 0.03267597 0.0033950242 0.0053386986 -0.033612862 -0.021552555
0.0088292835 -0.011698129 0.03197818 0.008640986 0.0065272567 0.03633769 -0.045301292 -0.011719383
0.02178429 -0.02678585 0.003044881 -0.002437871 -0.031395055 -0.028734064 -0.029843139 0.012248977
0.049640406 -0.008536157 0.016085222 -0.005560588 -0.030659152 0.042093307 -0.0267914 0.042941447
-0.039014705 0.027247416 0.019928876 -0.019245338 -0.049910773 -0.010387433 -0.03153644 0.0062839873
0.014317819 -0.04244842 -0.034884706 -0.013276525 -0.0096929725 -0.042945303 0.009100539 -0.041235548
-0.03631047 0.01902232 0.013931584 -0.0489829 -0.05241364 -0.011100071 -0.06057602 0.034307454
-0.0066026533 0.009991 0.024108466 0.018634683 0.023541678 -0.012532727 -0.006474953 -0.023194036
-0.04210215 -0.04114159 0.018596498 0.024547677 -0.006901013 -0.049747646 0.013874701 -0.04433351
-0.038473472 0.034949243 0.0010006916 -0.026021993 0.02952926 -0.022064343 0.024364121 -0.046630114
-0.034503046 0.0121438075 0.04286273 -0.029015725 0.00817694 -0.027363228 0.044366475 0.02544043
-0.014675039 0.045096207 -0.027761988 -0.0020551626 -0.041444954 0.037370697 0.00755397 0.020133877
0.029632756 -0.03347816 -0.04581502 0.023813898 0.002858536 -0.0052206316 0.011137471 0.032408006
-0.042347055 0.019916486 -0.005566575 0.0076671764 -0.019273503 -0.016238315 0.011135585 0.04262184
0.037469868 -0.0378666 -0.005565025 0.00027943254 -0.026275624 -0.010097609 -0.039260674 -0.04788108
0.02342024 0.03851746 -0.040695038 -0.062223297 0.028396767 0.022784222 -0.02538748 0.05292788
0.03458725 0.016610876 0.025783565 0.011941001 -0.008499938 -0.0050305435 0.018937068 -0.036334623
0.015866721 0.03892081 -0.013905317 -0.011186127 -0.001322101 -0.029851045 -0.017875753 -0.024533352
-0.06353323 -0.017616281 0.03655598 0.015491182 -0.0480403 0.0044256863 0.018499289 0.014562704
0.0022361882 0.03035364 -0.02136283 0.018267108 0.011066329 -0.021474762 0.022704583 0.028725853
0.029705158 -0.02662267 0.0053994246 0.02225297 0.024066234 0.013821117 0.01864523 -0.0402768
0.04573903 -0.0075281924 -0.010493092 0.03368462 -0.012303791 -0.00039215977 -0.00079677487 -0.017052114
0.01576526 0.011679398 0.04804531 -0.0023015812 -0.047432162 0.0020925328 -0.046944547 0.03478968
-0.04223808 -0.024165928 -0.018630164 -0.04996136 0.045824885 0.01706979 0.003268191 -0.001726795

l2.bias f4 [300]
00000000: 2689 54bc 47f2 303d 9e73 e83c ac21 82bd
00000010: 2b4e 6e3a 32a9 183d 44d3 3abd 3393 d0bb
00000020: 06ed 0bbc ddd8 de3d c87e ed3d edf0 aa3d
00000030: 0566 a43d 69f1 f1bb bc7b 1cbd 3ae1 c2bc
00000040: 0c15 9a3d 848a 233d a628 393d 2aab 013e
00000050: 5f70 83bd 8bf4 d03d 8076 4f3d ec7c 3dbd
00000060: 4119 33bd 8cd6 e13c 3e6a 4f3b ab46 5e3d
00000070: 14bc a2bd bcf1 293d 72e0 b03c aab8 3ebc
00000080: 093e 77bc 1ef4 bbbd 7faa 4bbc 48fd 943c
00000090: ee4b d03d 1103 963c e540 0d3e 8182 e23d
000000a0: 06ea 883a 6849 323d 5917 20bb 6f66 843c
000000b0: 0e4e d63c aa68 7c3c 01df 47bd 5a36 6cbd
000000c0: 8379 063c 212d b93d 9ada 79bc 7409 803d
000000d0: 6dc3 093e d8fa f03d 6826 2bbd b077 93bc
000000e0: 7531 913d 2516 6f3d 3386 50bb ff12 1d3e
000000f0: 6e12 003d c9ac 72bd be86 983c b706 603d
00000100: 073a 7cbb 4019 e53d 1d7e a5bc 2e44 0dbd
00000110: ddf5 8b3c e5c0 913d d0c1 6fbd 238d 0ebd
00000120: 300f 623d 5e66 963d 64bb 5ebb 2383 4c3d
00000130: 5a7f 28bd b5dd 26bc 4d56 12be 4886 11bd
00000140: 3bee 5d3c 02f7 9ebd 7075 cc3c 444f c33b
00000150: 7f07 083e 8282 903d 495d 2dbd dfbc 933d
00000160: 0f83 b73b f6c7 09be 380e d93d 2af8 53bd
00000170: 94f3 28bc dedc 663b 120a e93d 7cf8 e93d
00000180: 1141 143e f880 683d 432a 733d d8d1 e0bb
00000190: b15a e03d f2b0 9a3d 2c33 b53c 53b9 dc3d
000001a0: cad3 923d 5e7a d2bc c360 0ebd a28a a33d
000001b0: 4246 d73c b1e6 6c3e fdd9 01bc e0ad acbc
000001c0: b505 563d 11ce 063c 86d5 973c c3e2 d3bc
000001d0: 095f 4d3b 2749 0ebd 5eab d8bc 9cca b03d
000001e0: 993e 08bd c95f 59bd 0643 8c3c c06b 6b3d
000001f0: 3232 6fbd c76c 793e 7b7b 74bc b95a 3bbd
00000200: 5d25 e1bc 646f 0f3e cc44 62bd a49a 4b3c
00000210: 8605 27bc 98ea 0e3e 80dc 0fbd 3477 eb3d
00000220: 55bc d93b 5283 abbc 021f e13d 3734 383c
00000230: f977 9abc 2572 843d 2f6e 913d e70f cebc
00000240: 528f 80bd df1e a23d 201d f4bb f683 df3d
00000250: 3b9a 97bc 07c9 c73d de5e 9c3d 896a 8abc
00000260: a01f 02bb 93de f93d acde d93d e110 a43d
00000270: d922 403c 9efe 093d 929d d23c 6e10 1fbd
00000280: 469d 423d 7b15 8f3b 6048 8abd b654 37bc
00000290: 444c 24bd 8cc5 f33c 82c2 923a 297c 6abd
000002a0: dd6c 003e 928d 073e 9320 0c3e 7f70 7c3d
000002b0: ec87 ac3d ccce 2e3c 71ad a0bc fd01 103e
000002c0: d8ee 2ebd 81d8 143e d7cc 55bd 0d2e 5abd
000002d0: 32d1 6d3d c333 d53d f422 8c3d 688a 333d
000002e0: 4c3d 263d 7518 373d e389 563e 05b6 3f3d
000002f0: 372f fabc e5c0 fe3d 23a5 72bd 6bbf 83bc
00000300: d2aa e83d 920e 19be 920a 3ebd 0d8f 503d
00000310: 5982 9e3d a762 923c 2f9f fc3b 1db8 b1bc
00000320: 20d4 81bd 380b 10bd f5b2 273d 025f 75bc
00000330: 8d69 e93d 68be 183e 6828 a5bc 7fb7 c13d
00000340: 2b33 183d 5be0 af3d a34a 153c 0c7a 393d
00000350: 9c0b 01bd 5a16 c33d 13e2 0c3d 1351 4abd
00000360: e6e7 1a3c a9ff 553d 0b40 0fbc 6b78 f33c
00000370: 3bc5 9bbd e6af 0c3d 068f cb3d ca8d 57bd
00000380: 9ff3 afbb 9e7a d03d d91c e3bc 6210 4fbd
00000390: f337 46bc 9ecd 9e3d 9e7b 88bc 4c77 e53d
000003a0: 7be9 e4bb 4c18 aa3d 25ed 193d bff6 453a
000003b0: b4df 23bc 6839 2fbc ba07 af3c b39f 33bd
000003c0: ba9d b53c df5d 053e 37f3 d43c 09c0 973c
000003d0: 7a2a dcba 4d9f 45bd 511a 863b ab79 8bbd
000003e0: bbcb 0d3e 916c 0abd d8cc 583c 62d2 b23d
000003f0: 517a aa3d a19e e2bc 8060 043e b512 bc3d
-0.012972152 0.043199804 0.028375443 -0.06354079 0.00090906274 0.037270732 -0.045611635 -0.0063652038
-0.0085403975 0.10881207 0.11596447 0.08346734 0.08027271 -0.0073835147 -0.03820394 -0.023789037
0.075235456 0.03992702 0.04520478 0.1266295 -0.064179175 0.10202893 0.05065012 -0.046261713
-0.043725256 0.027568124 0.0031649019 0.054266613 -0.07946029 0.0414903 0.021591399 -0.011640707
-0.015090474 -0.09177421 -0.012430786 0.01818718 0.101707324 0.018312009 0.13794287 0.11060048
0.0010445721 0.043527037 -0.0024427979 0.016162125 0.026160266 0.015405813 -0.048796657 -0.05766902
0.008207682 0.09041811 -0.015249873 0.06251803 0.13453455 0.11766595 -0.041784674 -0.018001407
0.07089511 0.058370728 -0.003181827 0.15339278 0.031267576 -0.059246812 0.018618938 0.054693904
-0.0038486735 0.11186457 -0.020201737 -0.03448885 0.01708501 0.0711687 -0.058534443 -0.034802567
0.055190265 0.07343744 -0.0033986205 0.04992975 -0.041137077 -0.010184695 -0.14290734 -0.03552845
0.013545568 -0.07761957 0.024958342 0.005960377 0.1328411 0.070561424 -0.04232529 0.07213759
0.00560034 -0.13455185 0.10598415 -0.05175034 -0.01031198 0.0035226862 0.11378874 0.11424348
0.14477946 0.05676362 0.059366476 -0.006860953 0.10954798 0.07553281 0.022119127 0.10777535
0.07169302 -0.025693115 -0.034760248 0.079854265 0.026278619 0.23134877 -0.007925508 -0.021079004
0.052251536 0.008227841 0.018534433 -0.025864964 0.0031337163 -0.034737732 -0.026448902 0.08632395
-0.033262823 -0.053069863 0.017121803 0.057475805 -0.05839748 0.24357902 -0.014922018 -0.045740817
-0.027483637 0.14007336 -0.05524139 0.012427006 -0.010194188 0.13956678 -0.035122395 0.114973456
0.0066447654 -0.020936642 0.109922424 0.011242918 -0.018856036 0.06467084 0.07101094 -0.025154067
-0.06277336 0.079160444 -0.007449761 0.109138414 -0.01850616 0.0975514 0.07635282 -0.016896503
-0.0019855276 0.12200656 0.106381744 0.08011032 0.011727058 0.033690087 0.025709901 -0.038834028
0.04751327 0.0043665743 -0.06752086 -0.01118963 -0.040111795 0.029757284 0.0011196884 -0.057247315
0.12541528 0.13237599 0.13684301 0.061630722 0.084243625 0.010669421 -0.019613953 0.14063258
-0.042708248 0.14535715 -0.052197304 -0.053266574 0.058060832 0.104102634 0.06842604 0.043833166
0.0405858 0.04470106 0.20951037 0.046804447 -0.030540092 0.124391355 -0.059239518 -0.016082486
0.113607064 -0.14946964 -0.0463968 0.050917674 0.077397056 0.017869307 0.007709406 -0.021694237
-0.06339288 -0.03516695 0.04094215 -0.014976265 0.11397085 0.14916384 -0.020160869 0.09458827
0.037158173 0.08587714 0.009112033 0.04528241 -0.031505212 0.095257476 0.03439529 -0.049393725
0.009454703 0.05224577 -0.008743296 0.029720506 -0.07605978 0.034347437 0.09939389 -0.052625455
-0.005369618 0.10179637 -0.027723717 -0.050552733 -0.0120983 0.07754062 -0.016660508 0.11204395
-0.006985841 0.083054155 0.037579674 0.00075517216 -0.010002065 -0.010694839 0.021365989 -0.043853473
0.022169936 0.1302409 0.02599488 0.018524187 -0.0016797327 -0.048247624 0.0040924926 -0.06810316
0.13847248 -0.033794943 0.013232432 0.087315336 0.08324111 -0.02766353 0.12927437 0.091832556

l3.weight f4 [1, 300]
00000000: 3bec 8d3b 13c1 a6bd dbca 823a 0130 893c
00000010: bb33 f43c a7b9 913d 347a 223d 7ee7 0eb9
00000020: 0775 6d3c 2ea1 16be a5c2 cabd 6b54 1ebe
00000030: bacf 1bbe 4a72 fd3c ab36 013d 99ac 413d
00000040: 3f38 6ebd 6c04 1bbe 06f9 11be 4252 86be
00000050: cb3f b93c 80f7 cc3d 19b6 56bd 80d5 033d
00000060: 7025 b33c 5820 26be 210b b03c 36bd ddbd
00000070: 0a80 493b f2a7 28be d96f 05be 60ae 933c
00000080: aaad a53b ea4c 14bc 9608 34bd 9a32 b539
00000090: 6fae d2bd 681f 05be 77db a7bd 8764 d2bd
000000a0: 9679 adba f109 adbc 936e 0c3c acc2 973c
000000b0: 8b30 c83c 3361 b5ba f2cb 0a3c 29ea d6bb
000000c0: 849f 17bb a440 13be 5158 e23c 876f 11be
000000d0: 3bae a4bd 1979 10be e222 4e3d 5424 f8bc
000000e0: 0eb3 08be c9a4 04be d0cf 1e3c dd61 73be
000000f0: 2de0 14be ecd1 f63b 5e37 983c ea3d 35be
00000100: 431a 41be c92a a5bd f459 673d 9035 5b3b
00000110: 33eb 8f3b c527 f5bd 3490 2abd 0cc6 623c
00000120: 2977 bdbd ffcb a2bd e3b9 09bd 5049 0cbe
00000130: a872 ea3b 3377 053c c6e4 663e e9f4 6a3c
00000140: 3d26 fb3d 0774 a23d 16b6 b53c ff68 453b
00000150: 4e7b d5bd 977a 19be f3e3 50bc 3269 ddbd
00000160: abb2 0ebe 4ee6 afbd 4fd5 24be 3454 563c
00000170: ef1d 05bc 404f 013d 3f89 24be 883c f0bd
00000180: 61b1 063e c4ef 1abe 9ab8 16be c305 10bd
00000190: 7d62 ffbd d80e f8bd 108b 25be c70a 18be
000001a0: e002 05be 4f5a 96b9 1573 24be fb99 18be
000001b0: 08e5 00be dfa3 5cbe 334b 02be ca7d 3d3b
000001c0: e0dc e6bd 565b 313d c4e1 8cbb 16e5 21be
000001d0: 56e3 89bb 2df3 f03b 4cba d4bb 319e 23be
000001e0: d06c 903c af68 ecbc d92a 1abe 15aa 1fbe
000001f0: a36e 033c 9816 2fbe f7e0 813c d588 123d
00000200: 9d92 f4ba 77b4 c2bd 57e6 cc3c 68f4 763c
00000210: 9190 ed3c 5857 40be dbe9 123d 642d 9ebd
00000220: 9f7a 063d 8bf9 e63c 20bd 0ebe b5db 233d
00000230: 3cab 2e3d bc85 f53d ca5b f2bd e929 123c
00000240: f5ab e1bb 46bf 1abe a8c6 febc 9883 c4bd
00000250: 65e2 2dbc 06b5 bcbd afe2 1ebe aa8c 2e3d
00000260: 357c a43c cd5d 81be 5589 dabd 2e45 e0bd
00000270: e55d 633c 98a4 0bbe 462a d6bb 4349 223d
00000280: 6547 16be 0cb6 6c3d 9974 713c 5633 8a3c
00000290: ccbc c5bb 81c2 f7bd e337 23be 8bbe 193d
000002a0: c3a8 ebbd d0c6 8bbd 5b43 c0bd 70c8 eabd
000002b0: dcbd 02be 1959 0d3c ac33 403c 1574 71bd
000002c0: c168 c33a d499 a6bd 074e 31bd 1a0a 433b
000002d0: 95d7 22be fa48 0bbe 3b13 24be 335e ae3d
000002e0: c78f 01be fabe 26be f857 20be e401 29be
000002f0: 8b65 203b 2b59 82bd e55e 90bc a68d 023d
00000300: 2e70 fcbd 70ab 293e 4484 063c 1c0d c3bd
00000310: 5d8c c4bd 445e 2c3d b5c6 6bbb 9161 07bc
00000320: 9df1 b6bb 868b 153d df20 10be 3f75 d03c
00000330: 250a 25be 1e9f a3bd c132 a0bc 1d77 08be
00000340: 713b 323c f515 cebd 437f 403b a79a 1cbe
00000350: 5e9f a23c e2a0 03be 0557 c73d 1ad5 a73a
00000360: 5d6a 183d 3954 31bd 9d28 fa3c 758d 1ebe
00000370: 4e22 c8bb 0c1b f83d bea9 9bbd 8638 21be
00000380: ec97 f3b8 a454 0fbe 6b92 d6bb 6c9d f8bb
00000390: dfbb 1a3c 32ab 1ebe e7ef 12be 8bad 17be
000003a0: 414d 41bd d201 c3bd ba88 d2bd 6eec ee3c
000003b0: 08c3 b43c 5a77 fa3b d7f7 07be a614 0e3c
000003c0: 887c db3b 38dc f6bd 2d51 0dbe 3569 8e3c
000003d0: 0bf5 3c3c 685f 3f3c 3ac0 2b3c 3f1d 15be
000003e0: d326 c5bd 17ea bd3c f0ea c63c 902b 01be
000003f0: da2f 23be 7b07 90bc 918c acbd c1d0 e2bd
0.0043311394 -0.08142295 0.0009978669 0.016746523 0.029809823 0.071154885 0.039667323 -0.00013628413
0.0144932335 -0.14709923 -0.09900407 -0.1546189 -0.1521596 0.030938286 0.031546276 0.047283743
-0.05815911 -0.15138406 -0.14255151 -0.26234633 0.022613427 0.100081444 -0.052419756 0.03218603
0.021868438 -0.16223276 0.021489682 -0.10827105 0.0030746483 -0.16470316 -0.13030948 0.018027484
0.0050561028 -0.009051541 -0.0439535 0.0003456071 -0.10287177 -0.13000262 -0.081961565 -0.1027308
-0.0013235088 -0.021122904 0.008571285 0.018525444 0.02443721 -0.0013838172 0.008471476 -0.006558676
-0.002313585 -0.14380127 0.027630003 -0.142027 -0.08041044 -0.14108695 0.050326236 -0.03029076
-0.13349554 -0.12953486 0.009693101 -0.237678 -0.14538641 0.007532349 0.018581089 -0.176994
-0.18857674 -0.08064801 0.05648227 0.0033448674 0.0043920516 -0.11970476 -0.04164143 0.013841163
-0.092512436 -0.079490654 -0.03362454 -0.13699841 0.0071547814 0.008146095 0.22548208 0.014340618
0.12263153 0.07932287 0.022181552 0.0030122397 -0.10423909 -0.1498817 -0.01274966 -0.1081108
-0.13935344 -0.08588849 -0.16096996 0.013081599 -0.0081248125 0.03156972 -0.1606798 -0.117302954
0.13153602 -0.15130526 -0.14718857 -0.035161745 -0.12469957 -0.12112206 -0.1616633 -0.14847861
-0.12989378 -0.00028677515 -0.16059525 -0.14902489 -0.12587368 -0.21546887 -0.12723999 0.0028914087
-0.11272597 0.043299995 -0.0042993743 -0.15810046 -0.0042080088 0.0073532076 -0.006491935 -0.15978314
0.01763001 -0.02885851 -0.15055408 -0.15592225 0.008021983 -0.17098463 0.015854342 0.035775024
-0.0018659417 -0.09507077 0.025012178 0.015072919 0.028999599 -0.18783319 0.035867553 -0.07723501
0.032831784 0.028195163 -0.13939333 0.04000445 0.04264377 0.119883984 -0.118339136 0.008921125
-0.006886954 -0.15112028 -0.031100586 -0.09595412 -0.010613059 -0.09214215 -0.1551616 0.042614616
0.020078758 -0.25266877 -0.10670725 -0.10950695 0.013877367 -0.13637006 -0.006535801 0.03962065
-0.14675672 0.0577908 0.014737272 0.016870182 -0.006034469 -0.120976456 -0.15939288 0.03753523
-0.11506798 -0.0682503 -0.09387847 -0.11464012 -0.12767738 0.0086272 0.01173107 -0.058948595
0.0014908538 -0.08134809 -0.043287303 0.002976066 -0.1590255 -0.13602057 -0.16022961 0.08514061
-0.12652503 -0.1628379 -0.15658557 -0.16504627 0.0024474587 -0.06364664 -0.017623374 0.031873368
-0.12326084 0.16569304 0.0082102455 -0.09523985 -0.09597085 0.042082086 -0.0035976593 -0.008263008
-0.0055830018 0.036510013 -0.1407504 0.025446532 -0.16117151 -0.079893336 -0.019555451 -0.13326688
0.01087843 -0.10062782 0.002937273 -0.1529337 0.019851383 -0.1285434 0.097333945 0.0012804598
0.03721081 -0.04329321 0.030536944 -0.15483649 -0.006107605 0.12114534 -0.07600735 -0.15744218
-0.000116154406 -0.13997132 -0.006548216 -0.0075871255 0.009444206 -0.15494993 -0.14349328 -0.14812295
-0.047192816 -0.095218316 -0.10279985 0.029165473 0.022065654 0.0076436223 -0.13278137 0.008671915
0.006698195 -0.12053722 -0.13800497 0.017384151 0.011533032 0.0116804615 0.010482842 -0.14561938
-0.09626546 0.023182912 0.024281949 -0.12614274 -0.15936223 -0.017581692 -0.084252484 -0.11074973
