TD3/models/second_training_attempt/train_200_episodes_actor.pth (torch, 528299 bytes, 6 tensors)

l1.weight f4 [400, 24]
0.1925685 0.03676685 -0.29706693 0.054208316 0.04305529 0.026548363 -0.27984074 0.035372064
-0.12321896 0.076355085 0.15279101 0.4067464 0.116508566 0.15650538 0.045322627 -0.043001015
0.08348081 -0.007299805 -0.16442083 -0.0094074 -0.08613274 -0.10532221 0.019882372 -0.0008513492
-0.09609191 0.20771302 -0.19655584 0.08193584 -0.2060302 0.1327834 0.10833299 -0.110023685
-0.14316122 -0.00537769 -0.044917297 0.13099067 0.25711963 -0.024687557 -0.21115659 -0.0902193
-0.09801642 -0.20245065 -0.1368429 -0.07689716 0.08845752 -0.05956147 0.07104736 -0.19375426
0.0041531813 0.0025247005 -0.28037146 0.19654943 -0.103003435 -0.20447 -0.12347413 -0.02811683
0.014117658 -0.058909032 0.036011983 0.12522149 0.20811667 -0.11229803 0.02571605 -0.13844374
-0.07735902 -0.2250919 -0.13970298 -0.046005666 0.016715778 -0.2469221 -0.01731331 -0.11904838
-0.13792926 -0.06602241 0.16307783 0.188865 0.14252733 0.014059519 0.09405954 -0.08142836
-0.110773675 -0.23671918 0.22118655 0.0936495 0.13321301 -0.20987023 0.0014750629 0.05200329
-0.26427656 -0.2591315 -0.21880521 -0.20930156 0.033344645 0.066276446 -0.018840682 -0.23618719
0.10565512 0.12217809 0.016781472 0.05358798 -0.12911782 0.17153803 -0.03188721 0.053630367
0.057533696 0.08425519 0.021337505 -0.116224706 -0.13879214 0.10113511 -0.004079421 -0.19775824
-0.05254146 -0.15765853 -0.05231521 0.12549698 -0.13460052 -0.05370804 -0.109857015 0.00024547623
0.21637082 -0.045908697 -0.2835756 -0.056759894 0.23609138 -0.15995921 -0.136592 0.0071404553
0.04611732 0.20777258 0.105972484 -0.059093326 0.04829759 0.04091095 -0.0396212 0.14849384
0.18178955 -0.13420117 -0.117755845 0.055630255 -0.14308369 -0.0053395373 0.18870407 -0.1863502
0.16018097 -0.07771168 -0.20336333 -0.048577726 -0.030212345 -0.09026255 -0.0010413447 -0.120020464
0.115033284 0.15915826 0.12673053 0.1712044 -0.12318205 -0.1304889 -0.20314068 -0.10539282
-0.043455597 -0.067991056 0.15766586 0.14184089 0.07950339 -0.005064775 -0.01653083 -0.17117356
-0.1386578 -0.13305047 -0.054089617 -0.16918822 0.011571019 0.24587701 0.10217262 0.09697826
0.114174366 -0.060297206 0.13167062 0.03990428 -0.092601836 -0.0017500699 -0.0419033 0.12933661
-0.058248267 0.06850976 -0.14971344 0.15222128 0.093558066 -0.025078423 -0.13314955 -0.11924099
-0.060203407 -0.040487826 -0.15336525 -0.06367078 -0.09817445 0.16833307 0.25930634 0.077822596
0.22732772 0.10436269 0.08926563 -0.26053095 0.015609731 0.09826286 -0.033685427 -0.056469053
0.13994935 -0.11135042 -0.03496435 -0.04726316 -0.029902784 -0.13729416 0.08194779 -0.015443031
0.08265972 -0.073156245 0.09214904 -0.22238344 -0.11913754 0.067892715 0.25716248 -0.22521654
-0.050919965 -0.17474781 0.016716873 -0.071626954 0.16198103 0.046636946 0.18627912 -0.12497489
0.19501984 -0.004450925 0.11931524 -0.124309525 -0.09781576 0.0061304127 -0.030435171 -0.13859303
0.0331394 0.20636602 0.021856712 0.1818047 -0.19137384 0.08596286 -0.028015597 -0.026673187
-0.19072716 0.08653869 0.12833574 0.10341798 -0.19461958 0.101902 -0.020687707 -0.27713114
00000000: ad30 453e d698 163d 2819 98be 8a09 5e3d
00000010: be5a 303d f47b d93c 4947 8fbe 4ce2 103d
00000020: 395a fcbd 0e60 9c3d 3f75 1c3e 1041 d03e
00000030: 0b9c ee3d f242 203e 38a4 393d d521 30bd
00000040: fdf7 aa3d 3433 efbb ef5d 28be 7f21 1abc
00000050: 5d66 b0bd 2cb3 d7bd 5be0 a23c 142d 5fba
00000060: d6cb c4bd b9b2 543e ef45 49be facd a73d
00000070: 95f9 52be 5ff8 073e b0dd dd3d 1954 e1bd
00000080: db98 12be 5537 b0bb 33fb 37bd 6b22 063e
00000090: 2fa5 833e 8f3d cabc 6f39 58be e5c4 b8bd
000000a0: d5bc c8bd 394f 4fbe 8c20 0cbe 427c 9dbd
000000b0: 3729 b53d baf6 73bd 4781 913d 8467 46be
000000c0: 6917 883b 7275 253b d98c 8fbe 4144 493e
000000d0: 77f3 d2bd 9560 51be 01e0 fcbd 4455 e6bc
000000e0: c04d 673c 994a 71bd 4d81 133d 103a 003e
000000f0: 891c 553e 82fc e5bd 77aa d23c 32c4 0dbe
00000100: 686e 9ebd 7e7e 66be 4c0e 0fbe 7070 3cbd
00000110: 87ef 883c 26d9 7cbe a5d4 8dbc a3cf f3bd
00000120: 543d 0dbe c236 87bd e0fd 263e d465 413e
00000130: aff2 113e e659 663c 4aa2 c03d e9c3 a6bd
00000140: 4fdd e2bd 8366 72be ba7e 623e 4fcb bf3d
00000150: fe68 083e 39e8 56be e656 c13a 6701 553d
00000160: 424f 87be e2ac 84be 790e 60be 2653 56be
00000170: 6594 083d f2bb 873d c657 9abc 0edb 71be
00000180: b661 d83d 8238 fa3d 4c79 893c 127f 5b3d
00000190: 7637 04be aaa7 2f3e 2a9c 02bd 84ab 5b3d
000001a0: 74a8 6b3d fc8d ac3d fecb ae3c 3807 eebd
000001b0: 871f 0ebe ed1f cf3d aaac 85bb 2381 4abe
000001c0: b735 57bd 3d71 21be 7948 56bd 4882 003e
000001d0: b8d4 09be f6fc 5bbd b7fc e0bd 43b3 8039
000001e0: 5090 5d3e c20a 3cbd d230 91be 107d 68bd
000001f0: f0c1 713e 59cc 23be c6de 0bbe 7bfa e93b
00000200: 84e5 3c3d 56c2 543e 1a08 d93d d80b 72bd
00000210: b2d3 453d 3e92 273d d749 22bd c50e 183e
00000220: 0a27 3a3e 086c 09be fa29 f1bd 8ddc 633d
00000230: 8884 12be 49f7 aebb a43b 413e 96d2 3ebe
00000240: 7b06 243e 4d27 9fbd 7a3e 50be 70f9 46bd
00000250: e17f f7bc 92db b8bd bb7d 88ba 4acd f5bd
00000260: 9296 eb3d 62fa 223e a6c5 013e 3550 2f3e
00000270: df46 fcbd e29e 05be 1c04 50be 31d8 d7bd
00000280: 7ffe 31bd e53e 8bbd 2973 213e bd3e 113e
00000290: acd2 a23d 69f6 a5bb aa6b 87bc 1f48 2fbe
000002a0: 4ffc 0dbe 623e 08be 138d 5dbd ad3f 2dbe
000002b0: 5f94 3d3c 2fc7 7b3e e13f d13d 8a9c c63d
000002c0: 40d4 e93d 34fa 76bd aad4 063e ac72 233d
000002d0: 08a6 bdbd 9a62 e5ba cba2 2bbd d170 043e
000002e0: bc95 6ebd d84e 8c3d 7b4e 19be e5df 1b3e
000002f0: 5f9b bf3d 4471 cdbc 5b58 08be 9f34 f4bd
00000300: d997 76bd 90d6 25bd c80b 1dbe d365 82bd
00000310: b00f c9bd 815f 2c3e cdc3 843e 7461 9f3d
00000320: 99c8 683e 1bbc d53d e6d0 b63d 5064 85be
00000330: f5bf 7f3c 0a3e c93d bbf9 09bd 184c 67bd
00000340: e24e 0f3e b00b e4bd c736 0fbd 0497 41bd
00000350: aff6 f4bc d796 0cbe 3ed4 a73d c404 7dbc
00000360: 8049 a93d f1d2 95bd a3b8 bc3d 7cb8 63be
00000370: 62fe f3bd 560b 8b3d cdaa 833e 2a9f 66be
00000380: 7491 50bd 17f1 32be d3f1 883c 27b1 92bd
00000390: 5bde 253e 6206 3f3d f4bf 3e3e d6f2 ffbd
000003a0: 48b3 473e 11d9 91bb 8c5b f43d fe95 febd
000003b0: a153 c8bd a1e1 c83b 2e53 f9bc 55eb 0dbe
000003c0: 2ebd 073d 9d51 533e d90c b33c 032b 3a3e
000003d0: 81f7 43be 4c0d b03d f780 e5bc ba81 dabc
000003e0: fb4d 43be 323b b13d 726a 033e cecc d33d
000003f0: 5b4a 47be ffb1 d03d 4479 a9bc 22e4 8dbe

l1.bias f4 [400]
0.19964461 0.14290908 0.05532294 -0.2293586 -0.051553886 -0.12527893 -0.07454996 -0.13313362
-0.041081093 -0.07812322 -0.18506715 -0.16294326 -0.19448689 0.042300355 0.08711252 -0.016800236
-0.1289057 0.1309818 -0.042716384 -0.23698807 -0.17793484 0.038767025 0.1738603 0.14280891
-0.10244498 -0.032098528 -0.21667719 -0.11133754 -0.18203893 -0.036552425 0.22712715 -0.17238103
-0.05996323 -0.015987918 -0.013943596 0.018233022 0.0627959 -0.09706544 -0.03672205 0.059431527
0.13629165 -0.028871577 0.17229883 0.0996023 -0.061011784 -0.058367133 -0.1769134 -0.039635923
-0.019627776 -0.22736734 -0.1994769 0.15390019 0.10092355 -0.20708467 -0.15051727 0.043990158
-0.14895247 -0.049330883 0.060848493 -0.10409133 0.0795042 -0.014188415 -0.23552682 0.07773419
-0.2606056 -0.12406039 -0.061976735 -0.113153726 -0.0070427028 -0.028116615 -0.14479944 0.09457812
0.025467534 -0.06254422 -0.032201894 0.11420114 -0.10039094 -0.13550943 0.20189111 -0.05079673
-0.20768955 -0.07384827 -0.11299629 -0.25656906 -0.08711536 0.06451705 0.06955499 -0.15073115
-0.27816117 -0.0074884933 -0.015532203 0.092013225 -0.10775324 0.007906228 -0.23573424 0.097628206
-0.013478866 -0.027070308 0.15886736 -0.12231393 -0.08355191 -0.14180256 0.042436328 -0.28701177
0.0016456038 0.051486213 -0.1378506 -0.054308828 -0.078196645 0.122310475 -0.11937946 0.10277225
-0.15739852 -0.15891668 -0.10362904 -0.223255 -0.17365028 -0.126724 0.03309386 -0.0909858
-0.11692034 0.05436726 -0.24865821 0.08408661 -0.088684045 -0.09600897 -0.059611622 -0.10539325
0.13781102 0.05998692 -0.15049906 0.25672838 -0.046498347 -0.1420237 0.1772651 -0.057918236
-0.15718044 0.13451014 -0.18547831 -0.1710653 0.016080936 -0.07347221 -0.031091489 0.01837764
-0.17753051 0.053619176 0.10317348 0.15198137 0.09270534 -0.021031534 0.1032665 -0.17441553
-0.2088155 -0.16931456 0.1397734 -0.1177971 -0.05779326 -0.08721514 0.03806563 -0.13941506
-0.13432665 0.054326005 -0.12728833 -0.098181225 -0.08839907 0.12777106 0.14667769 -0.1407018
0.23568147 0.012157933 -0.20998299 0.10398979 0.014009834 -0.02961074 -0.08032178 -0.12809502
-0.17788418 -0.21640337 -0.032100886 0.08676811 -0.22888544 -0.07225797 -0.063701786 0.009365117
-0.21656436 -0.2996702 0.03224608 -0.13031673 -0.25149 -0.22984526 0.18407734 0.09309896
0.095595874 0.0044969902 -0.19044782 0.102763675 0.10516626 0.022091972 -0.17902134 -0.06009466
-0.14073566 -0.107369006 -0.19135216 -0.14607267 -0.08149405 0.07191921 0.14166494 -0.06508595
0.117339775 -0.05124061 -0.16321205 -0.15591092 0.032971527 -0.18274833 0.094217226 -0.14202446
0.17182228 -0.14383125 -0.04382133 -0.16020374 0.04914689 -0.14028987 0.27745843 0.051172562
-0.0053735077 -0.13889499 -0.16946267 -0.08719496 -0.17307855 -0.22728105 -0.24292646 0.064158306
0.08720183 0.11710503 -0.16335742 -0.036988813 0.06976469 -0.21139307 -0.19916092 -0.17667045
-0.058771078 -0.080370456 0.06850431 0.16359949 0.098146394 -0.17727141 0.0129563315 -0.09393033
-0.1596644 0.10148765 -0.07038496 0.066743374 -0.091321066 -0.05610243 -0.0924167 0.09556424
00000000: a36f 4c3e c256 123e 4f9a 623d fbdc 6abe
00000010: 2b2a 53bd 1f49 00be a6ad 98bd 2e54 08be
00000020: a644 28bd 11ff 9fbd 3e82 3dbe 99da 26be
00000030: 9227 47be 2343 2d3d 0d68 b23d a6a0 89bc
00000040: dbff 03be 1820 063e 60f7 2ebd 00ad 72be
00000050: 8d34 36be 2cca 1e3d 6f08 323e 803c 123e
00000060: acce d1bd bf79 03bd a0e0 5dbe f004 e4bd
00000070: 6a68 3abe ffb7 15bd 0594 683e a784 30be
00000080: 019c 75bd 18f9 82bc ae73 64bc 6b5d 953c
00000090: 239b 803d 3fca c6bd dc69 16bd 796e 733d
000000a0: 0a90 0b3e 1684 ecbc 1b6f 303e 4afc cb3d
000000b0: 7ee7 79bd 6012 6fbd c928 35be 4759 22bd
000000c0: 6eca a0bc fcd2 68be ac43 4cbe 0398 1d3e
000000d0: 02b1 ce3d 010e 54be 3321 1abe 062f 343d
000000e0: ff86 18be 2e0f 4abd 453c 793d d62d d5bd
000000f0: 19d3 a23d 8776 68bc f12d 71be 1a33 9f3d
00000100: 196e 85be 6013 febd 51db 7dbd 24bd e7bd
00000110: 79c6 e6bb d154 e6bc 4e46 14be 2cb2 c13d
00000120: 4aa1 d03c 2f17 80bd 22e6 03bd 4ae2 e93d
00000130: c499 cdbd fcc2 0abe 8bbc 4e3e 3b10 50bd
00000140: 92ac 54be c33d 97bd 996a e7bd 055d 83be
00000150: 8a69 b2bd 8421 843d d972 8e3d 4459 1abe
00000160: 246b 8ebe 0962 f5bb c87a 7ebc 6e71 bc3d
00000170: bbad dcbd 2089 013c 5164 71be 4cf1 c73d
00000180: 76d6 5cbc 8dc2 ddbc 20ae 223e ba7f fabd
00000190: 441d abbd b134 11be b7d1 2d3d 35f3 92be
000001a0: 4db1 d73a 35e3 523d b528 0dbe ef72 5ebd
000001b0: 9025 a0bd ea7d fa3d 387d f4bd 427a d23d
000001c0: 142d 21be 0ebb 22be 763b d4bd f59c 64be
000001d0: 61d1 31be f0c3 01be 6d8d 073d c356 babd
000001e0: ee73 efbd 34b0 5e3d 42a0 7ebe 9a35 ac3d
000001f0: fb9f b5bd 5aa0 c4bd 512b 74bd 6bd8 d7bd
00000200: 551e 0d3e d8b4 753d 6d1c 1abe e771 833e
00000210: 0d75 3ebd a96e 11be fb84 353e ac3b 6dbd
00000220: e9f3 20be 07bd 093e 07ee 3dbe be2b 2fbe
00000230: 2bbc 833c 9978 96bd 94b3 febc b48c 963c
00000240: 8fca 35be c89f 5b3d 9e4c d33d 01a1 1b3e
00000250: 4cdc bd3d 534a acbc 637d d33d fc99 32be
00000260: bbd3 55be cc60 2dbe c220 0f3e 9b3f f1bd
00000270: a0b8 6cbd da9d b2bd b5ea 1b3d d2c2 0ebe
00000280: ed8c 09be f284 5e3d df57 02be 3d13 c9bd
00000290: 920a b5bd 6bd6 023e ad32 163e 2214 10be
000002a0: 7c56 713e 1132 473c c805 57be 99f8 d43d
000002b0: 8189 653c 3992 f2bc bf7f a4bd 572b 03be
000002c0: 4527 36be d898 5dbe 387c 03bd 7bb3 b13d
000002d0: f260 6abe fdfb 93bd 1576 82bd 2670 193c
000002e0: 0cc3 5dbe 5f6e 99be 7714 043d c071 05be
000002f0: 4cc3 80be 8e5c 6bbe c57e 3c3e abaa be3d
00000300: c5c7 c33d 7d5b 933b c104 43be c375 d23d
00000310: 6861 d73d 39fa b43c 5f51 37be d125 76bd
00000320: 021d 10be 48e4 dbbd d2f1 43be 1394 15be
00000330: 5ae6 a6bd 614a 933d 9d10 113e c84b 85bd
00000340: d64f f03d ade1 51bd 0f21 27be 1da7 1fbe
00000350: 270d 073d 6122 3bbe f6f4 c03d dc6e 11be
00000360: 2ef2 2f3e 8048 13be ff7d 33bd 730c 24be
00000370: 404e 493d 26a8 0fbe 080f 8e3e 529a 513d
00000380: 4014 b0bb 7d3a 0ebe 9f87 2dbe 4593 b2bd
00000390: 813b 31be 5dbc 68be b7c1 78be 6e65 833d
000003a0: e096 b23d c3d4 ef3d 2b47 27be 9581 17bd
000003b0: cae0 8e3d 6d77 58be d7f0 4bbe 19e9 34be
000003c0: f1b9 70bd 4499 a4bd fd4b 8c3d a086 273e
000003d0: fa00 c93d a386 35be cb46 543c 8b5e c0bd
000003e0: 117f 23be c2d8 cf3d fd25 90bd c0b0 883d
000003f0: 8a06 bbbd a9cb 65bd f844 bdbd 2fb7 c33d

l2.weight f4 [300, 400]
0.116357304 -0.061992977 -0.016137471 0.0011711711 0.0058774706 0.06405544 -0.0070565166 -0.01484548
-0.03699382 -0.04408078 -0.07691629 -0.04625826 -0.03454809 -0.09232811 -0.059818063 0.019923082
-0.022442473 -0.028823605 0.037223622 -0.03096888 0.0358179 0.105927914 -0.020495085 -0.045175742
0.040698685 -0.011176456 0.0301 -0.017032854 -0.029200882 -0.04417331 -0.1590656 -0.04215287
0.013006851 -0.06031686 -0.013987886 -0.057284098 0.004607748 0.003834355 0.032879997 0.0007855937
0.07617145 0.03581289 0.01620454 0.04876467 -0.07096642 -0.084156856 0.012216747 -0.043955386
-0.014749512 -0.04002544 0.021512056 0.012846632 -0.09026532 -0.07188892 -0.0029734736 -0.036852323
-0.030485207 -0.028185261 -0.07137125 0.0070699593 -0.11438916 -0.023118256 -0.06444213 -0.076918624
-0.032503676 -0.014246928 -0.00434665 0.012382751 -0.05053979 0.00010849601 0.031965513 0.055061307
-0.017815182 0.02882597 -0.058410563 -0.03590047 0.042434655 -0.017080959 -0.081468195 0.038891546
-0.060156036 -0.07297902 0.038354512 -0.008980773 0.021435017 -0.062369667 -0.0819007 0.040695723
-0.045909323 -0.027286798 0.03519383 -0.025360068 0.02663929 0.02238253 0.020322599 -0.059534192
-0.011097313 -0.08985771 0.0666602 -0.019557517 0.012832953 0.016826577 0.0010160523 0.08617047
0.015654791 -0.13916954 0.014910649 -0.088963106 -0.018126253 -0.10502615 -0.0021452082 -0.023624182
0.0542697 -0.07476159 -0.120877415 0.017862344 -0.004408785 0.025810257 -0.031641837 -0.027722538
-0.06658431 0.016983321 0.0034163934 0.05462395 -0.01899846 -0.06057944 -0.01794754 -0.01738849
0.04746176 0.017676359 -0.026665336 -0.04519379 -0.012070691 0.034462623 0.03392484 -0.04944194
0.030574527 0.012809435 -0.046657372 -0.061022833 -0.016218672 -0.0068595232 0.021278994 0.02184014
0.01167999 -0.009980955 0.04567184 -0.065810405 -0.08603533 0.03374785 0.07453873 0.10405731
-0.06716844 -0.035135202 -0.15930906 0.035240654 0.023159606 -0.0041558635 -0.2054837 -0.014605065
0.010823968 0.0048138173 -0.032160044 -0.08042116 -0.002160752 -0.030521402 0.0675134 -0.080574855
-0.04709105 -0.031556167 0.048987005 -0.002713503 -0.04601187 0.044367623 -0.034392893 -0.053537276
0.017347328 -0.007047356 0.029127726 0.10227932 -0.058539987 -0.071521975 0.062680274 0.0049211574
-0.08130985 -0.08398822 0.11814998 0.034067262 0.028167425 -0.0030567807 0.04959618 0.02556822
-0.0037875557 -0.055165693 0.07463898 -0.033134058 -0.003298659 -0.040164858 -0.052510906 -0.02599937
-0.022044782 -0.01913141 0.010237409 -0.030951977 -0.08039201 -0.049572844 0.07289948 -0.005917714
-0.0044172956 0.031549834 -0.06977906 0.076043285 0.01772127 -0.03853471 0.0124377655 0.02376233
0.030452041 0.01420844 -0.04107239 -0.036608223 0.041493446 -0.010972218 0.112035565 0.06415647
0.050183106 -0.10355896 -0.05377229 0.025670806 -0.036580913 0.030336957 -0.028421914 -0.05048966
-0.008503711 0.004190417 -0.020514257 -0.09086481 0.037529342 0.04143971 0.015954481 0.014617965
-0.07393583 0.2268222 -0.03192563 -0.07074356 -0.027850354 -0.017109724 0.098042645 -0.030385606
0.027763309 -0.01718177 -0.004198939 -0.060601495 -0.020707386 0.026725369 0.04338753 0.010137078
00000000: bd4c ee3d 59ec 7dbd bb32 84bc fb81 993a
00000010: cc97 c03b 802f 833d 5a3a e7bb 753a 73bc
00000020: d586 17bd 0c8e 34bd 4a86 9dbd 4d79 3dbd
00000030: 4c82 0dbd 8516 bdbd c903 75bd bb35 a33c
00000040: 47d9 b7bc 7b1f ecbc cc77 183d 73b2 fdbc
00000050: cab5 123d bcf0 d83d 4fe5 a7bc 330a 39bd
00000060: aab3 263d 741d 37bc 4694 f63c 7c88 8bbc
00000070: b036 efbc 13ef 34bd 18e2 22be 7da8 2cbd
00000080: b01a 553c d00e 77bd 722d 65bc bba2 6abd
00000090: 97fc 963b cd49 7b3b 2dad 063d 4df0 4d3a
000000a0: c7ff 9b3d 89b0 123d 62bf 843c 76bd 473d
000000b0: d856 91bd 6e5a acbd c028 483c 900a 34bd
000000c0: f0a7 71bc b7f1 23bd 0d3a b03c ae7a 523c
000000d0: 06dd b8bd 803a 93bd 9cde 42bb 76f2 16bd
000000e0: 1dbc f9bc c7e4 e6bc 172b 92bd 1eab e73b
000000f0: dd44 eabd 7f62 bdbc 3cfa 83bd 8387 9dbd
00000100: 9322 05bd f26b 69bc 586e 8ebb 06e1 4a3c
00000110: d002 4fbd 5a88 e338 45ee 023d f787 613d
00000120: 25f1 91bc 7124 ec3c ea3f 6fbd 5f0c 13bd
00000130: f6cf 2d3d 5eed 8bbc ccd8 a6bd be4c 1f3d
00000140: 2d66 76bd 0676 95bd 9f19 1d3d 1824 13bc
00000150: 7d98 af3c 5677 7fbd 8ebb a7bd 8fb0 263d
00000160: 6a0b 3cbd 9088 dfbc 6827 103d ebbf cfbc
00000170: a43a da3c 915b b73c 947b a63c 20da 73bd
00000180: 81d1 35bc 5207 b8bd 2585 883d 1637 a0bc
00000190: 4e41 523c e4d7 893c 0f2d 853a 257a b03d
000001a0: 7a3e 803c 7682 0ebe cb4b 743c 4a32 b6bd
000001b0: 827d 94bc f317 d7bd 9f96 0cbb 8087 c1bc
000001c0: e849 5e3d 9b1c 99bd 948e f7bd 0d54 923c
000001d0: 9277 90bb 0870 d33c df9a 01bd 601a e3bc
000001e0: 5b5d 88bd 9b20 8b3c 92e5 5f3b 5dbd 5f3d
000001f0: a9a2 9bbc 2622 78bd b806 93bc 4e72 8ebc
00000200: 4367 423d 03ce 903c 4371 dabc 201d 39bd
00000210: 26c4 45bc ae28 0d3d c6f4 0a3d a283 4abd
00000220: 6e77 fa3c aade 513c cd1b 3fbd 14f3 79bd
00000230: 05dd 84bc dac5 e0bb 4951 ae3c 18ea b23c
00000240: 6e5d 3f3c 2987 23bc 6512 3b3d 9bc7 86bd
00000250: 4b33 b0bd 303b 0a3d c3a7 983d 001c d53d
00000260: 9b8f 89bd eee9 0fbd ea21 23be 8158 103d
00000270: 37b9 bd3c e92d 88bb 526a 52be 154a 6fbc
00000280: 0357 313c 3abd 9d3b 40ba 03bd d9b3 a4bd
00000290: 679b 0dbb 0508 fabc 7744 8a3d 6e04 a5bd
000002a0: 8be2 40bd 0a41 01bd 99a6 483d 07d5 31bb
000002b0: f176 3cbd d3ba 353d 90df 0cbd e749 5bbd
000002c0: fc1b 8e3c 82ed e6bb 459d ee3c d277 d13d
000002d0: a0c7 6fbd 1d7a 92bd 845e 803d a941 a13b
000002e0: c785 a6bd 0402 acbd 9ef8 f13d 1d8a 0b3d
000002f0: 5fbf e63c 4554 48bb 5d25 4b3d 7274 d13c
00000300: a438 78bb 6cf5 61bd 52dc 983d 94b7 07bd
00000310: 512e 58bb e883 24bd ad15 57bd a1fc d4bc
00000320: 4297 b4bc 7ab9 9cbc ceba 273c 008f fdbc
00000330: 91a4 a4bd e50c 4bbd 534c 953d 62e9 c1bb
00000340: f6be 90bb 663a 013d 53e8 8ebd 95bc 9b3d
00000350: 322c 913c 92d6 1dbd c5c7 4b3c 38a9 c23c
00000360: 8f76 f93c 84ca 683c 863b 28bd 81f2 15bd
00000370: 08f5 293d d1c4 33bc e772 e53d 7864 833d
00000380: cd8c 4d3d b816 d4bd 5540 5cbd 954b d23c
00000390: ded5 15bd 3685 f83c 13d5 e8bc 3fce 4ebd
000003a0: 2653 0bbc c44f 893b 840d a8bc 5417 babd
000003b0: 5eb8 193d afbc 293d f9b2 823c 3080 6f3c
000003c0: ab6b 97bd 1444 683e 73c4 02bd 00e2 90bd
000003d0: 6d26 e4bc b129 8cbc 95ca c83d 3ceb f8bc
000003e0: e16f e33c c9c0 8cbc 4197 89bb 4639 78bd
000003f0: 89a2 a9bc 29ef da3c 1fb7 313d fd15 263c

l2.bias f4 [300]
-0.065608226 0.03799885 0.058796577 0.026083224 -0.069646165 0.031609014 -0.029246548 -0.061993442
-0.035661966 -0.04673475 -0.028260946 0.01832348 -0.06078353 -0.00655135 -0.08367029 -0.029378915
-0.0036663306 -0.04306833 -0.052267298 0.031955704 0.019633997 -0.027448054 0.008994499 -0.004527185
-0.056143362 -0.036173597 -0.0046203 -0.021135872 -0.022157144 0.08370747 -0.03904358 -0.020325728
-0.030391349 0.08767385 -0.022148365 -0.039576244 -0.046726808 -0.026670203 0.019970687 0.09249483
-0.036590658 0.071089566 0.054595426 -0.05907509 -0.047920235 0.064924866 -0.003978638 0.031896375
0.038576625 0.062386006 -0.05598667 0.087130174 -0.042799313 -0.023262225 -0.050343536 -0.0069631645
-0.04662702 -0.024644442 -0.032546293 -0.02757575 -0.046808757 0.0449398 -0.024596082 0.024999125
-0.06378462 0.044316422 -0.059392583 -0.046895374 -0.0030541809 -0.021800732 0.07730863 -0.038078398
0.03255467 -0.04862399 0.10073617 -0.02728145 -0.0024856385 -0.010508302 -0.055940837 0.016628858
0.030459125 0.017659852 -0.0829666 -0.03720072 0.23395962 0.0029194702 -0.03367012 -0.055135198
-0.07339461 0.08824746 -0.012760857 -0.02446118 0.057850856 -0.043043174 -0.0005559271 -0.0074157044
-0.06634887 -0.016106734 -0.030409249 -0.014342896 -0.06366707 0.0009781946 0.0808446 -0.05019125
-0.021289976 -0.05632701 -0.07348516 -0.04406592 -0.059955288 -0.0036541356 0.14534064 -0.013222007
-0.035708226 -0.04582668 -0.013521126 -0.015462044 0.050128937 -0.014323765 -0.018505188 0.06980662
0.17032865 -0.07118354 0.012512972 -0.013897333 -0.05112468 0.03739383 0.005976473 -0.010016365
-0.029307088 -0.022219371 0.041623563 -0.057428792 0.035075277 -0.03529146 -0.037611414 0.003801638
0.030948108 0.046170402 -0.021871941 -0.07197976 0.012248888 -0.0017231076 0.012670383 0.12499152
-0.026329655 -0.04719521 -0.027399002 -0.07275131 -0.0425089 -0.04758788 -0.060877718 0.0060492414
-0.061269123 0.011370362 0.056271184 -0.051643334 0.047646154 -0.00353789 -0.06592842 -0.0655492
-0.012719113 -0.044854496 -0.03309718 -0.0071787997 0.021173038 -0.030726412 -0.044356696 0.00031209804
0.055423774 -0.031833325 -0.006180727 -0.032396205 0.023644675 -0.061405737 -0.011614731 -0.05777028
-0.055457823 0.14817101 -0.018214 -0.056474417 -0.050344612 0.033866562 -0.036471616 -0.05760882
0.08233402 0.029607374 0.0014493902 0.040641658 -0.0414264 -0.05260264 -0.022638824 -0.021744203
-0.050217047 -0.04283331 -0.074625805 0.111146115 -0.072620764 0.030518783 -0.05257471 0.07296618
-0.049299307 -0.057810806 -0.108517624 0.0260806 0.06608571 0.014796479 -0.057367116 -0.01190583
-0.04627488 -0.051354997 -0.047335282 -0.030039674 -0.044739988 0.009598791 -0.0060214405 -0.059311744
0.06919434 0.07863552 -0.04670489 -0.036505807 -0.059416026 0.024404809 -0.07266364 -0.055759136
0.023722596 -0.033525724 -0.01567803 0.06611136 -0.020921316 -0.039757002 -0.055545896 0.03684692
0.012259871 -0.05815363 -0.028757751 0.098940186 -0.012978777 -0.018151784 0.031341653 -0.01998445
0.025022415 0.009100774 -0.00020083989 -0.045578048 -0.05919939 -0.016211554 -0.03545228 -0.054372415
0.010624306 -0.05951366 -0.01797832 -0.03714122 -0.046371266 0.07283134 -0.044733386 0.037781175
00000000: 9b5d 86bd afa4 1b3d aed4 703d 7cac d53c
00000010: a6a2 8ebd 7478 013d 7596 efbc d6ec 7dbd
00000020: 4812 12bd f06c 3fbd 8083 e7bc 1f1b 963c
00000030: 27f8 78bd b5ac d6bb 545b abbd 0dac f0bc
00000040: d246 70bb 6b68 30bd 3c16 56bd fce3 023d
00000050: 7ad7 a03c beda e0bc aa5d 133c c858 94bb
00000060: 95f6 65bd c42a 14bd e365 97bb 2325 adbc
00000070: e682 b5bc d26e ab3d 29ec 1fbd 2482 a6bc
00000080: 47f7 f8bc 598e b33d 7d70 b5bc b31a 22bd
00000090: 9c64 3fbd 787b dabc 9199 a33c ee6d bd3d
000000a0: 16e0 15bd 6897 913d 749f 5f3d b9f8 71bd
000000b0: 0248 44bd 54f7 843d 3c5f 82bb c6a5 023d
000000c0: 8602 1e3d 7888 7f3d 4752 65bd 4e71 b23d
000000d0: 554e 2fbd 6c90 bebc 0635 4ebd 422b e4bb
000000e0: f9fb 3ebd 24e3 c9bc 434f 05bd 8ae6 e1bc
000000f0: 8aba 3fbd cc12 383d b97d c9bc f7ca cc3c
00000100: 83a1 82bd 2385 353d a345 73bd 5d15 40bd
00000110: a728 48bb 7397 b2bc fd53 9e3d 18f8 1bbd
00000120: 0c58 053d f329 47bd c44e ce3d 597d dfbc
00000130: 18e6 22bb 032b 2cbc 3822 65bd 3e39 883c
00000140: 6a85 f93c 65ab 903c 65ea a9bd c85f 18bd
00000150: 1c93 6f3e 9554 3f3b aee9 09bd 72d5 61bd
00000160: ea4f 96bd 16bb b43d ea12 51bc d062 c8bc
00000170: 05f5 6c3d 0a4e 30bd a3bb 11ba 70ff f2bb
00000180: ebe1 87bd 45f2 83bc d11c f9bc 77fe 6abc
00000190: e163 82bd c436 803a db91 a53d 5795 4dbd
000001a0: 5168 aebc 27b7 66bd 637f 96bd 777e 34bd
000001b0: ad93 75bd 397a 6fbb 2dd4 143e 1ea1 58bc
000001c0: ca42 12bd c2b4 3bbd b687 5dbc 8354 7dbc
000001d0: 0054 4d3d 3aae 6abc 3198 97bc c6f6 8e3d
000001e0: a26a 2e3e adc8 91bd 3503 4d3c a4b1 63bc
000001f0: 1d68 51bd 462a 193d 4ad6 c33b ae1b 24bc
00000200: 6b15 f0bc 6605 b6bc 787d 2a3d 743a 6bbd
00000210: 18ab 0f3d c78d 10bd 6d0e 1abd e724 793b
00000220: e386 fd3c 2d1d 3d3d c92c b3bc 206a 93bd
00000230: 8faf 483c e6d9 e1ba 7097 4f3c 8efb ff3d
00000240: 4ab1 d7bc c44f 41bd df73 e0bc a4fe 94bd
00000250: d01d 2ebd 82eb 42bd ea5a 79bd b738 c63b
00000260: 55f5 7abd c14a 3a3c 9d7c 663d f687 53bd
00000270: 9d28 433d f2db 67bb 7b05 87bd a93e 86bd
00000280: d463 50bc 59b9 37bd e990 07bd 233c ebbb
00000290: 1473 ad3c f5b5 fbbc 5eaf 35bd 17a1 a339
000002a0: 0a04 633d a963 02bd b287 cabb e2b1 04bd
000002b0: 7ab2 c13c 9584 7bbd b64b 3ebc 87a0 6cbd
000002c0: be27 63bd 24ba 173e 8735 95bc b851 67bd
000002d0: 2736 4ebd aab7 0a3d 4363 15bd 3af7 6bbd
000002e0: bd9e a83d 2a8b f23c 77f9 bd3a de77 263d
000002f0: bbae 29bd de75 57bd 0e75 b9bc e620 b2bc
00000300: 64b0 4dbd fb71 2fbd 6ad5 98bd 93a0 e33d
00000310: 32ba 94bd 8702 fa3c 9458 57bd 4b6f 953d
00000320: 12ee 49bd 06cb 6cbd 7d3e debd fca6 d53c
00000330: f257 873d ee6c 723c c8f9 6abd ac10 43bc
00000340: bb8a 3dbd 9e59 52bd a4e2 41bd c315 f6bc
00000350: 4741 37bd 3f44 1d3c 814f c5bb dff0 72bd
00000360: c3b5 8d3d a90b a13d a04d 3fbd 1d87 15bd
00000370: 385e 73bd 98ec c73c add0 94bd b163 64bd
00000380: e455 c23c 4552 09bd 366f 80bc 6565 873d
00000390: 2e63 abbc 3dd8 22bd 1884 63bd ccec 163d
000003a0: a0dd 483c 8032 6ebd 6095 ebbc 27a1 ca3d
000003b0: f0a4 54bc 0db3 94bc 1b60 003d 6eb6 a3bc
000003c0: cffb cc3c 6a1b 153c 8c98 52b9 0cb0 3abd
000003d0: 0f7b 72bd 18ce 84bc 6936 11bd 9cb5 5ebd
000003e0: 9211 2e3c 98c4 73bd 4547 93bc 6421 18bd
000003f0: ccef 3dbd 9928 953d 5b3a 37bd 6fc0 1a3d

l3.weight f4 [4, 300]
-0.011405195 0.08381632 0.124167494 -0.037535332 -0.029065456 -0.06143612 0.02895557 -0.077348046
0.03680571 -0.075354226 -0.025301049 -0.09018569 -0.033576004 0.06290098 0.010673809 -0.0274184
-0.054734804 -0.08120598 -0.1286565 -0.13277858 -0.16266426 -0.07469737 -0.039690994 -0.2523094
-0.065523595 -0.034247633 -0.009415264 0.0334185 0.01202287 -0.09207026 -0.003768678 0.07788434
-0.12830849 0.07713056 -0.07858966 -1.0501686 -0.011568533 -0.032871693 0.040020354 0.2489995
-0.026976952 -0.18417042 -0.08647099 0.006245473 -0.054005638 -0.19403365 -0.047117952 -0.1441376
-0.11802105 -0.13341697 -0.019097982 -0.1773981 -0.033466868 0.027493766 -0.016428325 -0.046650108
-0.045432672 -0.052731536 0.032116428 -0.16570112 0.048901554 -0.108173884 0.009834001 -0.18652022
0.00220347 -0.1141632 0.026934538 0.014496022 0.026683781 -0.052702762 0.051542405 0.017850298
0.22188477 -0.021084215 0.10203242 0.03932884 -0.02143384 -0.013386263 0.0047028097 -0.17832495
0.075987905 0.014635177 -0.032862175 -0.0014420436 0.07787315 0.034778945 -0.025158603 -0.114043705
0.035235334 -0.12942652 0.04627561 -0.06615076 -0.04603681 -0.009204417 -0.16331305 -0.01783542
-0.01023447 0.023215618 0.03574664 -0.04698917 0.024068471 0.0027750588 -0.08548049 -0.011607785
0.052949596 0.031114243 -0.002928384 -0.0035050395 0.0634991 0.0014363114 0.005683253 -0.06373937
-0.08749756 -0.012894825 -0.090238966 -0.11281082 -0.07616635 0.034762308 0.07467097 -0.0031001354
0.032460753 0.0005299001 0.022666901 0.00086820964 -0.00093398726 0.10810136 -0.00055390346 0.0251008
-0.0069519742 0.03197496 -0.0036069856 -0.03842114 0.13301726 0.004109653 -0.00891842 -0.0667373
-0.11287268 -0.13856752 0.014612372 0.027897527 -0.06308921 -0.033222225 0.08069237 0.13218082
0.020171136 -0.056070205 0.09805188 -0.028589284 0.011544618 -0.006995327 0.013778538 0.029591508
0.0033506916 -0.17962366 -0.02417489 0.043483302 0.04445429 -0.038951896 0.020170026 0.051955137
0.005778888 0.028278265 -0.054354537 0.06972819 -0.12062508 -0.058090847 0.013172717 -0.026333187
-0.16292858 0.014311286 -0.013208698 -0.00353305 0.0039035962 -0.0451815 -0.03373701 -0.026646031
0.011709781 -0.176357 -0.044209313 0.009316547 0.023463402 0.026647594 0.015010722 -0.090876
-0.14489053 -0.014814598 0.018693935 -0.079904675 -0.008031913 0.022818059 0.040684976 -0.055277992
-0.056917943 -0.026051804 0.07283117 0.008794072 -0.027230639 -0.08033153 0.008642209 -0.091472566
0.033902388 -0.019745931 0.051109172 0.09864583 0.0090837395 -0.05478933 0.030639611 -0.012127585
-0.024014767 -0.03756383 -0.022693839 -0.030022742 -0.012574881 0.0361735 0.035785057 -0.01635156
0.15783644 -0.22426246 0.005101362 0.050109014 0.07028683 -0.10093426 0.0008244758 0.010181201
0.070949025 0.02679021 -0.018867908 -0.1490619 0.044893507 -0.023714243 -0.025361272 -0.16867375
-0.22969821 0.02101904 0.011338872 -0.17442484 0.10280057 0.016051248 -0.16659625 0.07800866
-0.16845092 -0.17625402 0.006402885 -0.052281097 0.046296097 0.0058425153 -0.0009184906 0.03644013
-0.09023749 0.0043316158 -0.023664318 -0.07422257 -0.15676355 -0.014615663 0.014283907 -0.1192139
00000000: dbdc 3abc e4a7 ab3d 874b fe3d a6be 19bd
00000010: ae1a eebc 71a4 7bbd 3b34 ed3c a768 9ebd
00000020: 96c1 163d 5153 9abd 2544 cfbc 46b3 b8bd
00000030: fe86 09bd 3bd2 803d 33e1 2e3c 8d9c e0bc
00000040: 9a31 60bd 524f a6bd 88be 03be 1cf7 07be
00000050: 7691 26be effa 98bd 0693 22bd b32e 81be
00000060: 3c31 86bd 3f47 0cbd 7b42 1abc d6e1 083d
00000070: 92fb 443c 558f bcbd edfb 76bb d381 9f3d
00000080: 4d63 03be a1f6 9d3d 9ef3 a0bd ed6b 86bf
00000090: f289 3dbc 78a4 06bd 62ec 233d baf9 7e3e
000000a0: c5fe dcbc 2c97 3cbe b417 b1bd d3a6 cc3b
000000b0: 0435 5dbd c2b0 46be c1fe 40bd cf98 13be
000000c0: 05b5 f1bd 759e 08be 5f73 9cbc d9a7 35be
000000d0: 8e14 09bd 9b3a e13c b294 86bc 2f14 3fbd
000000e0: 9c17 3abd 06fd 57bd 848c 033d 8ead 29be
000000f0: ff4c 483d 458a ddbd ca1e 213c 28ff 3ebe
00000100: 1868 103b 65ce e9bd d2a5 dc3c b980 6d3c
00000110: f297 da3c dade 57bd 211e 533d ca3a 923c
00000120: c335 633e ceb8 acbc 60f6 d03d 4717 213d
00000130: 0596 afbc 0e52 5bbc 071a 9a3b d19a 36be
00000140: 8c9f 9b3d 62c8 6f3c 7d9a 06bd f402 bdba
00000150: f57b 9f3d 5e74 0e3d 6a19 cebc bf8f e9bd
00000160: ed52 103d 6388 04be 7e8b 3d3d 0d7a 87bd
00000170: 1891 3cbd 1fce 16bc 893b 27be 961b 92bc
00000180: 7aae 27bc ae2e be3c 126b 123d b777 40bd
00000190: 3e2b c53c c3dd 353b 6510 afbd 942e 3ebc
000001a0: ade1 583d 4ce3 fe3c 22ea 3fbb ceb4 65bb
000001b0: d10b 823d 9d42 bc3a 953a ba3b c989 82bd
000001c0: ec31 b3bd d144 53bc 35cf b8bd 5c09 e7bd
000001d0: 1afd 9bbd ec62 0e3d 18ed 983d a42b 4bbb
000001e0: 91f5 043d fee8 0a3a f0af b93c 9098 633a
000001f0: d3d6 74ba 3f64 dd3d d533 11ba 31a0 cd3c
00000200: 63cd e3bb 2df8 023d 2d63 6cbb 7c5f 1dbd
00000210: ad35 083e 45aa 863b 911e 12bc 91ad 88bd
00000220: cb29 e7bd a5e4 0dbe bb68 6f3c 5b89 e43c
00000230: ea34 81bd 0714 08bd 0b42 a53d 695a 073e
00000240: f03d a53c dfa9 65bd 6dcf c83d 1334 eabc
00000250: a325 3d3c 0e39 e5bb 61bf 613c e469 f23c
00000260: 4797 5b3b 44ef 37be 6b0a c6bc 8c1b 323d
00000270: b415 363d 068c 1fbd 9c3b a53c e9ce 543d
00000280: d35c bd3b d2a7 e73c dda2 5ebd a7cd 8e3d
00000290: 480a f7bd abf0 6dbd 61d2 573c b2b8 d7bc
000002a0: c0d6 26be e279 6a3c 4b69 58bc be8a 67bb
000002b0: 7ad3 7f3b 3d10 39bd d22f 0abd c748 dabc
000002c0: 62da 3f3c ee96 34be d314 35bd 6ea4 183c
000002d0: 5236 c03c 0e4c da3c 88ef 753c 321d babd
000002e0: 2f5e 14be edb8 72bc 0624 993c 10a5 a3bd
000002f0: 4998 03bc f0ec ba3c 4aa5 263d 2d6b 62bd
00000300: ca22 69bd 986a d5bc 8228 953d 0315 103c
00000310: ca12 dfbc db84 a4bd 0d98 0d3c f855 bbbd
00000320: 3bdd 0a3d 38c2 a1bc da57 513d d306 ca3d
00000330: f7d3 143c c76a 60bd ecff fa3c c7b2 46bc
00000340: 9eba c4bc 88dc 19bd 6ee8 b9bc 41f2 f5bc
00000350: e006 4ebc aa2a 143d 5a93 123d b5f3 85bc
00000360: e09f 213e 0fa5 65be 5329 a73b 1c3f 4d3d
00000370: 8bf2 8f3d 9fb6 cebd a221 583a 0dcf 263c
00000380: b94d 913d 2477 db3c df90 9abc afa3 18be
00000390: 41e2 373d 5f44 c2bc 71c2 cfbc d0b8 2cbe
000003a0: 0236 6bbe 1f30 ac3c adc6 393c 6d9c 32be
000003b0: 1b89 d23d e87d 833c 3598 2abe 01c3 9f3d
000003c0: 667e 2cbe ef7b 34be 4bcf d13b b424 56bd
000003d0: faa0 3d3d 9272 bf3b dcc6 70ba 3f42 153d
000003e0: 6fce b8bd 3af0 8d3b acdb c1bc 0102 98bd
000003f0: a086 20be 8976 6fbc 0c07 6a3c 6b26 f4bd

l3.bias f4 [4]
0.0044788276 0.07916812 0.061234023 0.030318765
00000000: 21c3 923b e522 a23d 87d0 7a3d 0f5f f83c
