TD3/models/second_training_attempt/train_600_episodes_actor.pth (torch, 528299 bytes, 6 tensors)

l1.weight f4 [400, 24]
0.2422852 0.09931872 -0.3545657 0.093297966 0.04057499 -0.02494483 -0.2558802 0.027577497
-0.1269041 0.08371307 0.09981138 0.38436243 0.07296384 0.15343809 0.006069337 -0.08225338
0.044231 -0.04654637 -0.2036394 -0.048600193 -0.12533453 -0.14450917 -0.019458227 -0.03900049
0.028864011 0.22335023 -0.20830633 0.15055251 -0.26000714 0.07509222 0.09177055 -0.06557628
-0.11950779 0.03583059 -0.021974461 0.2081468 0.23521021 0.033764377 -0.18847582 -0.06753858
-0.07533528 -0.17976922 -0.11416082 -0.054214925 0.1111409 -0.03687915 0.093303785 -0.17540972
-0.0066614714 -0.0081470795 -0.32289085 0.14637767 -0.09237752 -0.2374522 -0.17317908 -0.09332136
0.072905086 -0.009854352 0.055080943 0.17491503 0.20710742 -0.11229803 0.07362164 -0.09053814
-0.029453304 -0.17718613 -0.09179786 0.0018996056 0.0646201 -0.19901764 0.030590555 -0.07118242
-0.13792926 -0.06602241 0.16307783 0.188865 0.14252733 0.014059519 0.09405954 -0.08142836
-0.110773675 -0.23671918 0.22118655 0.0936495 0.13321301 -0.20987023 0.0014750629 0.05200329
-0.26427656 -0.2591315 -0.21880521 -0.20930156 0.033344645 0.066276446 -0.018840682 -0.23618719
0.11834139 0.12368989 0.031505816 0.02512041 -0.20414089 0.16134083 -0.09190378 0.14097658
0.09767873 0.12093242 0.066476285 -0.13014501 -0.07137087 0.13401297 0.035685733 -0.15799242
-0.012773011 -0.1178918 -0.012538844 0.16527447 -0.094823174 -0.013923833 -0.07015134 0.045562875
0.25079423 -0.023160165 -0.28330147 -0.07689848 0.13867007 -0.16894442 -0.1496611 0.115433514
0.10407306 0.28908473 0.12909853 -0.06457859 0.10062042 0.09467188 0.014157101 0.20228949
0.23558569 -0.08039048 -0.06382319 0.109639764 -0.08908227 0.048722815 0.24305025 -0.12708576
0.14711408 -0.08802959 -0.19258535 -0.038125914 -0.0125694685 -0.090289585 0.016917646 -0.122604154
0.11277025 0.13485402 0.11388082 0.1536076 -0.12318882 -0.13852431 -0.22011411 -0.12236551
-0.06042742 -0.08496311 0.14069393 0.12486992 0.0625343 -0.022032566 -0.033497542 -0.18866041
-0.19502766 -0.2029123 0.029574802 -0.21721391 -0.020052206 0.272313 0.058507506 0.15687118
0.114174366 -0.03358282 0.14081195 0.030413585 -0.15317546 0.029314807 0.0070364536 0.17827637
-0.009308433 0.11744952 -0.10077347 0.20116125 0.14249797 0.023858028 -0.08428591 -0.06697244
-0.06441561 0.012992614 -0.2034902 -0.02763117 -0.029728403 0.1055523 0.3338319 0.09344467
0.19184145 0.077195704 0.06729164 -0.180322 0.08861619 0.02886237 -0.106439166 -0.12922338
0.06719416 -0.1841076 -0.10772367 -0.12002532 -0.10266539 -0.21005867 0.009575981 -0.09050731
0.033603534 -0.1241459 0.13386889 -0.23675579 -0.1435083 0.05415506 0.3039376 -0.22954738
-0.09816605 -0.1930813 0.07654122 -0.12175886 0.14151202 0.06376296 0.21440606 -0.096850716
0.22313775 0.023653872 0.14740737 -0.09623736 -0.06976553 0.034153506 -0.0024520338 -0.11090464
0.0331394 0.20636602 0.021856712 0.1818047 -0.19137384 0.08596286 -0.028015597 -0.026673187
-0.19072716 0.08653869 0.12833574 0.10341798 -0.19461958 0.101902 -0.020687707 -0.27713114
00000000: 9d19 783e 9d67 cb3d a389 b5be 0113 bf3d
00000010: f631 263d 1a59 ccbc bb02 83be 34ea e13c
00000020: 26f3 01be c271 ab3d e969 cc3d 27cb c43e
00000030: 116e 953d e01e 1d3e 4ae1 c63b 7674 a8bd
00000040: 912b 353d 68a7 3ebd d986 50be ff10 47bd
00000050: b257 00be 36fa 13be dc66 9fbc fabe 1fbd
00000060: 3874 ec3c ecb5 643e 414e 55be 702a 1a3e
00000070: a81f 85be f3c9 993d 33f2 bb3d db4c 86bd
00000080: 80c0 f4bd 19c3 123d c903 b4bc 6f24 553e
00000090: f2da 703e 844c 0a3d ceff 40be ab51 8abd
000000a0: 6249 9abd 6c15 38be 26cd e9bd 7810 5ebd
000000b0: d79d e33d 970e 17bd 0e16 bf3d 9b9e 33be
000000c0: 7948 dabb 547b 05bc f351 a5be 07e4 153e
000000d0: 6d30 bdbd ab26 73be db55 31be 451f bfbd
000000e0: 434f 953d 2674 21bc 8e9c 613d ed1c 333e
000000f0: f813 543e 82fc e5bd f1c6 963d 0f6c b9bd
00000100: 0e48 f1bc 4870 35be 8400 bcbd 30fc f83a
00000110: 8b57 843d 48cb 4bbe 0b99 fa3c 17c8 91bd
00000120: 543d 0dbe c236 87bd e0fd 263e d465 413e
00000130: aff2 113e e659 663c 4aa2 c03d e9c3 a6bd
00000140: 4fdd e2bd 8366 72be ba7e 623e 4fcb bf3d
00000150: fe68 083e 39e8 56be e656 c13a 6701 553d
00000160: 424f 87be e2ac 84be 790e 60be 2653 56be
00000170: 6594 083d f2bb 873d c657 9abc 0edb 71be
00000180: f85c f23d 2051 fd3d 3e0c 013d 51c9 cd3c
00000190: 4f0a 51be 8836 253e 0d38 bcbd 2a5c 103e
000001a0: c90b c83d 6bab f73d b824 883d bc44 05be
000001b0: e42a 92bd b23a 093e 342b 123d c4c8 21be
000001c0: e445 51bc 4271 f1bd b96f 4dbc b63d 293e
000001d0: a732 c2bd ca20 64bc 81ab 8fbd 23a0 3a3d
000001e0: 1a68 803e 63ba bdbc e40c 91be f37c 9dbd
000001f0: 87ff 0d3e c4ff 2cbe c240 19be 6868 ec3d
00000200: 4224 d53d ea02 943e 6832 043e c841 84bd
00000210: 1412 ce3d 55e3 c13d 2ff3 673c fa24 4f3e
00000220: 603d 713e c4a3 a4bd bcb5 82bd d08a e03d
00000230: c470 b6bd 9391 473d 2ae2 783e c522 02be
00000240: 13a5 163e dc48 b4bd 1835 45be eb29 1cbd
00000250: 2cf0 4dbc bfe9 b8bd e096 8a3c e317 fbbd
00000260: 17f4 e63d 2c17 0a3e 593a e93d 504b 1d3e
00000270: 6c4a fcbd 51d9 0dbe 9865 61be c59a fabd
00000280: be82 77bd 2401 aebd 1212 103e cdbb ff3d
00000290: fc11 803d a47d b4bc b834 09bd 3230 41be
000002a0: 55b5 47be 3ec8 4fbe db46 f23c 536d 5ebe
000002b0: 8644 a4bc 9c6c 8b3e 91a5 6f3d d7a2 203e
000002c0: 40d4 e93d 248e 09bd 0231 103e e925 f93c
000002d0: 07da 1cbe 9b25 f03c 0d92 e63b 158e 363e
000002e0: 6682 18bc 6089 f03d 5262 cebd 37fd 4d3e
000002f0: fdea 113e e971 c33c 179e acbd d928 89bd
00000300: 55ec 83bd f9de 543c bc5f 50be c35a e2bc
00000310: fb88 f3bc ce2b d83d 04ec aa3e eb5f bf3d
00000320: 1672 443e c818 9e3d 33d0 893d 55a6 38be
00000330: 687c b53d c770 ec3c c7fc d9bd 2253 04be
00000340: 179d 893d b486 3cbe 3a9e dcbd d6cf f5bd
00000350: 3b42 d2bd 9f19 57be 93e4 1c3c e65b b9bd
00000360: dca3 093d 3540 febd ed14 093e 1c70 72be
00000370: d7f3 12be b2d1 5d3d b69d 9b3e 780e 6bbe
00000380: 480b c9bd 1bb7 45be a5c1 9c3d b65c f9bd
00000390: 87e8 103e 2896 823d 438d 5b3e ab59 c6bd
000003a0: 397e 643e c4c5 c13c f5f1 163e 1818 c5bd
000003b0: 3be1 8ebd 8ce4 0b3d 4db2 20bb f921 e3bd
000003c0: 2ebd 073d 9d51 533e d90c b33c 032b 3a3e
000003d0: 81f7 43be 4c0d b03d f780 e5bc ba81 dabc
000003e0: fb4d 43be 323b b13d 726a 033e cecc d33d
000003f0: 5b4a 47be ffb1 d03d 4479 a9bc 22e4 8dbe

l1.bias f4 [400]
0.1582455 0.15737367 0.10502446 -0.2293586 -0.0012719625 -0.06414755 -0.09211332 -0.08427595
-0.119893216 -0.05144562 -0.18506715 -0.13612719 -0.1412888 0.024914997 0.06984132 -0.016800236
-0.1473451 0.113828644 -0.05896534 -0.2317389 -0.15875134 0.022629341 0.18063793 0.12650254
-0.1191876 -0.07391014 -0.20233071 -0.056864318 -0.0072575174 -0.05162447 0.23956467 -0.1827992
-0.011566451 -0.015987918 -0.008839395 -0.023207683 0.08276414 -0.09706544 -0.053858694 0.10090882
0.11091362 -0.045770165 0.13189292 0.070187025 0.022610866 -0.036555834 -0.1769134 -0.08786088
-0.019627776 -0.20225285 -0.1994769 0.14460438 0.13524741 -0.20029125 -0.15341312 0.13445444
-0.16253123 -0.013987744 0.049696174 -0.1516311 0.08997003 0.070579395 -0.23552682 0.060724463
-0.2606056 -0.10631565 0.07616026 -0.12082105 -0.0070427028 -0.035541456 -0.14479944 0.07790818
-0.041552745 -0.08179333 -0.097056255 0.097133674 -0.08250533 -0.1386652 0.21105373 -0.06776409
-0.20453423 -0.07384827 -0.09357575 -0.26558223 -0.104294635 0.06451705 0.12176179 -0.1311004
-0.27816117 -0.01660351 0.02736387 0.12743819 -0.06019897 -0.009428037 -0.18021356 0.08487073
-0.035691164 -0.027070308 0.16452914 -0.040935963 -0.087655455 -0.16365851 0.060847104 -0.28701177
-0.0063720783 0.025035242 -0.14395192 -0.06348402 -0.12315919 0.08233742 -0.072488084 0.11204782
-0.15739852 -0.15891668 -0.08525082 -0.16768377 -0.11674307 -0.12483187 0.110833496 -0.09343642
-0.18006589 0.03720487 -0.22988464 0.08408661 -0.088684045 -0.12664144 -0.07716584 -0.10539325
0.11364706 0.15775482 -0.14645976 0.28956503 -0.0805866 -0.12280893 0.19168884 -0.12616788
-0.15718044 0.17194329 -0.18547831 -0.08569794 0.047039535 -0.08486933 -0.048491236 0.1318068
-0.0915906 0.06484549 0.14175348 0.19177876 0.056523114 0.026429335 0.12213718 -0.19165942
-0.22606103 -0.11008976 0.073606215 -0.1259524 -0.07487078 -0.037681185 -0.0040608523 -0.1339101
-0.13509609 0.054326005 -0.16125262 -0.081883125 -0.054557003 0.10069643 0.15397748 -0.095300764
0.16521999 0.09225513 -0.20998299 0.13916427 -0.01919359 -0.07908139 -0.08032178 -0.08593636
-0.21739224 -0.2366212 -0.05737225 0.06971201 -0.23562573 -0.06409428 -0.041208174 0.02862339
-0.22503732 -0.31731856 0.008213201 -0.14666113 -0.2777919 -0.22923638 0.16073155 0.07602458
0.08028849 -0.02968873 -0.19044782 0.1013699 0.04993994 -0.007482641 -0.19571052 -0.018131819
-0.15252489 -0.07937591 -0.1252703 -0.10517492 -0.098936595 0.0477579 0.124155276 -0.093798764
0.101189174 -0.072607346 -0.189514 -0.18301105 -0.0013242478 -0.22162925 0.11214612 -0.14202446
0.15468279 -0.14383125 -0.06265375 -0.09205017 0.059014756 -0.122531645 0.2654684 0.06924984
-0.021964964 -0.18431135 -0.10397463 -0.09932296 -0.17307855 -0.2156697 -0.24292646 0.06539891
0.10548357 0.08239217 -0.16335742 -0.03610817 0.031829175 -0.22818357 -0.21648654 -0.08484579
0.0059314817 -0.05449906 0.031894084 0.14437972 0.20791453 -0.20217879 0.033967275 -0.041884
-0.08044708 0.08209303 -0.08588728 0.060855404 -0.10848372 -0.07555061 -0.011399138 0.07965641
00000000: 1c0b 223e 9026 213e 1017 d73d fbdc 6abe
00000010: fbb7 a6ba ca5f 83bd e9a5 bcbd df98 acbd
00000020: 938a f5bd a4b8 52bd 3e82 3dbe ed64 0bbe
00000030: 03ae 10be 891a cc3c f708 8f3d a6a0 89bc
00000040: a2e1 16be fe1e e93d a485 71bd f64c 6dbe
00000050: b68f 22be 2b61 b93c 26f9 383e e289 013e
00000060: a118 f4bd 335e 97bd c82f 4fbe 8fea 68bd
00000070: 78d0 edbb 2e74 53bd 7150 753e b72f 3bbe
00000080: 3681 3dbc 18f9 82bc 1cd3 10bc 0a1e bebc
00000090: 3f80 a93d 3fca c6bd ef9a 5cbd 49a9 ce3d
000000a0: ae26 e33d 7f79 3bbd f00e 073e 37be 8f3d
000000b0: 6c3a b93c 92bb 15bd c928 35be 68f0 b3bd
000000c0: 6eca a0bc 5f1b 4fbe ac43 4cbe 2c13 143e
000000d0: 4c7e 0a3e 2619 4dbe 5418 1dbe 6dae 093e
000000e0: 966e 26be da2c 65bc 378e 4b3d 2f45 1bbe
000000f0: 3542 b83d ee8b 903d f12d 71be 37ba 783d
00000100: 196e 85be 05bc d9bd e9f9 9b3d 0771 f7bd
00000110: 79c6 e6bb eb93 11bd 4e46 14be 538e 9f3d
00000120: 3633 2abd 4383 a7bd 6ec5 c6bd 05ee c63d
00000130: 8ef8 a8bd 40fe 0dbe 781e 583e e6c7 8abd
00000140: 6c71 51be c33d 97bd a5a4 bfbd 65fa 87be
00000150: 6d98 d5bd 8421 843d 3f5e f93d 2f3f 06be
00000160: 246b 8ebe 1604 88bc 322a e03c 287f 023e
00000170: 3293 76bd 0e78 1abc e789 38be b5d0 ad3d
00000180: e630 12bd 8dc2 ddbc 547a 283e 78ac 27bd
00000190: b484 b3bd 1996 27be d03a 793d 35f3 92be
000001a0: decc d0bb b516 cd3c 2268 13be e903 82bd
000001b0: e33a fcbd 85a0 a83d a274 94bd 5479 e53d
000001c0: 142d 21be 0ebb 22be fb97 aebd 4bb5 2bbe
000001d0: fe16 efbd daa7 ffbd acfc e23d 985b bfbd
000001e0: 3163 38be 2264 183d e166 6bbe 9a35 ac3d
000001f0: fb9f b5bd 4bae 01be 2009 9ebd 6bd8 d7bd
00000200: cabf e83d 7b8a 213e 8cf9 15be de41 943e
00000210: 960a a5bd 4083 fbbd 144a 443e 2732 01be
00000220: e9f3 20be e711 303e 07ee 3dbe 6782 afbd
00000230: 87ac 403d f9cf adbd bf9e 46bd 5df8 063e
00000240: da93 bbbd b6cd 843d d327 113e a761 443e
00000250: c884 673d 5582 d83c 0f23 fa3d 5e42 44be
00000260: 8b7c 67be bd76 e1bd dbbe 963d aaf9 00be
00000270: da55 99bd 9657 1abd e610 85bb bb1f 09be
00000280: a156 0abe f284 5e3d 681f 25be 57b2 a7bd
00000290: 2a77 5fbd ee39 ce3d 46ac 1d3e 0c2d c3bd
000002a0: 6e2f 293e 42f0 bc3d c805 57be 1481 0e3e
000002b0: e03b 9dbc 6cf5 a1bd bf7f a4bd 67ff afbd
000002c0: 129c 5ebe d44c 72be 2aff 6abd 2cc5 8e3d
000002d0: df47 71be dd43 83bd e7c9 28bd 997b ea3c
000002e0: 2f70 66be 9477 a2be a990 063c 562e 16be
000002f0: bd3a 8ebe f1bc 6abe d096 243e c6b2 9b3d
00000300: 4b6e a43d c835 f3bc c104 43be 069b cf3d
00000310: d38d 4c3d f130 f5bb 5768 48be 2e89 94bc
00000320: 7c2f 1cbe d68f a2bd dc46 00be f365 d7bd
00000330: 459f cabd ca9d 433d 1f45 fe3d 9119 c0bd
00000340: 453c cf3d 29b3 94bd f50f 42be 4067 3bbe
00000350: 6292 adba c7f2 62be ddac e53d dc6e 11be
00000360: 2a65 1e3e 8048 13be 9c50 80bd cd84 bcbd
00000370: 75b9 713d dff1 fabd 79eb 873e dcd2 8d3d
00000380: deef b3bc 1dbc 3cbe a7f0 d4bd d669 cbbd
00000390: 813b 31be 85d8 5cbe b7c1 78be ddef 853d
000003a0: c507 d83d 3abd a83d 2b47 27be 29e6 13bd
000003b0: 4f5f 023d f4a8 69be a6ae 5dbe a1c3 adbd
000003c0: e05c c23b 683a 5fbd 5fa3 023d 47d8 133e
000003d0: 8ce7 543e f507 4fbe 4521 0b3d 8f8e 2bbd
000003e0: 70c1 a4bd 6420 a83d ace5 afbd 8443 793d
000003f0: b62c debd 47ba 9abd 73c3 3abc e622 a33d

l2.weight f4 [300, 400]
0.11201057 -0.07148817 -0.016137471 0.0011711711 0.0058774706 0.049600758 -0.0070565166 -0.024229368
-0.03699382 -0.04408078 -0.07691629 -0.055759396 -0.03454809 -0.09232811 -0.059818063 0.019923082
-0.022442473 -0.028823605 0.037223622 -0.03096888 0.0358179 0.105927914 -0.020495085 -0.045175742
0.02351966 -0.016046872 0.0301 -0.032584593 -0.029200882 -0.04417331 -0.16766953 -0.04215287
0.013006851 -0.06031686 -0.013987886 -0.057284098 0.004607748 0.003834355 0.032879997 -0.008739907
0.07617145 0.03581289 0.01620454 0.039279558 -0.07096642 -0.084156856 0.012216747 -0.065261915
-0.014749512 -0.04002544 0.021512056 0.012846632 -0.09026532 -0.07188892 -0.01226498 -0.036852323
-0.030485207 -0.028185261 -0.07137125 0.0070699593 -0.11438916 -0.023118256 -0.06444213 -0.076918624
-0.032503676 -0.014246928 -0.00434665 0.012382751 -0.05053979 0.00010849601 0.031965513 0.055061307
-0.017815182 0.02882597 -0.061420605 -0.03590047 0.042434655 -0.020903748 -0.09085563 0.038891546
-0.060156036 -0.07297902 0.038354512 -0.008980773 0.021435017 -0.062369667 -0.0819007 0.040695723
-0.045909323 -0.027286798 0.025667138 -0.025360068 0.018833734 0.02238253 0.020322599 -0.059534192
-0.011097313 -0.08985771 0.04723187 -0.029079758 0.012832953 -0.007374296 0.0010160523 0.08617047
0.015654791 -0.15209964 0.014910649 -0.103472345 -0.028752724 -0.12038662 -0.0021452082 -0.023624182
0.0542697 -0.07476159 -0.120877415 0.017862344 -0.004408785 0.025810257 -0.04116598 -0.027722538
-0.06658431 0.016983321 0.0034163934 0.05462395 -0.01899846 -0.06057944 -0.01794754 -0.01738849
0.04746176 0.008170498 -0.036184635 -0.054702483 -0.012070691 0.034462623 0.03392484 -0.05821464
0.030574527 -0.007605984 -0.046657372 -0.061022833 -0.016218672 -0.0068595232 0.021278994 0.02184014
0.01167999 -0.024729135 0.03622397 -0.065810405 -0.08603533 0.024260754 0.061712723 0.10405731
-0.06716844 -0.035135202 -0.16695398 0.035240654 0.023159606 -0.0041558635 -0.2054837 -0.014605065
0.010823968 0.0048138173 -0.04167132 -0.08042116 -0.011635588 -0.030521402 0.058031265 -0.08461706
-0.058853563 -0.031556167 0.048987005 -0.012237217 -0.062140267 0.034883276 -0.034392893 -0.053537276
0.007855566 -0.007047356 0.029127726 0.10227932 -0.058539987 -0.071521975 0.053160228 -0.0071942997
-0.08130985 -0.08398822 0.11814998 0.034067262 0.0029452278 -0.015690725 0.033213943 0.02556822
-0.0037875557 -0.055165693 0.07463898 -0.033134058 -0.021858353 -0.040164858 -0.052510906 -0.03488903
-0.022044782 -0.01913141 0.000730504 -0.040477946 -0.08039201 -0.06138232 0.07289948 -0.02117787
-0.0044172956 0.025020054 -0.06977906 0.06654267 0.004790531 -0.03853471 0.0124377655 0.02376233
0.030452041 0.01420844 -0.05055829 -0.036608223 0.041493446 -0.010972218 0.08816915 0.06415647
0.050183106 -0.112959094 -0.05377229 0.025670806 -0.036580913 0.02088298 -0.028421914 -0.06642304
-0.008503711 0.004190417 -0.020514257 -0.09086481 0.028016811 0.04143971 0.015954481 0.014617965
-0.07393583 0.21412688 -0.03192563 -0.08026722 -0.043052368 -0.017109724 0.0798296 -0.036240447
0.027763309 -0.01718177 -0.004198939 -0.060601495 -0.020707386 0.01640482 0.04338753 0.010137078
00000000: cc65 e53d 6468 92bd bb32 84bc fb81 993a
00000010: cc97 c03b 2a2a 4b3d 5a3a e7bb ab7c c6bc
00000020: d586 17bd 0c8e 34bd 4a86 9dbd f763 64bd
00000030: 4c82 0dbd 8516 bdbd c903 75bd bb35 a33c
00000040: 47d9 b7bc 7b1f ecbc cc77 183d 73b2 fdbc
00000050: cab5 123d bcf0 d83d 4fe5 a7bc 330a 39bd
00000060: 4dac c03c bb74 83bc 4694 f63c 6c77 05bd
00000070: b036 efbc 13ef 34bd 90b1 2bbe 7da8 2cbd
00000080: b01a 553c d00e 77bd 722d 65bc bba2 6abd
00000090: 97fc 963b cd49 7b3b 2dad 063d d431 0fbc
000000a0: c7ff 9b3d 89b0 123d 62bf 843c 9ae3 203d
000000b0: d856 91bd 6e5a acbd c028 483c 0aa8 85bd
000000c0: f0a7 71bc b7f1 23bd 0d3a b03c ae7a 523c
000000d0: 06dd b8bd 803a 93bd 0ef3 48bc 76f2 16bd
000000e0: 1dbc f9bc c7e4 e6bc 172b 92bd 1eab e73b
000000f0: dd44 eabd 7f62 bdbc 3cfa 83bd 8387 9dbd
00000100: 9322 05bd f26b 69bc 586e 8ebb 06e1 4a3c
00000110: d002 4fbd 5a88 e338 45ee 023d f787 613d
00000120: 25f1 91bc 7124 ec3c 2c94 7bbd 5f0c 13bd
00000130: f6cf 2d3d 563e abbc 8412 babd be4c 1f3d
00000140: 2d66 76bd 0676 95bd 9f19 1d3d 1824 13bc
00000150: 7d98 af3c 5677 7fbd 8ebb a7bd 8fb0 263d
00000160: 6a0b 3cbd 9088 dfbc e443 d23c ebbf cfbc
00000170: 3449 9a3c 915b b73c 947b a63c 20da 73bd
00000180: 81d1 35bc 5207 b8bd 3576 413d ac38 eebc
00000190: 4e41 523c 14a4 f1bb 0f2d 853a 257a b03d
000001a0: 7a3e 803c 02c0 1bbe cb4b 743c 4fe9 d3bd
000001b0: d58a ebbc 438d f6bd 9f96 0cbb 8087 c1bc
000001c0: e849 5e3d 9b1c 99bd 948e f7bd 0d54 923c
000001d0: 9277 90bb 0870 d33c a99d 28bd 601a e3bc
000001e0: 5b5d 88bd 9b20 8b3c 92e5 5f3b 5dbd 5f3d
000001f0: a9a2 9bbc 2622 78bd b806 93bc 4e72 8ebc
00000200: 4367 423d 8ddd 053c 5736 14bd b60f 60bd
00000210: 26c4 45bc ae28 0d3d c6f4 0a3d 7972 6ebd
00000220: 6e77 fa3c 9e3b f9bb cd1b 3fbd 14f3 79bd
00000230: 05dd 84bc dac5 e0bb 4951 ae3c 18ea b23c
00000240: 6e5d 3f3c c194 cabc 965f 143d 9bc7 86bd
00000250: 4b33 b0bd 7dbe c63c 7bc6 7c3d 001c d53d
00000260: 9b8f 89bd eee9 0fbd fcf5 2abe 8158 103d
00000270: 37b9 bd3c e92d 88bb 526a 52be 154a 6fbc
00000280: 0357 313c 3abd 9d3b 8caf 2abd d9b3 a4bd
00000290: 31a3 3ebc 0508 fabc 31b2 6d3d b64b adbd
000002a0: 6f10 71bd 0a41 01bd 99a6 483d 9c7e 48bc
000002b0: cb86 7ebd c4e1 0e3d 90df 0cbd e749 5bbd
000002c0: a2b4 003c 82ed e6bb 459d ee3c d277 d13d
000002d0: a0c7 6fbd 1d7a 92bd 8abe 593d 29be ebbb
000002e0: c785 a6bd 0402 acbd 9ef8 f13d 1d8a 0b3d
000002f0: b904 413b d689 80bc 580b 083d 7274 d13c
00000300: a438 78bb 6cf5 61bd 52dc 983d 94b7 07bd
00000310: 4a10 b3bc e883 24bd ad15 57bd cde7 0ebd
00000320: 4297 b4bc 7ab9 9cbc 4b7f 3f3a 34cc 25bd
00000330: 91a4 a4bd 076c 7bbd 534c 953d 367d adbc
00000340: f6be 90bb dbf6 cc3c 53e8 8ebd 8647 883d
00000350: e3f9 9c3b 92d6 1dbd c5c7 4b3c 38a9 c23c
00000360: 8f76 f93c 84ca 683c 3616 4fbd 81f2 15bd
00000370: 08f5 293d d1c4 33bc 0792 b43d 7864 833d
00000380: cd8c 4d3d 1957 e7bd 5540 5cbd 954b d23c
00000390: ded5 15bd c912 ab3c 13d5 e8bc ce08 88bd
000003a0: 2653 0bbc c44f 893b 840d a8bc 5417 babd
000003b0: 8383 e53c afbc 293d f9b2 823c 3080 6f3c
000003c0: ab6b 97bd 1444 5b3e 73c4 02bd 2463 a4bd
000003d0: ae57 30bd b129 8cbc b47d a33d dd70 14bd
000003e0: e16f e33c c9c0 8cbc 4197 89bb 4639 78bd
000003f0: 89a2 a9bc 6763 863c 1fb7 313d fd15 263c

l2.bias f4 [300]
-0.08157967 0.04723693 0.025315365 0.026083224 -0.08663752 0.02905346 -0.029246548 -0.073399805
-0.035661966 -0.023260854 -0.037788544 0.07976315 -0.06078353 0.0082249865 -0.08367029 -0.029378915
-0.013195291 -0.022450265 -0.052267298 0.025222415 -0.006539531 -0.061547156 0.032063186 -0.020634029
-0.07383956 -0.036173597 -0.012568311 -0.021135872 -0.022157144 0.086863965 -0.03904358 0.025140066
-0.045551535 0.089253 -0.019623363 -0.039576244 -0.059992567 0.05275409 0.09225319 0.06226707
-0.036590658 0.023124048 0.23578851 -0.05907509 -0.05841912 0.056906074 -0.0063256575 -0.019975146
0.04045969 0.03812388 -0.05598667 0.09971668 -0.056429558 -0.023262225 -0.050343536 0.04493625
-0.04662702 -0.024644442 -0.032546293 -0.0035825924 -0.014828132 0.028121857 -0.024596082 0.044283833
-0.06378462 0.02032858 -0.08495413 -0.046895374 -0.016668908 -0.035492938 0.11136146 -0.038078398
0.006341549 -0.04862399 0.07417496 -0.02728145 0.011700488 0.10000497 -0.055940837 0.004754121
0.0026835175 0.15327898 -0.0829666 -0.05003519 0.28176898 0.074014366 -0.04865943 -0.031270668
-0.07339461 0.25127393 -0.012760857 -0.00710316 0.043343127 0.044288516 0.09401511 -0.0074157044
-0.06634887 -0.016106734 -0.030409249 0.08591456 -0.054158315 0.0009781946 0.05836464 -0.059720702
-0.021289976 -0.05632701 -0.07348516 -0.04406592 -0.059955288 -0.0036541356 0.15305415 0.001706407
-0.063313216 -0.014376023 -0.058566146 -0.041598264 0.17600653 -0.014323765 -0.03802302 0.01327522
0.21872751 -0.07118354 0.012512972 -0.013897333 -0.05112468 0.0020547835 -0.033750042 0.15615615
-0.029307088 -0.022219371 0.047608763 -0.057428792 0.020977722 0.008521776 -0.051000774 0.0022117451
0.020908587 0.03375884 -0.021871941 -0.07197976 0.16835533 -0.0017231076 0.029206978 0.09240453
-0.026329655 -0.04719521 -0.027399002 -0.104937874 -0.0425089 -0.04823989 -0.060877718 0.0060492414
-0.061269123 0.0018409401 0.027039627 -0.051643334 0.034629818 -0.00353789 -0.010260354 -0.0655492
-0.022237254 -0.044854496 -0.03309718 -0.0071787997 -0.00787451 -0.024131168 -0.053885598 -0.009217509
0.087181345 -0.031833325 -0.030915784 -0.032396205 -0.035771836 -0.061405737 -0.011614731 -0.05777028
-0.055457823 0.07561414 -0.0165728 -0.09726836 -0.050344612 0.033866562 -0.04599611 -0.05760882
0.06697595 0.01348396 0.0014493902 0.01621264 -0.050954502 -0.062128663 -0.03216701 -0.021744203
-0.050217047 -0.04283331 -0.074625805 0.08934619 -0.072620764 0.030518783 -0.05257471 0.049220506
-0.049299307 -0.031693757 -0.108517624 0.02150826 0.03494536 0.05339151 -0.057367116 -0.021433191
-0.04627488 -0.06088469 -0.047335282 -0.030039674 -0.044739988 -0.0062428024 -0.0060214405 -0.059311744
0.044660956 0.028333623 -0.04670489 -0.036505807 0.017139204 -0.01566991 -0.07266364 -0.055759136
-0.026408149 -0.033525724 0.04506159 0.08643116 0.02896718 -0.039757002 -0.055545896 -0.01766119
-0.034134176 -0.05815363 -0.038281463 0.058192156 -0.05536357 -0.018151784 0.03799066 -0.01998445
0.064307906 0.045104384 -0.00020083989 0.03706954 -0.05919939 0.06736344 -0.03545228 -0.054372415
-0.0009876534 -0.07067446 -0.01797832 -0.03714122 0.018664196 0.09400766 -0.021607049 -0.008405535
00000000: 3e13 a7bd 837b 413d 2b62 cf3c 7cac d53c
00000010: 036f b1bd 8601 ee3c 7596 efbc a352 96bd
00000020: 4812 12bd 8c8d bebc 29c8 1abd dd5a a33d
00000030: 27f8 78bd 18c2 063c 545b abbd 0dac f0bc
00000040: 1031 58bc 9ee9 b7bc 3c16 56bd 3d9f ce3c
00000050: 9049 d6bb df18 7cbd b054 033d b208 a9bc
00000060: 3239 97bd c42a 14bd 51eb 4dbc 2325 adbc
00000070: e682 b5bc bce5 b13d 29ec 1fbd 8af2 cd3c
00000080: 3f94 3abd 47ca b63d 2dc1 a0bc b31a 22bd
00000090: c4ba 75bd ac14 583d 3eef bc3d c10b 7f3d
000000a0: 16e0 15bd a56e bd3c 8b72 713e b9f8 71bd
000000b0: e348 6fbd 5816 693d 7647 cfbb eba2 a3bc
000000c0: 0fb9 253d c927 1c3d 4752 65bd 4238 cc3d
000000d0: ae22 67bd 6c90 bebc 0635 4ebd 130f 383d
000000e0: f9fb 3ebd 24e3 c9bc 434f 05bd edc9 6abb
000000f0: b2f1 72bc cf5f e63c b97d c9bc f762 353d
00000100: 83a1 82bd 1f88 a63c 6efc adbd 5d15 40bd
00000110: 3c8d 88bc 0b61 11bd 7a11 e43d 18f8 1bbd
00000120: c5cc cf3b f329 47bd 0be9 973d 597d dfbc
00000130: 67b3 3f3c 68cf cc3d 3822 65bd 75c8 9b3b
00000140: f4dd 2f3b 2af5 1c3e 65ea a9bd b3f1 4cbd
00000150: 0644 903e d894 973d 1c4f 47bd ac15 00bd
00000160: ea4f 96bd faa6 803e ea12 51bc a0c1 e8bb
00000170: 9088 313d e067 353d fe8a c03d 70ff f2bb
00000180: ebe1 87bd 45f2 83bc d11c f9bc f9f3 af3d
00000190: 1cd5 5dbd c436 803a c30f 6f3d b29d 74bd
000001a0: 5168 aebc 27b7 66bd 637f 96bd 777e 34bd
000001b0: ad93 75bd 397a 6fbb 3aba 1c3e 85a9 df3a
000001c0: 5caa 81bd 6989 6bbc 0ee3 6fbd f162 2abd
000001d0: 0e3b 343e 3aae 6abc 07be 1bbd 4f80 593c
000001e0: 1bfa 5f3e adc8 91bd 3503 4d3c a4b1 63bc
000001f0: 1d68 51bd 8ca9 063b 7c3d 0abd 66e7 1f3e
00000200: 6b15 f0bc 6605 b6bc 6801 433d 743a 6bbd
00000210: 79d9 ab3c eb9e 0b3c 30e6 50bd edf2 103b
00000220: 7c48 ab3c b646 0a3d c92c b3bc 206a 93bd
00000230: 5765 2c3e e6d9 e1ba 7943 ef3c 963e bd3d
00000240: 4ab1 d7bc c44f 41bd df73 e0bc abe9 d6bd
00000250: d01d 2ebd 3197 45bd ea5a 79bd b738 c63b
00000260: 55f5 7abd b34b f13a 3582 dd3c f687 53bd
00000270: ffd7 0d3d f2db 67bb 0b1b 28bc a93e 86bd
00000280: e72a b6bc 59b9 37bd e990 07bd 233c ebbb
00000290: 1704 01bc baae c5bc 25b7 5cbd 0905 17bc
000002a0: 228c b23d a963 02bd 1943 fdbc e2b1 04bd
000002b0: 7d85 12bd 9584 7bbd b64b 3ebc 87a0 6cbd
000002c0: be27 63bd 96db 9a3d aec3 87bc a234 c7bd
000002d0: 2736 4ebd aab7 0a3d 6b66 3cbd 3af7 6bbd
000002e0: b02a 893d d4eb 5c3c 77f9 bd3a 5fd0 843c
000002f0: abb5 50bd a07a 7ebd 8ec1 03bd e620 b2bc
00000300: 64b0 4dbd fb71 2fbd 6ad5 98bd 23fb b63d
00000310: 32ba 94bd 8702 fa3c 9458 57bd 719b 493d
00000320: 12ee 49bd 50d1 01bd 7d3e debd 1732 b03c
00000330: de22 0f3d 0eb1 5a3d c8f9 6abd a994 afbc
00000340: bb8a 3dbd 3a62 79bd a4e2 41bd c315 f6bc
00000350: 4741 37bd 6c90 ccbb 814f c5bb dff0 72bd
00000360: 68ee 363d ea1b e83c a04d 3fbd 1d87 15bd
00000370: 8467 8c3c 2f5e 80bc add0 94bd b163 64bd
00000380: e755 d8bc 4552 09bd 8092 383d d202 b13d
00000390: 944c ed3c 3dd8 22bd 1884 63bd 33ae 90bc
000003a0: 47d0 0bbd 8032 6ebd 06cd 1cbd e65a 6e3d
000003b0: e9c4 62bd 0db3 94bc 189c 1b3d 6eb6 a3bc
000003c0: ddb3 833d 60bf 383d 8c98 52b9 3bd6 173d
000003d0: 0f7b 72bd d8f5 893d 6936 11bd 9cb5 5ebd
000003e0: 2674 81ba c5bd 90bd 4547 93bc 6421 18bd
000003f0: a8e5 983c 1787 c03d 4401 b1bc 5eb7 09bc

l3.weight f4 [4, 300]
-0.0021231172 0.1101184 0.099340685 -0.037535332 -0.10354215 -0.09488776 0.02895557 -0.077348046
0.03680571 -0.15132077 -0.016078176 -0.18052585 -0.033576004 0.07430396 0.010673809 -0.0274184
-0.05420152 -0.15250787 -0.1286565 -0.117282696 -0.110261045 -0.026068069 -0.061644446 -0.24035567
-0.10626621 -0.034247633 -0.025359856 0.0334185 0.01202287 -0.12464634 -0.003768678 0.08178105
-0.14937054 -0.014367487 -0.10477844 -1.0501686 -0.0009551499 -0.12606792 -0.034672227 0.24731502
-0.026976952 -0.16735005 -0.17975311 0.006245473 -0.07168524 -0.18713811 -0.047115106 -0.13423568
-0.112174876 -0.10456697 -0.019097982 -0.10171912 -0.04069604 0.027493766 -0.016428325 -0.13979954
-0.045432672 -0.052731536 0.032116428 -0.18903874 0.037117623 -0.054544184 0.009834001 -0.15626724
0.00220347 -0.0600368 0.0029698461 0.014496022 -0.000517767 -0.038381115 0.0624413 0.017850298
0.21981834 -0.021084215 0.12748782 0.03932884 -0.08906313 -0.21488622 0.0047028097 -0.13030276
0.086392865 -0.05282358 -0.032862175 -0.019381834 0.049699165 0.034450065 -0.029965565 -0.1419605
0.035235334 -0.21228185 0.04627561 -0.094069675 -0.06906347 -0.097114705 -0.19764166 -0.01783542
-0.01023447 0.023215618 0.03574664 -0.12770623 0.024338143 0.0027750588 -0.028331269 -0.002292192
0.052949596 0.031114243 -0.002928384 -0.0035050395 0.0634991 0.0014363114 -0.012969835 -0.06600024
-0.087846234 -0.08583428 -0.017323567 -0.08937938 -0.13424948 0.034762308 0.08358744 -0.03675423
0.027937578 0.0005299001 0.022666901 0.00086820964 -0.00093398726 0.06041569 -0.009314789 -0.076264165
-0.0069519742 0.03197496 0.01769935 -0.03842114 0.14332335 -0.01121233 0.0030948173 -0.06673279
-0.07634928 -0.10132418 0.014612372 0.027897527 -0.22768761 -0.033222225 0.11248285 0.1192887
0.020171136 -0.056070205 0.09805188 -0.016275184 0.011544618 -0.006995327 0.013778538 0.029591508
0.0033506916 -0.17010662 -0.050465293 0.043483302 0.059383392 -0.038951896 0.082387276 0.051955137
0.015236428 0.028278265 -0.054354537 0.06972819 -0.13064308 -0.07837617 0.011197627 -0.016803762
-0.15349635 0.014311286 0.01515912 -0.00353305 -0.07197902 -0.0451815 -0.03373701 -0.026646031
0.011709781 -0.16106065 -0.0785507 -0.004503374 0.023463402 0.026647594 0.0074817007 -0.090876
-0.043140955 -0.02420734 0.018693935 -0.121008255 -0.01755648 0.019986562 0.03135728 -0.055277992
-0.056917943 -0.026051804 0.07283117 -0.043657932 -0.027230639 -0.08033153 0.008642209 -0.15253608
0.033902388 -0.06295738 0.051109172 0.06295065 0.007278304 -0.07842865 0.030639611 -0.013793326
-0.024014767 -0.028034447 -0.022693839 -0.030022742 -0.012574881 0.0357157 0.035785057 -0.01635156
0.16683649 -0.09054388 0.005101362 0.050109014 -0.019081114 -0.038197774 0.0008244758 0.010181201
0.08717549 0.02679021 -0.036024805 -0.13805571 -0.13595963 -0.023714243 -0.025361272 -0.16763757
-0.20491129 0.02101904 0.009192565 -0.045200914 0.14481832 0.016051248 -0.17734845 0.07800866
-0.14049104 -0.30599007 0.006402885 -0.14497116 0.046296097 -0.05531391 -0.0009184906 0.03644013
-0.057798054 -0.029593583 -0.023664318 -0.07422257 -0.23356614 -0.044747155 0.025368394 -0.079133734
00000000: ff23 0bbb c185 e13d 2173 cb3d a6be 19bd
00000010: e80d d4bd 8454 c2bd 3b34 ed3c a768 9ebd
00000020: 96c1 163d d5f3 1abe 61b6 83bc c5db 38be
00000030: fe86 09bd ad2c 983d 33e1 2e3c 8d9c e0bc
00000040: 6a02 5ebd 062b 1cbe 88be 03be e931 f0bd
00000050: 8bd0 e1bd b48c d5bc e37e 7cbd cc1f 76be
00000060: 19a2 d9bd 3f47 0cbd 79bf cfbc d6e1 083d
00000070: 92fb 443c 9546 ffbd edfb 76bb d37c a73d
00000080: 97f4 18be 9c65 6bbc 1496 d6bd ed6b 86bf
00000090: 0663 7aba f317 01be 7704 0ebd 2640 7d3e
000000a0: c5fe dcbc d05d 2bbe 3311 38be d3a6 cc3b
000000b0: b6cf 92bd 22a1 3fbe c5fb 40bd 1475 09be
000000c0: f1bb e5bd 3527 d6bd 5f73 9cbc 1d52 d0bd
000000d0: e4b0 26bd 9b3a e13c b294 86bc 9c27 0fbe
000000e0: 9c17 3abd 06fd 57bd 848c 033d 5f93 41be
000000f0: a608 183d b969 5fbd ca1e 213c 8504 20be
00000100: 1868 103b 26e9 75bd c0a1 423b b980 6d3c
00000110: c1ba 07ba 8435 1dbd 73c2 7f3d ca3a 923c
00000120: 0f18 613e ceb8 acbc 2b8c 023e 4717 213d
00000130: bb66 b6bd 220b 5cbe 071a 9a3b 166e 05be
00000140: beee b03d 8a5d 58bd 7d9a 06bd a7c6 9ebc
00000150: 5a91 4b3d 831b 0d3d 587a f5bc 185e 11be
00000160: ed52 103d 6a60 59be 7e8b 3d3d 9aa7 c0bd
00000170: 2671 8dbd 13e4 c6bd 9362 4abe 961b 92bc
00000180: 7aae 27bc ae2e be3c 126b 123d 6cc5 02be
00000190: c960 c73c c3dd 353b fa16 e8bc 9a38 16bb
000001a0: ade1 583d 4ce3 fe3c 22ea 3fbb ceb4 65bb
000001b0: d10b 823d 9d42 bc3a 6e7f 54bc 222b 87bd
000001c0: bae8 b3bd e2c9 afbd 27ea 8dbc 890c b7bd
000001d0: b278 09be ec62 0e3d e42f ab3d 9a8b 16bd
000001e0: 59dd e43c fee8 0a3a f0af b93c 9098 633a
000001f0: d3d6 74ba 7176 773d 0f9d 18bc 6330 9cbd
00000200: 63cd e3bb 2df8 023d 3afe 903c 7c5f 1dbd
00000210: 5bc3 123e ecb3 37bc 6bd2 4a3b 33ab 88bd
00000220: 035d 9cbd 0d83 cfbd bb68 6f3c 5b89 e43c
00000230: f126 69be 0714 08bd 695d e63d a24d f43d
00000240: f03d a53c dfa9 65bd 6dcf c83d 8953 85bc
00000250: a325 3d3c 0e39 e5bb 61bf 613c e469 f23c
00000260: 4797 5b3b 6e30 2ebe b2b4 4ebd 8c1b 323d
00000270: 003c 733d 068c 1fbd a9ba a83d e9ce 543d
00000280: 36a2 793c d2a7 e73c dda2 5ebd a7cd 8e3d
00000290: 4dc7 05be af83 a0bd 4076 373c 0ba8 89bc
000002a0: 262e 1dbe e279 6a3c f55d 783c be8a 67bb
000002b0: bd69 93bd 3d10 39bd d22f 0abd c748 dabc
000002c0: 62da 3f3c 15ed 24be 30df a0bd 0a91 93bb
000002d0: 5236 c03c 0e4c da3c 0e29 f53b 321d babd
000002e0: 92b4 30bd 794e c6bc 0624 993c 2dd3 f7bd
000002f0: 9bd2 8fbc dcba a33c 7e70 003d 2d6b 62bd
00000300: ca22 69bd 986a d5bc 8228 953d a9d2 32bd
00000310: ca12 dfbc db84 a4bd 0d98 0d3c 6b32 1cbe
00000320: 3bdd 0a3d cdef 80bd da57 513d 45ec 803d
00000330: d77e ee3b 339f a0bd ecff fa3c 67fd 61bc
00000340: 9eba c4bc 7fa8 e5bc 6ee8 b9bc 41f2 f5bc
00000350: e006 4ebc a04a 123d 5a93 123d b5f3 85bc
00000360: 2fd7 2a3e 126f b9bd 5329 a73b 1c3f 4d3d
00000370: ff4f 9cbc 4575 1cbd a221 583a 0dcf 263c
00000380: 1089 b23d 2477 db3c bf8e 13bd 7a5e 0dbe
00000390: 0039 0bbe 5f44 c2bc 71c2 cfbc 2fa9 2bbe
000003a0: 44d4 51be 1f30 ac3c 6a9c 163c 9824 39bd
000003b0: 414b 143e e87d 833c d59a 35be 01c3 9f3d
000003c0: e2dc 0fbe bbaa 9cbe 4bcf d13b 5273 14be
000003d0: faa0 3d3d d790 62bd dcc6 70ba 3f42 153d
000003e0: a7bd 6cbd 3e6e f2bc acdb c1bc 0102 98bd
000003f0: f62b 6fbe cb48 37bd 61d1 cf3c de10 a2bd

l3.bias f4 [4]
-0.005067116 0.11796784 0.09721675 0.054054618
00000000: 0d0a a6bb 1f99 f13d 9319 c73d 6068 5d3d
