TD3/models/second_training_attempt/train_350_episodes_critic_2.pth (torch, 531051 bytes, 5 tensors)

l1.weight f4 [400, 28]
00000000: caad 8d3e eb01 003f 1163 3bbe 2ee7 9abe
00000010: 7488 b1bc 6d19 e13c cf96 073e 0811 26be
00000020: a788 edbd a67a bcbd 0fb4 73bc 2e42 8fbd
00000030: 4a49 933e 0d6b a9be ea84 9c3d 1dae 183e
00000040: ce3c dfbc 4c9c ed3d fb67 09be 942b e83d
00000050: 98af 94bb ed94 febc 45ad e93c 9e60 823c
00000060: 8846 5fbc 9de4 e93c 296f 8dbc 9584 45bd
00000070: 10d6 4d3d 145c 913e 0dd4 80be 1b17 63be
00000080: ad80 7b3e 9ed4 efbc 5bb2 3f3d 4d12 10be
00000090: 3acf 72bd 84ce 86bd d713 803c d8dd 253e
000000a0: c271 173e 374c 9dbe 76b8 2f3c 1b6c 7d3d
000000b0: f92a 0f3d fd72 3cbe 162e 48be db8d 733d
000000c0: ff88 cabb b003 82be cdda d43d 7cdd 3ebe
000000d0: 5ce8 0e3d 3a96 103d 3232 cd3d 8a93 0bbe
000000e0: ae94 80bd a923 933c 1403 62be 7c52 60bd
000000f0: d5a9 513e 9dea 1dbe 4c3b 08be 1d17 a5bd
00000100: 6f15 a8bd ddd2 90bc d656 08be ba64 f73d
00000110: f961 313e 0ceb 91b9 c166 29bd 2145 68be
00000120: 690c 11bd 4e08 4d3d b316 be3d f7bc 50bd
00000130: c79e 253d c5a1 373b 6061 a0bd d3ee aabd
00000140: bdc8 90bd 5cca 5dbd 0210 9ebb 1cf9 abbd
00000150: 236e 363e 1560 803d e090 b0bd e23f 0abf
00000160: 91e0 0b3e 1bb8 eabc d907 14be cdef d63d
00000170: b9e8 02be fc31 4bbe 44c0 5e3c 38bc 0e3b
00000180: 451a a7bc 6aa1 b1be 82ee df3d 07e2 ecbd
00000190: c3f8 c03b 1432 1f3e 78e8 f9bd 0a49 41bd
000001a0: ef04 b5bd ae56 92bd 3cb6 eebb 7b50 613e
000001b0: 3062 533d 9080 9dbd 997c 533b 99da 9a3d
000001c0: 8050 893e 930c 91bc b9fe 1abd b7c2 b53e
000001d0: f7bd 9a3c 2cee ba3c f98b 99be 9979 313e
000001e0: f081 ee3d fe63 093e 4d0d 71be eec8 c3bd
000001f0: 0b3d 033d 9c30 013e e906 053d 4149 66bd
00000200: e133 7dbc 7880 273e d8db 373c c92e c4bd
00000210: b27e c03c ea59 413e fed8 f73d a9c8 cebd
00000220: 3f37 093e 626f ffbb 4228 84bd a5e0 2b3d
00000230: 9439 73be 1ba1 ecbd 5572 b33e 7ea8 3dbe
00000240: 1715 82be a68c 4d3e be76 ef3d bcd9 2f3d
00000250: b816 33bb d27a c2bc 5eff 383e 7916 d93c
00000260: b270 9cbd bb54 883c 85de ce3d 76ba 383e
00000270: 24b2 9abd ae82 273d ef4b e73b 4c0f 58bd
00000280: e7c4 37be 3a47 02be d048 1abe f51c 6d3d
00000290: 7583 1cbe fcd2 1b3e 799b 00be 7c55 88bd
000002a0: c63a 713e 6c70 bf3e 5879 b0be 996e 7abe
000002b0: d791 a33e 44f9 e2bd 4d07 abbc 8169 52be
000002c0: 0102 9abd 63a7 e23c 4f2b f7bd 064a a23c
000002d0: b24f 9d3c f30c 12be 9622 e0bc 9380 d03d
000002e0: 8ccd a93c aa2e 6dbd cc89 1d3e b30b f63c
000002f0: f18b c0bd 47f0 e2bd 8e25 163e 02b5 5abd
00000300: db97 5a3d 5348 3b3d c992 e9bb e167 1e3b
00000310: e8f1 fa3e c9fe 283e 9692 94be a09f 6cba
00000320: ae59 ffbb 946d 053e a666 b63d 9d19 d93d
00000330: 15b3 1abd 495a 843e a7af 033e 84c7 19bc
00000340: ec39 05be e655 d23c 649c 3d3e a706 3a3e
00000350: 3d13 d53c d3d9 1d3e e889 04be e012 cc3c
00000360: 1067 923d 37c5 683d 26c0 ffbd bbf8 a63c
00000370: f2b5 80bc 312e ff3c bd54 263c 3f52 19bd
00000380: 71e0 673d cbae da3d c12b 88be f058 dcbe
00000390: 6f61 6e3c 6a88 efbb e1a3 bcbd b22b 9ebb
000003a0: eb36 a3bd 71c3 a7be ad91 5cbd a2e3 813d
000003b0: 80bf 003e b849 38be 1ad6 00be eec4 5cbe
000003c0: 209e 40be 145c 8a3d 8bd6 27be c62b 8c3d
000003d0: fae9 f23d 0982 1d3d 949e 143e ba22 69bd
000003e0: e6fc 9a3a 1ed1 9b3b 7923 44bd f4b8 a7bc
000003f0: 497d a63d 8ef9 863e 4ed9 30be 8b99 64be
0.27671653 0.50002927 -0.1829951 -0.302545 -0.021671511 0.027477944 0.13241123 -0.16217434
-0.1159833 -0.09203081 -0.014874472 -0.06995045 0.28766853 -0.33089486 0.07642539 0.14910169
-0.027250674 0.11602077 -0.13418572 0.11336437 -0.004537534 -0.031076873 0.028525004 0.015915211
-0.013627656 0.028551394 -0.01726492 -0.048222143 0.050252974 0.28390563 -0.25161782 -0.22176783
0.24560805 -0.029276188 0.046800952 -0.14069481 -0.059279658 -0.065823585 0.01563446 0.16197908
0.14789489 -0.3072221 0.010725131 0.061870676 0.03495309 -0.1840324 -0.1954883 0.059461456
-0.006180882 -0.25393438 0.103932954 -0.18639177 0.034889564 0.035299517 0.100193396 -0.136305
-0.062783584 0.01796134 -0.22071487 -0.054766163 0.20474942 -0.15421529 -0.1330387 -0.08061049
-0.08207213 -0.017678672 -0.13314375 0.12079759 0.1732253 -0.0002783168 -0.04135776 -0.2268262
-0.035412226 0.050056748 0.09281673 -0.05096146 0.040434625 0.0028020006 -0.07831073 -0.08346333
-0.07069538 -0.054148063 -0.0048236856 -0.08397123 0.17815451 0.06268326 -0.08621383 -0.5400373
0.13659884 -0.028652241 -0.14456119 0.10494957 -0.12784089 -0.19843286 0.013595644 0.0021779668
-0.020398268 -0.34693462 0.10934164 -0.11566549 0.0058890297 0.15546447 -0.12202543 -0.047188796
-0.08838832 -0.07145439 -0.0072849076 0.22003357 0.05160731 -0.07690537 0.003227031 0.075612254
0.2681923 -0.017706191 -0.03784058 0.35500118 0.01888941 0.022818647 -0.29989603 0.17331542
0.11645877 0.1341705 -0.2354023 -0.09559809 0.032040637 0.126162 0.032477293 -0.056222204
-0.015454263 0.163576 0.011221848 -0.09579236 0.023497913 0.18881956 0.12101935 -0.10096867
0.13399981 -0.0077952603 -0.06452991 0.041962285 -0.23752433 -0.11554166 0.35048166 -0.18521306
-0.25406715 0.20073184 0.1169257 0.042932257 -0.0027326774 -0.023740206 0.18066165 0.026499974
-0.076386824 0.016641965 0.10101036 0.18039879 -0.07553509 0.04089611 0.0070586125 -0.052748963
-0.17946206 -0.12722483 -0.15066838 0.057888944 -0.15284522 0.15217203 -0.12559308 -0.0665693
0.23557577 0.3739046 -0.34467578 -0.24456252 0.31947204 -0.110827 -0.020877505 -0.20548059
-0.075199135 0.027667707 -0.12068807 0.019810688 0.01920304 -0.14262752 -0.027360242 0.101807736
0.020727895 -0.05790583 0.15384597 0.030034875 -0.09401692 -0.110809855 0.14662763 -0.05339528
0.053367477 0.04572327 -0.007128094 0.0024170803 0.49012685 0.16503443 -0.29018086 -0.00090264715
-0.007792673 0.13030082 0.089062974 0.106005885 -0.037768442 0.25850132 0.12859975 -0.009385947
-0.13010377 0.025675725 0.1851669 0.181666 0.02601015 0.15415125 -0.12943232 0.024911344
0.07148564 0.056828704 -0.12487821 0.020382276 -0.015711758 0.031149955 0.010152039 -0.03743195
0.05661053 0.1067787 -0.26595882 -0.43036604 0.014549597 -0.007309963 -0.09210945 -0.004826986
-0.07969459 -0.32766297 -0.053849865 0.06342246 0.12573051 -0.17996871 -0.12581673 -0.21559498
-0.1881032 0.06755844 -0.16390435 0.068442866 0.11861034 0.03845409 0.14513618 -0.056917883
0.0011824637 0.0047551533 -0.04788539 -0.020473935 0.08129365 0.2636227 -0.17270395 -0.22324197

l1.bias f4 [400]
00000000: bab0 17bd 6e33 75be d835 94bd 2f50 493e
00000010: edfe 2e3e 7b74 3c3d 7533 793d 8b9c 3a3e
00000020: 3e90 343e 3e92 d53d f936 033d e7e5 443e
00000030: 3999 f13d 80cd dcbc b81a cfbd 0519 74bc
00000040: ce14 c8bd 6d6b 1e3e d407 a3bd a1d5 a9bc
00000050: f1fd 10be 1030 f4bb e3c2 133e af3a 0f3d
00000060: c8a2 463d e930 ffbd 8514 a63a 6de8 243e
00000070: 34df c13c e592 5d3c dda6 73be 8524 883e
00000080: 0258 013e b3c0 6fbd 39da adbd 1486 68be
00000090: 900e 013e cf01 02be 64b4 1c3e abfb 44be
000000a0: 52e5 1b3e 09e1 4ebe d3be 823c 673d 8fbb
000000b0: 188e a93d 2582 333d a5cc d33d d74a 213e
000000c0: 4092 3a3e f873 87bd ca24 7d3e 6c0d 10be
000000d0: 214b 9ebd 3fa3 493e 8d68 32be 5aa0 2d3e
000000e0: 0da0 193d 48f4 353e 7715 18bc 0c3f 803d
000000f0: 7633 9fbd a004 23be ce96 103e 8143 46be
00000100: 5227 d13c 1393 35bb 760d e33c 67ad c1bd
00000110: 867c 4dbe 2305 5bbe ee51 b73d 14c4 673e
00000120: 72b3 e9bc d7c2 253d 4507 933d b116 78bc
00000130: e805 7cbd 1962 3a3c 40b3 76bb 9b23 42bd
00000140: 81ff 973d b30f fa3d 8fe0 9a3d 96d4 2b3e
00000150: ca04 cebd 8fdd d13b e817 a73d 2e07 49bd
00000160: b8d4 57bd f48e c53d e656 10bd 404f 6f3e
00000170: b9f7 dabd 6349 b13a 04fe f6bd 78a7 ac3d
00000180: e7e7 893d 655f a8bd 1848 053e 46ea 113e
00000190: b48d cd3b 85c6 803e afff 63bd 5630 8f3c
000001a0: 56f1 0f3e 78b2 47be ceec 1abe 6de3 5f3d
000001b0: 1a4d 373e d317 f0bb ba3b bcbd 36f0 94be
000001c0: d081 3c3e 0ce0 94bb 6c03 40be 1dfb 353c
000001d0: 0eaf 933d d03a 203e e2aa 24be 933b 7dbe
000001e0: 3b25 c1bd 4548 86bc 913d 193e a201 d9bb
000001f0: cd33 3f3e aa4a 603e 9ea7 c9bc a667 71be
00000200: 6f62 4b3e 5d46 eb3d 9db9 0a3e c30b 8f3d
00000210: d868 cdbd e2ac 0abe 231b 253e 8b80 8fbd
00000220: ea4f e23c 1804 3bbd 0463 f5bb e944 253d
00000230: 7736 b03d c6a9 2c3e 9de6 543e 6706 6abd
00000240: 31c4 313d c162 db3d 9c58 2fbd 8545 043e
00000250: 1ff5 37be ae97 5a3e 6163 16be 4353 103d
00000260: 2311 073e fd30 3b3d 3583 c0bd 819c 693d
00000270: 5193 c6bd 7150 143e f021 0e3e 56da 1a3d
00000280: f6b3 ac3d 655b ab3d 2bf6 ed3d a832 083d
00000290: 9250 f9bc 9038 03bd 07ad b0bd 09d2 903d
000002a0: ec4e 023e 90e5 20be 0f85 823d b5e1 8c3d
000002b0: 4efe 953e 8aab 403c 9cd6 36bd de67 883e
000002c0: 8737 8abd a881 663d 8c1a 11ba 51bc 60be
000002d0: d77b d53d 7043 683e b9a2 893e 47a2 773e
000002e0: 5ae1 853e 9fcb e13d b8ab c6bd 2630 9f3d
000002f0: 4add 44be 56b7 433d 02a4 68bd bc46 0d3e
00000300: 43c7 d1bd 328c aebd b6e3 2fbe c910 f6bd
00000310: ff68 b33c 432e 813b 979e 23be c1d3 e03d
00000320: adfe 08bc 2688 f9bd fd84 27bd 6763 2d3e
00000330: 236d 483e 107f 36be 7b88 483d 99cc 473c
00000340: 78a9 153e ccc6 0a3e 9419 56be 86d5 cf3d
00000350: 90a2 c53c e29c b1bd 789c 723e 4c24 3cbc
00000360: 5bd7 8ebd f20c 08be 850d 1cbd 4c04 afbd
00000370: e76d 1cbb 465a ec3c 365d 023e 52e1 33be
00000380: ae89 25be 8b18 463e 1525 263e ef2d 763d
00000390: 5124 a73d 5e16 513e 25bc eebd 17d7 fa3d
000003a0: f0aa 09be fdf7 2f3e f13b e239 dbbf 8abc
000003b0: 1f90 b2bd 70f8 833d 144d c73c b275 003e
000003c0: cb46 8c3c 2fd2 f13d 7656 06be fd0c c1ba
000003d0: c42e dabd fde4 d3bd 2f69 063e 6ddb 6fbd
000003e0: eadd f53d 3dd2 073e 435b 8bbb c955 a1bc
000003f0: 0e7b c2bd ac25 babd 1bf1 cdbd 2cf5 9cbd
-0.037033774 -0.239454 -0.072368324 0.19659494 0.17089434 0.046009522 0.06084009 0.18223779
0.17633149 0.10428284 0.032034848 0.19228326 0.11796803 -0.026953459 -0.10112518 -0.014898543
-0.09769593 0.15470667 -0.079604775 -0.020731749 -0.14159371 -0.0074520186 0.14429812 0.034968074
0.048495084 -0.12460501 0.001267091 0.16104288 0.023666002 0.013523792 -0.23794122 0.26590362
0.12631229 -0.05853338 -0.08488888 -0.22707397 0.12603211 -0.12696002 0.15303189 -0.19236629
0.15224198 -0.20203032 0.015960133 -0.0043713334 0.08279055 0.043825287 0.10341767 0.15751205
0.18219852 -0.06613916 0.24721065 -0.1406762 -0.077291735 0.1969118 -0.17422695 0.169557
0.037506152 0.17768967 -0.009282461 0.06262025 -0.07773487 -0.15919733 0.14120027 -0.19361688
0.025531445 -0.0027706071 0.02771638 -0.09456902 -0.20067033 -0.21388678 0.08951174 0.22633392
-0.028527949 0.040469017 0.07179121 -0.015142129 -0.06152907 0.011375927 -0.0037643462 -0.047397237
0.074217804 0.12210026 0.075623624 0.16780314 -0.10059507 0.0064045857 0.08158857 -0.049079113
-0.0526931 0.09646407 -0.035239123 0.23370075 -0.106917806 0.0013525899 -0.120601684 0.0843038
0.06733685 -0.0822132 0.13015783 0.14249524 0.006272996 0.25151458 -0.05566376 0.017479103
0.14056906 -0.19501674 -0.15129396 0.05466025 0.17900506 -0.007327059 -0.091910794 -0.29089516
0.18408895 -0.00454331 -0.18751305 0.011107233 0.072111234 0.15647435 -0.16080812 -0.24729757
-0.09430929 -0.016391883 0.14964892 -0.006622509 0.18672104 0.21903482 -0.024616059 -0.23574695
0.19861768 0.1148803 0.13547368 0.06984665 -0.10029763 -0.13542512 0.16123633 -0.070069395
0.027625997 -0.0456582 -0.00748861 0.04034892 0.08604138 0.16861638 0.20791097 -0.057135012
0.043399993 0.10712195 -0.042809114 0.12917145 -0.179646 0.21346924 -0.14686348 0.035235655
0.13190131 0.045701016 -0.09400026 0.05703402 -0.09696067 0.14483811 0.13880134 0.037805878
0.08432762 0.083670415 0.116192184 0.033251435 -0.030433927 -0.032036364 -0.08626752 0.07071311
0.12725419 -0.15712571 0.06373035 0.06878988 0.29295582 0.011759648 -0.04463826 0.26641744
-0.06748872 0.056275994 -0.0005535267 -0.21946837 0.10424011 0.22681975 0.2688196 0.24182998
0.26148492 0.11025166 -0.097007215 0.077728555 -0.1922504 0.047782265 -0.056797035 0.13796514
-0.10243084 -0.08522834 -0.17176709 -0.1201492 0.021900652 0.0039422824 -0.15978466 0.10977889
-0.008361501 -0.121841714 -0.040898312 0.1693245 0.19572882 -0.17821908 0.048958283 0.012194776
0.14615428 0.13552397 -0.20908195 0.10148148 0.024125367 -0.08672501 0.236925 -0.011483263
-0.069746695 -0.13286188 -0.03809883 -0.085457414 -0.0023869218 0.02885164 0.1273087 -0.17566422
-0.16165802 0.193453 0.16225083 0.0601024 0.08161224 0.20418689 -0.116569795 0.122480564
-0.13444114 0.17184444 0.0004315074 -0.016937187 -0.08718895 0.0644387 0.024328746 0.12544897
0.0171236 0.118076675 -0.1311892 -0.0014728602 -0.10653451 -0.103464104 0.13126062 -0.05855887
0.120052174 0.13263793 -0.0042528226 -0.019694226 -0.09496127 -0.090892166 -0.10055753 -0.0766395

l2.weight f4 [300, 400]
00000000: 1af8 283c 3ea2 023d 4afc f43a 72bf a8bb
00000010: 050f cb3c 3d9b 30bd cb06 a4bc 8b65 72bc
00000020: 0916 47bd 4383 9e3b ed48 333b 5640 92bc
00000030: 977b a5bc b468 2c3c 98a6 8e3b 7cce fa38
00000040: 8acc 92bc ffe6 b8bb 81de de3c e04b 113d
00000050: 15e7 5bbc 9fdc 54bc 69e5 0d3d c1a1 073d
00000060: a7b8 34bd df98 55bc 62f8 c1bb 9d8e cbbb
00000070: 9639 9c3c ca46 823c 92de 3cbd 421f 42bd
00000080: d191 fcbc 8326 013d 9fce 1b3c 00d0 d33a
00000090: e2ae 13ba a610 93bd 1f22 5bbd 9f91 103d
000000a0: cf9e 29bd db93 353d ca46 f3bc 735e 203d
000000b0: e4c8 25bd 8763 9bbc b1ef 823c 1fd0 b2bc
000000c0: b333 44bd 55dc b13c 01b2 34bd 833a a1bc
000000d0: 3214 0cbd 51c1 7a3c 8089 9ebc 36e7 9fbc
000000e0: f260 26bc 1d03 843c c6f5 a13b 34ae 98bc
000000f0: 1ae4 d63b 9a85 ea3c ed4f 233d 5cb0 66bc
00000100: 3511 b7bc b317 ebbc f4c1 d0bc 3dd7 053d
00000110: 0e7f 5e3b 40f0 ae3b a4ad 09bd fc8e b0bc
00000120: b3a8 103c 82a9 3fbc 8dfb 023d ec92 0d3c
00000130: 99e2 d53b d4d6 143d d98d 39bd a802 40bc
00000140: f874 b23c 006e dbbc a08c 473b b0c4 1fbb
00000150: 1a98 00bd b363 ebbc 9979 f4bc efaf 483c
00000160: bd53 4b3d 3ddb 0bbc 28c5 833c 9835 b6bb
00000170: e728 fbbc 086a 2c3d a379 dbbc 5fe3 2f3d
00000180: e2cd 1fbd f935 df3c e241 a33c 66a8 9dbc
00000190: 3d6f 4cbd 0d30 2abc 5b2c 01bd e8e9 cd3b
000001a0: 4995 6a3c 65de 2dbd 44e3 0ebd c885 59bc
000001b0: 46cf 1ebc 6ae7 2fbd 6d1a 153c 9be6 28bd
000001c0: 4aba 14bd b2d4 9b3c 4c41 643c 4ba2 48bd
000001d0: afaf 56bd 12dd 35bc 901e 78bd f985 0c3d
000001e0: 125b d8bb 4bb1 233c 1e7f c53c c3a7 983c
000001f0: 7ada c03c 1156 4dbc d82b d4bb 6b01 bebc
00000200: 4e73 2cbd 1584 28bd af57 983c 3618 c93c
00000210: e521 e2bb 30c4 4bbd b752 633c 0e97 35bd
00000220: 5c96 1dbd f026 0f3d a329 833a 132c d5bc
00000230: 59e7 f13c 48c0 b4bc 4497 c73c 38ff 3ebd
00000240: 1153 0dbd d2f6 463c d490 2f3d 63b2 edbc
00000250: 92f8 053c d928 e0bc 9fb9 353d 7368 d03c
00000260: 936f 70bc cdb6 383d 1c6d e3bc e8af 06bb
00000270: 2fc2 29bd 0412 193d 4b87 f73b cdef a43c
00000280: 65c0 f23c 6520 09bd 88a8 3bbd 5d15 c33c
00000290: 4756 3b3b d511 abbb f079 363c 42be 043d
000002a0: 1b74 2dbd e627 a33c d167 b6bb f03c fb3b
000002b0: 77e3 9dbc 3706 85bc 0772 363c 3d94 2e3d
000002c0: 017a 193d 021a 1bbd d05a b6bb cd80 9239
000002d0: fa3f d7bc 7170 25bc cdcf 20bd f41e 44bd
000002e0: cedb bf3c 7cc4 1d3d d7af 26bd dbdd 7ebd
000002f0: 56a0 e83c faa5 ba3c 68f9 cfbc e8ca 583d
00000300: 5cab 0d3d 8813 883c 0e38 d33c 30a4 433c
00000310: 5343 0bbc 42d7 a4bb e921 9b3c 9dd3 14bd
00000320: edfa 813c 6d6b 1f3d 20d3 63bc 0446 37bc
00000330: 594a adba 2e8a f4bc 2c70 92bc 2bfa c8bc
00000340: b61d 82bd 0550 90bc b9bb 153d bace 7d3c
00000350: e8c5 44bd 5905 913b d28b 973c 6898 6e3c
00000360: 038d 123b 32a8 f83c 1a01 afbc e7a4 953c
00000370: 8c4f 353c d7eb afbc f6fe b93c 7b52 eb3c
00000380: 3b58 f33c c917 dabc a8ed b03b dc4b b63c
00000390: 8d26 c53c f771 623c e2bd 983c 49f9 24bd
000003a0: d958 3b3d 0eaf f6bb 38eb 2bbc e2f8 093d
000003b0: d795 49bc cb9a cdb9 a8de 50ba e0b0 8bbc
000003c0: 2626 813c f25a 3f3c 29cb 443d 20d6 16bb
000003d0: 3a48 42bd e022 093b ed48 40bd a07f 0e3d
000003e0: d601 2dbd a0f7 c5bc 499e 98bc 48a4 4cbd
000003f0: e0b2 3b3d f2d5 8b3c 252f 563b a055 e2ba
0.010313058 0.031893007 0.0018690911 -0.005149775 0.024787435 -0.043116797 -0.02002277 -0.014794718
-0.048605 0.004837425 0.00273567 -0.017852943 -0.020200534 0.01052301 0.0043533556 0.0001195939
-0.017919797 -0.0056427713 0.027205708 0.03547275 -0.0134217935 -0.012992053 0.03464261 0.033113245
-0.04412141 -0.013036936 -0.005919502 -0.006212069 0.019070428 0.015902895 -0.046110697 -0.04739309
-0.03083125 0.03153087 0.0095097115 0.0016160011 -0.00056336646 -0.0718091 -0.053499337 0.035295125
-0.041411217 0.04433046 -0.02969684 0.039152574 -0.040474787 -0.018968357 0.015983434 -0.021827755
-0.047900867 0.021711508 -0.04411507 -0.01968122 -0.034198947 0.015304879 -0.019352674 -0.01951943
-0.0101549495 0.016114766 0.0049426286 -0.018637754 0.0065579535 0.02862816 0.039871145 -0.014080133
-0.022347072 -0.028697824 -0.025483109 0.03267597 0.0033950242 0.0053386986 -0.033612862 -0.021552555
0.0088292835 -0.011698129 0.03197818 0.008640986 0.0065272567 0.03633769 -0.045301292 -0.011719383
0.02178429 -0.02678585 0.003044881 -0.002437871 -0.031395055 -0.028734064 -0.029843139 0.012248977
0.049640406 -0.008536157 0.016085222 -0.005560588 -0.030659152 0.042093307 -0.0267914 0.042941447
-0.039014705 0.027247416 0.019928876 -0.019245338 -0.049910773 -0.010387433 -0.03153644 0.0062839873
0.014317819 -0.04244842 -0.034884706 -0.013276525 -0.0096929725 -0.042945303 0.009100539 -0.041235548
-0.03631047 0.01902232 0.013931584 -0.0489829 -0.05241364 -0.011100071 -0.06057602 0.034307454
-0.0066026533 0.009991 0.024108466 0.018634683 0.023541678 -0.012532727 -0.006474953 -0.023194036
-0.04210215 -0.04114159 0.018596498 0.024547677 -0.006901013 -0.049747646 0.013874701 -0.04433351
-0.038473472 0.034949243 0.0010006916 -0.026021993 0.02952926 -0.022064343 0.024364121 -0.046630114
-0.034503046 0.0121438075 0.04286273 -0.029015725 0.00817694 -0.027363228 0.044366475 0.02544043
-0.014675039 0.045096207 -0.027761988 -0.0020551626 -0.041444954 0.037370697 0.00755397 0.020133877
0.029632756 -0.03347816 -0.04581502 0.023813898 0.002858536 -0.0052206316 0.011137471 0.032408006
-0.042347055 0.019916486 -0.005566575 0.0076671764 -0.019273503 -0.016238315 0.011135585 0.04262184
0.037469868 -0.0378666 -0.005565025 0.00027943254 -0.026275624 -0.010097609 -0.039260674 -0.04788108
0.02342024 0.03851746 -0.040695038 -0.062223297 0.028396767 0.022784222 -0.02538748 0.05292788
0.03458725 0.016610876 0.025783565 0.011941001 -0.008499938 -0.0050305435 0.018937068 -0.036334623
0.015866721 0.03892081 -0.013905317 -0.011186127 -0.001322101 -0.029851045 -0.017875753 -0.024533352
-0.06353323 -0.017616281 0.03655598 0.015491182 -0.0480403 0.0044256863 0.018499289 0.014562704
0.0022361882 0.03035364 -0.02136283 0.018267108 0.011066329 -0.021474762 0.022704583 0.028725853
0.029705158 -0.02662267 0.0053994246 0.02225297 0.024066234 0.013821117 0.01864523 -0.0402768
0.04573903 -0.0075281924 -0.010493092 0.03368462 -0.012303791 -0.00039215977 -0.00079677487 -0.017052114
0.01576526 0.011679398 0.04804531 -0.0023015812 -0.047432162 0.0020925328 -0.046944547 0.03478968
-0.04223808 -0.024165928 -0.018630164 -0.04996136 0.045824885 0.01706979 0.003268191 -0.001726795

l2.bias f4 [300]
00000000: 2689 54bc 1629 943d 9e73 e83c ac21 82bd
00000010: 2b4e 6e3a 513a 49bd 44d3 3abd 3393 d0bb
00000020: 06ed 0bbc 7563 0e3e a9d0 113e 1071 e93d
00000030: 7420 e33d 69f1 f1bb fea8 debd 3ae1 c2bc
00000040: 9e3b d43d b18d 8f3d 8eb6 993d 5306 333e
00000050: 5f70 83bd fb5a bd3c 2488 aa3d ec7c 3dbd
00000060: 038d b5bd 7423 4b3d 3e6a 4f3b 29c4 a83d
00000070: 14bc a2bd 664c 823d e73e 4f3d aab8 3ebc
00000080: 093e 77bc 1ef4 bbbd 7faa 4bbc 48fd 943c
00000090: 2788 053e ad3a 423d 05b4 273e 3705 0e3e
000000a0: 06ea 883a efd1 4c3d 5917 20bb 26f8 2f3c
000000b0: 0e4e d63c aa68 7c3c 01df 47bd 5a36 6cbd
000000c0: 8379 063c b826 f83d 9ada 79bc 3b78 be3d
000000d0: 1712 2f3e ef77 173e 5908 52bd d042 06bd
000000e0: 01a5 cf3d 8e77 b33d 3386 50bb 7def 493e
000000f0: f14d 7b3d c9ac 72bd be86 983c 6727 9c3d
00000100: 0cd6 ea3c 3d80 0d3e ec2f dbbd 2e44 0dbd
00000110: ddf5 8b3c 063f cc3d d0c1 6fbd a5f8 6cbd
00000120: 0d81 ae3d 398c c73d ec0a a53c b7b7 a13d
00000130: 5a7f 28bd b5dd 26bc 16c8 14be 4886 11bd
00000140: 3734 a4bd 02f7 9ebd 7075 cc3c 444f c33b
00000150: 7610 263e e6f6 cd3d 495d 2dbd efcc c93d
00000160: 8d91 da3c 94fe f1bd c33a 0d3e 2af8 53bd
00000170: 94f3 28bc e9a3 ebbc 4649 143e 5dec 123e
00000180: ba4e 953d f225 b23d c868 b83d d8d1 e0bb
00000190: 608f 0e3e 7008 d83d 1863 5a3d eb65 0e3e
000001a0: c572 cd3d 5e7a d2bc 8aae 51bc 9df4 df3d
000001b0: 6f4f 5f3d 93bb 8d3e d855 4c3c e0ad acbc
000001c0: 4f01 a43d 11ce 063c 86d5 973c 9363 82bb
000001d0: 095f 4d3b 2749 0ebd 5eab d8bc 61ef f03d
000001e0: 993e 08bd c95f 59bd 914c 433d f26a b43d
000001f0: 3232 6fbd 909e 8c3e 7b7b 74bc 5f63 62bd
00000200: 5d25 e1bc a326 2b3e cc44 62bd a49a 4b3c
00000210: 5fb8 88bc 6077 143e 80dc 0fbd a7b1 0f3e
00000220: 55bc d93b 5283 abbc e409 103e 1628 673c
00000230: f977 9abc 6b59 1dbc 4f44 cd3d e70f cebc
00000240: 528f 80bd 626f df3d 2107 c83c b1a7 0a3e
00000250: 3b9a 97bc 2392 0a3e 600e db3d 896a 8abc
00000260: a01f 02bb 441f 253e 62a7 093e c618 df3d
00000270: d922 403c a0c1 823d 929d d23c 6e10 1fbd
00000280: af7b a03d 0251 ed3c 6048 8abd b654 37bc
00000290: 444c 24bd 5bed 713d e774 853c 297c 6abd
000002a0: b2d8 1d3e 5d00 1f3e 57f0 273e b9ef b73d
000002b0: 9719 e83d ccce 2e3c 71ad a0bc 44c7 2a3e
000002c0: d8ee 2ebd d099 2e3e d7cc 55bd 0d2e 5abd
000002d0: 3f25 b53d 02de 083e 5c2c cc3d 0292 c4bd
000002e0: 626a 8b3d 1bc8 883d bf75 6f3e 545d bb3d
000002f0: 372f fabc 3351 143e 23a5 72bd 6bbf 83bc
00000300: 15e4 123e 1964 5bbe 920a 3ebd 9034 a43d
00000310: 35e7 d53d a762 923c 2f9f fc3b 1db8 b1bc
00000320: 20d4 81bd 380b 10bd 97ce 923d 025f 75bc
00000330: f0fc 143e b268 343e 6828 a5bc f34a ff3d
00000340: 2b33 183d 1e06 f63d a34a 153c 8893 9b3d
00000350: 9c0b 01bd 3722 ff3d 0c47 3fbd c3ea 6cbd
00000360: e6e7 1a3c 1d4f 9b3d 0b40 0fbc b5a2 783d
00000370: 3bc5 9bbd f75f 59bd 598c fd3d 3fab fbbc
00000380: 9ff3 afbb 2d72 073e d91c e3bc 6210 4fbd
00000390: f337 46bc 226c dd3d a67a 963b 0506 113e
000003a0: 7be9 e4bb f2db e73d e188 833d bff6 453a
000003b0: b4df 23bc 6839 2fbc 99ff a73d b39f 33bd
000003c0: ba9d b53c 0c8c 223e f083 643d 09c0 973c
000003d0: 7a2a dcba 4d9f 45bd 40ae e33a ac4f 3fbd
000003e0: b469 2d3e 3875 31bd d8cc 583c 8352 ee3d
000003f0: c4cf e73d a19e e2bc b192 1d3e c36a f43d
-0.012972152 0.07234399 0.028375443 -0.06354079 0.00090906274 -0.04912788 -0.045611635 -0.0063652038
-0.0085403975 0.13905127 0.14239754 0.11398518 0.11090174 -0.0073835147 -0.108720765 -0.023789037
0.103629336 0.07009447 0.07505523 0.17482881 -0.064179175 0.023114672 0.08326748 -0.046261713
-0.088647865 0.049594358 0.0031649019 0.082405396 -0.07946029 0.06362228 0.050597098 -0.011640707
-0.015090474 -0.09177421 -0.012430786 0.01818718 0.13040219 0.04741924 0.16377266 0.13869177
0.0010445721 0.050004896 -0.0024427979 0.010740316 0.026160266 0.015405813 -0.048796657 -0.05766902
0.008207682 0.1211676 -0.015249873 0.09300276 0.17096744 0.14791845 -0.051277492 -0.03277856
0.10138894 0.087630376 -0.003181827 0.19720264 0.061353628 -0.059246812 0.018618938 0.07624703
0.028666519 0.1381845 -0.107025 -0.03448885 0.01708501 0.09972958 -0.058534443 -0.057854313
0.08520708 0.09743542 0.02014681 0.07896369 -0.041137077 -0.010184695 -0.14529452 -0.03552845
-0.08017772 -0.07761957 0.024958342 0.005960377 0.16217217 0.10056858 -0.04232529 0.09853541
0.026680732 -0.11816135 0.13791947 -0.05175034 -0.01031198 -0.028764682 0.14481077 0.14347978
0.072904065 0.08698644 0.090043604 -0.006860953 0.1392188 0.10548484 0.05331716 0.13906066
0.10031656 -0.025693115 -0.012797961 0.10935328 0.054519113 0.2768217 0.012471639 -0.021079004
0.08008062 0.008227841 0.018534433 -0.0039791553 0.0031337163 -0.034737732 -0.026448902 0.11764408
-0.033262823 -0.053069863 0.04768044 0.08809461 -0.05839748 0.27464724 -0.014922018 -0.05527055
-0.027483637 0.16713957 -0.05524139 0.012427006 -0.016689477 0.14498663 -0.035122395 0.14032613
0.0066447654 -0.020936642 0.14066273 0.014108678 -0.018856036 -0.009603838 0.100227945 -0.025154067
-0.06277336 0.109099165 0.024417462 0.13540532 -0.01850616 0.13532309 0.10696101 -0.016896503
-0.0019855276 0.16125208 0.13442758 0.10893397 0.011727058 0.06384587 0.025709901 -0.038834028
0.07836091 0.028969292 -0.06752086 -0.01118963 -0.040111795 0.05906425 0.016291095 -0.057247315
0.15414694 0.15527482 0.16400276 0.0898127 0.11333006 0.010669421 -0.019613953 0.16677576
-0.042708248 0.17050862 -0.052197304 -0.053266574 0.08844995 0.1336594 0.099693984 -0.09598161
0.068074 0.06678792 0.2338476 0.0914866 -0.030540092 0.144841 -0.059239518 -0.016082486
0.14344819 -0.21424903 -0.0463968 0.08017838 0.1044449 0.017869307 0.007709406 -0.021694237
-0.06339288 -0.03516695 0.0716831 -0.014976265 0.14549613 0.17618063 -0.020160869 0.12465467
0.037158173 0.120128855 0.009112033 0.07596499 -0.031505212 0.12457698 -0.046698615 -0.057841074
0.009454703 0.07583449 -0.008743296 0.060702045 -0.07605978 -0.053070035 0.12380285 -0.030721305
-0.005369618 0.13227148 -0.027723717 -0.050552733 -0.0120983 0.1081164 0.0045922576 0.14162453
-0.006985841 0.11321248 0.06422592 0.00075517216 -0.010002065 -0.010694839 0.08203048 -0.043853473
0.022169936 0.15873736 0.055789888 0.018524187 -0.0016797327 -0.048247624 0.0017370656 -0.04670684
0.16934854 -0.04332468 0.013232432 0.116368316 0.11318925 -0.02766353 0.1538799 0.11934426

l3.weight f4 [1, 300]
00000000: 3bec 8d3b 1b13 b9bd dbca 823a 0130 893c
00000010: bb33 f43c d430 533c 347a 223d 7ee7 0eb9
00000020: 0775 6d3c d55b 1dbe 83cc d9bd 0934 25be
00000030: a932 22be 4a72 fd3c b3f0 803a 99ac 413d
00000040: a47d 81bd e044 23be a63b 18be 07ba 84be
00000050: cb3f b93c 31b2 0d3d 7264 82bd 80d5 033d
00000060: 702e 15bc 585e 28be 210b b03c 8c9b e9bd
00000070: 0a80 493b c39f 2abe 4607 0cbe 60ae 933c
00000080: aaad a53b ea4c 14bc 9608 34bd 9a32 b539
00000090: 94cc e0bd fd86 0cbe 340e b2bd 7efe ddbd
000000a0: 9679 adba 5a15 82bb 936e 0c3c 3fa4 713b
000000b0: 8b30 c83c 3361 b5ba f2cb 0a3c 29ea d6bb
000000c0: 849f 17bb b81c 1cbe 5158 e23c cdd2 17be
000000d0: 0cc5 adbd 1916 17be 9d58 293d 17d6 9fba
000000e0: 6e94 12be eee5 0abe d0cf 1e3c 897e 6dbe
000000f0: 7fcc 1abe ecd1 f63b 5e37 983c 94b9 35be
00000100: 73e4 44be 379b afbd 1466 a6b9 9035 5b3b
00000110: 33eb 8f3b 18d4 00be 3490 2abd d658 f1bb
00000120: 8484 d5bd 0fc4 aebd 92d1 25bd 2b85 13be
00000130: a872 ea3b 3377 053c cbbe 5e3e e9f4 6a3c
00000140: de33 273d 0774 a23d 16b6 b53c ff68 453b
00000150: 612b e2bd 24db 1fbe f3e3 50bc a818 ebbd
00000160: aaa4 11be 1290 a7bd 235b 2cbe 3454 563c
00000170: ef1d 05bc ce9e b23a 3f3f 2bbe 887a fcbd
00000180: 9e57 923d 90fc 22be e309 1dbe c305 10bd
00000190: 52d1 05be 90a2 02be 2dce 2cbe 3747 1ebe
000001a0: 6d09 0cbe 4f5a 96b9 5ea8 26be 36ff 1ebe
000001b0: 2356 08be 55cd 49be 4db5 04be ca7d 3d3b
000001c0: 5ff6 f5bd 565b 313d c4e1 8cbb f004 25be
000001d0: 56e3 89bb 2df3 f03b 4cba d4bb dbd4 2abe
000001e0: d06c 903c af68 ecbc 4fe3 20be 9051 26be
000001f0: a36e 033c 017c 2dbe f7e0 813c 5b00 d73c
00000200: 9d92 f4ba 0ac7 cebd 57e6 cc3c 68f4 763c
00000210: 15de bc3c e5a0 22be dbe9 123d 6d75 b3bd
00000220: 9f7a 063d 8bf9 e63c 1356 16be 7df9 c93c
00000230: 3cab 2e3d 37c0 6c3d 2b6c 00be e929 123c
00000240: f5ab e1bb b58b 21be b126 dfbc 9609 d2bd
00000250: 65e2 2dbc 672c d4bd dacb 25be aa8c 2e3d
00000260: 357c a43c 6bcf 6bbe cbca eebd 47e7 f0bd
00000270: e55d 633c 5c84 11be 462a d6bb 4349 223d
00000280: 2bff 1cbe db7f 3f3d 9974 713c 5633 8a3c
00000290: ccbc c5bb 930f 02be 295e 27be 8bbe 193d
000002a0: 41de fbbd 7b06 95bd f911 bfbd 1317 f8bd
000002b0: e5d9 0abe 1959 0d3c ac33 403c f1ee 83bd
000002c0: c168 c33a eaaa b2bd 074e 31bd 1a0a 433b
000002d0: 4d06 2bbe a87c 14be 5a8d 2bbe 7f83 203c
000002e0: 9798 08be ab66 29be b60d 19be fa2d 20be
000002f0: 8b65 203b 2956 8dbd e55e 90bc a68d 023d
00000300: 4fd2 04be 875b 173e 4484 063c 0043 d7bd
00000310: 9b40 d4bd 445e 2c3d b5c6 6bbb 9161 07bc
00000320: 9df1 b6bb 868b 153d d870 18be 3f75 d03c
00000330: 87a0 2bbe f250 b9bd c132 a0bc 80cf 0ebe
00000340: 713b 323c a024 e3bd 437f 403b 26ab 24be
00000350: 5e9f a23c 0b12 0dbe 8592 f03c d113 94bb
00000360: 5d6a 183d 3f4d 41bd 9d28 fa3c 8f70 28be
00000370: 4e22 c8bb f91f c13b ddc1 a5bd bb68 25be
00000380: ec97 f3b8 fca2 17be 6b92 d6bb 6c9d f8bb
00000390: dfbb 1a3c 7ea7 26be 7f3e 15be 381a 20be
000003a0: 414d 41bd b593 d8bd f39a debd 6eec ee3c
000003b0: 08c3 b43c 5a77 fa3b 1c1f 02be a614 0e3c
000003c0: 887c db3b 502c 04be 142e 14be 3569 8e3c
000003d0: 0bf5 3c3c 685f 3f3c ba55 cd39 c182 18be
000003e0: 043b dbbd 99b1 5f3c f0ea c63c 2eec 07be
000003f0: 0f18 2bbe 7b07 90bc 80cd b9bd 8fc0 f1bd
0.0043311394 -0.09036847 0.0009978669 0.016746523 0.029809823 0.0128900595 0.039667323 -0.00013628413
0.0144932335 -0.15367062 -0.10634711 -0.16133131 -0.15839638 0.030938286 0.0009837359 0.047283743
-0.06322792 -0.15944242 -0.14866504 -0.25923178 0.022613427 0.034593765 -0.06366815 0.03218603
-0.00910531 -0.1644224 0.021489682 -0.11406621 0.0030746483 -0.16662507 -0.1367465 0.018027484
0.0050561028 -0.009051541 -0.0439535 0.0003456071 -0.1097652 -0.13723369 -0.08694115 -0.10839556
-0.0013235088 -0.0039698305 0.008571285 0.003687158 0.02443721 -0.0013838172 0.008471476 -0.006558676
-0.002313585 -0.1524533 0.027630003 -0.14826508 -0.08484849 -0.14754523 0.041344274 -0.0012194541
-0.14314434 -0.13564274 0.009693101 -0.231928 -0.15117072 0.007532349 0.018581089 -0.17746574
-0.19227771 -0.08574527 -0.0003173804 0.0033448674 0.0043920516 -0.12580907 -0.04164143 -0.0073653264
-0.10425666 -0.08533489 -0.040483065 -0.14406268 0.0071547814 0.008146095 0.21752469 0.014340618
0.04082095 0.07932287 0.022181552 0.0030122397 -0.1104343 -0.1561094 -0.01274966 -0.11479312
-0.1422297 -0.08181776 -0.16831641 0.013081599 -0.0081248125 0.001362765 -0.16723345 -0.123280585
0.07145618 -0.15916657 -0.15335803 -0.035161745 -0.1306813 -0.12757325 -0.16875525 -0.15456854
-0.1367547 -0.00028677515 -0.16275164 -0.15527043 -0.13314109 -0.19707234 -0.12959786 0.0028914087
-0.12009882 0.043299995 -0.0042993743 -0.16115165 -0.0042080088 0.0073532076 -0.006491935 -0.1668276
0.01763001 -0.02885851 -0.15711711 -0.16242051 0.008021983 -0.16941835 0.015854342 0.026245287
-0.0018659417 -0.100965574 0.025012178 0.015072919 0.023055116 -0.15881689 0.035867553 -0.087626316
0.032831784 0.028195163 -0.14681272 0.024655098 0.04264377 0.057800498 -0.12541263 0.008921125
-0.006886954 -0.1577595 -0.02724013 -0.102557346 -0.010613059 -0.103600316 -0.16191044 0.042614616
0.020078758 -0.23028342 -0.116597734 -0.11762863 0.013877367 -0.14210647 -0.006535801 0.03962065
-0.15331714 0.04675279 0.014737272 0.016870182 -0.006034469 -0.12701254 -0.16344513 0.03753523
-0.12298251 -0.07276627 -0.093296 -0.12113776 -0.13559683 0.0086272 0.01173107 -0.06442059
0.0014908538 -0.087240055 -0.043287303 0.002976066 -0.16701622 -0.14500678 -0.1675314 0.009796976
-0.13339458 -0.16543071 -0.14946637 -0.15642539 0.0024474587 -0.06901199 -0.017623374 0.031873368
-0.12970851 0.14781009 0.0082102455 -0.10510826 -0.10363885 0.042082086 -0.0035976593 -0.008263008
-0.0055830018 0.036510013 -0.14886796 0.025446532 -0.16760455 -0.09048642 -0.019555451 -0.13946342
0.01087843 -0.1109097 0.002937273 -0.16080913 0.019851383 -0.13776414 0.029366741 -0.004518964
0.03721081 -0.04719281 0.030536944 -0.16449188 -0.006107605 0.005893704 -0.08093617 -0.16153233
-0.000116154406 -0.14808267 -0.006548216 -0.0075871255 0.009444206 -0.1627483 -0.14574622 -0.15635002
-0.047192816 -0.10575048 -0.10869398 0.029165473 0.022065654 0.0076436223 -0.1270718 0.008671915
0.006698195 -0.12907529 -0.14470702 0.017384151 0.011533032 0.0116804615 0.00039164518 -0.14893629
-0.10704616 0.013653182 0.024281949 -0.13273689 -0.16708396 -0.017581692 -0.09072399 -0.11804306
