TD3/models/second_training_attempt/train_150_episodes_actor.pth (torch, 528299 bytes, 6 tensors)

l1.weight f4 [400, 24]
0.0653799 -0.004192017 -0.250906 -0.0675257 0.05317646 -0.034098424 -0.2171814 -0.0045739543
-0.07158296 -0.14576802 0.14103504 0.1408392 0.13056166 0.09720303 -0.0024816091 -0.090830065
0.035623226 -0.055227306 -0.2124428 -0.057558384 -0.1343048 -0.15369412 -0.028547887 -0.042445514
-0.06532307 0.23848295 -0.22732593 0.112705536 -0.17526257 0.10201319 0.07756319 -0.07925358
-0.14316122 0.02539084 -0.044917297 0.10022749 0.22634959 -0.024687557 -0.24192551 -0.1209882
-0.12878534 -0.23321958 -0.16761185 -0.10766617 0.05768843 -0.090330586 0.040278245 -0.22452357
0.024539681 -0.01307495 -0.27163994 0.13373435 -0.19844101 -0.20533362 -0.18500236 -0.029092591
0.06989136 -0.08294745 0.063925244 0.1611304 0.20290764 -0.06699065 0.120222725 -0.04398139
0.017087737 -0.13066235 -0.045222472 0.048555337 0.11131571 -0.15240781 0.077211075 -0.024607845
-0.13792926 -0.06602241 0.16307783 0.188865 0.14252733 0.014059519 0.09405954 -0.08142836
-0.110773675 -0.23671918 0.22118655 0.0936495 0.13321301 -0.20987023 0.0014750629 0.05200329
-0.26427656 -0.2591315 -0.21880521 -0.20930156 0.033344645 0.066276446 -0.018840682 -0.23618719
0.116722144 0.090021275 0.057121057 0.065604046 -0.10121282 0.19124264 -0.0017798516 0.11089519
0.065787494 0.038946535 0.045221325 -0.12695752 -0.1186479 0.12627617 0.0067699025 -0.18690892
-0.041692175 -0.14680924 -0.041466 0.13634634 -0.12375141 -0.042858995 -0.09900642 0.011126132
0.20952024 -0.03844677 -0.27343154 -0.017258154 0.2327195 -0.19397303 -0.12013955 -0.02730231
0.048183814 0.1961643 0.07413077 -0.07404459 0.010067136 0.08111667 -0.016428694 0.17168322
0.20497485 -0.111027315 -0.09460099 0.07875375 -0.11996591 0.017717894 0.21175206 -0.16770507
0.14702956 -0.12584533 -0.15144908 -0.046891835 -0.056605656 -0.15858954 -0.016254967 -0.043008454
0.14986308 0.11651285 0.12849838 0.24373707 -0.17793505 -0.16743702 -0.1699065 -0.07218956
-0.010263008 -0.03481039 0.19088173 0.17511268 0.112802625 0.028174287 0.016717032 -0.14259702
-0.10770142 -0.102231495 -0.08941855 -0.13300614 -0.0026134267 0.18208766 0.050560854 0.108763725
0.0867188 -0.076030776 0.09556607 -0.0013863798 -0.0919181 -0.0017500699 -0.06988814 0.101351835
-0.086233154 0.04052474 -0.1776984 0.12423616 0.06557284 -0.053063765 -0.16114788 -0.14666225
0.010703134 -0.038041398 -0.15614797 -0.030768128 -0.079120815 0.16149864 0.16999198 0.08234447
0.23652856 0.08838994 0.09937303 -0.2706965 0.085854754 0.22303687 0.018015327 -0.0048223143
0.19153516 -0.059909232 0.016290784 0.0037539005 0.021077123 -0.086648874 0.1326786 0.030272383
0.08588147 -0.07093385 0.076140314 -0.16341612 -0.04355581 0.04727155 0.203266 -0.17017719
-0.037192658 -0.11603267 0.030566543 -0.048886508 0.1635867 0.05198291 0.12797824 -0.18327597
0.13671774 -0.06275433 0.061009705 -0.18261775 -0.15612707 -0.0521843 -0.088753775 -0.19607921
0.04184601 0.21557607 0.006091526 0.21495073 -0.24313335 0.064458504 -0.084101714 -0.013818081
-0.19072716 0.13828126 0.14928366 0.15598565 -0.2161734 0.13496234 0.031790283 -0.22466984
00000000: e6e5 853d 305d 89bb c076 80be ea4a 8abd
00000010: 8fcf 593d caaa 0bbd cd64 5ebe 1ce1 95bb
00000020: 169a 92bd 3644 15be 7d6b 103e 2738 103e
00000030: f5b1 053e 6212 c73d 7ea2 22bb 1d05 babd
00000040: a9e9 113d 0736 62bd 9b8a 59be 57c2 6bbd
00000050: 3387 09be fe61 1dbe 42dd e9bc 59db 2dbd
00000060: 1ac8 85bd e034 743e 21c8 68be 29d2 e63d
00000070: 0878 33be 4bec d03d 73d9 9e3d b34f a2bd
00000080: db98 12be 7300 d03c 33fb 37bd 1244 cd3d
00000090: 30c8 673e 8f3d cabc 52bb 77be a9c8 f7bd
000000a0: 4ee0 03be 1dd1 6ebe 71a2 2bbe 1580 dcbd
000000b0: b44a 6c3d 3eff b8bd cdfa 243d 82e9 65be
000000c0: 7107 c93c 5138 56bc 6414 8bbe a8f1 083e
000000d0: 1f34 4bbe fa42 52be 4271 3dbe 9653 eebc
000000e0: 3423 8f3d 5ae0 a9bd 3deb 823d 5eff 243e
000000f0: 05c7 4f3e 6532 89bd 5537 f63d d425 34bd
00000100: 95fb 8b3c 5acc 05be 333b 39bd f6e1 463d
00000110: 7ef9 e33d cb10 1cbe d720 9e3d 6496 c9bc
00000120: 543d 0dbe c236 87bd e0fd 263e d465 413e
00000130: aff2 113e e659 663c 4aa2 c03d e9c3 a6bd
00000140: 4fdd e2bd 8366 72be ba7e 623e 4fcb bf3d
00000150: fe68 083e 39e8 56be e656 c13a 6701 553d
00000160: 424f 87be e2ac 84be 790e 60be 2653 56be
00000170: 6594 083d f2bb 873d c657 9abc 0edb 71be
00000180: 050c ef3d 135d b83d c5f7 693d 6a5b 863d
00000190: ab48 cfbd 1cd5 433e e949 e9ba 041d e33d
000001a0: 98bb 863d 6786 1f3d ff39 393d 2701 02be
000001b0: acfd f2bd 8a4e 013e 0fd6 dd3b 0d65 3fbe
000001c0: 6ac5 2abd 2955 16be 41d8 29bd 609e 0b3e
000001d0: 6171 fdbd ea8c 2fbd e1c3 cabd 614a 363c
000001e0: 798c 563e 5c7a 1dbd 38ff 8bbe f960 8dbc
000001f0: 054e 6e3e dea0 46be b90b f6bd 18a9 dfbc
00000200: 645c 453d 4bdf 483e e0d1 973d b1a4 97bd
00000210: a1f0 243c 7f20 a63d 7895 86bc bacd 2f3e
00000220: ede4 513e 4a62 e3bd 2abe c1bd a549 a13d
00000230: b0b0 f5bd 1e25 913c 88d5 583e e1ba 2bbe
00000240: eb8e 163e 99dd 00be 7815 1bbe a711 40bd
00000250: 55db 67bd 4c65 22be 2329 85bc a229 30bd
00000260: b575 193e 4a9e ee3d 1495 033e 3696 793e
00000270: 9b34 36be 9c74 2bbe f8fb 2dbe 1fd8 93bd
00000280: 2d26 28bc 5795 0ebd 8076 433e bd50 333e
00000290: 1005 e73d c3cd e63c 28f2 883c f404 12be
000002a0: 9092 dcbd bf5e d1bd 1321 b7bd c332 08be
000002b0: 0646 2bbb 3075 3a3e e618 4f3d 84bf de3d
000002c0: a099 b13d 06b6 9bbd 25b8 c33d 30b7 b5ba
000002d0: 8f3f bcbd 9a62 e5ba 8321 8fbd 8d91 cf3d
000002e0: 029b b0bd 45fd 253d 92f6 35be 876f fe3d
000002f0: 0e4b 863d 6459 59bd f303 25be a12e 16be
00000300: 335c 2f3c 4cd1 1bbd 41e5 1fbe 710d fcbc
00000310: 180a a2bd e65f 253e 6112 2e3e 38a4 a83d
00000320: 8b34 723e c905 b53d 1684 cb3d bb98 8abe
00000330: 9ed4 af3d c763 643e e194 933c 8104 9ebb
00000340: cb21 443e 6263 75bd 4074 853c 0004 763b
00000350: eea9 ac3c f774 b1bd e6dc 073e cafd f73c
00000360: a0e2 af3d c445 91bd 74ef 9b3d 8e56 27be
00000370: 9467 32bd d09f 413d f624 503e ee42 2ebe
00000380: 5457 18bd 89a2 edbd b066 fa3c 383d 48bd
00000390: 4683 273e 08ec 543d ba0c 033e b2ac 3bbe
000003a0: bcff 0b3e 5885 80bd 50e5 793d 2600 3bbe
000003b0: c6df 1fbe 34bf 55bd 8ac4 b5bd fdc8 48be
000003c0: b966 2b3d f9bf 5c3e 6c9b c73b 0b1c 5c3e
000003d0: f3f7 78be d202 843d 853d acbd 3b65 62bc
000003e0: fb4d 43be 9a99 0d3e d1dd 183e b4ba 1f3e
000003f0: 8f5c 5dbe 9133 0a3e 8736 023d da0f 66be

l1.bias f4 [400]
0.16209051 0.112139784 0.15108088 -0.2293586 -0.040516075 -0.11113955 -0.0467868 -0.16479437
-0.02026821 -0.13640212 -0.13331792 -0.18132322 -0.16335107 0.10046949 0.11617814 0.044822354
-0.112460844 0.15071195 -0.008269576 -0.20317967 -0.10261426 0.12418896 0.15934326 0.22273414
-0.13935162 -0.090429105 -0.15909772 -0.10853479 -0.18203893 -0.03065492 0.1054904 -0.13527282
-0.05996323 -0.015987918 -0.03412124 0.032742802 0.12400928 -0.037263587 0.0026168756 0.03315404
0.10724399 -0.0074085104 0.16169971 0.15603587 -0.037155006 0.059408884 -0.1769134 -0.024381021
0.062167358 -0.22736734 -0.18994734 0.17492369 0.15010476 -0.14901613 -0.1829963 0.073252276
-0.13586563 -0.049330883 0.12578496 -0.070634216 0.05557396 0.011072734 -0.23552682 0.12614936
-0.24222878 -0.06563549 -0.061976735 -0.027294416 0.09029457 -0.024558922 -0.14479944 0.15658331
0.0009765385 -0.013992968 -0.044411786 0.17042705 -0.037639134 -0.02874821 0.20037353 0.020997442
-0.19575275 -0.051163256 -0.029991347 -0.23030503 -0.08711536 0.06451705 0.030092817 -0.13555737
-0.27816117 -0.034580536 -0.015339724 0.18781379 -0.15045895 0.06197985 -0.23573424 0.113474436
-0.0061900844 0.017536001 0.21019916 -0.14875157 -0.039943524 -0.13780159 0.16960062 -0.20724568
0.01360414 -0.008775994 -0.11331863 -0.09847119 -0.16350865 0.106916256 -0.08901807 0.13935329
-0.068096094 -0.15891668 -0.013436163 -0.21153711 -0.17365028 -0.08575963 0.070104994 -0.02963218
-0.13818361 0.08354483 -0.12725529 0.10295696 -0.088684045 -0.12342103 -0.09701273 -0.10539325
0.12250193 0.02331438 -0.13585903 0.16757424 -0.04280269 -0.047971833 0.14787284 -0.074722335
-0.15718044 0.07039688 -0.1503541 -0.1710653 0.029127108 -0.06444484 0.030378597 0.075359315
-0.17753051 0.07736991 0.07888623 0.14249283 0.1168514 -0.019133437 0.06444513 -0.112708956
-0.18982285 -0.16931456 0.11261118 -0.14404172 -0.016903283 -0.05457087 0.025454579 -0.1241353
-0.124249466 0.064852506 -0.12728833 -0.10191196 -0.13243115 0.1468018 0.21483143 -0.20183887
0.27947253 0.025004674 -0.20998299 0.10614049 -0.02769489 0.0013043041 -0.08032178 -0.12809502
-0.16042702 -0.20161963 0.011774794 0.16416009 -0.22888544 0.0098639 -0.014490742 -0.033884175
-0.2572515 -0.22257571 0.10901522 -0.07155877 -0.20315413 -0.22091049 0.09269115 0.0859763
0.095595874 -0.02968441 -0.0940873 0.15707678 0.11008609 0.043514095 -0.13433802 -0.016071053
-0.14073566 -0.14706732 -0.15662841 -0.20997462 -0.023884092 0.054757364 0.16560024 -0.10373901
0.1945719 -0.0068298103 -0.15444823 -0.09327356 0.027912656 -0.1666883 0.09762888 -0.11272862
0.26600933 -0.12877803 -0.024844706 -0.17182204 0.04914689 -0.052712176 0.2780133 0.0962556
0.03848484 -0.06569844 -0.16946267 -0.08719496 -0.15072717 -0.22728105 -0.24292646 0.038535904
0.04347204 0.13282236 -0.1306075 -0.054228038 0.22620219 -0.13260984 -0.20004573 -0.17667045
0.030783152 -0.13953646 0.08108624 0.097169004 0.12613063 -0.17727141 0.04843063 -0.09014491
-0.1456756 0.14884833 0.05801032 0.07554634 -0.06859562 -0.1151365 -0.13086478 0.15954116
00000000: 0efb 253e 8ba9 e53d f2b4 1a3e fbdc 6abe
00000010: 2ff4 25bd 229d e3bd 84a3 3fbd dbbf 28be
00000020: 8409 a6bc ffac 0bbe 7e84 08be cbac 39be
00000030: 8145 27be f3c2 cd3d ceee ed3d a597 373d
00000040: df51 e6bd 3c54 1a3e 1e7d 07bc 550e 50be
00000050: 6d27 d2bd c856 fe3d e12a 233e 6b14 643e
00000060: 31b2 0ebe e532 b9bd 83ea 22be 7d47 debd
00000070: 6a68 3abe 0720 fbbc 5a0b d83d f584 0abe
00000080: 019c 75bd 18f9 82bc b7c2 0bbd 511d 063d
00000090: 94f8 fd3d b4a1 18bd e37f 2b3b 88cc 073d
000000a0: bda2 db3d 17c3 f2bb 9c94 253e dec7 1f3e
000000b0: d92f 18bd bb56 733d c928 35be b5ba c7bc
000000c0: 33a3 7e3d fcd2 68be 8e81 42be 321f 333e
000000d0: 10b5 193e af97 18be 6263 3bbe 4a05 963d
000000e0: 5c20 0bbe 2e0f 4abd c6cd 003e aca8 90bd
000000f0: 85a1 633d 6a6a 353c f12d 71be 4c2d 013e
00000100: d20a 78be e66b 86bd 51db 7dbd 8a98 dfbc
00000110: 5cec b83d cb2f c9bc 4e46 14be 6057 203e
00000120: 64fe 7f3a c342 65bc 22e9 35bd 6e84 2e3e
00000130: 7e2b 1abd 5e81 ebbc b82e 4d3e d402 ac3c
00000140: 6973 48be 9090 51bd 6ab0 f5bc 15d5 6bbe
00000150: 8a69 b2bd 8421 843d 3685 f63c 8dcf 0abe
00000160: 246b 8ebe 52a4 0dbd 7753 7bbc 4252 403e
00000170: e911 1abe 95de 7d3d 5164 71be 4965 e83d
00000180: 31d6 cabb a9a7 8f3c 733e 573e 5552 18be
00000190: d29b 23bd dc1b 0dbe c9ab 2d3e 3638 54be
000001a0: e6e3 5e3c 30c9 0fbc 9913 e8bd 43ab c9bd
000001b0: d06e 27be e9f6 da3d 1b4f b6bd a1b2 0e3e
000001c0: f775 8bbd 0ebb 22be 5a23 5cbc 2f9d 58be
000001d0: 61d1 31be bfa2 afbd 3593 8f3d 30bf f2bc
000001e0: 0180 0dbe 8d19 ab3d 364f 02be 19db d23d
000001f0: fb9f b5bd 2ac4 fcbd 9cae c6bd 6bd8 d7bd
00000200: 4be2 fa3d ccfd be3c a11e 0bbe 9598 2b3e
00000210: e051 2fbd 1d7e 44bd fa6b 173e 0608 99bd
00000220: e9f3 20be 3d2c 903d 6df6 19be be2b 2fbe
00000230: f99b ee3c a8fb 83bd 89dc f83c fc55 9a3d
00000240: 8fca 35be 1e74 9e3d 1b8f a13d a4e9 113e
00000250: c94f ef3d babd 9cbc cffb 833d f4d3 e6bd
00000260: ec60 42be cc60 2dbe b1a0 e63d ac7f 13be
00000270: c178 8abc b485 5fbd 1f86 d03c a63a febd
00000280: 8176 febd 64d1 843d df57 02be 38b7 d0bd
00000290: 089c 07be 3653 163e c5fc 5b3e d9ae 4ebe
000002a0: 0617 8f3e 9ad6 cc3c c805 57be 2f60 d93d
000002b0: 65e0 e2bc 2ff5 aa3a bf7f a4bd 572b 03be
000002c0: fb46 24be 6075 4ebe 11eb 403c 9519 283e
000002d0: f260 6abe 329c 213c 946a 6dbc 22ca 0abd
000002e0: 78b6 83be e3ea 63be 5f43 df3d 688d 92bd
000002f0: a307 50be 5c36 62be dcd4 bd3d 5814 b03d
00000300: c5c7 c33d b82c f3bc d8b0 c0bd bcd8 203e
00000310: d174 e13d d63b 323d e88f 09be 71a7 83bc
00000320: 021d 10be d198 16be 3363 20be 9603 57be
00000330: 92a8 c3bc 4249 603d 1c93 293e 1e75 d4bd
00000340: db3d 473e 9acc dfbb ad27 1ebe 3506 bfbd
00000350: 15a9 e43c 56b0 2abe a6f1 c73d 43de e6bd
00000360: 6032 883e 63de 03be 2087 cbbc 1ef2 2fbe
00000370: 404e 493d b9e8 57bd c257 8e3e a821 c53d
00000380: 48a2 1d3d e78c 86bd 9f87 2dbe 4593 b2bd
00000390: 3958 1abe 5dbc 68be b7c1 78be d3d7 1d3d
000003a0: bd0f 323d 9602 083e f9bd 05be 381e 5ebd
000003b0: 8ca1 673e e0ca 07be cad8 4cbe 19e9 34be
000003c0: f32c fc3c a5e2 0ebe 8b10 a63d 8b00 c73d
000003d0: 6328 013e a386 35be 325f 463d e59d b8bd
000003e0: fc2b 15be b26b 183e 3b9c 6d3d 0ab8 9a3d
000003f0: dc7b 8cbd afcc ebbd 6b01 06be c25e 233e

l2.weight f4 [300, 400]
0.032222185 -0.061992977 -0.022082573 0.0011711711 0.0406031 0.11991358 -0.006165651 -0.01484548
-0.010486681 -0.021808965 -0.0913906 0.026475618 -0.0059313886 -0.057499584 -0.017924825 -0.01871724
-0.0059162825 0.016087899 0.049198676 0.010140697 0.06568428 0.11236394 0.0066320533 -0.032466825
0.021777561 0.047776397 0.07412519 0.036718197 -0.029200882 -0.0046277926 -0.044635914 -0.015930165
0.013006851 -0.06031686 -0.030113561 -0.025033936 0.022662204 -0.0069945785 0.059313133 0.0007855937
0.1010281 0.07379949 0.04379389 0.09315225 -0.07096642 -0.021441678 0.012216747 -0.03245584
0.00950736 -0.04002544 0.021512056 0.028111456 -0.044485576 -0.064815976 0.0023875285 -0.06393517
-0.030485207 -0.028185261 -0.037509024 0.047357187 -0.06390033 -0.0018237616 -0.06444213 -0.028987538
-0.03679905 -0.0025411958 -0.00434665 -0.017417777 -0.02515067 -0.023485513 0.031965513 0.07499621
-0.017815182 0.03384107 -0.03267382 -0.03675942 0.04613316 0.025336877 -0.032865655 0.04253195
-0.025002679 -0.060035646 0.054660313 0.00539808 0.021435017 -0.062369667 -0.014383657 0.05525439
-0.045909323 0.015462089 0.03519383 0.03393601 0.025787631 0.061473686 0.020322599 0.00028728938
0.0066732503 -0.062268972 0.06352058 -0.019557517 0.021988504 0.031631153 0.02143089 0.08918103
-0.0029463645 -0.048181634 0.014924947 -0.034175392 -0.004683785 -0.08282304 0.0052922023 0.007851875
0.06295464 -0.07476159 -0.0949063 0.017862344 -0.004408785 0.030913685 0.015808156 -0.0031633284
-0.032861356 0.030041518 0.018803313 0.035686523 -0.01899846 -0.003387654 0.08690727 -0.01738849
-0.0349458 0.019563254 -0.04837882 0.01014121 -0.012070691 0.04978952 0.06698404 -0.030062232
0.030574527 0.04805799 -0.046657372 -0.061022833 0.0106738955 0.0017694744 0.084199786 0.038815636
0.01167999 0.06758685 0.052473105 -0.029406384 -0.044390995 0.039194584 0.1079769 0.14110084
-0.0023043267 -0.035135202 -0.11342912 0.011135681 0.060524948 0.037596285 -0.06408595 0.057663828
0.011009581 0.0048138173 -0.032160044 0.033214528 -0.007119199 0.0007755947 0.05715037 -0.056786437
0.0016623319 -0.031556167 0.048987005 0.028943282 -0.034799438 0.046094306 -0.034392893 -0.053537276
0.043934908 0.03247167 0.053166945 0.1252997 -0.058539987 -0.08869874 0.08544054 0.013113542
-0.08130985 -0.09210203 0.14068729 0.008675713 0.041494537 0.013153624 0.028022218 0.05988819
-0.0037875557 0.020386664 0.07876843 0.00455503 0.047089156 -0.025127452 -0.0304698 0.005297025
-0.022044782 0.060761128 0.010237409 -0.030951977 -0.051300224 -0.0071426188 0.120234475 -0.005917714
0.04349283 0.06972177 -0.04571096 0.08845901 0.0309637 -0.00081126584 -0.025173467 0.0043451414
0.053273316 0.01420844 -0.060674775 -0.036608223 0.041493446 0.03977596 0.13209431 0.048369527
0.05686539 -0.07148784 -0.05377229 0.025670806 -0.036580913 0.030336957 -0.028421914 0.018657077
0.0020425005 0.043726098 -0.08784175 -0.051455732 0.099328324 0.062334426 0.07134559 0.014617965
-0.048378684 0.054223564 0.0074436828 -0.06781141 0.05326568 -0.017109724 0.08630427 0.021078346
0.015110043 -0.012770596 0.012932556 -0.053720657 0.04903013 0.037901197 0.06503365 0.019950457
00000000: 69fb 033d 59ec 7dbd 83e6 b4bc fb81 993a
00000010: 704f 263d 4095 f53d 3b09 cabb 753a 73bc
00000020: 54d0 2bbc b7a8 b2bc ff2a bbbd 65e3 d83c
00000030: 185c c2bb af84 6bbd 15d7 92bc e654 99bc
00000040: 60dd c1bb c5ca 833c 8d84 493d 2a25 263c
00000050: 7b85 863d 111f e63d b251 d93b effb 04bd
00000060: db66 b23c 2fb1 433d f3ce 973d d265 163d
00000070: b036 efbc bda4 97bb 26d4 36bd fa7f 82bc
00000080: b01a 553c d00e 77bd b7b0 f6bc f813 cdbc
00000090: 16a6 b93c c732 e5bb 54f2 723d 4df0 4d3a
000000a0: d2e7 ce3d 3024 973d 3961 333d 9bc6 be3d
000000b0: d856 91bd 75a6 afbc c028 483c 6af0 04bd
000000c0: c2c4 1b3c b7f1 23bd 0d3a b03c ff49 e63c
000000d0: 8236 36bd 3dbe 84bd 1578 1c3b 71f0 82bd
000000e0: 1dbc f9bc c7e4 e6bc 10a3 19bd 9cf9 413d
000000f0: 2dde 82bd 490b efba 3cfa 83bd 4677 edbc
00000100: 9aba 16bd 318a 26bb 586e 8ebb baaf 8ebc
00000110: c708 cebc b164 c0bc 45ee 023d 9d97 993d
00000120: 25f1 91bc ef9c 0a3d fcd4 05bd 0c91 16bd
00000130: 20f6 3c3d 488f cf3c 239e 06bd fb35 2e3d
00000140: 6bd2 ccbc f0e7 75bd 7ee3 5f3d 61e2 b03b
00000150: 7d98 af3c 5677 7fbd 6ea9 6bbc 6d52 623d
00000160: 6a0b 3cbd b454 7d3c 6827 103d 7c00 0b3d
00000170: 9540 d33c d5cb 7b3d 947b a63c 549f 9639
00000180: 48ab da3b c00d 7fbd 1417 823d 1637 a0bc
00000190: 3c21 b43c ab8f 013d d58f af3c 8ba4 b63d
000001a0: cb17 41bb 1b5a 45bd c487 743c 7ffb 0bbd
000001b0: 707a 99bb 209f a9bd 366a ad3b 27a5 003c
000001c0: 5dee 803d 9b1c 99bd 3c5e c2bd 0d54 923c
000001d0: 9277 90bb b23e fd3c 1b80 813c d84f 4fbb
000001e0: a199 06bd a119 f63c 6809 9a3c 082c 123d
000001f0: a9a2 9bbc 6703 5ebb 70fc b13d 4e72 8ebc
00000200: 5423 0fbd 1e43 a03c df28 46bd 5127 263c
00000210: 26c4 45bc 19f0 4b3d ee2e 893d 1245 f6bc
00000220: 6e77 fa3c 74d8 443d cd1b 3fbd 14f3 79bd
00000230: 90e1 2e3c b5ed e73a f070 ac3d 25fd 1e3d
00000240: 6e5d 3f3c f96a 8a3d 0aee 563d a8e5 f0bc
00000250: 55d3 35bd 808a 203d fe22 dd3d bd7c 103e
00000260: 3004 17bb eee9 0fbd 874d e8bd 6e72 363c
00000270: 02e9 773d 90fe 193d 7f3f 83bd e830 6c3d
00000280: 8861 343c 3abd 9d3b 40ba 03bd f50b 083d
00000290: 2b48 e9bb 4751 4b3a 8216 6a3d e598 68bd
000002a0: 9ae2 d93a 0a41 01bd 99a6 483d 761a ed3c
000002b0: db89 0ebd 62cd 3c3d 90df 0cbd e749 5bbd
000002c0: 17f5 333d 0401 053d 95c5 593d 914e 003e
000002d0: a0c7 6fbd afa7 b5bd 73fb ae3d 2fda 563c
000002e0: c785 a6bd fd9f bcbd 5410 103e 9424 0e3c
000002f0: 2df6 293d 4c82 573c da8e e53c 524d 753d
00000300: a438 78bb ef01 a73c 5851 a13d 5c42 953b
00000310: 8fe0 403d 16d8 cdbc cd9b f9bc ab92 ad3b
00000320: 4297 b4bc a9e0 783d ceba 273c 008f fdbc
00000330: 2f20 52bd a10c eabb 7e3d f63d 62e9 c1bb
00000340: 8a25 323d 4aca 8e3d 6a3b 3bbd ff29 b53d
00000350: 96a7 fd3c 21ab 54ba 9638 cebc b061 8e3b
00000360: 1f35 5a3d 84ca 683c 1d86 78bd 81f2 15bd
00000370: 08f5 293d 1eec 223d bb43 073e 201f 463d
00000380: afeb 683d 3768 92bd 5540 5cbd 954b d23c
00000390: ded5 15bd 3685 f83c 13d5 e8bc bad6 983c
000003a0: 79db 053b 231a 333d 60e6 b3bd 3fc3 52bd
000003b0: a66c cb3d 6252 7f3d a31d 923d 3080 6f3c
000003c0: ba28 46bd 8719 5e3d 23ea f33b b5e0 8abd
000003d0: 1d2d 5a3d b129 8cbc 4bc0 b03d 7fac ac3c
000003e0: 1d90 773c c33b 51bc 12e3 533c 310a 5cbd
000003f0: d1d3 483d 493e 1b3d 5d30 853d 246f a33c

l2.bias f4 [300]
-0.014067123 -0.009846215 0.0049748 0.02976984 -0.05389999 0.02007598 -0.019717243 -0.033758145
-0.026132325 -0.04673475 -0.028260946 0.061154682 -0.06078353 -0.024767525 -0.0666177 -0.029378915
-0.0036663306 -0.021091396 -0.052267298 -0.005938532 0.008144668 -0.012669442 0.019022373 0.00404088
-0.030514771 -0.036173597 -0.0046203 -0.004349351 -0.022157144 0.1032875 -0.03904358 0.06760281
-0.04109009 0.07774166 -0.02706915 -0.032292914 -0.046726808 -0.0065703383 0.016293613 0.01713846
-0.036590658 -0.010910885 0.092348255 -0.05907509 -0.047920235 0.08832708 -0.008007051 -0.010131038
0.043302227 0.12818624 -0.03933808 0.13767654 -0.042799313 -0.007457608 -0.04095506 0.052222457
-0.04662702 -0.024644442 -0.021698104 0.024140047 -0.015963847 0.1317637 -0.015066877 -0.007903377
-0.06378462 0.019374091 -0.027641041 0.021906696 0.0064753923 -0.013644099 0.0042751967 -0.029718753
0.018972697 -0.04862399 0.08390084 -0.017751912 -0.0024856385 -0.010508302 -0.04641122 0.0026579422
-0.036262427 0.01161489 -0.0665257 -0.016837811 0.028931115 0.0029194702 -0.03367012 -0.061722834
-0.063865066 0.11454806 0.0032554895 -0.007899836 0.116300315 -0.043043174 0.017068435 0.0021113618
-0.04949444 -0.006577094 -0.030409249 -0.014342896 -0.06366707 0.0009781946 0.10571819 -0.05019125
-0.011761164 -0.05632701 -0.053112023 -0.04406592 -0.059955288 -0.0036541356 0.035067763 0.018223245
-0.002604346 -0.048153833 0.071634196 -0.023736013 0.08381892 -0.014323765 -0.035656884 0.046094738
0.042925052 -0.06422814 0.018572485 -0.00437055 -0.03453933 0.0131277 -0.006585156 -0.012399224
-0.029307088 -0.022219371 0.08219753 -0.047899444 0.0072775288 -0.021530548 -0.037611414 0.007239541
0.0034509166 0.07227449 -0.006058469 -0.053023867 0.036659285 -0.0017231076 0.038528882 0.023377748
-0.026329655 -0.04719521 -0.017890854 -0.05300984 -0.032979567 -0.04758788 -0.03957986 0.015578225
-0.051739514 0.049802434 0.09273616 -0.051643334 0.032833524 0.0073048263 -0.06592842 -0.0655492
-0.0032974533 -0.035327647 -0.03309718 -0.0071787997 0.0074211108 -0.002333071 -0.049458366 0.00031209804
-0.050149083 -0.031833325 -0.052498292 -0.032396205 0.045894563 -0.051876746 -0.011614731 -0.05777028
-0.055457823 0.00095806393 0.027458416 -0.036386035 -0.040815048 0.043396235 -0.036471616 -0.040267237
0.13214792 0.028577384 0.0014493902 0.018544298 -0.026089942 -0.05260264 -0.022638824 -0.021744203
-0.033059176 -0.033303592 -0.041269187 0.008815428 -0.072620764 0.029708361 -0.043051902 0.11093399
-0.049299307 -0.057810806 -0.089646146 -0.021382365 -0.035534646 0.04948412 -0.040669993 -0.0023761138
-0.039366256 -0.051354997 -0.047335282 -0.01960322 -0.044739988 0.012757232 0.0035066674 -0.020399053
0.013966367 0.08670801 -0.04670489 -0.036505807 -0.03565466 0.06283563 -0.06313395 -0.055759136
-0.015942713 -0.033525724 -0.01567803 -0.008079885 -0.020921316 -0.03590488 -0.055545896 -0.0293172
-0.05979062 -0.048623968 -0.028757751 0.10847288 0.04835826 -0.0086248815 0.038110014 -0.0027186833
0.07534509 0.029827386 0.009328855 -0.026471138 -0.05919939 -0.006682705 -0.025929248 -0.054372415
0.005632845 -0.05951366 -0.008451331 -0.048656818 -0.038903374 0.11278752 -0.044733386 0.077844806
00000000: ca79 66bc 0552 21bc a603 a33b e1df f33c
00000010: 3cc6 5cbd 6276 a43c 0e86 a1bc fb45 0abd
00000020: 7513 d6bc f06c 3fbd 8083 e7bc 557d 7a3d
00000030: 27f8 78bd 44e5 cabc dc6e 88bd 0dac f0bc
00000040: d246 70bb ddc7 acbc 3c16 56bd 0498 c2bb
00000050: 3771 053c 7e93 4fbc cfd4 9b3c 5c69 843b
00000060: 1dfa f9bc c42a 14bd e365 97bb 0085 8ebb
00000070: e682 b5bc 6688 d33d 29ec 1fbd 5873 8a3d
00000080: 154e 28bd 0537 9f3d 1fc0 ddbc 9345 04bd
00000090: 9c64 3fbd fe4b d7bb 2f7a 853c f565 8c3c
000000a0: 16e0 15bd 92c3 32bc 1521 bd3d b9f8 71bd
000000b0: 0248 44bd d4e4 b43d 0230 03bc a7fc 25bc
000000c0: ad5d 313d 4143 033e f720 21bd 14fb 0c3e
000000d0: 554e 2fbd f35e f4bb 7ec0 27bd 37e7 553d
000000e0: f9fb 3ebd 24e3 c9bc 39c0 b1bc 59c1 c53c
000000f0: 9dc6 82bc 10ed 063e 10db 76bc 2a7d 01bc
00000100: 83a1 82bd 6ab6 9e3c 776f e2bc ac75 b33c
00000110: 872f d43b 808b 5fbc f316 8c3b be74 f3bc
00000120: a16c 9b3c f329 47bd 34d4 ab3d 756c 91bc
00000130: 18e6 22bb 032b 2cbc b119 3ebd df30 2e3b
00000140: e987 14bd 614c 3e3c a03e 88bd 73ef 89bc
00000150: f200 ed3c 9554 3f3b aee9 09bd 15d1 7cbd
00000160: b0cb 82bd 2c98 ea3d 0d5a 553b 506e 01bc
00000170: dc2e ee3d 0a4e 30bd 1ad3 8b3c c65e 0a3b
00000180: afba 4abd aa84 d7bb d11c f9bc 77fe 6abc
00000190: e163 82bd c436 803a c782 d83d 5795 4dbd
000001a0: e6b1 40bc 27b7 66bd fe8b 59bd 777e 34bd
000001b0: ad93 75bd 397a 6fbb 37a3 0f3d ea48 953c
000001c0: adad 2abb f43c 45bd f3b4 923d 0772 c2bc
000001d0: 41a9 ab3d 3aae 6abc f40c 12bd d6cd 3c3d
000001e0: 2ed2 2f3d 0b8a 83bd 5325 983c d536 8fbb
000001f0: 1d79 0dbd 9115 573c 4bc8 d7bb 1d26 4bbc
00000200: 6b15 f0bc 6605 b6bc 2e57 a83d 3532 44bd
00000210: 5678 ee3b d560 b0bc 6d0e 1abd ac39 ed3b
00000220: c628 623b a604 943d 1f86 c6bb 8e2f 59bd
00000230: 0c28 163d e6d9 e1ba 76d0 1d3d b182 bf3c
00000240: 4ab1 d7bc c44f 41bd d78f 92bc d920 59bd
00000250: 9515 07bd 82eb 42bd 7e1e 22bd d03b 7f3c
00000260: d0ec 53bd a3fd 4b3d 75ec bd3d f687 53bd
00000270: 727c 063d 535d ef3b 7b05 87bd a93e 86bd
00000280: 161a 58bb b9b3 10bd e990 07bd 233c ebbb
00000290: ca2c f33b 70e6 18bb db94 4abd 17a1 a339
000002a0: 2069 4dbd a963 02bd 7308 57bd e2b1 04bd
000002b0: f0fb 3b3d b67c 54bd b64b 3ebc 87a0 6cbd
000002c0: be27 63bd 9526 7b3a 79f0 e03c 8609 15bd
000002d0: ae2d 27bd 40c0 313d 4363 15bd 42ef 24bd
000002e0: c951 073e 1e1b ea3c 77f9 bd3a 36ea 973c
000002f0: 93ba d5bc de75 57bd 0e75 b9bc e620 b2bc
00000300: 0f69 07bd 5969 08bd e109 29bd 966e 103c
00000310: 32ba 94bd f35e f33c 3157 30bd 5c31 e33d
00000320: 12ee 49bd 06cb 6cbd 6698 b7bd 122a afbc
00000330: c78c 11bd dcaf 4a3d 9495 26bd 93b8 1bbb
00000340: 833e 21bd 9e59 52bd a4e2 41bd ef96 a0bc
00000350: 4741 37bd b603 513c 1ed0 653b ea1b a7bc
00000360: 30d3 643c f893 b13d a04d 3fbd 1d87 15bd
00000370: 9f0a 12bd f7af 803d 5f4c 81bd b163 64bd
00000380: 4b9a 82bc 4552 09bd 366f 80bc 7e61 04bc
00000390: 2e63 abbc ff10 13bd 1884 63bd a02a f0bc
000003a0: 02e7 74bd ed29 47bd 6095 ebbc 0827 de3d
000003b0: 5013 463d 604f 0dbc 3f19 1c3d f02b 32bb
000003c0: 874e 9a3d 9058 f43c 0ed8 183c 00da d8bc
000003d0: 0f7b 72bd 98fa dabb 9369 d4bc 9cb5 5ebd
000003e0: bb93 b83b 98c4 73bd 7477 0abc 5f4c 47bd
000003f0: 2559 1fbd 25fd e63d 5b3a 37bd 196d 9f3d

l3.weight f4 [4, 300]
-0.0730257 0.028351894 0.051320452 0.001977331 -0.012962002 -0.028128386 0.035808187 -0.05944705
0.02729768 -0.075354226 -0.025301049 -0.118969955 -0.033576004 0.0012739572 -0.002904254 -0.0274184
-0.054734804 -0.06792348 -0.1286565 0.027906736 -0.108855695 -0.06629272 -0.026913505 -0.2146546
-0.018324476 -0.034247633 -0.009415264 0.01973992 0.01202287 -0.10472104 -0.003768678 0.0660351
-0.061847262 0.052011274 -0.12233229 -1.0434952 -0.011568533 -0.044917237 0.038456887 0.20103185
-0.026976952 -0.13102451 -0.103663534 0.006245473 -0.054005638 -0.15805309 -0.012830737 -0.063889705
-0.117004454 -0.12607394 -0.004210407 -0.20505953 -0.033466868 0.025583604 -0.025996428 -0.08035205
-0.045432672 -0.052731536 0.0014038959 -0.19310702 0.054226764 -0.16198087 0.00030449638 -0.024940243
0.00220347 -0.114050545 -0.0032856876 -0.047000673 0.036163695 -0.047209825 0.020189578 0.017115628
0.18357383 -0.021084215 0.0020567675 0.04885135 -0.02143384 -0.013386263 -0.004824689 -0.12767714
0.03213849 0.0059403935 -0.01772224 0.012268434 -0.057717737 0.034778945 -0.025158603 -0.026033388
0.025713466 -0.13692139 0.028794339 -0.04692132 -0.12337693 -0.009204417 -0.15185578 -0.015481824
0.005516759 0.032742254 0.03574664 -0.04698917 0.024068471 0.0027750588 -0.122734845 -0.011607785
0.04374925 0.031114243 0.014588351 -0.0035050395 0.0634991 0.0014363114 0.0032722717 -0.11600738
-0.1232842 -0.036962032 -0.13146438 -0.026829926 -0.10109936 0.034762308 -0.016443456 0.04386857
-2.7947908e-05 -0.019619606 0.024436004 0.00406601 0.012806706 0.08397458 -0.039633002 0.042277258
-0.0069519742 0.03197496 -0.09511274 -0.028921306 0.030851327 0.01680003 -0.00891842 -0.058778994
-0.05154844 -0.16621701 0.028297504 0.04490343 -0.095240615 -0.033222225 0.051653575 0.0066695563
0.020171136 -0.056070205 0.09753402 -0.007280783 0.0020297877 -0.006995327 0.04130507 0.020082936
0.012876081 -0.1967217 -0.060304824 0.043483302 0.061612334 -0.050709657 0.020170026 0.051955137
0.0057435054 0.03654596 -0.054354537 0.06972819 -0.10392143 -0.07967106 0.028812353 -0.026333187
-0.0043623047 0.014311286 0.0281533 -0.00353305 -0.04866786 -0.035660278 -0.03373701 -0.026646031
0.011709781 -0.013239742 -0.086528346 0.07793772 0.032985542 0.03617554 0.015010722 -0.10873746
-0.20157786 -0.031140326 0.018693935 -0.07898546 0.014798399 0.022818059 0.040684976 -0.055277992
-0.071283124 -0.03557987 0.019991776 -0.002268662 -0.027230639 -0.0319024 0.017731482 -0.13969757
0.033902388 -0.019745931 0.06779078 -0.0291618 -0.023803568 -0.09240071 0.04502654 -0.021503184
-0.02316202 -0.03756383 -0.022693839 -0.049703717 -0.012574881 0.020448167 0.026391933 -0.04231986
0.12633258 -0.23337294 0.005101362 0.050109014 0.056710035 -0.1402554 -0.008705102 0.010181201
-0.08698681 0.02679021 -0.018867908 -0.012508564 0.044893507 -0.019125465 -0.025361272 0.04111753
-0.13760725 0.030535853 0.011338872 -0.20392786 0.05639727 0.024538923 -0.18936895 0.0780533
-0.17220049 -0.16385347 -0.0031209167 -0.030645056 0.046296097 0.0153712835 0.008457228 0.03644013
-0.048213787 0.0043316158 -0.033165764 -0.049550083 -0.07971666 -0.050977774 0.014283907 -0.1279499
00000000: 808e 95bd 3b42 e83c 6535 523d 1c96 013b
00000010: 945e 54bc 806d e6bc 9bab 123d c07e 73bd
00000020: 629f df3c 5153 9abd 2544 cfbc 85a6 f3bd
00000030: fe86 09bd e9fa a63a 4c55 3ebb 8d9c e0bc
00000040: 9a31 60bd 771b 8bbd 88be 03be ab9c e43c
00000050: bcef debd 7ac4 87bd b679 dcbc 6ace 5bbe
00000060: 361d 96bc 3f47 0cbd 7b42 1abc 9db5 a13c
00000070: 92fb 443c fc77 d6bd edfb 76bb 693d 873d
00000080: 8e53 7dbd c609 553d 5a89 fabd 4091 85bf
00000090: f289 3dbc 23fb 37bd f884 1d3d 4bdb 4d3e
000000a0: c5fe dcbc 4a2b 06be 8c4d d4bd d3a6 cc3b
000000b0: 0435 5dbd abd8 21be 0338 52bc 9bd8 82bd
000000c0: 08a0 efbd 8719 01be 74f7 89bb 20fb 51be
000000d0: 8e14 09bd b594 d13c 76f6 d4bc 9e8f a4bd
000000e0: 9c17 3abd 06fd 57bd ee02 b83a d9bd 45be
000000f0: e21c 5e3d 50de 25be d0a4 9f39 7b4f ccbc
00000100: 1868 103b 5593 e9bd b154 57bb c783 40bd
00000110: 6220 143d 175f 41bd 9d64 a53c 1336 8c3c
00000120: c7fa 3b3e ceb8 acbc d5ca 063b 5a18 483d
00000130: 0596 afbc 0e52 5bbc 6d18 9ebb ccbd 02be
00000140: a6a3 033d a2a7 c23b 3b2e 91bc 8b01 493c
00000150: 6f69 6cbd 5e74 0e3d 6a19 cebc f943 d5bc
00000160: 0ca5 d23c 1f35 0cbe 1be2 eb3c 9230 40bd
00000170: 0bad fcbd 1fce 16bc 1580 1bbe 7aa7 7dbc
00000180: eec5 b43b be1c 063d 126b 123d b777 40bd
00000190: 3e2b c53c c3dd 353b 685c fbbd 942e 3ebc
000001a0: 6a32 333d 4ce3 fe3c fb03 6f3c ceb4 65bb
000001b0: d10b 823d 9d42 bc3a 9c73 563b 4795 edbd
000001c0: 6d7c fcbd 8065 17bd 999e 06be 6fca dbbc
000001d0: 2e0d cfbd ec62 0e3d 6db4 86bc 88af 333d
000001e0: ad71 eab7 4cb9 a0bc 042e c83c 2a3c 853b
000001f0: 38d3 513c ddfa ab3d 3756 22bd eb2a 2d3d
00000200: 63cd e3bb 2df8 023d 78ca c2bd 60ec ecbc
00000210: ecbb fc3c 37a0 893c 911e 12bc 3ec2 70bd
00000220: 7524 53bd cb34 2abe 2bd0 e73c a9ec 373d
00000230: 830d c3bd 0714 08bd b392 533d 4b8c da3b
00000240: f03d a53c dfa9 65bd ebbf c73d a293 eebb
00000250: 3006 053b 0e39 e5bb 812f 293d f884 a43c
00000260: 33f6 523c 6a71 49be 3102 77bd 8c1b 323d
00000270: 375d 7c3d eeb4 4fbd 9c3b a53c e9ce 543d
00000280: 0434 bc3b 37b1 153d dda2 5ebd a7cd 8e3d
00000290: c2d4 d4bd 952a a3bd e207 ec3c b2b8 d7bc
000002a0: aaf1 8ebb e279 6a3c c0a1 e63c be8a 67bb
000002b0: f357 47bd 8310 12bd d22f 0abd c748 dabc
000002c0: 62da 3f3c 81eb 58bc c635 b1bd d09d 9f3d
000002d0: d91b 073d ce2c 143d 88ef 753c bfb1 debd
000002e0: 6d6a 4ebe ff19 ffbc 0624 993c 21c3 a1bd
000002f0: fc74 723c f0ec ba3c 4aa5 263d 2d6b 62bd
00000300: e3fc 91bd 33bc 11bd cbc5 a33c d5ad 14bb
00000310: ca12 dfbc 17ac 02bd 9d41 913c e10c 0fbe
00000320: 3bdd 0a3d 38c2 a1bc e4d5 8a3d bae4 eebc
00000330: b3ff c2bc 953c bdbd c06d 383d 7227 b0bc
00000340: 47be bdbc 88dc 19bd 6ee8 b9bc 2096 4bbd
00000350: e006 4ebc ea82 a73c e533 d83c 9757 2dbd
00000360: 545d 013e 51f9 6ebe 5329 a73b 1c3f 4d3d
00000370: c848 683d 1d9f 0fbe d89f 0ebc 0dcf 263c
00000380: 2426 b2bd 2477 db3c df90 9abc b8f0 4cbc
00000390: 41e2 373d 02ad 9cbc 71c2 cfbc db6a 283d
000003a0: eae8 0cbe 5326 fa3c adc6 393c 77d2 50be
000003b0: d300 673d da05 c93c efe9 41be 69da 9f3d
000003c0: 5355 30be 34c9 27be 4b88 4cbb 570b fbbc
000003d0: faa0 3d3d d6d7 7b3c 2f90 0a3c 3f42 153d
000003e0: d27b 45bd 3af0 8d3b d3d8 07bd 07f5 4abd
000003f0: 7d42 a3bd 12ce 50bd 0c07 6a3c 4c05 03be

l3.bias f4 [4]
-0.08587344 0.06897313 0.07679453 0.012333404
00000000: 6ade afbd c941 8d3d 7346 9d3d 0c12 4a3c
