TD3/models/second_training_attempt/train_350_episodes_critic_1.pth (torch, 531051 bytes, 5 tensors)

l1.weight f4 [400, 28]
0.12986554 0.118982814 -0.2815438 -0.11596507 0.030643063 -0.15193103 -0.28520018 0.0040241736
-0.07719034 0.0063082376 -0.11142584 -0.08755264 0.16521692 -0.17459136 -0.09368561 -0.044155885
-0.18366319 -0.0070665604 -0.05944136 -0.06518598 -0.05523072 -0.11755298 0.112412535 0.09078173
-0.00072686415 0.026496444 -0.014234928 0.008453807 0.13670813 0.30433768 -0.40939042 -0.3763182
0.26719856 0.19057122 0.123248234 -0.07397013 0.1402618 -0.062273666 -0.2050472 0.11482811
0.19751059 -0.25848842 -0.05195926 -0.13173713 -0.010968742 0.030126361 0.1384161 -0.10297197
0.082798176 0.07277929 -0.10276696 -0.03697647 0.018063255 0.001210231 0.02678211 0.041098747
0.31851888 0.42822814 -0.13040915 -0.31405658 -0.2785329 0.21824045 0.27443066 0.23588689
0.058167376 -0.19242467 0.14175165 0.010700054 0.13123937 -0.3258966 -0.13344122 -0.042480525
0.19704852 0.11884061 -0.010852876 0.082128674 -0.0877882 0.04156304 -0.06751611 -0.069434375
0.0124296835 -0.0043905596 0.00017642631 0.05471674 0.08261155 0.043555614 -0.14284332 -0.0624998
0.114916466 0.14460896 -0.21704581 -0.07711671 -0.06331241 -0.07143763 -0.17980742 0.015727703
0.33173233 -0.07276562 0.11070276 -0.031729147 -0.13282038 -0.21763419 -0.087999925 -0.13278256
-5.3196774e-05 0.07272022 -0.2129016 -0.08291293 0.051458087 -0.030724145 0.020886272 -0.0011933394
0.32417136 0.23186257 -0.25509712 -0.00035249622 -0.05689843 0.12763888 -0.024235943 -0.16106696
0.20832643 -0.18829288 0.10637334 -0.11980469 0.010072603 -0.003071026 -0.09163671 0.14680138
-0.058826715 -0.05590716 -0.109631784 -0.059951514 -0.08122576 0.19671822 -0.12772654 -0.09794856
-0.08523175 0.036693882 -0.0063213096 8.740617e-05 0.7029264 0.3057382 -0.06605634 -0.1299238
-0.30864504 -0.14120476 0.01453498 -0.16575405 -0.15155585 0.2559256 0.1413379 -0.09064693
-0.032705422 0.048309453 0.11841752 0.25341293 -0.015597564 -0.06448624 -0.041340247 -0.047906566
-0.038261846 -0.08049572 -0.07666696 0.06585827 0.007969906 0.068240926 0.0113690775 0.12366232
-0.2755628 -0.17959276 -0.07368594 -0.158156 -0.041539546 -0.048950173 0.19282864 -0.12596743
-0.09249382 -0.09476248 -0.20530024 -0.09934862 0.08282242 0.14366256 0.13291177 0.13256027
0.3070824 0.28660223 0.28788567 0.008434687 0.20370992 0.042892415 0.12830822 -0.014660969
0.0038216973 -0.050284352 0.037054893 0.0813603 0.057655938 -0.07700698 -0.12006339 -0.25811246
0.24919267 0.09974724 -0.14925455 0.21609952 -0.1874187 0.060171578 -0.19461247 0.07636565
-0.03020766 -0.23213606 0.042463697 -0.2595261 -0.05878689 -0.20216028 -0.027381547 -0.20162289
-0.002640855 0.090855815 -0.19958913 0.017213104 -0.0001437495 -0.037347857 0.0041617416 -0.043701433
0.46099028 0.2600356 -0.10677633 0.018105358 -0.07651565 -0.0348373 -0.13438746 0.105920024
-0.032956325 -0.1068794 0.0742977 -0.048079513 0.1839898 -0.2862444 0.11930106 -0.10703633
-0.15774554 -0.16648737 0.05424337 -0.07004406 -0.16715308 0.00086374325 -0.029355625 0.026702968
-0.0003401584 0.008958162 -0.022988802 -0.033363905 -0.013341165 0.016790375 0.030407676 -0.3793746
00000000: 79fb 043e 43ad f33d 8226 90be 187f edbd
00000010: 2907 fb3c cf93 1bbe c205 92be 37dd 833b
00000020: f815 9ebd 55b5 ce3b 3b33 e4bd cc4e b3bd
00000030: a02e 293e 14c8 32be 3ede bfbd cddc 34bd
00000040: 3412 3cbe 9b8e e7bb c978 73bd 3a80 85bd
00000050: 9c39 62bd 9ebf f0bd 8b38 e63d c6eb b93d
00000060: 078b 3eba 120f d93c 9e39 69bc d681 0a3c
00000070: 37fd 0b3e 26d2 9b3e 9f9b d1be c7ac c0be
00000080: 40ce 883e 1a25 433e 9269 fc3d a77d 97bd
00000090: caa0 0f3e ac12 7fbd e5f7 51be 002b eb3d
000000a0: 3740 4a3e 9858 84be 3cd3 54bd 19e6 06be
000000b0: 3db6 33bc 8fcb f63c f3bc 0d3e f8e2 d2bd
000000c0: 1792 a93d 4f0d 953d 7c77 d2bd a474 17bd
000000d0: 64f9 933c 9da0 9e3a 2866 db3c 2957 283d
000000e0: e814 a33e b840 db3e fa89 05be 06cc a0be
000000f0: dd9b 8ebe 6d7a 5f3e 2d82 8c3e 558c 713e
00000100: ea40 6e3d f90a 45be 5827 113e 474f 2f3c
00000110: 9d63 063e ebdb a6be d1a4 08be 0f00 2ebd
00000120: 16c7 493e b562 f33d 43d0 31bc 1433 a83d
00000130: 4dca b3bd 023e 2a3d e345 8abd 9c33 8ebd
00000140: dfa5 4b3c afde 8fbb 14ff 3839 a91e 603d
00000150: 3f30 a93d 5f67 323d 8545 12be caff 7fbd
00000160: 5359 eb3d 5f14 143e 4241 5ebe 5eef 9dbd
00000170: f0a9 81bd e44d 92bd 701f 38be 62d7 803c
00000180: d2d8 a93e 2406 95bd 21b8 e23d 6cf6 01bd
00000190: 1102 08be 7fdb 5ebe 4e39 b4bd 27f8 07be
000001a0: 9a1f 5fb8 57ee 943d e102 5abe 41ce a9bd
000001b0: b7c5 523d 34b1 fbbc b019 ab3c d369 9cba
000001c0: caf9 a53e 626d 6d3e 179c 82be 3ecf b8b9
000001d0: 540e 69bd c4b3 023e 758a c6bc bdee 24be
000001e0: 8653 553e d9cf 40be 44da d93d 295c f5bd
000001f0: 8f07 253c 4443 49bb 07ac bbbd 1a53 163e
00000200: 48f4 70bd e8fe 64bd a186 e0bd b88f 75bd
00000210: b159 a6bd 8070 493e bfca 02be 4199 c8bd
00000220: fc8d aebd 534c 163d fd22 cfbb d54d b738
00000230: fcf2 333f b889 9c3e 8c48 87bd bf0a 05be
00000240: b906 9ebe fb97 10be 2024 6e3c 6ebb 29be
00000250: 7531 1bbe ae08 833e e2ba 103e 19a5 b9bd
00000260: 1ff6 05bd 22e0 453d e284 f23d 57bf 813e
00000270: ed8c 7fbc 5d11 84bd 6454 29bd ad39 44bd
00000280: 74b8 1cbd f1da a4bd 9103 9dbd b3e0 863d
00000290: 3594 023c e6c1 8b3d 5e45 3a3c ac42 fd3d
000002a0: 9116 8dbe 2ae7 37be a7e8 96bd a5f3 21be
000002b0: 5f25 2abd fa7f 48bd df74 453e 9bfd 00be
000002c0: 666d bdbd d512 c2bd 3a3a 52be 4a77 cbbd
000002d0: cd9e a93d 471c 133e 061a 083e e1bd 073e
000002e0: e839 9d3e 87bd 923e c065 933e a431 0a3c
000002f0: 5599 503e f5af 2f3d 3b63 033e 9034 70bc
00000300: 7175 7a3b f7f6 4dbd dfc6 173d 3ba0 a63d
00000310: a228 6c3d d6b5 9dbd cbe3 f5bd 5127 84be
00000320: 5d2c 7f3e 4848 cc3d 2fd6 18be 3149 5d3e
00000330: b0ea 3fbe 7976 763d 7e48 47be 9865 9c3d
00000340: 0e76 f7bc 13b5 6dbe 6aee 2d3d 9be0 84be
00000350: 86ca 70bd 1b03 4fbe 444f e0bc 3b76 4ebe
00000360: 3212 2dbb 9d12 ba3d 1861 4cbe 7f02 8d3c
00000370: 76bb 16b9 11fa 18bd 385f 883b 4600 33bd
00000380: eb06 ec3e 6323 853e 8cad dabd b051 943c
00000390: 3db4 9cbd 8fb1 0ebd de9c 09be 99ec d83d
000003a0: 36fd 06bd 96e3 dabd 6429 983d 06ef 44bd
000003b0: d267 3c3e a08e 92be 1d54 f43d dd35 dbbd
000003c0: 0c88 21be aa7b 2abe 4c2e 5e3d 4373 8fbd
000003d0: 2d2a 2bbe d46c 623a 357b f0bc 2fc0 da3c
000003e0: 4a57 b2b9 41c5 123c 0353 bcbc 97a8 08bd
000003f0: e794 5abc f88b 893c 8519 f93c 633d c2be

l1.bias f4 [400]
-0.057207834 0.18504645 0.015459803 0.18248984 -0.033104096 0.087220214 0.1970106 -0.06186528
0.027085528 0.23534116 -0.045613125 0.089786634 0.22633289 0.16096525 0.045236178 0.12397271
0.016735092 -0.020919904 -0.21910435 -0.016387803 -0.19977178 0.12926371 0.12632346 -0.19379297
0.17043068 0.18629536 0.034310862 0.16256872 -0.06915328 -0.12829027 -0.05605155 0.077974245
0.005123022 -0.124802545 -0.13500498 -0.22125377 -0.005362894 0.12621368 0.17601468 -0.009783309
0.3111226 0.06823251 -0.18726167 0.07826475 -0.057852592 0.17889324 0.08679788 0.014022066
0.020633604 -0.08147928 0.079162806 0.04304919 -0.14323504 -0.100459106 0.084364675 0.08034143
-0.030066106 -0.1726416 0.0034981593 0.1825355 -0.09472734 0.19842255 -0.054459944 -0.034748007
-0.120778985 0.07366852 -0.028247135 -0.09456541 -0.024214007 -0.093035206 0.22894949 0.040054422
-0.17678219 -0.034333367 0.053395003 -0.07503153 0.034381382 -0.051439524 -0.10309262 0.07990762
0.12036372 0.11164338 0.2011961 0.12241407 -0.06680196 -0.11527219 0.07956075 -0.08635764
0.18699187 0.032332554 0.06891168 0.0011694456 0.2727097 0.14043976 0.20352654 0.13153239
-0.17282024 -0.048827652 0.167385 0.049567953 0.1855732 0.22079869 0.16406946 -0.233026
-0.18396476 0.13615806 0.022865564 -0.12148348 -0.03460963 -0.099481046 -0.028494647 -0.06689796
0.055408925 0.031770803 0.050661173 -0.0032031971 -0.0433372 -0.14142506 0.077824116 0.1558432
-0.015114555 0.058087192 -0.032438327 -0.22170956 0.16897805 0.018651681 -0.04317612 0.1807484
0.08078001 0.15693173 0.20268911 0.10072572 0.1519504 0.09634235 0.16664776 -0.02278305
0.121616274 0.12077362 0.15287863 -0.17459635 0.047226526 -0.055051852 0.036791787 -0.08643396
-0.22576696 -0.071758114 -0.004227199 -0.06908637 0.27461487 0.05416695 -0.029345488 0.25161648
-0.11517522 0.02723124 0.082376815 -0.052071292 -0.07011394 0.17074978 -0.08794133 0.14201245
0.1445506 0.16753948 -0.013055815 0.109431714 0.010809852 -0.15763906 0.01585254 0.0779922
-0.06520215 0.00906885 -0.063902184 -0.20633355 -0.117821254 -0.16340272 0.06471809 0.10144486
-0.058409248 0.12578207 0.16102138 -0.047218744 0.09456785 0.11952042 0.039669894 0.092062175
-0.012169173 0.017406989 -0.17965256 -0.1113004 0.11137442 0.02358769 -0.13717912 -0.09796648
0.09744115 -0.117456265 -0.0789926 -0.20396903 -0.11998364 -0.083448194 -0.1383629 0.09811136
-0.010155157 0.12112386 -0.09128426 -0.049313337 0.10417935 -0.1294054 -0.046104003 -0.04680157
-0.17606668 -0.20280044 -0.07129039 0.030000623 0.1362459 0.07622 -0.124472976 0.08299574
-0.088910796 -0.022772273 -0.06845793 0.07980829 0.17257896 -0.10109549 0.18067543 0.04307272
0.052195195 0.09381209 0.21811663 -0.049558602 -0.017966885 -0.07717388 0.12957305 0.055488978
0.19126174 0.040256888 -0.052243825 0.03384076 -0.12295074 0.094897844 0.14221823 -0.0991626
-0.21036245 0.028170848 0.08553398 0.19889577 0.0068259854 0.20341969 -0.043441806 -0.13041888
-0.13593164 -0.052467804 -0.1515901 -0.105558865 -0.08537248 -0.21702662 0.0950588 -0.111395895
00000000: c352 6abd d17c 3d3e 1d4b 7d3c 9ede 3a3e
00000010: 2998 07bd 83a0 b23d 26bd 493e 7366 7dbd
00000020: 78e2 dd3c 46fd 703e d4d4 3abd 0ee2 b73d
00000030: cfc3 673e 13d4 243e 9249 393d 67e5 fd3d
00000040: 0818 893c 3860 abbc e45c 60be b73f 86bc
00000050: f990 4cbe b55d 043e f05a 013e aa71 46be
00000060: 6185 2e3e 36c4 3e3e 8c89 0c3d 6a78 263e
00000070: 3ca0 8dbd 865e 03be 4f96 65bd f6b0 9f3d
00000080: 06df a73b 7a98 ffbd bf3e 0abe 5990 62be
00000090: 37bb afbb 293e 013e 313d 343e 2c4a 20bc
000000a0: 764b 9f3e 7cbd 8b3d 86c1 3fbe 4549 a03d
000000b0: d7f6 6cbd ca2f 373e 16c3 b13d cfbc 653c
000000c0: ce07 a93c 9cde a6bd 1c20 a23d 5954 303d
000000d0: 35ac 12be 81bd cdbd 63c7 ac3d 0c8a a43d
000000e0: 324d f6bc f6c8 30be 6041 653b 96ea 3a3e
000000f0: 6800 c2bd 482f 4b3e 6411 5fbd ed53 0ebd
00000100: f95a f7bd 85df 963d 8966 e7bc 82ab c1bd
00000110: 745c c6bc 3e89 bebd bc71 6a3e 1b10 243d
00000120: 6406 35be 25a1 0cbd b8b4 5a3d 21aa 99bd
00000130: 7ed3 0c3d 40b2 52bd 3922 d3bd 9ba6 a33d
00000140: 4181 f63d 49a5 e43d 5a06 4e3e 3ab4 fa3d
00000150: 77cf 88bd d313 ecbd bff0 a23d 46dc b0bd
00000160: cc7a 3f3e 246f 043d 9121 8d3d 1548 993a
00000170: 9ba0 8b3e 71cf 0f3e 4369 503e 6db0 063e
00000180: caf7 30be 81ff 47bd f966 2b3e c407 4b3d
00000190: e706 3e3e 0d19 623e d301 283e 5e9e 6ebe
000001a0: 4261 3cbe 056d 0b3e 9050 bb3c 55cc f8bd
000001b0: d4c2 0dbd b8bc cbbd 9b6d e9bc cc01 89bd
000001c0: 78f4 623d 1a22 023d 1782 4f3d bbec 51bb
000001d0: 5982 31bd bbd1 10be 4062 9f3d 5c95 1f3e
000001e0: 0aa3 77bc d6ec 6d3d 0dde 04bd d507 63be
000001f0: 9508 2d3e 69cb 983c 71d9 30bd 1c16 393e
00000200: fd6f a53d b6b2 203e bc8d 4f3e 4949 ce3d
00000210: e398 1b3e 234f c53d b6a5 2a3e 85a3 babc
00000220: f411 f93d 2958 f73d 378c 1c3e 63c9 32be
00000230: 9a70 413d 0d7e 61bd fcb2 163d 4a04 b1bd
00000240: 742f 67be ebf5 92bd 5184 8abb 287d 8dbd
00000250: 529a 8c3e 2ade 5d3d f365 f0bc e0d3 803e
00000260: fce0 ebbd 0d14 df3c 2db5 a83d b548 55bd
00000270: e697 8fbd 08d9 2e3e 961a b4bd b66b 113e
00000280: 1305 143e 788f 2b3e 0fe8 55bc bc1d e03d
00000290: ce1b 313c 226c 21be 30dd 813c 60ba 9f3d
000002a0: b488 85bd 8495 143c 26df 82bd 1a49 53be
000002b0: 454c f1bd 0b53 27be eb8a 843d 53c2 cf3d
000002c0: 893e 6fbd 04cd 003e cae2 243e 7168 41bd
000002d0: caac c13d 1fc7 f43d e67c 223d 188b bc3d
000002e0: 3661 47bc 1a99 8e3c d7f6 37be 77f1 e3bd
000002f0: 4618 e43d f93a c13c af78 0cbe a6a2 c8bd
00000300: 3a8f c73d e98c f0bd dfc6 a1bd 42dd 50be
00000310: fcb9 f5bd e3e6 aabd 01af 0dbe 9cee c83d
00000320: d161 26bc c90f f83d 3ef3 babd c8fc 49bd
00000330: fc5b d53d d982 04be 8dd7 3cbd 01b3 3fbd
00000340: d34a 34be ebaa 4fbe b200 92bd dec3 f53c
00000350: 0c84 0b3e 3b19 9c3d b0eb febd acf9 a93d
00000360: dd16 b6bd eb8c babc ac33 8cbd 8772 a33d
00000370: 8ab8 303e 270b cfbd fb02 393e 056d 303d
00000380: a1ca 553d 8e20 c03d f759 5f3e f6fd 4abd
00000390: 4a2f 93bc 570d 9ebd ccae 043e 6948 633d
000003a0: 1eda 433e 68e4 243d 9ffd 55bd 9c9c 0a3d
000003b0: 99cd fbbd cd59 c23d a8a1 113e c315 cbbd
000003c0: 4169 57be 8dc6 e63c 702c af3d 55ab 4b3e
000003d0: 84ac df3b 404d 503e 09f0 31bd 878c 05be
000003e0: aa31 0bbe 7be8 56bd 6f3a 1bbe 3f2f d8bd
000003f0: c4d7 aebd 3a3c 5ebe 30ae c23d 8823 e4bd

l2.weight f4 [300, 400]
0.013155059 0.0077951355 -0.034458045 0.043383576 -0.0048174947 -0.36557546 0.113660514 0.0017137283
-0.045810845 0.007378357 -0.097790405 0.08636277 0.074897185 0.046641737 0.049599357 0.08194201
0.017824313 -0.036946867 0.0542248 -0.022490768 0.032628488 -0.03694202 -0.015092969 -0.011545131
0.106643885 0.024294266 -0.07908489 0.11614252 -0.2654808 -0.1770576 0.05065864 0.12263973
0.0065373937 -0.00944224 0.05430858 -0.0040958445 0.10192155 0.019398002 0.1661922 0.08689813
0.023635168 -0.027730111 -0.012913295 0.053992704 0.020095432 -0.029202497 -0.057623696 -0.10460934
-0.0080470275 -0.10928847 0.01852428 0.029053159 0.0041674282 -0.049935024 0.02048811 0.031691663
0.035263926 0.074923076 0.04495565 0.087727316 0.012153932 0.002869368 0.08224753 -0.037361175
-0.007852161 -0.012092685 -0.013713735 0.031851098 -0.22601387 0.10334759 -0.034836575 -0.016163724
-0.04790712 -0.05316746 0.045362845 0.07569799 0.01765346 -0.21220575 0.11010279 -0.016341995
0.013209214 0.14929347 0.09550642 0.027708868 0.009977603 -0.02462959 0.10766143 -0.01770417
0.02205868 0.16517144 0.12363233 -0.002305757 -0.030544303 0.00072740315 -0.061491422 0.15930717
0.023778867 0.02934052 0.09738292 0.028370539 0.013696416 -0.019765813 0.015810218 -0.010715786
0.044019446 -0.024730593 -0.029875403 -0.0068386784 0.010514881 -0.011130018 0.13118564 -0.074056
0.10132848 0.023219319 -0.15907328 -0.044316176 0.015524165 -0.01500083 0.016666524 0.036943607
0.03018783 0.04029183 -0.03289809 0.056262948 0.032180615 0.04499608 -0.025813056 0.12904578
0.18070623 0.016160505 -0.02116081 -0.09506662 0.11467898 -0.021571953 0.12559603 -0.01648957
-0.0351128 0.004944775 -0.10939377 0.070013136 -0.01307333 0.0028869973 0.0028630805 0.03542568
-0.04200577 0.0071436916 0.031253032 -0.26434943 -0.022816917 -0.01162658 -0.026053425 0.119298205
0.04189395 -0.023385497 0.007766136 -0.014789322 -0.04677316 0.07447523 -0.029983249 0.045530275
0.098656595 -0.010481345 0.053625625 0.060907684 -0.00022529508 0.041845687 0.02488271 0.013801412
0.013310363 0.007086199 0.00482357 0.046839874 -0.15271705 -0.025663711 0.07772709 -0.001320761
0.020785931 0.0609209 0.09427833 0.010869398 0.014413879 0.041837208 0.093802005 -0.00941427
-0.02783817 0.030033264 0.033930216 -0.052153282 0.06516248 0.15900767 0.07607564 -0.011673097
0.033334017 -0.39321315 -0.019436158 -0.03117351 -0.030376952 0.1015903 0.010937491 -0.04002269
0.026612813 -0.020951755 -0.043396868 -0.032994144 -0.009739526 0.03910551 -0.02694498 -0.040300433
-0.016554896 0.0690069 -0.060029153 0.044034887 -0.07051679 0.056227654 -0.003947505 0.17058027
-0.028088816 -0.046230465 -0.25476193 0.10242216 -0.14143404 0.007855648 -0.022312954 0.05475654
0.0809286 -0.019991966 0.08428902 -0.15797791 0.07532235 -0.0152463 -0.011287797 -0.0064948327
0.12678689 0.13607256 0.07661532 -0.028986752 0.0015552021 -0.18106821 -0.053689677 0.11499863
-0.004703837 0.00984631 -0.034979846 0.09269672 -0.016192246 0.041830465 0.010575044 -0.01072157
0.013188835 -0.015043092 -0.04232343 0.036795046 -0.0196511 -0.027075388 -0.026927192 -0.07172367
00000000: 5188 573c 566e ff3b e123 0dbd fab2 313d
00000010: 13dc 9dbb b52c bbbe d8c6 e83d 2e9f e03a
00000020: 27a4 3bbd 25c6 f13b 5646 c8bd f7de b03d
00000030: b263 993d 680b 3f3d b228 4b3d 36d1 a73d
00000040: 4b04 923c 9955 17bd d31a 5e3d 8f3e b8bc
00000050: 73a5 053d 8450 17bd 8048 77bc ca27 3dbc
00000060: 1c68 da3d c504 c73c 42f7 a1bd 21dc ed3d
00000070: 19ed 87be 964e 35be 6f7f 4f3d 8a2a fb3d
00000080: a237 d63b a0b3 1abc ac72 5e3d 6f36 86bb
00000090: 3fbc d03d 8fe8 9e3c 4a2e 2a3e a6f7 b13d
000000a0: 8a9e c13c 422a e3bc 4992 53bc 7427 5d3d
000000b0: 2d9f a43c 133a efbc d306 6cbd 6c3d d6bd
000000c0: aed7 03bc a2d2 dfbd 3bc0 973c e400 ee3c
000000d0: ec8e 883b ab88 4cbd aed6 a73c 1ecf 013d
000000e0: e870 103d 4571 993d 6a23 383d 61aa b33d
000000f0: 4921 473c 020c 3c3b 6571 a83d 0808 19bd
00000100: 5aa6 00bc 6620 46bc 93af 60bc 4c76 023d
00000110: 2e70 67be e7a7 d33d ccb0 0ebd c969 84bc
00000120: 423a 44bd 1fc6 59bd 64ce 393d 8c07 9b3d
00000130: fd9d 903c 774c 59be 927d e13d a6df 85bc
00000140: 766b 583c 63e0 183e df98 c33d b5fd e23c
00000150: 1a79 233c fec3 c9bc 997d dc3d 5608 91bc
00000160: 68b4 b43c b422 293e f232 fd3d 2f1c 17bb
00000170: 0c38 fabc 33af 3e3a 6ede 7bbd 6b21 233e
00000180: e6cb c23c 885b f03c b270 c73d 5569 e83c
00000190: ef66 603c eaeb a1bc 6e84 813c 4491 2fbc
000001a0: bc4d 343d d097 cabc 43bd f4bc fe16 e0bb
000001b0: 9c46 2c3c ae5a 36bc 8755 063e acaa 97bd
000001c0: 4e85 cf3d 7136 be3c 1be4 22be e184 35bd
000001d0: 1159 7e3c 0bc6 75bc 3c88 883c 2e52 173d
000001e0: 784c f73c 0c09 253d 26c0 06bd fa73 663d
000001f0: d2cf 033d cf4d 383d e775 d3bc 9424 043e
00000200: 0e0b 393e 0963 843c 6f59 adbc 4ab2 c2bd
00000210: d0dc ea3d aab7 b0bc 3f9c 003e 2215 87bc
00000220: 70d2 0fbd c707 a23b d709 e0bd 0c63 8f3d
00000230: 8531 56bc c733 3d3b 85a2 3b3b 851a 113d
00000240: 3e0e 2cbd a115 ea3b 2e03 003d cf58 87be
00000250: 8bea babc 697d 3ebc fe6d d5bc 9e52 f43d
00000260: fe98 2b3d f192 bfbc 127b fe3b ea4e 72bc
00000270: 3795 3fbd 7886 983d 6e9f f5bc f47d 3a3d
00000280: 780c ca3d f2b9 2bbc 8ba6 5b3d 567a 793d
00000290: 303d 6cb9 6266 2b3d d3d6 cb3c 511f 623c
000002a0: b513 5a3c 5833 e83b 0a0f 9e3b 2bdb 3f3d
000002b0: dc61 1cbe b43c d2bc 612f 9f3d 631d adba
000002c0: 4247 aa3c 3288 793d ff14 c13d 8f15 323c
000002d0: 3128 6c3c 7e5d 2b3d 441b c03d 4f3e 1abc
000002e0: e00c e4bc 5208 f63c 69fa 0a3d ae9e 55bd
000002f0: e873 853d e8d2 223e 8ccd 9b3d 8440 3fbc
00000300: 4089 083d 3c53 c9be 9438 9fbc 975f ffbc
00000310: 16d9 f8bc 930e d03d 2a33 333c d5ee 23bd
00000320: 1d03 da3c 04a3 abbc eac0 31bd de24 07bd
00000330: 8892 1fbc 192d 203d b8bb dcbc 1112 25bd
00000340: 229e 87bc 7d53 8d3d 21e1 75bd ed5d 343d
00000350: 1b6b 90bd f84e 663d 125a 81bb 98ac 2e3e
00000360: 841a e6bc 285c 3dbd 2870 82be b6c2 d13d
00000370: 16d4 10be fab4 003c a8c9 b6bc 6548 603d
00000380: e5bd a53d 31c6 a3bc b99f ac3d f6c4 21be
00000390: 9b42 9a3d 9ecb 79bc 74f0 38bc 9bd2 d4bb
000003a0: 6cd4 013e 9b56 0b3e 7ee8 9c3d a075 edbc
000003b0: ecd7 cb3a f269 39be b5e9 5bbd 6784 eb3d
000003c0: a522 9abb 6b52 213c 0747 0fbd c7d7 bd3d
000003d0: 9aa5 84bc 6c56 2b3d f342 2d3c 86a9 2fbc
000003e0: fc15 583c 4d77 76bc 555b 2dbd 67b6 163d
000003f0: 58fb a0bc 34cd ddbc 6a96 dcbc dce3 92bd

l2.bias f4 [300]
0.08624454 0.02722971 0.01575096 0.04183847 0.06442031 0.073741354 0.18732344 0.075433426
0.09220114 0.0929244 -0.00016708007 0.13877787 0.029407661 0.051380318 0.0923577 -0.028919477
-0.07212532 0.117849104 0.0052020974 0.013053823 0.13452746 -0.036446307 0.11820378 0.10059707
0.12546083 0.10890027 -0.028269688 -0.025336448 -0.034442425 0.06252925 -0.057041626 0.08271044
-0.03170751 -0.05727185 0.08240061 0.010760232 0.08458589 0.12834375 0.0046319673 0.09292302
-0.0045305784 0.10958285 0.0064948215 -0.098906174 0.057686 0.033615183 0.0387157 0.00033819195
0.13486443 0.1377623 -0.10971791 0.18901283 0.010725742 0.10403204 -0.0044571143 -0.12835367
-0.041521013 0.21598357 -0.12119667 -0.011172769 0.07828058 0.092272386 0.10395542 0.14705306
0.0113314465 0.07160348 -0.07808959 0.098093465 0.017212514 0.020355593 0.013563362 -0.050126947
0.017126463 0.018351758 -0.057240188 0.12710096 -0.028352194 -0.01629277 0.10502973 0.11753599
-0.0076617426 0.26881188 0.12582862 -0.008251846 0.07913611 0.023338616 0.08415992 0.0025578612
0.086689144 0.10412778 -0.019351074 0.11355508 -0.021204442 -0.06684641 -0.0264157 0.081555545
0.04885219 0.104172096 -0.01247472 -0.01187086 -0.01624739 0.033121374 0.10145366 0.093536116
-0.026274037 -0.07721532 0.011043133 0.30549103 0.053215746 -0.046383344 0.06932133 -0.038694743
0.08397153 -0.020519 0.07306101 0.06313813 0.005248309 -0.03237907 0.033649616 -0.045962445
0.11755653 0.09216156 0.15086016 0.14433788 -0.048517536 0.10045823 0.14048885 -0.055851057
-0.02967169 0.10822585 0.13958968 -0.043269116 -0.028933967 0.17723165 0.11836897 0.0109898215
-0.019241545 0.12549002 0.10069341 0.01723381 -0.01420279 0.09048751 0.11957849 -0.08405216
0.06224824 -0.008090629 0.07749351 0.11732677 0.08647431 -0.054032646 0.11129428 0.029928222
-0.053311538 -0.08804258 -0.044911373 0.10261265 0.057100046 -0.014462821 0.1313451 0.05806654
0.07551042 0.019208912 -0.0743272 -0.02440517 0.062743075 -0.049323786 0.12997043 0.116390795
0.008191269 -0.04944896 0.10176414 0.089152224 0.1097701 0.08511359 0.054701366 -0.047463175
0.2488886 0.13523231 -0.016580151 -0.044108305 0.083643794 0.05893432 0.105113305 0.090524465
-0.024366105 -0.06010714 -0.001865281 0.06488656 -0.109207004 0.05730095 0.0074521434 0.11054301
0.08206267 0.0744847 0.0601587 0.13553278 0.0020867812 0.10744652 0.12294414 0.0716708
0.09854551 -0.055775058 -0.02005858 0.11093261 0.055724528 0.14428076 -0.05228427 -0.041962277
-0.03591584 0.04714059 -0.0049398616 -0.04489305 0.096366026 0.11907921 0.15837531 -0.015007299
0.107746445 -0.0539648 0.14451428 0.07878387 0.14534625 -0.022509588 -0.01838278 0.0065375
-0.002560713 -0.035596844 0.04819181 0.029006692 -0.007459502 0.0010524907 0.10977341 -0.013739628
0.030748673 0.01920798 -0.033576764 0.03191056 -0.23747036 0.0021507933 0.23761426 0.010805256
0.1324661 -0.036811166 0.12578484 -0.04806474 0.047389533 -0.09620053 -0.048129916 0.12655859
0.12457897 0.061888896 -0.04059334 0.016823806 0.0034853697 0.13055933 0.06908938 -0.028078713
00000000: faa0 b03d d710 df3c 2808 813c d15e 2b3d
00000010: ccee 833d b505 973d b7d1 3f3e d77c 9a3d
00000020: f4d3 bc3d 264f be3d 3732 2fb9 c91b 0e3e
00000030: 56e8 f03c 2b74 523d 0926 bd3d 8ae8 ecbc
00000040: 71b6 93bd df5a f13d 5b76 aa3b b4df 553c
00000050: 91c1 093e b948 15bd d314 f23d d605 ce3d
00000060: ce78 003e 1b07 df3d d595 e7bc 628e cfbc
00000070: 8013 0dbd 560f 803d 7ba4 69bd 1764 a93d
00000080: bcdf 01bd e395 6abd a7c1 a83d af4b 303c
00000090: 5e3b ad3d 8b6c 033e c2c7 973b 6d4e be3d
000000a0: 3f75 94bb f96c e03d 83d2 d43b 528f cabd
000000b0: 2848 6c3d 13b0 093d 5b94 1e3d 5b4f b139
000000c0: e719 0a3e 8f11 0d3e c9b3 e0bd 948c 413e
000000d0: 06bb 2f3c c00e d53d fc0c 92bb 256f 03be
000000e0: f011 2abd cc2a 5d3e f635 f8bd fd0d 37bc
000000f0: 9251 a03d 4ef9 bc3d 94e6 d43d 1495 163e
00000100: 88a7 393c d8a4 923d 6fed 9fbd 3ae5 c83d
00000110: 4201 8d3c c6c0 a63c dd38 5e3c ea51 4dbd
00000120: cc4c 8c3c 6d56 963c b074 6abd c126 023e
00000130: dc42 e8bc 6a78 85bc d419 d73d b6b6 f03d
00000140: 5b0f fbbb b6a1 893e 38d9 003e c032 07bc
00000150: 1d12 a23d a030 bf3c 095c ac3d caa1 273b
00000160: 148a b13d f240 d53d 2586 9ebc 918f e83d
00000170: f0b4 adbc c5e6 88bd bd65 d8bc 9806 a73d
00000180: 3c19 483d 2e58 d53d c562 4cbc ff7d 42bc
00000190: 3f19 85bc 47aa 073d f0c6 cf3d dd8f bf3d
000001a0: a63c d7bc 1123 9ebd 42ee 343c 5269 9c3e
000001b0: c1f8 593d 76fc 3dbd 57f8 8d3d 617e 1ebd
000001c0: 44f9 ab3d 7617 a8bc 03a1 953d 904e 813d
000001d0: 02fa ab3b ea9f 04bd 2ed4 093d 1e43 3cbd
000001e0: 7ac1 f03d 33bf bc3d 167b 1a3e 4fcd 133e
000001f0: 53ba 46bd 0bbd cd3d 4fdc 0f3e 14c4 64bd
00000200: 0b12 f3bc 84a5 dd3d 99f0 0e3e f53a 31bd
00000210: ed06 edbc 377c 353e 6e6b f23d a70e 343c
00000220: 72a0 9dbc 7580 003e 5938 ce3d eb2d 8d3c
00000230: d2b2 68bc 8451 b93d 91e5 f43d 8a23 acbd
00000240: 03f8 7e3d 8f8e 04bc ebb4 9e3d 0549 f03d
00000250: 7119 b13d 5651 5dbd 41ee e33d 082c f53c
00000260: 335d 5abd ab4f b4bd fdf4 37bd 9526 d23d
00000270: bde1 693d 78f5 6cbc 547f 063e 2ed7 6d3d
00000280: 35a5 9a3d 025c 9d3c dc38 98bd 5aed c7bc
00000290: 717f 803d bd07 4abd f816 053e 4c5e ee3d
000002a0: ac34 063c fe8a 4abd b869 d03d 7195 b63d
000002b0: 25cf e03d 0950 ae3d 8a0e 603d bf68 42bd
000002c0: a7dc 7e3e 577a 0a3e 19d3 87bc e9aa 34bd
000002d0: 704d ab3d 1d65 713d a545 d73d e464 b93d
000002e0: 6d9b c7bc e832 76bd 727c f4ba 3fe3 843d
000002f0: eca7 dfbd 67b4 6a3d 1c31 f43b 6064 e23d
00000300: 7910 a83d 6f8b 983d f868 763d 1bc9 0a3e
00000310: 61c2 083b ec0c dc3d 23ca fb3d 24c8 923d
00000320: 3ad2 c93d 6374 64bd e451 a4bc a330 e33d
00000330: 673f 643d 56be 133e 0828 56bd a3e0 2bbd
00000340: 7d1c 13bd 7e16 413d 90de a1bb c6e1 37bd
00000350: 8d5b c53d cddf f33d 232d 223e 2de1 75bc
00000360: 2baa dc3d 320a 5dbd 8dfb 133e 7059 a13d
00000370: a6d5 143e 0766 b8bc 7c97 96bc 8638 d63b
00000380: a3d1 27bb ffcd 11bd c664 453d 719f ed3c
00000390: d76e f4bb baf3 893a e2d0 e03d 2d1c 61bc
000003a0: a4e4 fb3c 0e5a 9d3c ca87 09bd a6b4 023d
000003b0: 6e2b 73be 53f4 0c3b 2751 733e 8708 313c
000003c0: 31a5 073e 4ec7 16bd becd 003e 88df 44bd
000003d0: 871b 423d c904 c5bd e023 45bd 9398 013e
000003e0: 4223 ff3d 367f 7d3d 3445 26bd 14d2 893c
000003f0: cd6a 643b 58b1 053e bc7e 8d3d 5405 e6bc

l3.weight f4 [1, 300]
-0.09980745 -0.00012141597 -0.17059617 0.15172201 -0.12770568 -0.14707214 -0.25799072 -0.11188643
-0.16157156 -0.14677045 -0.00024436333 -0.12804903 0.012468832 -0.011087576 -0.14720012 0.012254073
0.015719565 -0.10001152 -0.011691289 0.010223238 -0.12243938 0.010906121 -0.14194047 -0.14134161
-0.1126867 -0.10290187 0.028486304 0.050080225 0.00023825957 -0.14231193 0.038093388 -0.023325693
-0.007607126 0.038692128 -0.14173594 -0.0076999227 -0.13684821 -0.099544875 0.018602422 -0.093992844
-0.005232459 -0.10026956 0.020538656 -0.0005642609 -0.067427054 -0.18520877 -0.17135255 0.011645489
-0.13779338 -0.16678812 -0.013442715 -0.09329612 0.024787433 -0.099156864 0.010705148 -0.00044303545
0.04138224 -0.17074543 -0.007797507 -0.0011934141 -0.109457314 -0.1412934 -0.08632647 -0.1354937
0.007472285 -0.10893472 -0.13268864 -0.09888085 0.042029023 -0.015537736 -0.002515835 0.037965987
0.009416683 0.002373165 0.0069072223 -0.15082318 0.016636329 0.0015533885 -0.14011934 -0.14690661
0.031495605 -0.26137182 -0.11088153 0.008896549 -0.09211435 -0.005261943 -0.103681915 0.01214872
-0.13282134 -0.18340482 0.0073520043 -0.1442426 0.039434686 0.026600402 0.047996204 -0.12710582
-0.044885937 -0.09852792 0.02780155 -0.032213233 0.01923178 -0.1474981 -0.15429182 -0.1157504
0.16073884 0.00014677433 0.03226433 -0.26118466 -0.06682071 0.014686136 -0.1406023 0.014596621
-0.047855552 0.004179219 -0.1422896 -0.120241195 0.041398574 0.027513849 0.0119406 0.024177829
-0.06882483 -0.13751307 -0.13699836 -0.09845169 0.00018786396 -0.13731901 -0.1263945 -0.004341362
0.0026559476 -0.10241074 -0.10121483 0.005031705 -0.040862996 -0.120731026 -0.0727505 0.045048386
-0.001618688 -0.14479807 -0.10544671 0.044168845 -0.006709329 -0.13091642 -0.1346438 0.017473714
-0.12143874 0.008763403 -0.13564248 -0.122753516 -0.072815105 0.011614823 -0.088836975 0.02902954
-0.004910321 0.0004347697 -0.004825042 -0.13492553 -0.0918477 0.010093834 -0.11792674 -0.12696151
-0.14448482 -0.062428895 0.013535748 0.021398028 -0.15426792 0.039448157 -0.15637417 -0.116027065
0.028370393 0.025766144 -0.14496405 -0.19372287 -0.13492987 -0.104361385 -0.15493903 0.046313994
-0.31711757 -0.14195356 0.016128866 0.0010194634 -0.1305781 -0.18054807 -0.1351003 -0.03475316
-0.001996612 0.002052209 0.0072082514 -0.12089466 0.3772076 -0.11648836 0.00878239 -0.099368535
-0.1336187 -0.116162516 -0.12282005 -0.10347139 0.005126766 -0.11300647 -0.11550279 -0.12894177
-0.11963059 -0.032512262 -0.006663844 -0.15177874 -0.12118722 -0.12336169 -0.024437428 0.02264179
0.018020377 -0.11070759 0.03274973 0.016748276 -0.12791419 -0.1065426 -0.12547256 -0.0066063195
-0.103566185 0.0022407644 -0.10803223 -0.14409211 -0.111106806 -0.005528511 0.04104957 0.02340995
0.04006455 0.031897027 -0.14365406 0.031036751 0.013190817 -0.005967183 -0.11045541 0.008954043
-0.005133951 0.05350152 -0.003336521 -0.15975532 0.38195795 0.0025438643 -0.24602793 -0.19302844
-0.1206416 0.023140334 -0.14690597 0.0078890165 -0.11169528 0.0031551768 0.0033467063 -0.13384107
-0.08429051 -0.11198529 0.00066629954 0.016133688 0.021745231 -0.124463364 -0.086938314 0.044867128
00000000: d967 ccbd b4a0 feb8 c3b0 2ebe 045d 1b3e
00000010: 47c5 02be 149a 16be 5c17 84be b624 e5bd
00000020: 0473 25be fe4a 16be e41d 80b9 491f 03be
00000030: 124a 4c3c aaa8 35bc a1bb 16be 4fc5 483c
00000040: 51c6 803c d7d2 ccbd d28c 3fbc 5e7f 273c
00000050: 7fc1 fabd 96af 323c d858 11be dbbb 10be
00000060: 49c8 e6bd 37be d2bd 1c5c e93c ec20 4d3d
00000070: 51d5 7939 38ba 11be d007 1c3d 8615 bfbc
00000080: 3345 f9bb a37b 1e3d 3a23 11be a24f fcbb
00000090: f021 0cbe 2fde cbbd 1b64 983c 527f c0bd
000000a0: 0c75 abbb 215a cdbd af40 a83c e8ea 13ba
000000b0: 3217 8abd 5ea7 3dbe 0b77 2fbe b9cc 3e3c
000000c0: b519 0dbe 81ca 2abe d53e 5cbc 0912 bfbd
000000d0: 040f cb3c c112 cbbd a564 2f3c 3647 e8b9
000000e0: 6c80 293d e4d7 2ebe 3b82 ffbb 556c 9cba
000000f0: 282b e0bd 38af 10be efcb b0bd dcbe 0abe
00000100: 12da f43b 2b19 dfbd 88df 07be 0b82 cabd
00000110: a026 2c3d fd91 7ebc b5e0 24bb 3982 1b3d
00000120: 6e48 1a3c 1a87 1b3b fb55 e23b 6471 1abe
00000130: e948 883c 129b cb3a 727b 0fbe b06e 16be
00000140: 8901 013d 87d2 85be db15 e3bd d5c2 113c
00000150: 73a6 bcbd 616c acbb 2f57 d4bd 6d0b 473c
00000160: 5102 08be 79ce 3bbe 15e9 f03b 55b4 13be
00000170: 4486 213d 16e9 d93c ab97 443d 0728 02be
00000180: 51da 37bd 02c9 c9bd 14c0 e33c 06f2 03bd
00000190: f78b 9d3c be09 17be adfe 1dbe 8c0e edbd
000001a0: b998 243e 6fe7 1939 9a27 043d ffb9 85be
000001b0: 4cd9 88bd 1e9e 703c 0dfa 0fbe aa26 6f3c
000001c0: 2f04 44bd d4f1 883b 5db4 11be 0441 f6bd
000001d0: 8d91 293d b964 e13c 82a2 433c 9510 c63c
000001e0: 08f4 8cbd 3ad0 0cbe 4c49 0cbe 0aa1 c9bd
000001f0: 59fd 4439 5b9d 0cbe 8f6d 01be fc41 8ebb
00000200: 680f 2e3b b9bc d1bd b949 cfbd 00e1 a43b
00000210: f55f 27bd d441 f7bd 37fe 94bd a884 383d
00000220: 282a d4ba f245 14be 72f4 d7bd 64ea 343d
00000230: eed9 dbbb f40e 06be 10e0 09be 0925 8f3c
00000240: e0b4 f8bd 6094 0f3c dde5 0abe 3266 fbbd
00000250: 1620 95bd 194c 3e3c 29f0 b5bd 5ccf ed3c
00000260: c2e6 a0bb cdf1 e339 631b 9ebb eb29 0abe
00000270: a61a bcbd 9c60 253c 9383 f1bd 3302 02be
00000280: d4f3 13be 71b5 7fbd 0bc5 5d3c eb4a af3c
00000290: 69f8 1dbe 6494 213d 8d20 20be 999f edbd
000002a0: 0769 e83c 8513 d33c 7571 14be 4a5f 46be
000002b0: 0e2b 0abe 6cbb d5bd 56a8 1ebe beb3 3d3d
000002c0: 3c5d a2be 465c 11be af20 843c 849f 853a
000002d0: 44b6 05be 98e1 38be bc57 0abe 5459 0ebd
000002e0: 97d9 02bb 5b7e 063b 3233 ec3b 9f97 f7bd
000002f0: 5b21 c13e 7391 eebd 03e4 0f3c bb81 cbbd
00000300: 57d3 08be 9de6 edbd 1489 fbbd cfe8 d3bd
00000310: 6efe a73b f06f e7bd ba8c ecbd 5009 04be
00000320: e200 f5bd 942b 05bd 605c dabb e36b 1bbe
00000330: 0131 f8bd 0ea5 fcbd 0031 c8bc 467b b93c
00000340: 789f 933c a9ba e2bd 9524 063d ae33 893c
00000350: f0fb 02be 0233 dabd e17b 00be d379 d8bb
00000360: 821a d4bd cad9 123b 0040 ddbd e28c 13be
00000370: f78b e3bd 8328 b5bb 9823 283d 39c6 bf3c
00000380: ba1a 243d 75a6 023d 0d1a 13be c940 fe3c
00000390: 4c1e 583c 5c88 c3bb 7236 e2bd fab3 123c
000003a0: b43a a8bb 6924 5b3d 89a9 5abb e696 23be
000003b0: fe8f c33e f6b6 263b bfee 7bbe 3fa9 45be
000003c0: f112 f7bd cc90 bd3c 856e 16be ef40 013c
000003d0: 7fc0 e4bd 15c7 4e3b 6a54 5b3b a20d 09be
000003e0: 81a0 acbd 8b58 e5bd 9baa 2e3a cc2a 843c
000003f0: 0e23 b23c a6e6 febd b70c b2bd 98c6 373d
