TD3/models/second_training_attempt/train_400_episodes_actor.pth (torch, 528299 bytes, 6 tensors)

l1.weight f4 [400, 24]
000000 07 18 78 3e 5d 66 cb 3d a1 89 b5 be 0e 15 bf 3d
       0.24227916 0.099316336 -0.35456565 0.09330188
000010 f3 39 26 3d 1a 59 cc bc 80 02 83 be 34 ea e1 3c
       0.04058261 -0.02494483 -0.25587845 0.027577497
000020 27 18 02 be 0f 75 ab 3d e9 69 cc 3d db ca c4 3e
       -0.12704526 0.083719365 0.09981138 0.38436016
000030 11 6e 95 3d e0 1e 1d 3e 83 c0 c6 3b 10 76 a8 bd
       0.07296384 0.15343809 0.0060654297 -0.08225644
000040 b1 27 35 3d 48 ab 3e bd 60 87 50 be df 14 47 bd
       0.044227306 -0.046550065 -0.20364141 -0.04860389
000050 39 58 00 be bd fa 13 be ff 6e 9f bc f5 c2 1f bd
       -0.12533654 -0.14451118 -0.019462107 -0.039004285
000060 70 70 ec 3c 85 b5 64 3e 36 4e 55 be 0b 2b 1a 3e
       0.028862208 0.22334869 -0.20830616 0.15055482
000070 a2 1f 85 be f3 c9 99 3d ae f2 bb 3d db 4c 86 bd
       -0.26000696 0.07509222 0.09177147 -0.06557628
000080 09 10 fd bd 5b c4 12 3d c9 03 b4 bc ff 23 55 3e
       -0.12356574 0.03583179 -0.021974461 0.20814513
000090 f2 da 70 3e 84 4c 0a 3d f4 ff 40 be 12 52 8a bd
       0.23521021 0.033764377 -0.18847638 -0.06753935
0000a0 c9 49 9a bd 92 15 38 be 8d cd e9 bd 57 11 5e bd
       -0.07533605 -0.17976978 -0.11416159 -0.054215755
0000b0 70 9d e3 3d 76 0f 17 bd a6 15 bf 3d dd 9e 33 be
       0.11114013 -0.03687998 0.09330301 -0.1754107
0000c0 49 df da bb f8 cc 05 bc 92 4b a5 be 0d e7 15 3e
       -0.0066794497 -0.008166544 -0.32284218 0.1463892
0000d0 9e 26 bd bd ab 26 73 be 36 50 31 be ee 1f bf bd
       -0.09235881 -0.2374522 -0.17315754 -0.09332262
0000e0 97 72 95 3d 91 30 21 bc 8e 9c 61 3d 49 17 33 3e
       0.07297247 -0.009838239 0.055080943 0.17489351
0000f0 f8 13 54 3e 82 fc e5 bd 8f aa 96 3d 76 88 b9 bd
       0.20710742 -0.11229803 0.0735675 -0.09059231
000100 c1 b9 f1 bc 79 7e 35 be 09 1d bc bd 3c d2 f1 3a
       -0.02950752 -0.17724027 -0.091852255 0.0018449496
000110 f1 3a 84 3d a5 d9 4b be 8a 25 fa 3c 1b e5 91 bd
       0.06456555 -0.19907244 0.030535478 -0.071237765
000120 54 3d 0d be c2 36 87 bd e0 fd 26 3e d4 65 41 3e
       -0.13792926 -0.06602241 0.16307783 0.188865
000130 af f2 11 3e e6 59 66 3c 4a a2 c0 3d e9 c3 a6 bd
       0.14252733 0.014059519 0.09405954 -0.08142836
000140 4f dd e2 bd 83 66 72 be ba 7e 62 3e 4f cb bf 3d
       -0.110773675 -0.23671918 0.22118655 0.0936495
000150 fe 68 08 3e 39 e8 56 be e6 56 c1 3a 67 01 55 3d
       0.13321301 -0.20987023 0.0014750629 0.05200329
000160 42 4f 87 be e2 ac 84 be 79 0e 60 be 26 53 56 be
       -0.26427656 -0.2591315 -0.21880521 -0.20930156
000170 65 94 08 3d f2 bb 87 3d c6 57 9a bc 0e db 71 be
       0.033344645 0.066276446 -0.018840682 -0.23618719
000180 f5 5c f2 3d 64 51 fd 3d c3 0c 01 3d 61 c9 cd 3c
       0.118341364 0.1236904 0.03150631 0.025120439
000190 86 0a 51 be 88 36 25 3e 5a 38 bc bd 2a 5c 10 3e
       -0.2041417 0.16134083 -0.09190436 0.14097658
0001a0 10 b4 c8 3d 13 ab f7 3d b8 24 88 3d 66 44 05 be
       0.09799969 0.12093177 0.066476285 -0.13014373
0001b0 e4 2a 92 bd b2 3a 09 3e b7 2b 12 3d c4 c8 21 be
       -0.07137087 0.13401297 0.03568622 -0.15799242
0001c0 30 46 51 bc 03 71 f1 bd 06 70 4d bc b6 3d 29 3e
       -0.012773082 -0.117891334 -0.0125389155 0.16527447
0001d0 68 32 c2 bd 18 21 64 bc 42 ab 8f bd 72 a0 3a 3d
       -0.094822705 -0.013923906 -0.07015087 0.04556317
0001e0 8f 60 80 3e 12 2f be bc dc 0a 91 be 9e 60 9d bd
       0.25073668 -0.023215804 -0.28328598 -0.07684444
0001f0 0a 00 0e 3e c4 ff 2c be 7f 40 19 be 68 68 ec 3d
       0.13867202 -0.16894442 -0.1496601 0.115433514
000200 cb e3 d4 3d 09 03 94 3e 68 32 04 3e 70 44 84 bd
       0.103950106 0.28908566 0.12909853 -0.06458366
000210 14 12 ce 3d 55 e3 c1 3d 8f eb 67 3c e0 24 4f 3e
       0.10062042 0.09467188 0.014155283 0.2022891
000220 46 3d 71 3e 43 a4 a4 bd 3b b6 82 bd 51 8a e0 3d
       0.2355853 -0.08039143 -0.06382414 0.10963882
000230 43 71 b6 bd 41 90 47 3d 10 e2 78 3e 11 23 02 be
       -0.08908322 0.048721556 0.24304986 -0.1270869
000240 ad 7d 16 3e 4b 9e b4 bd 9c 26 45 be 0d 63 1b bd
       0.14696379 -0.088192545 -0.1925301 -0.03793626
000250 1b 76 4b bc 7c eb b8 bd be d3 8b 3c 6f 18 fb bd
       -0.012418295 -0.0902929 0.01706874 -0.1226052
000260 1a 95 e6 3d 5b 6e 0a 3e 59 3a e9 3d e0 23 1d 3e
       0.112589076 0.1351866 0.11388082 0.15345716
000270 6c 4a fc bd 51 d9 0d be c9 8c 61 be 4f e9 fa bd
       -0.12318882 -0.13852431 -0.22026362 -0.12251531
000280 77 20 78 bd 10 50 ae bd 72 ea 0f 3e 06 6c ff 3d
       -0.060577836 -0.085113645 0.14054278 0.12471776
000290 16 83 7f 3d 31 c2 b5 bc 67 d8 09 bd 8a 59 41 be
       0.062380873 -0.022187324 -0.033653643 -0.18881813
0002a0 55 b5 47 be 3e c8 4f be db 46 f2 3c 53 6d 5e be
       -0.19502766 -0.2029123 0.029574802 -0.21721391
0002b0 86 44 a4 bc 9c 6c 8b 3e 91 a5 6f 3d d7 a2 20 3e
       -0.020052206 0.272313 0.058507506 0.15687118
0002c0 40 d4 e9 3d 24 8e 09 bd 02 31 10 3e e9 25 f9 3c
       0.114174366 -0.03358282 0.14081195 0.030413585
0002d0 07 da 1c be 9b 25 f0 3c 0d 92 e6 3b 15 8e 36 3e
       -0.15317546 0.029314807 0.0070364536 0.17827637
0002e0 66 82 18 bc 60 89 f0 3d 52 62 ce bd 37 fd 4d 3e
       -0.009308433 0.11744952 -0.10077347 0.20116125
0002f0 fd ea 11 3e e9 71 c3 3c 17 9e ac bd d9 28 89 bd
       0.14249797 0.023858028 -0.08428591 -0.06697244
000300 55 ec 83 bd f9 de 54 3c bc 5f 50 be c3 5a e2 bc
       -0.06441561 0.012992614 -0.2034902 -0.02763117
000310 fb 88 f3 bc ce 2b d8 3d 04 ec aa 3e eb 5f bf 3d
       -0.029728403 0.1055523 0.3338319 0.09344467
000320 16 72 44 3e c8 18 9e 3d 33 d0 89 3d 55 a6 38 be
       0.19184145 0.077195704 0.06729164 -0.180322
000330 68 7c b5 3d c7 70 ec 3c c7 fc d9 bd 22 53 04 be
       0.08861619 0.02886237 -0.106439166 -0.12922338
000340 17 9d 89 3d b4 86 3c be 3a 9e dc bd d6 cf f5 bd
       0.06719416 -0.1841076 -0.10772367 -0.12002532
000350 3b 42 d2 bd 9f 19 57 be 93 e4 1c 3c e6 5b b9 bd
       -0.10266539 -0.21005867 0.009575981 -0.09050731
000360 bf a8 09 3d 39 3f fe bd f2 14 09 3e 5c 70 72 be
       0.033608194 -0.124144025 0.13386896 -0.23675674
000370 17 f4 12 be b2 d1 5d 3d 9f 9d 9b 3e 78 0e 6b be
       -0.14350925 0.05415506 0.30393693 -0.22954738
000380 48 0b c9 bd 4f b7 45 be a5 c1 9c 3d 3a 5b f9 bd
       -0.09816605 -0.19308208 0.07654122 -0.12175603
000390 87 e8 10 3e 28 96 82 3d 76 8d 5b 3e 28 59 c6 bd
       0.14151202 0.06376296 0.21440682 -0.09684974
0003a0 6c 7e 64 3e 76 c9 c1 3c 28 f2 16 3e 95 17 c5 bd
       0.22313851 0.023655634 0.14740813 -0.096236385
0003b0 b8 e0 8e bd 48 e6 0b 3d 26 95 20 bb 7b 21 e3 bd
       -0.069764555 0.03415516 -0.0024502962 -0.1109037
0003c0 2e bd 07 3d 9d 51 53 3e d9 0c b3 3c 03 2b 3a 3e
       0.0331394 0.20636602 0.021856712 0.1818047
0003d0 81 f7 43 be 4c 0d b0 3d f7 80 e5 bc ba 81 da bc
       -0.19137384 0.08596286 -0.028015597 -0.026673187
0003e0 fb 4d 43 be 32 3b b1 3d 72 6a 03 3e ce cc d3 3d
       -0.19072716 0.08653869 0.12833574 0.10341798
0003f0 5b 4a 47 be ff b1 d0 3d 44 79 a9 bc 22 e4 8d be
       -0.19461958 0.101902 -0.020687707 -0.27713114

l1.bias f4 [400]
000000 7e 0a 22 3e 39 26 21 3e cd 0b d7 3d fb dc 6a be
       0.15824315 0.15737237 0.10500298 -0.2293586
000010 9c b8 a6 ba 2f 61 83 bd b2 f5 bc bd df 98 ac bd
       -0.0012719813 -0.06415021 -0.0922655 -0.08427595
000020 93 8a f5 bd a2 b6 52 bd 3e 82 3d be ed 64 0b be
       -0.119893216 -0.051443703 -0.18506715 -0.13612719
000030 37 b0 10 be 2f 09 cc 3c 79 09 8f 3d a6 a0 89 bc
       -0.1412972 0.024906723 0.06984229 -0.016800236
000040 a2 e1 16 be c8 17 e9 3d 8f b1 71 bd d0 52 6d be
       -0.1473451 0.11381489 -0.059007224 -0.23176122
000050 f8 a0 22 be 39 0c b9 3c 3f f9 38 3e 2d 7c 01 3e
       -0.15881717 0.022588836 0.1806383 0.12645026
000060 64 1a f4 bd 5a 5d 97 bd c8 2f 4f be 0c ee 68 bd
       -0.11919096 -0.07390852 -0.20233071 -0.056867644
000070 66 ef 3b bc 2e 74 53 bd bc 50 75 3e 80 83 3b be
       -0.011470651 -0.05162447 0.23956579 -0.18311882
000080 36 81 3d bc 18 f9 82 bc 1c d3 10 bc 37 20 be bc
       -0.011566451 -0.015987918 -0.008839395 -0.02320872
000090 c4 6a a9 3d 3f ca c6 bd 61 a3 5c bd 49 a9 ce 3d
       0.08272317 -0.09706544 -0.053866748 0.10090882
0000a0 06 25 e3 3d 44 87 3b bd 8c 0e 07 3e 12 b2 8f 3d
       0.11091046 -0.045783296 0.13189143 0.07016386
0000b0 6c 3a b9 3c 79 1e 17 bd c9 28 35 be 68 f0 b3 bd
       0.022610866 -0.036894295 -0.1769134 -0.08786088
0000c0 6e ca a0 bc 5f 1b 4f be ac 43 4c be 7c 04 14 3e
       -0.019627776 -0.20225285 -0.1994769 0.14454836
0000d0 81 7e 0a 3e cf 25 4d be 54 18 1d be 6d ae 09 3e
       0.1352482 -0.20033954 -0.15341312 0.13445444
0000e0 96 6e 26 be da 2c 65 bc 3f 6b 4b 3d 2f 45 1b be
       -0.16253123 -0.013987744 0.049662825 -0.1516311
0000f0 b7 43 b8 3d de 8a 90 3d f1 2d 71 be 8b a0 78 3d
       0.089972906 0.07057737 -0.23552682 0.06069998
000100 19 6e 85 be 5e 70 da bd e9 f9 9b 3d 07 71 f7 bd
       -0.2606056 -0.106659636 0.07616026 -0.12082105
000110 79 c6 e6 bb eb 93 11 bd 4e 46 14 be 88 83 9f 3d
       -0.0070427028 -0.035541456 -0.14479944 0.077887595
000120 36 33 2a bd 43 83 a7 bd 42 c8 c6 bd 83 e6 c6 3d
       -0.041552745 -0.08179333 -0.09706165 0.09711935
000130 af 10 a9 bd 40 fe 0d be c3 1e 58 3e e6 c7 8a bd
       -0.08255135 -0.1386652 0.21105485 -0.06776409
000140 d9 7c 51 be c3 3d 97 bd 78 d8 bf bd 65 fa 87 be
       -0.20457782 -0.07384827 -0.0936746 -0.26558223
000150 6d 98 d5 bd 84 21 84 3d 41 5e f9 3d 78 5f 06 be
       -0.104294635 0.06451705 0.12176181 -0.13122356
000160 24 6b 8e be 28 fe 87 bc 32 2a e0 3c af 7e 02 3e
       -0.27816117 -0.016600683 0.02736387 0.12743638
000170 32 93 76 bd 9e 79 1a bc e7 89 38 be b5 d0 ad 3d
       -0.06019897 -0.00942841 -0.18021356 0.08487073
000180 e6 30 12 bd 8d c2 dd bc 13 79 28 3e 78 ac 27 bd
       -0.035691164 -0.027070308 0.16452436 -0.040935963
000190 b4 84 b3 bd 19 96 27 be 5d 07 79 3d 35 f3 92 be
       -0.087655455 -0.16365851 0.060798038 -0.28701177
0001a0 68 c3 d0 bb 16 1b cd 3c 22 68 13 be e9 03 82 bd
       -0.0063709505 0.02503733 -0.14395192 -0.06348402
0001b0 21 45 fc bd 2b 9c a8 3d 19 74 94 bd 9a 78 e5 3d
       -0.12317873 0.08232912 -0.07248706 0.112046435
0001c0 14 2d 21 be 0e bb 22 be 2d bc ae bd 4b b5 2b be
       -0.15739852 -0.15891668 -0.085319854 -0.16768377
0001d0 fe 16 ef bd e6 b2 ff bd 91 fe e2 3d fb 98 c0 bd
       -0.11674307 -0.12485294 0.11083711 -0.09404179
0001e0 9c 62 38 be 22 64 18 3d 6d 77 6b be 9a 35 ac 3d
       -0.18006366 0.03720487 -0.22994776 0.08408661
0001f0 fb 9f b5 bd 4b ae 01 be f2 0d 9e bd 6b d8 d7 bd
       -0.088684045 -0.12664144 -0.077175036 -0.10539325
000200 72 bb e8 3d 96 8a 21 3e 8c f9 15 be ec 41 94 3e
       0.11363877 0.15775523 -0.14645976 0.28956544
000210 96 0a a5 bd a4 b1 fb bd d7 49 44 3e 27 32 01 be
       -0.0805866 -0.12289742 0.19168793 -0.12616788
000220 e9 f3 20 be a6 11 30 3e 07 ee 3d be 67 82 af bd
       -0.15718044 0.17194232 -0.18547831 -0.08569794
000230 ec a8 40 3d a6 d1 ad bd 9f a4 46 bd f9 f6 06 3e
       0.047036096 -0.08487253 -0.04849684 0.1318015
000240 da 93 bb bd bc ce 84 3d c2 27 11 3e 9f 5f 44 3e
       -0.0915906 0.06484744 0.14175323 0.19177102
000250 c8 84 67 3d 55 82 d8 3c 19 24 fa 3d c6 45 44 be
       0.056523114 0.026429335 0.12213916 -0.19167241
000260 a0 7d 67 be bd 76 e1 bd 05 bf 96 3d aa f9 00 be
       -0.22606516 -0.11008976 0.07360653 -0.1259524
000270 7d 64 99 bd 93 59 1a bd e6 10 85 bb b4 1d 09 be
       -0.0748987 -0.03768308 -0.0040608523 -0.13390237
000280 a1 56 0a be f2 84 5e 3d 68 1f 25 be 7e af a7 bd
       -0.13509609 0.054326005 -0.16125262 -0.08187769
000290 2a 77 5f bd 3c 27 ce 3d c9 a6 1d 3e 94 2d c3 bd
       -0.054557003 0.10066077 0.15395655 -0.09530178
0002a0 6e 2f 29 3e 60 ed bc 3d c8 05 57 be 4d 81 0e 3e
       0.16521999 0.09224963 -0.20998299 0.13916512
0002b0 0b 46 9d bc 6c f5 a1 bd bf 7f a4 bd 67 ff af bd
       -0.019198438 -0.07908139 -0.08032178 -0.08593636
0002c0 12 9c 5e be 06 4b 72 be 2a ff 6a bd 6f a0 8e 3d
       -0.21739224 -0.23661432 -0.05737225 0.06964194
0002d0 df 47 71 be 40 1f 84 bd 09 c6 28 bd 2a 75 ea 3c
       -0.23562573 -0.06451273 -0.041204486 0.028620321
0002e0 2f 70 66 be 83 79 a2 be a9 90 06 3c 20 37 16 be
       -0.22503732 -0.3173333 0.008213201 -0.14669466
0002f0 bd 3a 8e be af b1 6a be d0 96 24 3e ef ae 9b 3d
       -0.2777919 -0.22919343 0.16073155 0.07601725
000300 4b 6e a4 3d bd 56 f3 bc c1 04 43 be 06 9b cf 3d
       0.08028849 -0.029704446 -0.19044782 0.1013699
000310 d3 8d 4c 3d f1 30 f5 bb 75 67 48 be 3c 86 94 bc
       0.04993994 -0.007482641 -0.19570716 -0.018130414
000320 8e 36 1c be a7 90 a2 bd dc 46 00 be f3 65 d7 bd
       -0.15255186 -0.079377465 -0.1252703 -0.10517492
000330 a0 a2 ca bd 54 9e 43 3d 71 42 fe 3d 91 19 c0 bd
       -0.098942995 0.047758415 0.124150164 -0.093798764
000340 37 20 cf 3d 84 d5 94 bd 28 0c 42 be 40 67 3b be
       0.10113566 -0.072672874 -0.1894995 -0.18301105
000350 32 cd ad ba a4 00 63 be 36 9c e5 3d dc 6e 11 be
       -0.0013260006 -0.22168213 0.112114355 -0.14202446
000360 38 62 1e 3e 80 48 13 be 9c 50 80 bd cd 84 bc bd
       0.15467155 -0.14383125 -0.06265375 -0.09205017
000370 75 b9 71 3d 68 e0 fb bd 5a eb 87 3e 77 cd 8d 3d
       0.059014756 -0.122986615 0.26546746 0.06923955
000380 36 10 b4 bc 1d bc 3c be a7 f0 d4 bd d6 69 cb bd
       -0.021980386 -0.18431135 -0.10397463 -0.09932296
000390 81 3b 31 be 7e 0a 5d be b7 c1 78 be f6 ef 85 3d
       -0.17307855 -0.21586034 -0.24292646 0.065399095
0003a0 2e ed d7 3d 3a bd a8 3d 2b 47 27 be 29 e6 13 bd
       0.10543285 0.08239217 -0.16335742 -0.03610817
0003b0 4f 5f 02 3d c3 b7 69 be a6 ae 5d be a1 c3 ad bd
       0.031829175 -0.22824006 -0.21648654 -0.08484579
0003c0 e0 5c c2 3b b0 3a 5f bd de 95 02 3d 2d d8 13 3e
       0.0059314817 -0.054499328 0.031881206 0.14437933
0003d0 8c e7 54 3e f5 07 4f be 70 1e 0b 3d 75 8d 2b bd
       0.20791453 -0.20217879 0.033964574 -0.04188295
0003e0 70 c1 a4 bd 64 20 a8 3d 27 1a b0 bd 84 43 79 3d
       -0.08044708 0.08209303 -0.08598738 0.060855404
0003f0 41 34 de bd 51 da 9a bd 9e ce 3a bc 00 06 a3 3d
       -0.108498104 -0.07561172 -0.0114018 0.07960129

l2.weight f4 [300, 400]
000000 cc 65 e5 3d 64 68 92 bd bb 32 84 bc fb 81 99 3a
       0.11201057 -0.07148817 -0.016137471 0.0011711711
000010 cc 97 c0 3b 2a 2a 4b 3d 5a 3a e7 bb ab 7c c6 bc
       0.0058774706 0.049600758 -0.0070565166 -0.024229368
000020 d5 86 17 bd 0c 8e 34 bd 4a 86 9d bd f7 63 64 bd
       -0.03699382 -0.04408078 -0.07691629 -0.055759396
000030 4c 82 0d bd 85 16 bd bd c9 03 75 bd bb 35 a3 3c
       -0.03454809 -0.09232811 -0.059818063 0.019923082
000040 47 d9 b7 bc 7b 1f ec bc cc 77 18 3d 73 b2 fd bc
       -0.022442473 -0.028823605 0.037223622 -0.03096888
000050 ca b5 12 3d bc f0 d8 3d 4f e5 a7 bc 33 0a 39 bd
       0.0358179 0.105927914 -0.020495085 -0.045175742
000060 4d ac c0 3c bb 74 83 bc 46 94 f6 3c 6c 77 05 bd
       0.02351966 -0.016046872 0.0301 -0.032584593
000070 b0 36 ef bc 13 ef 34 bd 90 b1 2b be 7d a8 2c bd
       -0.029200882 -0.04417331 -0.16766953 -0.04215287
000080 b0 1a 55 3c d0 0e 77 bd 72 2d 65 bc bb a2 6a bd
       0.013006851 -0.06031686 -0.013987886 -0.057284098
000090 97 fc 96 3b cd 49 7b 3b 2d ad 06 3d d4 31 0f bc
       0.004607748 0.003834355 0.032879997 -0.008739907
0000a0 c7 ff 9b 3d 89 b0 12 3d 62 bf 84 3c 9a e3 20 3d
       0.07617145 0.03581289 0.01620454 0.039279558
0000b0 d8 56 91 bd 6e 5a ac bd c0 28 48 3c 0a a8 85 bd
       -0.07096642 -0.084156856 0.012216747 -0.065261915
0000c0 f0 a7 71 bc b7 f1 23 bd 0d 3a b0 3c ae 7a 52 3c
       -0.014749512 -0.04002544 0.021512056 0.012846632
0000d0 06 dd b8 bd 80 3a 93 bd 0e f3 48 bc 76 f2 16 bd
       -0.09026532 -0.07188892 -0.01226498 -0.036852323
0000e0 1d bc f9 bc c7 e4 e6 bc 17 2b 92 bd 1e ab e7 3b
       -0.030485207 -0.028185261 -0.07137125 0.0070699593
0000f0 dd 44 ea bd 7f 62 bd bc 3c fa 83 bd 83 87 9d bd
       -0.11438916 -0.023118256 -0.06444213 -0.076918624
000100 93 22 05 bd f2 6b 69 bc 58 6e 8e bb 06 e1 4a 3c
       -0.032503676 -0.014246928 -0.00434665 0.012382751
000110 d0 02 4f bd 5a 88 e3 38 45 ee 02 3d f7 87 61 3d
       -0.05053979 0.00010849601 0.031965513 0.055061307
000120 25 f1 91 bc 71 24 ec 3c 2c 94 7b bd 5f 0c 13 bd
       -0.017815182 0.02882597 -0.061420605 -0.03590047
000130 f6 cf 2d 3d 56 3e ab bc 84 12 ba bd be 4c 1f 3d
       0.042434655 -0.020903748 -0.09085563 0.038891546
000140 2d 66 76 bd 06 76 95 bd 9f 19 1d 3d 18 24 13 bc
       -0.060156036 -0.07297902 0.038354512 -0.008980773
000150 7d 98 af 3c 56 77 7f bd 8e bb a7 bd 8f b0 26 3d
       0.021435017 -0.062369667 -0.0819007 0.040695723
000160 6a 0b 3c bd 90 88 df bc e4 43 d2 3c eb bf cf bc
       -0.045909323 -0.027286798 0.025667138 -0.025360068
000170 34 49 9a 3c 91 5b b7 3c 94 7b a6 3c 20 da 73 bd
       0.018833734 0.02238253 0.020322599 -0.059534192
000180 81 d1 35 bc 52 07 b8 bd 35 76 41 3d ac 38 ee bc
       -0.011097313 -0.08985771 0.04723187 -0.029079758
000190 4e 41 52 3c 14 a4 f1 bb 0f 2d 85 3a 25 7a b0 3d
       0.012832953 -0.007374296 0.0010160523 0.08617047
0001a0 7a 3e 80 3c 02 c0 1b be cb 4b 74 3c 4f e9 d3 bd
       0.015654791 -0.15209964 0.014910649 -0.103472345
0001b0 d5 8a eb bc 43 8d f6 bd 9f 96 0c bb 80 87 c1 bc
       -0.028752724 -0.12038662 -0.0021452082 -0.023624182
0001c0 e8 49 5e 3d 9b 1c 99 bd 94 8e f7 bd 0d 54 92 3c
       0.0542697 -0.07476159 -0.120877415 0.017862344
0001d0 92 77 90 bb 08 70 d3 3c a9 9d 28 bd 60 1a e3 bc
       -0.004408785 0.025810257 -0.04116598 -0.027722538
0001e0 5b 5d 88 bd 9b 20 8b 3c 92 e5 5f 3b 5d bd 5f 3d
       -0.06658431 0.016983321 0.0034163934 0.05462395
0001f0 a9 a2 9b bc 26 22 78 bd b8 06 93 bc 4e 72 8e bc
       -0.01899846 -0.06057944 -0.01794754 -0.01738849
000200 43 67 42 3d 8d dd 05 3c 57 36 14 bd b6 0f 60 bd
       0.04746176 0.008170498 -0.036184635 -0.054702483
000210 26 c4 45 bc ae 28 0d 3d c6 f4 0a 3d 79 72 6e bd
       -0.012070691 0.034462623 0.03392484 -0.05821464
000220 6e 77 fa 3c 9e 3b f9 bb cd 1b 3f bd 14 f3 79 bd
       0.030574527 -0.007605984 -0.046657372 -0.061022833
000230 05 dd 84 bc da c5 e0 bb 49 51 ae 3c 18 ea b2 3c
       -0.016218672 -0.0068595232 0.021278994 0.02184014
000240 6e 5d 3f 3c c1 94 ca bc 96 5f 14 3d 9b c7 86 bd
       0.01167999 -0.024729135 0.03622397 -0.065810405
000250 4b 33 b0 bd 7d be c6 3c 7b c6 7c 3d 00 1c d5 3d
       -0.08603533 0.024260754 0.061712723 0.10405731
000260 9b 8f 89 bd ee e9 0f bd fc f5 2a be 81 58 10 3d
       -0.06716844 -0.035135202 -0.16695398 0.035240654
000270 37 b9 bd 3c e9 2d 88 bb 52 6a 52 be 15 4a 6f bc
       0.023159606 -0.0041558635 -0.2054837 -0.014605065
000280 03 57 31 3c 3a bd 9d 3b 8c af 2a bd d9 b3 a4 bd
       0.010823968 0.0048138173 -0.04167132 -0.08042116
000290 31 a3 3e bc 05 08 fa bc 31 b2 6d 3d b6 4b ad bd
       -0.011635588 -0.030521402 0.058031265 -0.08461706
0002a0 6f 10 71 bd 0a 41 01 bd 99 a6 48 3d 9c 7e 48 bc
       -0.058853563 -0.031556167 0.048987005 -0.012237217
0002b0 cb 86 7e bd c4 e1 0e 3d 90 df 0c bd e7 49 5b bd
       -0.062140267 0.034883276 -0.034392893 -0.053537276
0002c0 a2 b4 00 3c 82 ed e6 bb 45 9d ee 3c d2 77 d1 3d
       0.007855566 -0.007047356 0.029127726 0.10227932
0002d0 a0 c7 6f bd 1d 7a 92 bd 8a be 59 3d 29 be eb bb
       -0.058539987 -0.071521975 0.053160228 -0.0071942997
0002e0 c7 85 a6 bd 04 02 ac bd 9e f8 f1 3d 1d 8a 0b 3d
       -0.08130985 -0.08398822 0.11814998 0.034067262
0002f0 b9 04 41 3b d6 89 80 bc 58 0b 08 3d 72 74 d1 3c
       0.0029452278 -0.015690725 0.033213943 0.02556822
000300 a4 38 78 bb 6c f5 61 bd 52 dc 98 3d 94 b7 07 bd
       -0.0037875557 -0.055165693 0.07463898 -0.033134058
000310 4a 10 b3 bc e8 83 24 bd ad 15 57 bd cd e7 0e bd
       -0.021858353 -0.040164858 -0.052510906 -0.03488903
000320 42 97 b4 bc 7a b9 9c bc 4b 7f 3f 3a 34 cc 25 bd
       -0.022044782 -0.01913141 0.000730504 -0.040477946
000330 91 a4 a4 bd 07 6c 7b bd 53 4c 95 3d 36 7d ad bc
       -0.08039201 -0.06138232 0.07289948 -0.02117787
000340 f6 be 90 bb db f6 cc 3c 53 e8 8e bd 86 47 88 3d
       -0.0044172956 0.025020054 -0.06977906 0.06654267
000350 e3 f9 9c 3b 92 d6 1d bd c5 c7 4b 3c 38 a9 c2 3c
       0.004790531 -0.03853471 0.0124377655 0.02376233
000360 8f 76 f9 3c 84 ca 68 3c 36 16 4f bd 81 f2 15 bd
       0.030452041 0.01420844 -0.05055829 -0.036608223
000370 08 f5 29 3d d1 c4 33 bc 07 92 b4 3d 78 64 83 3d
       0.041493446 -0.010972218 0.08816915 0.06415647
000380 cd 8c 4d 3d 19 57 e7 bd 55 40 5c bd 95 4b d2 3c
       0.050183106 -0.112959094 -0.05377229 0.025670806
000390 de d5 15 bd c9 12 ab 3c 13 d5 e8 bc ce 08 88 bd
       -0.036580913 0.02088298 -0.028421914 -0.06642304
0003a0 26 53 0b bc c4 4f 89 3b 84 0d a8 bc 54 17 ba bd
       -0.008503711 0.004190417 -0.020514257 -0.09086481
0003b0 83 83 e5 3c af bc 29 3d f9 b2 82 3c 30 80 6f 3c
       0.028016811 0.04143971 0.015954481 0.014617965
0003c0 ab 6b 97 bd 14 44 5b 3e 73 c4 02 bd 24 63 a4 bd
       -0.07393583 0.21412688 -0.03192563 -0.08026722
0003d0 ae 57 30 bd b1 29 8c bc b4 7d a3 3d dd 70 14 bd
       -0.043052368 -0.017109724 0.0798296 -0.036240447
0003e0 e1 6f e3 3c c9 c0 8c bc 41 97 89 bb 46 39 78 bd
       0.027763309 -0.01718177 -0.004198939 -0.060601495
0003f0 89 a2 a9 bc 67 63 86 3c 1f b7 31 3d fd 15 26 3c
       -0.020707386 0.01640482 0.04338753 0.010137078

l2.bias f4 [300]
000000 3e 13 a7 bd 83 7b 41 3d 2b 62 cf 3c 7c ac d5 3c
       -0.08157967 0.04723693 0.025315365 0.026083224
000010 d1 7a b1 bd 86 01 ee 3c 75 96 ef bc a3 52 96 bd
       -0.086660035 0.02905346 -0.029246548 -0.073399805
000020 48 12 12 bd 3a 94 be bc 29 c8 1a bd dd 5a a3 3d
       -0.035661966 -0.02326404 -0.037788544 0.07976315
000030 27 f8 78 bd 2b ba 06 3c 54 5b ab bd 0d ac f0 bc
       -0.06078353 0.008223097 -0.08367029 -0.029378915
000040 10 31 58 bc 9e e9 b7 bc 3c 16 56 bd 3d 9f ce 3c
       -0.013195291 -0.022450265 -0.052267298 0.025222415
000050 a9 2c d6 bb df 18 7c bd a0 54 03 3d b2 08 a9 bc
       -0.0065360856 -0.061547156 0.032063127 -0.020634029
000060 32 39 97 bd c4 2a 14 bd 51 eb 4d bc 23 25 ad bc
       -0.07383956 -0.036173597 -0.012568311 -0.021135872
000070 e6 82 b5 bc 84 e5 b1 3d 29 ec 1f bd b2 f1 cd 3c
       -0.022157144 0.08686355 -0.03904358 0.025139663
000080 3f 94 3a bd 47 ca b6 3d 14 c2 a0 bc b3 1a 22 bd
       -0.045551535 0.089253 -0.019623794 -0.039576244
000090 c4 ba 75 bd ac 14 58 3d 3e ef bc 3d 27 0b 7f 3d
       -0.059992567 0.05275409 0.09225319 0.062266495
0000a0 16 e0 15 bd 53 6d bd 3c ae 72 71 3e b9 f8 71 bd
       -0.036590658 0.023123419 0.23578903 -0.05907509
0000b0 e3 48 6f bd 58 16 69 3d 76 47 cf bb eb a2 a3 bc
       -0.05841912 0.056906074 -0.0063256575 -0.019975146
0000c0 0f b9 25 3d c9 27 1c 3d 47 52 65 bd 90 38 cc 3d
       0.04045969 0.03812388 -0.05598667 0.09971726
0000d0 ae 22 67 bd 6c 90 be bc 06 35 4e bd 13 0f 38 3d
       -0.056429558 -0.023262225 -0.050343536 0.04493625
0000e0 f9 fb 3e bd 24 e3 c9 bc 43 4f 05 bd 8d ec 6a bb
       -0.04662702 -0.024644442 -0.032546293 -0.0035846562
0000f0 b2 f1 72 bc 49 5f e6 3c b9 7d c9 bc 4d 65 35 3d
       -0.014828132 0.028121607 -0.024596082 0.04428606
000100 83 a1 82 bd ca 86 a6 3c 6e fc ad bd 5d 15 40 bd
       -0.06378462 0.020327944 -0.08495413 -0.046895374
000110 3c 8d 88 bc 0b 61 11 bd 7a 11 e4 3d 18 f8 1b bd
       -0.016668908 -0.035492938 0.11136146 -0.038078398
000120 9b c8 cf 3b f3 29 47 bd f1 e8 97 3d 59 7d df bc
       0.0063410527 -0.04862399 0.07417477 -0.02728145
000130 67 b3 3f 3c 06 cf cc 3d 38 22 65 bd 6b d2 9b 3b
       0.011700488 0.10000424 -0.055940837 0.0047553084
000140 29 c0 2f 3b 1c f5 1c 3e 65 ea a9 bd b3 f1 4c bd
       0.0026817417 0.15327877 -0.0829666 -0.05003519
000150 03 44 90 3e d8 94 97 3d 1c 4f 47 bd ac 15 00 bd
       0.2817689 0.074014366 -0.04865943 -0.031270668
000160 ea 4f 96 bd eb a6 80 3e ea 12 51 bc a0 c1 e8 bb
       -0.07339461 0.25127348 -0.012760857 -0.00710316
000170 90 88 31 3d e0 67 35 3d fe 8a c0 3d 70 ff f2 bb
       0.043343127 0.044288516 0.09401511 -0.0074157044
000180 eb e1 87 bd 45 f2 83 bc d1 1c f9 bc 80 f3 af 3d
       -0.06634887 -0.016106734 -0.030409249 0.08591366
000190 f4 d6 5d bd c4 36 80 3a d6 0d 6f 3d b2 9d 74 bd
       -0.054160073 0.0009781946 0.058362804 -0.059720702
0001a0 51 68 ae bc 27 b7 66 bd 63 7f 96 bd 77 7e 34 bd
       -0.021289976 -0.05632701 -0.07348516 -0.04406592
0001b0 ad 93 75 bd 39 7a 6f bb 3a ba 1c 3e 85 a9 df 3a
       -0.059955288 -0.0036541356 0.15305415 0.001706407
0001c0 5c aa 81 bd 69 89 6b bc 89 e4 6f bd f1 62 2a bd
       -0.063313216 -0.014376023 -0.058567557 -0.041598264
0001d0 0e 3b 34 3e 3a ae 6a bc 07 be 1b bd 4f 80 59 3c
       0.17600653 -0.014323765 -0.03802302 0.01327522
0001e0 25 fa 5f 3e ad c8 91 bd 35 03 4d 3c a4 b1 63 bc
       0.21872766 -0.07118354 0.012512972 -0.013897333
0001f0 1d 68 51 bd 8c a9 06 3b 7c 3d 0a bd 66 e7 1f 3e
       -0.05112468 0.0020547835 -0.033750042 0.15615615
000200 6b 15 f0 bc 66 05 b6 bc 30 ff 42 3d 74 3a 6b bd
       -0.029307088 -0.022219371 0.047606647 -0.057428792
000210 67 d5 ab 3c 96 99 0b 3c 30 e6 50 bd ed f2 10 3b
       0.020975782 0.008520504 -0.051000774 0.0022117451
000220 43 44 ab 3c b6 46 0a 3d c9 2c b3 bc 20 6a 93 bd
       0.020906573 0.03375884 -0.021871941 -0.07197976
000230 76 65 2c 3e e6 d9 e1 ba 7f 43 ef 3c 82 3e bd 3d
       0.1683558 -0.0017231076 0.02920699 0.09240438
000240 4a b1 d7 bc c4 4f 41 bd df 73 e0 bc 5f ec d6 bd
       -0.026329655 -0.04719521 -0.027399002 -0.10494303
000250 d0 1d 2e bd 82 eb 42 bd ea 5a 79 bd b7 38 c6 3b
       -0.0425089 -0.04758788 -0.060877718 0.0060492414
000260 55 f5 7a bd b3 4b f1 3a 35 82 dd 3c f6 87 53 bd
       -0.061269123 0.0018409401 0.027039627 -0.051643334
000270 ff d7 0d 3d f2 db 67 bb e8 19 28 bc a9 3e 86 bd
       0.034629818 -0.00353789 -0.010260083 -0.0655492
000280 e7 2a b6 bc 59 b9 37 bd e9 90 07 bd 23 3c eb bb
       -0.022237254 -0.044854496 -0.03309718 -0.0071787997
000290 94 de 00 bc 23 ce c5 bc 25 b7 5c bd 09 05 17 bc
       -0.007865567 -0.024146145 -0.053885598 -0.009217509
0002a0 70 8c b2 3d a9 63 02 bd 93 45 fd bc e2 b1 04 bd
       0.087181926 -0.031833325 -0.030916965 -0.032396205
0002b0 33 87 12 bd 95 84 7b bd b6 4b 3e bc 87 a0 6c bd
       -0.035773467 -0.061405737 -0.011614731 -0.05777028
0002c0 be 27 63 bd a0 da 9a 3d a2 78 89 bc a2 34 c7 bd
       -0.055457823 0.07561231 -0.016781155 -0.09726836
0002d0 27 36 4e bd aa b7 0a 3d 6b 66 3c bd 3a f7 6b bd
       -0.050344612 0.033866562 -0.04599611 -0.05760882
0002e0 55 2b 89 3d d4 eb 5c 3c 77 f9 bd 3a 83 cf 84 3c
       0.06697718 0.01348396 0.0014493902 0.01621223
0002f0 ab b5 50 bd a0 7a 7e bd 8e c1 03 bd e6 20 b2 bc
       -0.050954502 -0.062128663 -0.03216701 -0.021744203
000300 64 b0 4d bd fb 71 2f bd 6a d5 98 bd 46 fb b6 3d
       -0.050217047 -0.04283331 -0.074625805 0.08934645
000310 32 ba 94 bd 87 02 fa 3c 94 58 57 bd b9 99 49 3d
       -0.072620764 0.030518783 -0.05257471 0.049218867
000320 12 ee 49 bd 50 d1 01 bd 7d 3e de bd 17 32 b0 3c
       -0.049299307 -0.031693757 -0.108517624 0.02150826
000330 7a 21 0f 3d 0e b1 5a 3d c8 f9 6a bd a9 94 af bc
       0.034944035 0.05339151 -0.057367116 -0.021433191
000340 bb 8a 3d bd 3a 62 79 bd a4 e2 41 bd c3 15 f6 bc
       -0.04627488 -0.06088469 -0.047335282 -0.030039674
000350 47 41 37 bd 6c 90 cc bb 81 4f c5 bb df f0 72 bd
       -0.044739988 -0.0062428024 -0.0060214405 -0.059311744
000360 15 ed 36 3d ed 1d e8 3c a0 4d 3f bd 1d 87 15 bd
       0.044659693 0.028334582 -0.04670489 -0.036505807
000370 32 67 8c 3c 58 5c 80 bc ad d0 94 bd b1 63 64 bd
       0.017139051 -0.015669033 -0.07266364 -0.055759136
000380 e7 55 d8 bc 45 52 09 bd 80 92 38 3d 14 03 b1 3d
       -0.026408149 -0.033525724 0.04506159 0.08643165
000390 94 4c ed 3c 3d d8 22 bd 18 84 63 bd 33 ae 90 bc
       0.02896718 -0.039757002 -0.055545896 -0.01766119
0003a0 fb cf 0b bd 80 32 6e bd 06 cd 1c bd be 5a 6e 3d
       -0.034133893 -0.05815363 -0.038281463 0.058192007
0003b0 89 c5 62 bd 0d b3 94 bc dc 99 1b 3d 6e b6 a3 bc
       -0.055364165 -0.018151784 0.03798853 -0.01998445
0003c0 dd b3 83 3d 1d c1 38 3d 8c 98 52 b9 3b d6 17 3d
       0.064307906 0.045106042 -0.00020083989 0.03706954
0003d0 0f 7b 72 bd d8 f5 89 3d 69 36 11 bd 9c b5 5e bd
       -0.05919939 0.06736344 -0.03545228 -0.054372415
0003e0 26 74 81 ba c5 bd 90 bd 45 47 93 bc 64 21 18 bd
       -0.0009876534 -0.07067446 -0.01797832 -0.03714122
0003f0 8b e6 98 3c 17 87 c0 3d 44 01 b1 bc 5e b7 09 bc
       0.018664619 0.09400766 -0.021607049 -0.008405535

l3.weight f4 [4, 300]
000000 ff 23 0b bb c1 85 e1 3d 21 73 cb 3d a6 be 19 bd
       -0.0021231172 0.1101184 0.099340685 -0.037535332
000010 e8 0d d4 bd 84 54 c2 bd 3b 34 ed 3c a7 68 9e bd
       -0.10354215 -0.09488776 0.02895557 -0.077348046
000020 96 c1 16 3d d5 f3 1a be 61 b6 83 bc c5 db 38 be
       0.03680571 -0.15132077 -0.016078176 -0.18052585
000030 fe 86 09 bd ad 2c 98 3d 33 e1 2e 3c 8d 9c e0 bc
       -0.033576004 0.07430396 0.010673809 -0.0274184
000040 6a 02 5e bd 06 2b 1c be 88 be 03 be e9 31 f0 bd
       -0.05420152 -0.15250787 -0.1286565 -0.117282696
000050 8b d0 e1 bd b4 8c d5 bc e3 7e 7c bd cc 1f 76 be
       -0.110261045 -0.026068069 -0.061644446 -0.24035567
000060 19 a2 d9 bd 3f 47 0c bd 79 bf cf bc d6 e1 08 3d
       -0.10626621 -0.034247633 -0.025359856 0.0334185
000070 92 fb 44 3c 95 46 ff bd ed fb 76 bb d3 7c a7 3d
       0.01202287 -0.12464634 -0.003768678 0.08178105
000080 97 f4 18 be 9c 65 6b bc 14 96 d6 bd ed 6b 86 bf
       -0.14937054 -0.014367487 -0.10477844 -1.0501686
000090 06 63 7a ba f3 17 01 be 77 04 0e bd 26 40 7d 3e
       -0.0009551499 -0.12606792 -0.034672227 0.24731502
0000a0 c5 fe dc bc d0 5d 2b be 33 11 38 be d3 a6 cc 3b
       -0.026976952 -0.16735005 -0.17975311 0.006245473
0000b0 b6 cf 92 bd 22 a1 3f be c5 fb 40 bd 14 75 09 be
       -0.07168524 -0.18713811 -0.047115106 -0.13423568
0000c0 f1 bb e5 bd 35 27 d6 bd 5f 73 9c bc 1d 52 d0 bd
       -0.112174876 -0.10456697 -0.019097982 -0.10171912
0000d0 e4 b0 26 bd 9b 3a e1 3c b2 94 86 bc 9c 27 0f be
       -0.04069604 0.027493766 -0.016428325 -0.13979954
0000e0 9c 17 3a bd 06 fd 57 bd 84 8c 03 3d 5f 93 41 be
       -0.045432672 -0.052731536 0.032116428 -0.18903874
0000f0 a6 08 18 3d b9 69 5f bd ca 1e 21 3c 85 04 20 be
       0.037117623 -0.054544184 0.009834001 -0.15626724
000100 18 68 10 3b 26 e9 75 bd c0 a1 42 3b b9 80 6d 3c
       0.00220347 -0.0600368 0.0029698461 0.014496022
000110 c1 ba 07 ba 84 35 1d bd 73 c2 7f 3d ca 3a 92 3c
       -0.000517767 -0.038381115 0.0624413 0.017850298
000120 0f 18 61 3e ce b8 ac bc 2b 8c 02 3e 47 17 21 3d
       0.21981834 -0.021084215 0.12748782 0.03932884
000130 bb 66 b6 bd 22 0b 5c be 07 1a 9a 3b 16 6e 05 be
       -0.08906313 -0.21488622 0.0047028097 -0.13030276
000140 be ee b0 3d 8a 5d 58 bd 7d 9a 06 bd a7 c6 9e bc
       0.086392865 -0.05282358 -0.032862175 -0.019381834
000150 5a 91 4b 3d 83 1b 0d 3d 58 7a f5 bc 18 5e 11 be
       0.049699165 0.034450065 -0.029965565 -0.1419605
000160 ed 52 10 3d 6a 60 59 be 7e 8b 3d 3d 9a a7 c0 bd
       0.035235334 -0.21228185 0.04627561 -0.094069675
000170 26 71 8d bd 13 e4 c6 bd 93 62 4a be 96 1b 92 bc
       -0.06906347 -0.097114705 -0.19764166 -0.01783542
000180 7a ae 27 bc ae 2e be 3c 12 6b 12 3d 6c c5 02 be
       -0.01023447 0.023215618 0.03574664 -0.12770623
000190 c9 60 c7 3c c3 dd 35 3b fa 16 e8 bc 9a 38 16 bb
       0.024338143 0.0027750588 -0.028331269 -0.002292192
0001a0 ad e1 58 3d 4c e3 fe 3c 22 ea 3f bb ce b4 65 bb
       0.052949596 0.031114243 -0.002928384 -0.0035050395
0001b0 d1 0b 82 3d 9d 42 bc 3a 6e 7f 54 bc 22 2b 87 bd
       0.0634991 0.0014363114 -0.012969835 -0.06600024
0001c0 ba e8 b3 bd e2 c9 af bd 27 ea 8d bc 89 0c b7 bd
       -0.087846234 -0.08583428 -0.017323567 -0.08937938
0001d0 b2 78 09 be ec 62 0e 3d e4 2f ab 3d 9a 8b 16 bd
       -0.13424948 0.034762308 0.08358744 -0.03675423
0001e0 59 dd e4 3c fe e8 0a 3a f0 af b9 3c 90 98 63 3a
       0.027937578 0.0005299001 0.022666901 0.00086820964
0001f0 d3 d6 74 ba 71 76 77 3d 0f 9d 18 bc 63 30 9c bd
       -0.00093398726 0.06041569 -0.009314789 -0.076264165
000200 63 cd e3 bb 2d f8 02 3d 3a fe 90 3c 7c 5f 1d bd
       -0.0069519742 0.03197496 0.01769935 -0.03842114
000210 5b c3 12 3e ec b3 37 bc 6b d2 4a 3b 33 ab 88 bd
       0.14332335 -0.01121233 0.0030948173 -0.06673279
000220 03 5d 9c bd 0d 83 cf bd bb 68 6f 3c 5b 89 e4 3c
       -0.07634928 -0.10132418 0.014612372 0.027897527
000230 f1 26 69 be 07 14 08 bd 69 5d e6 3d a2 4d f4 3d
       -0.22768761 -0.033222225 0.11248285 0.1192887
000240 f0 3d a5 3c df a9 65 bd 6d cf c8 3d 89 53 85 bc
       0.020171136 -0.056070205 0.09805188 -0.016275184
000250 a3 25 3d 3c 0e 39 e5 bb 61 bf 61 3c e4 69 f2 3c
       0.011544618 -0.006995327 0.013778538 0.029591508
000260 47 97 5b 3b 6e 30 2e be b2 b4 4e bd 8c 1b 32 3d
       0.0033506916 -0.17010662 -0.050465293 0.043483302
000270 00 3c 73 3d 06 8c 1f bd a9 ba a8 3d e9 ce 54 3d
       0.059383392 -0.038951896 0.082387276 0.051955137
000280 36 a2 79 3c d2 a7 e7 3c dd a2 5e bd a7 cd 8e 3d
       0.015236428 0.028278265 -0.054354537 0.06972819
000290 4d c7 05 be af 83 a0 bd 40 76 37 3c 0b a8 89 bc
       -0.13064308 -0.07837617 0.011197627 -0.016803762
0002a0 26 2e 1d be e2 79 6a 3c f5 5d 78 3c be 8a 67 bb
       -0.15349635 0.014311286 0.01515912 -0.00353305
0002b0 bd 69 93 bd 3d 10 39 bd d2 2f 0a bd c7 48 da bc
       -0.07197902 -0.0451815 -0.03373701 -0.026646031
0002c0 62 da 3f 3c 15 ed 24 be 30 df a0 bd 0a 91 93 bb
       0.011709781 -0.16106065 -0.0785507 -0.004503374
0002d0 52 36 c0 3c 0e 4c da 3c 0e 29 f5 3b 32 1d ba bd
       0.023463402 0.026647594 0.0074817007 -0.090876
0002e0 92 b4 30 bd 79 4e c6 bc 06 24 99 3c 2d d3 f7 bd
       -0.043140955 -0.02420734 0.018693935 -0.121008255
0002f0 9b d2 8f bc dc ba a3 3c 7e 70 00 3d 2d 6b 62 bd
       -0.01755648 0.019986562 0.03135728 -0.055277992
000300 ca 22 69 bd 98 6a d5 bc 82 28 95 3d a9 d2 32 bd
       -0.056917943 -0.026051804 0.07283117 -0.043657932
000310 ca 12 df bc db 84 a4 bd 0d 98 0d 3c 6b 32 1c be
       -0.027230639 -0.08033153 0.008642209 -0.15253608
000320 3b dd 0a 3d cd ef 80 bd da 57 51 3d 45 ec 80 3d
       0.033902388 -0.06295738 0.051109172 0.06295065
000330 d7 7e ee 3b 33 9f a0 bd ec ff fa 3c 67 fd 61 bc
       0.007278304 -0.07842865 0.030639611 -0.013793326
000340 9e ba c4 bc 7f a8 e5 bc 6e e8 b9 bc 41 f2 f5 bc
       -0.024014767 -0.028034447 -0.022693839 -0.030022742
000350 e0 06 4e bc a0 4a 12 3d 5a 93 12 3d b5 f3 85 bc
       -0.012574881 0.0357157 0.035785057 -0.01635156
000360 2f d7 2a 3e 12 6f b9 bd 53 29 a7 3b 1c 3f 4d 3d
       0.16683649 -0.09054388 0.005101362 0.050109014
000370 ff 4f 9c bc 45 75 1c bd a2 21 58 3a 0d cf 26 3c
       -0.019081114 -0.038197774 0.0008244758 0.010181201
000380 10 89 b2 3d 24 77 db 3c bf 8e 13 bd 7a 5e 0d be
       0.08717549 0.02679021 -0.036024805 -0.13805571
000390 00 39 0b be 5f 44 c2 bc 71 c2 cf bc 2f a9 2b be
       -0.13595963 -0.023714243 -0.025361272 -0.16763757
0003a0 44 d4 51 be 1f 30 ac 3c 6a 9c 16 3c 98 24 39 bd
       -0.20491129 0.02101904 0.009192565 -0.045200914
0003b0 41 4b 14 3e e8 7d 83 3c d5 9a 35 be 01 c3 9f 3d
       0.14481832 0.016051248 -0.17734845 0.07800866
0003c0 e2 dc 0f be bb aa 9c be 4b cf d1 3b 52 73 14 be
       -0.14049104 -0.30599007 0.006402885 -0.14497116
0003d0 fa a0 3d 3d d7 90 62 bd dc c6 70 ba 3f 42 15 3d
       0.046296097 -0.05531391 -0.0009184906 0.03644013
0003e0 a7 bd 6c bd 3e 6e f2 bc ac db c1 bc 01 02 98 bd
       -0.057798054 -0.029593583 -0.023664318 -0.07422257
0003f0 f6 2b 6f be cb 48 37 bd 61 d1 cf 3c de 10 a2 bd
       -0.23356614 -0.044747155 0.025368394 -0.079133734

l3.bias f4 [4]
000000 0d 0a a6 bb 97 99 f1 3d e4 19 c7 3d 60 68 5d 3d
       -0.005067116 0.11796873 0.09721735 0.054054618
