TD3/models/second_training_attempt/train_450_episodes_critic_1.pth (torch, 531051 bytes, 5 tensors)

l1.weight f4 [400, 28]
0	0x3df1df2a	0.11810143
1	0x3dd50bac	0.10402617
2	0xbe82b98f	-0.25532195
3	0xbdcffcad	-0.10155616
4	0x3d2d8cea	0.042370714
5	0xbe145e37	-0.14489065
6	0xbe8c50e6	-0.2740547
7	0x3ba22934	0.0049487595
8	0xbda1516c	-0.07876858
9	0x3c92ac5c	0.017904453
10	0xbde33630	-0.1109432
11	0xbdcaf209	-0.09909446
12	0x3e4054e2	0.1878238
13	0xbe32c814	-0.17459136
14	0xbdd6d6c2	-0.104901806
15	0xbd62cdec	-0.055372164
16	0xbe478e73	-0.19487934
17	0xbc95c5de	-0.018282827
18	0xbd90b503	-0.07065775
19	0xbd9c78bc	-0.07640216
20	0xbd88156e	-0.066447124
21	0xbe03dbfc	-0.12876886
22	0x3dcf4006	0.101196334
23	0x3da2f33f	0.07956552
24	0xbb11c840	-0.0022244602
25	0x3cd9a620	0.026568472
26	0xbc6a71f8	-0.014309399
27	0x3c05e8b5	0.008173157
28	0x3e0a998c	0.13535136
29	0x3e994058	0.29931903
30	0xbec85fc8	-0.39135575
31	0xbebe74d1	-0.371985
32	0x3e897ab8	0.2685144
33	0x3e4560af	0.19275163
34	0x3dfde42d	0.12397037
35	0xbd960031	-0.07324255
36	0x3e16cc68	0.14726412
37	0xbd7a45a1	-0.06110156
38	0xbe51cfc5	-0.20489414
39	0x3de8e384	0.1137152
40	0x3e4b943e	0.19880769
41	0xbe845898	-0.25848842
42	0xbd57ebcc	-0.052715108
43	0xbe07ac55	-0.13249333
44	0xbc40185f	-0.0117245605
45	0x3cf09a3b	0.029370418
46	0x3e0cf6b6	0.13765988
47	0xbdd46f34	-0.10372773
48	0x3da805e3	0.08204248
49	0x3d938114	0.07202354
50	0xbdd403b9	-0.103522725
51	0xbd1a8d3e	-0.037732355
52	0x3c8c06f6	0.017093163
53	0xb8ba5ee9	-8.8868495e-05
54	0x3cdebb3a	0.027188886
55	0x3d25ccad	0.040478397
56	0x3ea44f8e	0.32091945
57	0x3eda901e	0.42688078
58	0xbdec59b3	-0.11540546
59	0xbea073bf	-0.31338307
60	0xbe8fdb1a	-0.2809685
61	0x3e61aae0	0.2203784
62	0x3e8af678	0.27141166
63	0x3e7223c7	0.2364646
64	0x3d8cba15	0.0687143
65	0xbe47af7d	-0.19500537
66	0x3e113217	0.14179264
67	0x3c5a97c2	0.013341846
68	0x3e07c15a	0.13257352
69	0xbea6dbeb	-0.3258966
70	0xbe059449	-0.13044848
71	0xbd21be9d	-0.039488424
72	0x3e4cd79d	0.20004125
73	0x3df9836f	0.12183272
74	0xbc00ca40	-0.00786072
75	0x3dae53d0	0.0851208
76	0xbdada998	-0.08479613
77	0x3d367f74	0.044555143
78	0xbd842535	-0.06452409
79	0xbd88132d	-0.066442825
80	0x3c3e11dd	0.011600939
81	0xbbc8ab36	-0.0061239256
82	0x3a3f5a25	0.00072995044
83	0x3d5d1703	0.053977024
84	0x3d89604c	0.0670782
85	0x3cccc1d8	0.024994776
86	0xbdea780d	-0.11448679
87	0xbd362157	-0.04446539
88	0x3e058b12	0.13041332
89	0x3e17d666	0.1482788
90	0xbe4ef741	-0.20211507
91	0xbd9c1e64	-0.07622984
92	0xbd8bbbbf	-0.06822919
93	0xbd65a996	-0.056069933
94	0xbe381709	-0.17977537
95	0x39d57397	0.00040712647
96	0x3eaa0911	0.33210042
97	0xbd950624	-0.07276562
98	0x3dc4032c	0.095709175
99	0xbd3f606f	-0.046722826
100	0xbe175c5a	-0.14781323
101	0xbe6e35c5	-0.23262699
102	0xbdd2ee3d	-0.102993466
103	0xbe17526c	-0.14777535
104	0xbc768709	-0.015046843
105	0x3d6c72b5	0.05772658
106	0xbe695d25	-0.22789438
107	0xbdc88332	-0.097906485
108	0x3d4b298a	0.04960016
109	0xbcf4ec49	-0.029897826
110	0x3ca8b5eb	0.020594558
111	0xbab5b905	-0.0013864344
112	0x3ea6e915	0.32599702
113	0x3e6b7719	0.22994651
114	0xbe755e84	-0.23961836
115	0x3a674ba9	0.0008823225
116	0xbd70b48e	-0.05876594
117	0x3e051ab0	0.12998462
118	0xbcdab092	-0.026695523
119	0xbe244fb4	-0.1604603
120	0x3e5f8498	0.21827924
121	0xbe42df8a	-0.19030586
122	0x3ddc680a	0.107620314
123	0xbdf11e91	-0.11773408
124	0x3cf02607	0.029315008
125	0xbb494344	-0.003071026
126	0xbdb6b31a	-0.0892088
127	0x3e18cf7b	0.14922898
128	0xbd6702b6	-0.05639907
129	0xbd5b0d59	-0.053479526
130	0xbddb8db7	-0.10720389
131	0xbd6b9e23	-0.057523858
132	0xbda160c1	-0.078797825
133	0x3e4bece2	0.19914582
134	0xbe004e5a	-0.12529889
135	0xbdc3a057	-0.09552067
136	0xbdb04c84	-0.08608344
137	0x3d0f7531	0.03502387
138	0xbbbd80ab	-0.0057831607
139	0xba270379	-0.0006371062
140	0x3f342a77	0.70377296
141	0x3e9b1528	0.30289578
142	0xbd4bbab6	-0.04973861
143	0xbe02c519	-0.127705
144	0xbe9e77ca	-0.30950767
145	0xbe0df8ac	-0.13864392
146	0x3c567549	0.013089486
147	0xbe291058	-0.16510141
148	0xbe11af88	-0.14227116
149	0x3e8284f3	0.25492057
150	0x3e10bece	0.14135286
151	0xbdb76c8b	-0.0895625
152	0xbd0585ea	-0.032598414
153	0x3d45e022	0.048309453
154	0x3df55fe6	0.11981182
155	0x3e82761e	0.2548074
156	0xbc68b516	-0.0142033305
157	0xbd81366e	-0.0630921
158	0xbd239e6b	-0.039946
159	0xbd3e83b4	-0.04651232
160	0xbd170282	-0.036867626
161	0xbda1ffe6	-0.07910137
162	0xbd9a2887	-0.07527261
163	0x3d89c5ce	0.067271814
164	0x3be850bf	0.007089704
165	0x3d887aa7	0.06664019
166	0x3c428eb7	0.011874846
167	0x3dfbdb4c	0.12297687
168	0xbe8d1691	-0.2755628
169	0xbe37e72a	-0.17959276
170	0xbd96e8a7	-0.07368594
171	0xbe21f3a5	-0.158156
172	0xbd2a255f	-0.041539546
173	0xbd487ffa	-0.048950173
174	0x3e4574df	0.19282864
175	0xbe00fd9b	-0.12596743
176	0xbdbd6d66	-0.09249382
177	0xbdc212d5	-0.09476248
178	0xbe523a3a	-0.20530024
179	0xbdcb774a	-0.09934862
180	0x3da99ecd	0.08282242
181	0x3e131c47	0.14366256
182	0x3e081a06	0.13291177
183	0x3e07bde1	0.13256027
184	0x3e9d39e8	0.3070824
185	0x3e92bd87	0.28660223
186	0x3e9365c0	0.28788567
187	0x3c0a31a4	0.008434687
188	0x3e509955	0.20370992
189	0x3d2faff5	0.042892415
190	0x3e03633b	0.12830822
191	0xbc703490	-0.014660969
192	0x3b7a7571	0.0038216973
193	0xbd4df6f7	-0.050284352
194	0x3d17c6df	0.037054893
195	0x3da6a03b	0.0813603
196	0x3d6c28a2	0.057655938
197	0xbd9db5d6	-0.07700698
198	0xbdf5e3cb	-0.12006339
199	0xbe842751	-0.25811246
200	0x3e7f2c5d	0.24919267
201	0x3dcc4848	0.09974724
202	0xbe18d62f	-0.14925455
203	0x3e5d4931	0.21609952
204	0xbe3feab0	-0.1874187
205	0x3d767679	0.060171578
206	0xbe47487e	-0.19461247
207	0x3d9c6598	0.07636565
208	0xbcf7760e	-0.03020766
209	0xbe6db513	-0.23213606
210	0x3d2dee6a	0.042463697
211	0xbe84e09b	-0.2595261
212	0xbd70ca86	-0.05878689
213	0xbe4f031b	-0.20216028
214	0xbce04f44	-0.027381547
215	0xbe4e763b	-0.20162289
216	0xbb2d1232	-0.002640855
217	0x3dba129d	0.090855815
218	0xbe4c6118	-0.19958913
219	0x3c8d027f	0.017213104
220	0xb916bb76	-0.0001437495
221	0xbd18fa11	-0.037347857
222	0x3b885f38	0.0041617416
223	0xbd330046	-0.043701433
224	0x3eed43d0	0.463408
225	0x3e847470	0.25870085
226	0xbdbbe944	-0.09175351
227	0x3c99c274	0.01876948
228	0xbda1bd5e	-0.07897447
229	0xbd05f381	-0.032702927
230	0xbe0cbc68	-0.13743746
231	0x3dda1c53	0.10649934
232	0xbcb72f70	-0.022361487
233	0xbde03852	-0.10948242
234	0x3d9aa839	0.07551617
235	0xbd3a085f	-0.04541814
236	0x3e4fd704	0.20296866
237	0xbe928ea0	-0.2862444
238	0x3dfa81de	0.122318015
239	0xbdd50819	-0.10401935
240	0xbe1e7144	-0.15472895
241	0xbe2764e2	-0.16347077
242	0x3d6a899a	0.057260133
243	0xbd894579	-0.06702704
244	0xbe281366	-0.1641365
245	0x3b7e4fb1	0.0038804824
246	0xbcd7c4ae	-0.026338901
247	0x3cf376c0	0.02971971
248	0xba9916bd	-0.001167975
249	0x3bec6a53	0.0072148233
250	0xbcb7b9ce	-0.022427466
251	0xbd0bb06f	-0.034103807
252	0xbc76de1b	-0.0150676025
253	0x3c406da8	0.011744894
254	0x3d445872	0.04793591
255	0xbebfe6b8	-0.37480712

l1.bias f4 [400]
0	0xbd8ceeff	-0.068815224
1	0x3e3c46b0	0.1838634
2	0x3c93b450	0.018030316
3	0x3e2b1edd	0.16710992
4	0xbcfec9b3	-0.031102037
5	0x3db4ab47	0.08821731
6	0x3e49bd26	0.1970106
7	0xbd7d6673	-0.06186528
8	0x3cf3209e	0.029678639
9	0x3e6f5836	0.23373494
10	0xbd353ca4	-0.044247285
11	0x3db7e20e	0.089786634
12	0x3e68cf88	0.22735417
13	0x3e24d0be	0.16095254
14	0x3d2cb9be	0.042169325
15	0x3dda560f	0.106609456
16	0x3bdcdfa2	0.0067405263
17	0xbcab6038	-0.020919904
18	0xbe6abc66	-0.22923431
19	0xbcaaaadc	-0.020833425
20	0xbe4c90f9	-0.19977178
21	0x3e00425c	0.12525314
22	0x3e035dd7	0.12828766
23	0xbe4671aa	-0.19379297
24	0x3e249630	0.16072917
25	0x3e3e5745	0.18587978
26	0x3d15a2e2	0.03653229
27	0x3e26786a	0.16256872
28	0xbd8d1c00	-0.06890106
29	0xbe023c5b	-0.12718336
30	0xbd65964f	-0.05605155
31	0x3d9fb0f6	0.077974245
32	0x3ba7df06	0.005123022
33	0xbdfe6b66	-0.124228284
34	0xbe0a3ebf	-0.13500498
35	0xbe629059	-0.22125377
36	0xbbbf3c3b	-0.0058360375
37	0x3e012b6d	0.12614222
38	0x3e343d31	0.17601468
39	0xbc204a2c	-0.009783309
40	0x3e9a6b48	0.30159974
41	0x3d8d063d	0.068859555
42	0xbe3fc186	-0.18726167
43	0x3da04945	0.07826475
44	0xbd66b57b	-0.056325417
45	0x3e2f5a6c	0.17124337
46	0x3db27a42	0.08714725
47	0x3c846783	0.01616264
48	0x3ca907ce	0.020633604
49	0xbda75847	-0.081711344
50	0x3da436c5	0.08018259
51	0x3d372306	0.044711135
52	0xbe12ac35	-0.14323504
53	0xbdcdbd81	-0.100459106
54	0x3dacc763	0.084364675
55	0x3da4794d	0.08030949
56	0xbceb4793	-0.028720653
57	0xbe3a92c9	-0.18220057
58	0x3b5c83ad	0.003364782
59	0x3e3aea96	0.1825355
60	0xbdc20068	-0.09472734
61	0x3e4b2f48	0.19842255
62	0xbd990bf5	-0.07472984
63	0xbd043939	-0.032281134
64	0xbdf75af9	-0.120778985
65	0x3d8c40b8	0.068482816
66	0xbce76689	-0.028247135
67	0xbdc21a4f	-0.09477674
68	0xbcc578cc	-0.024105452
69	0xbdbe893e	-0.093035206
70	0x3e6cc455	0.2312177
71	0x3d2ff179	0.042954896
72	0xbe350664	-0.17678219
73	0xbd062c2e	-0.032756977
74	0x3d5ab4b8	0.053395003
75	0xbd981a29	-0.07426865
76	0x3d0cd37e	0.034381382
77	0xbd4f573b	-0.0506203
78	0xbdd32239	-0.10309262
79	0x3da29a1f	0.079395525
80	0x3df11bf4	0.1177291
81	0x3de4a549	0.11164338
82	0x3e4e065a	0.2011961
83	0x3dfa8b95	0.122336544
84	0xbd989058	-0.074494064
85	0xbdec13d3	-0.11527219
86	0x3da2f0bf	0.07956075
87	0xbdb0dc46	-0.08635764
88	0x3e40d02c	0.18829411
89	0x3d046f24	0.032332554
90	0x3d8b59cc	0.06804237
91	0xba0251a3	-0.0004971271
92	0x3e8cf898	0.27533412
93	0x3e10c0c6	0.14136037
94	0x3e51d568	0.20491564
95	0x3e06b06d	0.13153239
96	0xbe30f7ca	-0.17282024
97	0xbd58bbf4	-0.05291362
98	0x3e2b66f9	0.167385
99	0x3d0c39e1	0.034234885
100	0x3e4023d7	0.18763672
101	0x3e645574	0.22298223
102	0x3e2801d3	0.16406946
103	0xbe6e9e5e	-0.233026
104	0xbe3c6142	-0.18396476
105	0x3e0d8227	0.1381918
106	0x3cbb5090	0.022865564
107	0xbdf8cc55	-0.12148348
108	0xbd0dc2d4	-0.03460963
109	0xbdcc120b	-0.09964379
110	0xbce96d9b	-0.028494647
111	0xbd8abd8c	-0.067744344
112	0x3d62f478	0.055408925
113	0x3cf55730	0.0299488
114	0x3d4b6b50	0.049662888
115	0xba7f2572	-0.0009733058
116	0xbd318259	-0.0433372
117	0xbe11e7d6	-0.14248595
118	0x3da2f6d7	0.07957237
119	0x3e1ea9ba	0.15494433
120	0xbca833db	-0.02053254
121	0x3d6decd6	0.058087192
122	0xbcf9952a	-0.030466635
123	0xbe64d168	-0.22345507
124	0x3e1eed6a	0.15520254
125	0x3cd5b782	0.02608848
126	0xbd30d971	-0.04317612
127	0x3e39161c	0.1807484
128	0x3da56ffd	0.08078001
129	0x3e1f8163	0.15576701
130	0x3e5216fc	0.2051658
131	0x3db9c332	0.09070434
132	0x3e1b98e3	0.1519504
133	0x3dc6f811	0.09715284
134	0x3e2aa5b6	0.16664776
135	0xbcbaa1a0	-0.022782147
136	0x3df35d0b	0.11882981
137	0x3df8961b	0.12138005
138	0x3e1f45cb	0.15553968
139	0xbe438a39	-0.19095697
140	0x3d481b2d	0.04885404
141	0xbd617e0d	-0.055051852
142	0x3d16b2fc	0.036791787
143	0xbdb1044a	-0.08643396
144	0xbe672f74	-0.22576696
145	0xbd92f5eb	-0.071758114
146	0xbc64a338	-0.01395493
147	0xbd8a22f7	-0.0674495
148	0x3e8d26f4	0.2756878
149	0x3d399055	0.04530366
150	0xbcf065f3	-0.029345488
151	0x3e80d3e0	0.25161648
152	0xbdebe0fc	-0.11517522
153	0x3cf442e7	0.029817058
154	0x3dab4b30	0.0836395
155	0xbd4cc921	-0.0499965
156	0xbd8f97e6	-0.07011394
157	0x3e2e45a5	0.17018755
158	0xbdb1c40f	-0.08679973
159	0x3e045c9c	0.12925953
160	0x3e140513	0.1445506
161	0x3e2cdc4a	0.16880909
162	0xbc55e80f	-0.013055815
163	0x3de01dbc	0.109431714
164	0x3c2a7d00	0.010405779
165	0xbe213962	-0.15744546
166	0x3c81dd30	0.01585254
167	0x3d9fba60	0.0779922
168	0xbd8a1cac	-0.0674375
169	0xbca28a5c	-0.019841366
170	0xbd82df26	-0.063902184
171	0xbe53491a	-0.20633355
172	0xbdec31ac	-0.11532912
173	0xbe27530b	-0.16340272
174	0x3d5daed6	0.054121815
175	0x3dcfc253	0.10144486
176	0xbd677a32	-0.05651302
177	0x3e00cd04	0.12578207
178	0x3e24e2ca	0.16102138
179	0xbd3d4a0a	-0.046213187
180	0x3dc5361a	0.0962946
181	0x3df7bd54	0.12096658
182	0x3d0f2e8e	0.034956507
183	0x3dbcfa23	0.09227397
184	0xbc327a45	-0.010893409
185	0xb8d31a80	-0.000100662
186	0xbe37f6d7	-0.17965256
187	0xbde3f177	-0.1113004
188	0x3de41846	0.11137442
189	0x3c1848a9	0.009294667
190	0xbe0c78af	-0.13717912
191	0xbdd54d86	-0.10415177
192	0x3dc88792	0.09791483
193	0xbdf4d249	-0.11954171
194	0xbdab6418	-0.08368701
195	0xbe58aac9	-0.211589
196	0xbdf5b9fc	-0.11998364
197	0xbdaae6e3	-0.083448194
198	0xbe0daf01	-0.1383629
199	0x3dca7b50	0.09886801
200	0xbc2687b2	-0.010164188
201	0x3dfaaa91	0.12239564
202	0xbdbaf33e	-0.09128426
203	0xbd49fcc8	-0.049313337
204	0x3dd55bfc	0.10417935
205	0xbe0482d9	-0.1294054
206	0xbd3cd78d	-0.046104003
207	0xbd4361fa	-0.04770086
208	0xbe3c6bb1	-0.18400456
209	0xbe4faaeb	-0.20280044
210	0xbd8ff72d	-0.07029567
211	0x3ce67ea1	0.028136553
212	0x3e0db8f3	0.13840084
213	0x3da12f6d	0.07870374
214	0xbdfeebb0	-0.124472976
215	0x3da9f9ac	0.08299574
216	0xbdb616dd	-0.088910796
217	0xbcba8ceb	-0.022772273
218	0xbd908c8f	-0.070580594
219	0x3da37287	0.07980829
220	0x3e313127	0.17303906
221	0xbdcf0b27	-0.10109549
222	0x3e3ad2cd	0.18244477
223	0x3d2f730a	0.04283432
224	0x3d55caa1	0.052195195
225	0x3dbc8129	0.09204323
226	0x3e5faf05	0.21844108
227	0xbd4178af	-0.047234233
228	0xbc9334f1	-0.01796958
229	0xbdbab759	-0.09117002
230	0x3e04aecc	0.12957305
231	0x3d684ec3	0.056715738
232	0x3e3ecb17	0.1863216
233	0x3d24e468	0.040256888
234	0xbd55fd9f	-0.052243825
235	0x3d102910	0.03519541
236	0xbdfbcd99	-0.12295074
237	0x3dbcc4e8	0.092172444
238	0x3e0ffee5	0.14062078
239	0xbdcb15c3	-0.0991626
240	0xbe576941	-0.21036245
241	0x3cec9973	0.028881764
242	0x3daf2c70	0.08553398
243	0x3e4caad0	0.19987035
244	0xbcb7f469	-0.022455411
245	0x3e46391f	0.19357727
246	0xbd31f009	-0.043441806
247	0xbe058c87	-0.13041888
248	0xbe0b31aa	-0.13593164
249	0xbd56e87b	-0.052467804
250	0xbe1b3a6f	-0.1515901
251	0xbdd82f3f	-0.105558865
252	0xbdaed7c4	-0.08537248
253	0xbe5e3c3a	-0.21702662
254	0x3dc0c3ee	0.094123706
255	0xbde060cd	-0.10955963

l2.weight f4 [300, 400]
0	0x3c578851	0.013155059
1	0x3bff6e56	0.0077951355
2	0xbd0d23e1	-0.034458045
3	0x3d31b2fa	0.043383576
4	0xbb9ddc13	-0.0048174947
5	0xbebb2cb5	-0.36557546
6	0x3de8c6d8	0.113660514
7	0x3ae09f2e	0.0017137283
8	0xbd3ba427	-0.045810845
9	0x3bf1c625	0.007378357
10	0xbdc84656	-0.097790405
11	0x3db0def7	0.08636277
12	0x3d9963b2	0.074897185
13	0x3d3f0b68	0.046641737
14	0x3d4b28b2	0.049599357
15	0x3da7d136	0.08194201
16	0x3c92044b	0.017824313
17	0xbd175599	-0.036946867
18	0x3d5e1ad3	0.0542248
19	0xbcb83e8f	-0.022490768
20	0x3d05a573	0.032628488
21	0xbd175084	-0.03694202
22	0xbc774880	-0.015092969
23	0xbc3d27ca	-0.011545131
24	0x3dda681c	0.106643885
25	0x3cc704c5	0.024294266
26	0xbda1f742	-0.07908489
27	0x3deddc21	0.11614252
28	0xbe87ed19	-0.2654808
29	0xbe354e96	-0.1770576
30	0x3d4f7f6f	0.05065864
31	0x3dfb2a8a	0.12263973
32	0x3bd637a2	0.0065373937
33	0xbc1ab3a0	-0.00944224
34	0x3d5e72ac	0.05430858
35	0xbb86366f	-0.0040958445
36	0x3dd0bc3f	0.10192155
37	0x3c9ee88f	0.019398002
38	0x3e2a2e4a	0.1661922
39	0x3db1f7a6	0.08689813
40	0x3cc19e8a	0.023635168
41	0xbce32a42	-0.027730111
42	0xbc539249	-0.012913295
43	0x3d5d2774	0.053992704
44	0x3ca49f2d	0.020095432
45	0xbcef3a13	-0.029202497
46	0xbd6c06d3	-0.057623696
47	0xbdd63d6c	-0.10460934
48	0xbc03d7ae	-0.0080470275
49	0xbddfd2a2	-0.10928847
50	0x3c97c03b	0.01852428
51	0x3cee00e4	0.029053159
52	0x3b888eec	0.0041674282
53	0xbd4c88ab	-0.049935024
54	0x3ca7d6ae	0.02048811
55	0x3d01cf1e	0.031691663
56	0x3d1070e8	0.035263926
57	0x3d997145	0.074923076
58	0x3d38236a	0.04495565
59	0x3db3aa61	0.087727316
60	0x3c472149	0.012153932
61	0x3b3c0c02	0.002869368
62	0x3da87165	0.08224753
63	0xbd190808	-0.037361175
64	0xbc00a65a	-0.007852161
65	0xbc462066	-0.012092685
66	0xbc60af93	-0.013713735
67	0x3d02764c	0.031851098
68	0xbe67702e	-0.22601387
69	0x3dd3a7e7	0.10334759
70	0xbd0eb0cc	-0.034836575
71	0xbc8469c9	-0.016163724
72	0xbd443a42	-0.04790712
73	0xbd59c61f	-0.05316746
74	0x3d39ce64	0.045362845
75	0x3d9b078c	0.07569799
76	0x3c909dfd	0.01765346
77	0xbe594c77	-0.21220575
78	0x3de17d92	0.11010279
79	0xbc85dfa6	-0.016341995
80	0x3c586b76	0.013209214
81	0x3e18e063	0.14929347
82	0x3dc398df	0.09550642
83	0x3ce2fdb5	0.027708868
84	0x3c23791a	0.009977603
85	0xbcc9c3fe	-0.02462959
86	0x3ddc7d99	0.10766143
87	0xbc910856	-0.01770417
88	0x3cb4b468	0.02205868
89	0x3e2922b4	0.16517144
90	0x3dfd32f2	0.12363233
91	0xbb171c2f	-0.002305757
92	0xbcfa380c	-0.030544303
93	0x3a3eaf33	0.00072740315
94	0xbd7bde6e	-0.061491422
95	0x3e23216b	0.15930717
96	0x3cc2cbe6	0.023778867
97	0x3cf05b88	0.02934052
98	0x3dc770b2	0.09738292
99	0x3ce86955	0.028370539
100	0x3c6066ef	0.013696416
101	0xbca1ebea	-0.019765813
102	0x3c81846e	0.015810218
103	0xbc2f9144	-0.010715786
104	0x3d344dbc	0.044019446
105	0xbcca97d0	-0.024730593
106	0xbcf4bd43	-0.029875403
107	0xbbe016fe	-0.0068386784
108	0x3c2c469c	0.010514881
109	0xbc365aae	-0.011130018
110	0x3e065587	0.13118564
111	0xbd97aaac	-0.074056
112	0x3dcf854e	0.10132848
113	0x3cbe3671	0.023219319
114	0xbe22e41b	-0.15907328
115	0xbd3584e1	-0.044316176
116	0x3c7e5911	0.015524165
117	0xbc75c60b	-0.01500083
118	0x3c88883c	0.016666524
119	0x3d17522e	0.036943607
120	0x3cf74c78	0.03018783
121	0x3d25090c	0.04029183
122	0xbd06c026	-0.03289809
123	0x3d6673fa	0.056262948
124	0x3d03cfd2	0.032180615
125	0x3d384dcf	0.04499608
126	0xbcd375e7	-0.025813056
127	0x3e042494	0.12904578
128	0x3e390b0e	0.18070623
129	0x3c846309	0.016160505
130	0xbcad596f	-0.02116081
131	0xbdc2b24a	-0.09506662
132	0x3deadcd0	0.11467898
133	0xbcb0b7aa	-0.021571953
134	0x3e009c3f	0.12559603
135	0xbc871522	-0.01648957
136	0xbd0fd270	-0.0351128
137	0x3ba207c7	0.004944775
138	0xbde009d7	-0.10939377
139	0x3d8f630c	0.070013136
140	0xbc563185	-0.01307333
141	0x3b3d33c7	0.0028869973
142	0x3b3ba285	0.0028630805
143	0x3d111a85	0.03542568
144	0xbd2c0e3e	-0.04200577
145	0x3bea15a1	0.0071436916
146	0x3d00032e	0.031253032
147	0xbe8758cf	-0.26434943
148	0xbcbaea8b	-0.022816917
149	0xbc3e7d69	-0.01162658
150	0xbcd56dfe	-0.026053425
151	0x3df4529e	0.119298205
152	0x3d2b98fe	0.04189395
153	0xbcbf92f1	-0.023385497
154	0x3bfe7b12	0.007766136
155	0xbc724eea	-0.014789322
156	0xbd3f9537	-0.04677316
157	0x3d988678	0.07447523
158	0xbcf59f6e	-0.029983249
159	0x3d3a7df4	0.045530275
160	0x3dca0c78	0.098656595
161	0xbc2bb9f2	-0.010481345
162	0x3d5ba68b	0.053625625
163	0x3d797a56	0.060907684
164	0xb96c3d30	-0.00022529508
165	0x3d2b6662	0.041845687
166	0x3ccbd6d3	0.02488271
167	0x3c621f51	0.013801412
168	0x3c5a13b5	0.013310363
169	0x3be83358	0.007086199
170	0x3b9e0f0a	0.00482357
171	0x3d3fdb2b	0.046839874
172	0xbe1c61dc	-0.15271705
173	0xbcd23cb4	-0.025663711
174	0x3d9f2f61	0.07772709
175	0xbaad1d63	-0.001320761
176	0x3caa4742	0.020785931
177	0x3d798832	0.0609209
178	0x3dc114ff	0.09427833
179	0x3c32158f	0.010869398
180	0x3c6c2831	0.014413879
181	0x3d2b5d7e	0.041837208
182	0x3dc01b44	0.093802005
183	0xbc1a3e4f	-0.00941427
184	0xbce40ce0	-0.02783817
185	0x3cf60852	0.030033264
186	0x3d0afa69	0.033930216
187	0xbd559eae	-0.052153282
188	0x3d8573e8	0.06516248
189	0x3e22d2e8	0.15900767
190	0x3d9bcd8c	0.07607564
191	0xbc3f4084	-0.011673097
192	0x3d088940	0.033334017
193	0xbec9533c	-0.39321315
194	0xbc9f3894	-0.019436158
195	0xbcff5f97	-0.03117351
196	0xbcf8d916	-0.030376952
197	0x3dd00e93	0.1015903
198	0x3c33332a	0.010937491
199	0xbd23eed5	-0.04002269
200	0x3cda031d	0.026612813
201	0xbcaba304	-0.020951755
202	0xbd31c0ea	-0.043396868
203	0xbd0724de	-0.032994144
204	0xbc1f9288	-0.009739526
205	0x3d202d19	0.03910551
206	0xbcdcbbb8	-0.02694498
207	0xbd251211	-0.040300433
208	0xbc879e22	-0.016554896
209	0x3d8d537d	0.0690069
210	0xbd75e121	-0.060029153
211	0x3d345ded	0.044034887
212	0xbd906b1b	-0.07051679
213	0x3d664ef8	0.056227654
214	0xbb815a12	-0.003947505
215	0x3e2eac98	0.17058027
216	0xbce61a84	-0.028088816
217	0xbd3d5c28	-0.046230465
218	0xbe827028	-0.25476193
219	0x3dd1c2b6	0.10242216
220	0xbe10d416	-0.14143404
221	0x3c00b4fa	0.007855648
222	0xbcb6c9a8	-0.022312954
223	0x3d604865	0.05475654
224	0x3da5bde5	0.0809286
225	0xbca3c631	-0.019991966
226	0x3dac9fb9	0.08428902
227	0xbe21c4f6	-0.15797791
228	0x3d9a429b	0.07532235
229	0xbc79cb9e	-0.0152463
230	0xbc38f074	-0.011287797
231	0xbbd4d29b	-0.0064948327
232	0x3e01d46c	0.12678689
233	0x3e0b569b	0.13607256
234	0x3d9ce87e	0.07661532
235	0xbced75a0	-0.028986752
236	0x3acbd7ec	0.0015552021
237	0xbe3969f2	-0.18106821
238	0xbd5be9b5	-0.053689677
239	0x3deb8467	0.11499863
240	0xbb9a22a5	-0.004703837
241	0x3c21526b	0.00984631
242	0xbd0f4707	-0.034979846
243	0x3dbdd7c7	0.09269672
244	0xbc84a59a	-0.016192246
245	0x3d2b566c	0.041830465
246	0x3c2d42f3	0.010575044
247	0xbc2fa986	-0.01072157
248	0x3c5815fc	0.013188835
249	0xbc76774d	-0.015043092
250	0xbd2d5b55	-0.04232343
251	0x3d16b667	0.036795046
252	0xbca0fb58	-0.0196511
253	0xbcddcd34	-0.027075388
254	0xbcdc966a	-0.026927192
255	0xbd92e3dc	-0.07172367

l2.bias f4 [300]
0	0x3db0a0fa	0.08624454
1	0x3cdf10d7	0.02722971
2	0x3ca8c86e	0.020603385
3	0x3d2b5ed1	0.04183847
4	0x3d83eecc	0.06442031
5	0x3d9705b5	0.073741354
6	0x3e45d450	0.19319272
7	0x3d9a7cd7	0.075433426
8	0x3dbcd3f4	0.09220114
9	0x3dbe4f26	0.0929244
10	0xb92f3237	-0.00016708007
11	0x3e0e1bc9	0.13877787
12	0x3cf0e856	0.029407661
13	0x3d52742b	0.051380318
14	0x3dbd2609	0.0923577
15	0xbcece88a	-0.028919477
16	0xbd93b671	-0.07212532
17	0x3df15adf	0.117849104
18	0x3baa765b	0.0052020974
19	0x3c55dfb4	0.013053823
20	0x3e09c191	0.13452746
21	0xbd1548b9	-0.036446307
22	0x3df214d3	0.11820378
23	0x3dd69c29	0.10479004
24	0x3e0078ce	0.12546083
25	0x3ddf071b	0.10890027
26	0xbce795d5	-0.028269688
27	0xbccf8e62	-0.025336448
28	0xbd0d1380	-0.034442425
29	0x3d800f56	0.06252925
30	0xbd69a47b	-0.057041626
31	0x3da96417	0.08271044
32	0xbd01dfbc	-0.03170751
33	0xbd6a95e3	-0.05727185
34	0x3da8c1a7	0.08240061
35	0x3c304baf	0.010760232
36	0x3dad3b5e	0.08458589
37	0x3e036c8b	0.12834375
38	0x3b97c7c2	0.0046319673
39	0x3dbe4e6d	0.09292302
40	0xbb94753f	-0.0045305784
41	0x3de06cf9	0.10958285
42	0x3bd4d283	0.0064948215
43	0xbdca9052	-0.09890808
44	0x3d6c4828	0.057686
45	0x3d1e8a70	0.038706243
46	0x3d326d99	0.04356155
47	0x39b14f5b	0.00033819195
48	0x3e0a19e7	0.13486443
49	0x3e11e108	0.14245999
50	0xbde0b3c9	-0.10971791
51	0x3e418c94	0.18901283
52	0x3c2fbb06	0.010725742
53	0x3dd50ec0	0.10403204
54	0xbb920cfc	-0.0044571143
55	0xbe0531b4	-0.13007241
56	0xbd2a11f0	-0.041521013
57	0x3e620d17	0.22075306
58	0xbdf835f6	-0.12119667
59	0xbc370dfd	-0.011172769
60	0x3da6ca00	0.08143997
61	0x3dbcf94e	0.092272386
62	0x3dd4e694	0.10395542
63	0x3e169514	0.14705306
64	0x3c39a788	0.0113314465
65	0x3d92a4d8	0.07160348
66	0xbd97d22b	-0.07413133
67	0x3dc8e53a	0.098093465
68	0x3c8d0142	0.017212514
69	0x3ca6c0c6	0.020355593
70	0x3c5e38dd	0.013563362
71	0xbd4d51ea	-0.050126947
72	0x3c8c4ccc	0.017126463
73	0x3c96566d	0.018351758
74	0xbd6a74b0	-0.057240188
75	0x3e0226c1	0.12710096
76	0xbce842dc	-0.028352194
77	0xbc85786a	-0.01629277
78	0x3dd719d4	0.10502973
79	0x3df0b6b6	0.11753599
80	0xbbfb0f5b	-0.0076617426
81	0x3e8c9d6f	0.27463862
82	0x3e00d938	0.12582862
83	0xbc0732c0	-0.008251846
84	0x3da2121d	0.07913611
85	0x3cbf30a0	0.023338616
86	0x3dac5c09	0.08415992
87	0x3b27a1ca	0.0025578612
88	0x3db18a14	0.086689144
89	0x3ddf73d3	0.109107636
90	0xbc9e8625	-0.019351074
91	0x3de88f91	0.11355508
92	0xbcadb4f0	-0.021204442
93	0xbd88e6c5	-0.06684641
94	0xbcd865bd	-0.0264157
95	0x3da70698	0.081555545
96	0x3d48193c	0.04885219
97	0x3dd5582e	0.104172096
98	0xbc4c62c5	-0.01247472
99	0xbc427dff	-0.01187086
100	0xbc85193f	-0.01624739
101	0x3d197be3	0.037471663
102	0x3dcfc6f0	0.10145366
103	0x3dbf8fdd	0.093536116
104	0xbcd73ca6	-0.026274037
105	0xbd9e2311	-0.07721532
106	0x3c34ee42	0.011043133
107	0x3e9f658e	0.31132168
108	0x3d59f8c1	0.053215746
109	0xbd3dfc76	-0.046383344
110	0x3d8df857	0.06932133
111	0xbd1e7e61	-0.038694743
112	0x3dabf944	0.08397153
113	0xbca81776	-0.020519
114	0x3d95a103	0.07306101
115	0x3d814e90	0.06313813
116	0xbc826c0b	-0.01592066
117	0xbd049fea	-0.03237907
118	0x3d09d42e	0.033649616
119	0xbd3c431e	-0.045962445
120	0x3df0c17a	0.11755653
121	0x3dbcbf33	0.09216156
122	0x3e1a7b16	0.15086016
123	0x3e13cd4f	0.14433788
124	0xbd46ba53	-0.048517536
125	0x3dcdbd0b	0.10045823
126	0x3e0fdc4f	0.14048885
127	0xbd64c414	-0.055851057
128	0xbcf3120b	-0.02967169
129	0x3ddda584	0.10822585
130	0x3e0ef099	0.13958968
131	0xbd313af5	-0.043269116
132	0xbced06ed	-0.028933967
133	0x3e390430	0.18068004
134	0x3df26b6e	0.11836897
135	0x3c340ea7	0.0109898215
136	0xbc9da072	-0.019241545
137	0x3e008075	0.12549002
138	0x3dce3859	0.10069341
139	0x3c8d2deb	0.01723381
140	0xbc68b2d2	-0.01420279
141	0x3db95184	0.09048751
142	0x3df4e591	0.11957849
143	0xbdac238a	-0.08405216
144	0x3d7ef803	0.06224824
145	0xbc048e8f	-0.008090629
146	0x3d9eb4eb	0.07749351
147	0x3df04905	0.11732677
148	0x3db11971	0.08647431
149	0xbd5d5156	-0.054032646
150	0x3de3ee41	0.11129428
151	0x3cf52c08	0.029928222
152	0xbd5a5d33	-0.053311538
153	0xbdb44fab	-0.08804258
154	0xbd37f4fd	-0.044911373
155	0x3dd22695	0.10261265
156	0x3d69e1bd	0.057100046
157	0xbc6cf578	-0.014462821
158	0x3e067f54	0.1313451
159	0x3d6dd72e	0.05806654
160	0x3d9aa535	0.07551042
161	0x3c9d5c02	0.019208912
162	0xbd9838dc	-0.0743272
163	0xbcc7ed5a	-0.02440517
164	0x3d807f71	0.062743075
165	0xbd4a07bd	-0.049323786
166	0x3e0516f8	0.12997043
167	0x3dee5e4c	0.116390795
168	0xbca232c5	-0.0197996
169	0xbd9c99ff	-0.0764656
170	0x3dd069b8	0.10176414
171	0x3dc11417	0.0942766
172	0x3de0cf25	0.1097701
173	0x3dae5009	0.08511359
174	0x3d600e8a	0.054701366
175	0xbd4268bf	-0.047463175
176	0x3e8297c3	0.2550641
177	0x3e0a7a57	0.13523231
178	0xbc87d319	-0.016580151
179	0xbd34aae9	-0.044108305
180	0x3dab4d70	0.083643794
181	0x3d82f8ca	0.06395109
182	0x3dd745a5	0.105113305
183	0x3db964e4	0.090524465
184	0xbcc79b6d	-0.024366105
185	0xbd7632e8	-0.06010714
186	0xbaf47c72	-0.001865281
187	0x3d84e33f	0.06488656
188	0xbdf25403	-0.1183243
189	0x3d6ab467	0.05730095
190	0x3bf4311c	0.0074521434
191	0x3de26460	0.11054301
192	0x3da81079	0.08206267
193	0x3d988b6f	0.0744847
194	0x3d7668f8	0.0601587
195	0x3e0ac91b	0.13553278
196	0x3b08c261	0.0020867812
197	0x3ddc0cec	0.10744652
198	0x3dfbca23	0.12294414
199	0x3d92c824	0.0716708
200	0x3dc9d23a	0.09854551
201	0xbd647463	-0.055775058
202	0xbca451e4	-0.02005858
203	0x3de330a3	0.11093261
204	0x3d643f67	0.055724528
205	0x3e13be56	0.14428076
206	0xbd562808	-0.05228427
207	0xbd2be0a3	-0.041962277
208	0xbd131c7d	-0.03591584
209	0x3d41167e	0.04714059
210	0xbba1de90	-0.0049398616
211	0xbd37e1c6	-0.04489305
212	0x3dc55b8d	0.096366026
213	0x3df3dfcd	0.11907921
214	0x3e25e04d	0.16198845
215	0xbc75e12d	-0.015007299
216	0x3ddcaa2b	0.107746445
217	0xbd5d0a32	-0.0539648
218	0x3e13fb8d	0.14451428
219	0x3da15970	0.07878387
220	0x3e14d5a6	0.14534625
221	0xbcb86607	-0.022509588
222	0xbc96977c	-0.01838278
223	0x3bd63886	0.0065375
224	0xbb27d1a3	-0.002560713
225	0xbd11cdff	-0.035596844
226	0x3d4564c6	0.04819181
227	0x3ced9f71	0.029006692
228	0xbbf46ed7	-0.007459502
229	0x3a89f3ba	0.0010524907
230	0x3de0d0e2	0.10977341
231	0xbc611c2d	-0.013739628
232	0x3cfbe4a4	0.030748673
233	0x3c9d5a0e	0.01920798
234	0xbd0987ca	-0.033576764
235	0x3d155c20	0.03646481
236	0xbe732b6e	-0.23747036
237	0x3b0cf453	0.0021507933
238	0x3e792772	0.24331453
239	0x3c834095	0.016022006
240	0x3e07a531	0.1324661
241	0xbd16c74e	-0.036811166
242	0x3e00cdbe	0.12578484
243	0xbd44df88	-0.04806474
244	0x3d421b87	0.047389533
245	0xbdc504c9	-0.09620053
246	0xbd4523e0	-0.048129916
247	0x3e0598df	0.13046597
248	0x3e01217e	0.12610433
249	0x3d7d7f36	0.061888896
250	0xbd264534	-0.04059334
251	0x3c89d214	0.016823806
252	0x3b646acd	0.0034853697
253	0x3e05b158	0.13055933
254	0x3d8d7ebc	0.06908938
255	0xbce60554	-0.028078713

l3.weight f4 [1, 300]
0	0xbdcc67d9	-0.09980745
1	0xb8fea0b4	-0.00012141597
2	0xbe2c06df	-0.16799496
3	0x3e1b5d04	0.15172201
4	0xbe02c547	-0.12770568
5	0xbe169a14	-0.14707214
6	0xbe829c73	-0.25509986
7	0xbde524b6	-0.11188643
8	0xbe257304	-0.16157156
9	0xbe164afe	-0.14677045
10	0xb9801de4	-0.00024436333
11	0xbe031f49	-0.12804903
12	0x3c4c4a12	0.012468832
13	0xbc35a8aa	-0.011087576
14	0xbe16bba1	-0.14720012
15	0x3c48c54f	0.012254073
16	0x3c80c651	0.015719565
17	0xbdccd2d7	-0.10001152
18	0xbc3f8cd2	-0.011691289
19	0x3c277f5e	0.010223238
20	0xbdfac17f	-0.12243938
21	0x3c32af96	0.010906121
22	0xbe1158d8	-0.14194047
23	0xbe0c9633	-0.13729171
24	0xbde6c849	-0.1126867
25	0xbdd2be37	-0.10290187
26	0x3ce95c1c	0.028486304
27	0x3d4d20ec	0.050080225
28	0x3979d551	0.00023825957
29	0xbe11ba38	-0.14231193
30	0x3d1c07d0	0.038093388
31	0xbcbf1586	-0.023325693
32	0xbbf94533	-0.007607126
33	0x3d1e7ba3	0.038692128
34	0xbe11233a	-0.14173594
35	0xbbfc4fa2	-0.0076999227
36	0xbe0c21f0	-0.13684821
37	0xbdcbde2f	-0.099544875
38	0x3c98641b	0.018602422
39	0xbdc07f52	-0.093992844
40	0xbbab750c	-0.005232459
41	0xbdcd5a21	-0.10026956
42	0x3ca840af	0.020538656
43	0xba13ea0d	-0.0005642481
44	0xbd8a1732	-0.067427054
45	0xbe3a9e74	-0.18224508
46	0xbe2c9387	-0.16853152
47	0x3c3eccb9	0.011645489
48	0xbe0d19b5	-0.13779338
49	0xbe2807b2	-0.16409186
50	0xbc5c3ed5	-0.013442715
51	0xbdbf1209	-0.09329612
52	0x3ccb0f04	0.024787433
53	0xbdcb12c1	-0.099156864
54	0x3c2f64a5	0.010705148
55	0x3b851f64	0.00406258
56	0x3d29806c	0.04138224
57	0xbe2be9dd	-0.1678843
58	0xbbff823b	-0.007797507
59	0xba9c6c55	-0.0011934141
60	0xbddcaa81	-0.107747085
61	0xbe10af38	-0.1412934
62	0xbdb0cbef	-0.08632647
63	0xbe0abedc	-0.1354937
64	0x3bf4da12	0.007472285
65	0xbddf192b	-0.10893472
66	0xbe045ffb	-0.12927239
67	0xbdca820b	-0.09888085
68	0x3d2c26a0	0.042029023
69	0xbc7e91fd	-0.015537736
70	0xbb24e0b5	-0.002515835
71	0x3d1b8239	0.037965987
72	0x3c1a486e	0.009416683
73	0x3b1b871a	0.002373165
74	0x3be255fb	0.0069072223
75	0xbe1a7164	-0.15082318
76	0x3c8848e9	0.016636329
77	0x3acb9b12	0.0015533885
78	0xbe0f7b72	-0.14011934
79	0xbe166eb0	-0.14690661
80	0x3d010189	0.031495605
81	0xbe849fae	-0.25903076
82	0xbde315db	-0.11088153
83	0x3c11c2d5	0.008896549
84	0xbdbca673	-0.09211435
85	0xbbac6c61	-0.005261943
86	0xbdd4572f	-0.103681915
87	0x3c470b6d	0.01214872
88	0xbe080251	-0.13282134
89	0xbe390b6e	-0.18070766
90	0x3bf0e915	0.0073520043
91	0xbe13b455	-0.1442426
92	0x3d218644	0.039434686
93	0x3cd9e916	0.026600402
94	0x3d4497ab	0.047996204
95	0xbe022807	-0.12710582
96	0xbd37da51	-0.044885937
97	0xbdc9c902	-0.09852792
98	0x3ce3c014	0.02780155
99	0xbd03f206	-0.032213233
100	0x3c9d8bf7	0.01923178
101	0xbe130c19	-0.14360084
102	0xbe1dfead	-0.15429182
103	0xbded0e8c	-0.1157504
104	0x3e2498b9	0.16073884
105	0x3919e76f	0.00014677433
106	0x3d04279a	0.03226433
107	0xbe84a403	-0.2590638
108	0xbd88d94c	-0.06682071
109	0x3c709e1e	0.014686136
110	0xbe0ffa0d	-0.1406023
111	0x3c6f26aa	0.014596621
112	0xbd44042f	-0.047855552
113	0x3b88f1d4	0.004179219
114	0xbe11b45d	-0.1422896
115	0xbdf64104	-0.120241195
116	0x3ca5ef50	0.020255715
117	0x3ce164b9	0.027513849
118	0x3c43a282	0.0119406
119	0x3cc61095	0.024177829
120	0xbd8cf408	-0.06882483
121	0xbe0cd03a	-0.13751307
122	0xbe0c494c	-0.13699836
123	0xbdc9a10a	-0.09845169
124	0x3944fd59	0.00018786396
125	0xbe0c9d5b	-0.13731901
126	0xbe016d8f	-0.1263945
127	0xbb8e41fc	-0.004341362
128	0x3b2e0f68	0.0026559476
129	0xbdd1bcb9	-0.10241074
130	0xbdcf49b9	-0.10121483
131	0x3ba4e100	0.005031705
132	0xbd275ff5	-0.040862996
133	0xbde20e22	-0.11037852
134	0xbd94fe37	-0.0727505
135	0x3d3884a8	0.045048386
136	0xbad42a28	-0.001618688
137	0xbe1445f2	-0.14479807
138	0xbdd7f472	-0.10544671
139	0x3d34ea64	0.044168845
140	0xbbdbd9ee	-0.006709329
141	0xbe060ef4	-0.13091642
142	0xbe09e010	-0.1346438
143	0x3c8f2509	0.017473714
144	0xbdf8b4e0	-0.12143874
145	0x3c0f9460	0.008763403
146	0xbe0ae5dd	-0.13564248
147	0xbdfb6632	-0.122753516
148	0xbd952016	-0.072815105
149	0x3c3e4c19	0.011614823
150	0xbdb5f029	-0.088836975
151	0x3cedcf5c	0.02902954
152	0xbba0e6c2	-0.004910321
153	0x39e3f1cd	0.0004347697
154	0xbb9e1b63	-0.004825042
155	0xbe0a29eb	-0.13492553
156	0xbdbc1aa6	-0.0918477
157	0x3c25609c	0.010093834
158	0xbdf18393	-0.11792674
159	0xbe020233	-0.12696151
160	0xbe13f3d4	-0.14448482
161	0xbd7fb571	-0.062428895
162	0x3c5dc50b	0.013535748
163	0x3caf4aeb	0.021398028
164	0xbe1df869	-0.15426792
165	0x3d219464	0.039448157
166	0xbe20208d	-0.15637417
167	0xbded9f99	-0.116027065
168	0x3b66cc40	0.0035216957
169	0x399ca932	0.000298807
170	0xbe147175	-0.14496405
171	0xbe43059e	-0.19045112
172	0xbe0a2b0e	-0.13492987
173	0xbdd5bb6c	-0.104361385
174	0xbe1ea856	-0.15493903
175	0x3d3db3be	0.046313994
176	0xbea13fc5	-0.31493965
177	0xbe115c46	-0.14195356
178	0x3c8420af	0.016128866
179	0x3a859f84	0.0010194634
180	0xbe05b644	-0.1305781
181	0xbe35d17a	-0.1775569
182	0xbe0a57bc	-0.1351003
183	0xbd0e5954	-0.03475316
184	0xbb02d997	-0.001996612
185	0x3b067e5b	0.002052209
186	0x3bec3332	0.0072082514
187	0xbdf7979f	-0.12089466
188	0x3ebb63e9	0.36599663
189	0xbdee9173	-0.11648836
190	0x3c0fe403	0.00878239
191	0xbdcb81bb	-0.099368535
192	0xbe08d357	-0.1336187
193	0xbdede69d	-0.116162516
194	0xbdfb8914	-0.12282005
195	0xbdd3e8cf	-0.10347139
196	0x3ba7fe6e	0.005126766
197	0xbde76ff0	-0.11300647
198	0xbdec8cba	-0.11550279
199	0xbe040950	-0.12894177
200	0xbdf500e2	-0.11963059
201	0xbd052b94	-0.032512262
202	0xbbda5c60	-0.006663844
203	0xbe1b6be3	-0.15177874
204	0xbdf83101	-0.12118722
205	0xbdfca50e	-0.12336169
206	0xbcc83100	-0.024437428
207	0x3cb97b46	0.02264179
208	0x3c939f78	0.018020377
209	0xbde2baa9	-0.11070759
210	0x3d062495	0.03274973
211	0x3c8933ae	0.016748276
212	0xbe02fbf0	-0.12791419
213	0xbdda3302	-0.1065426
214	0xbdecbb4d	-0.11559162
215	0xbbd879d3	-0.0066063195
216	0xbdd41a82	-0.103566185
217	0x3b12d9ca	0.0022407644
218	0xbddd4000	-0.10803223
219	0xbe138ce2	-0.14409211
220	0xbde38bf7	-0.111106806
221	0xbbb52883	-0.005528511
222	0x3d282398	0.04104957
223	0x3cbfc639	0.02340995
224	0x3d241aba	0.04006455
225	0x3d02a675	0.031897027
226	0xbe131a0d	-0.14365406
227	0x3cfe40c9	0.031036751
228	0x3c581e4c	0.013190817
229	0xbbc3885c	-0.005967183
230	0xbde23672	-0.11045541
231	0x3c12b3fa	0.008954043
232	0xbba83ab4	-0.005133951
233	0x3d5b2469	0.05350152
234	0xbb5aa989	-0.003336521
235	0xbe206485	-0.15663345
236	0x3ec38ffe	0.38195795
237	0x3b26b6f6	0.0025438643
238	0xbe793a2f	-0.24338602
239	0xbe43b43e	-0.19111726
240	0xbdf712f1	-0.1206416
241	0x3cbd90cc	0.023140334
242	0xbe166e85	-0.14690597
243	0x3c0140ef	0.0078890165
244	0xbde4c07f	-0.11169528
245	0x3b4ec715	0.0031551768
246	0x3b5b546a	0.0033467063
247	0xbe04cd25	-0.12968881
248	0xbd9ae5bc	-0.075633496
249	0xbde5588b	-0.11198529
250	0x3a2eaa9b	0.00066629954
251	0x3c842acc	0.016133688
252	0x3cb2230e	0.021745231
253	0xbdfee6a6	-0.124463364
254	0xbdb20cb7	-0.086938314
255	0x3d37c698	0.044867128
