TD3/models/second_training_attempt/train_300_episodes_critic_2.pth (torch, 531051 bytes, 5 tensors)

l1.weight f4 [400, 28]
0.27519935 0.5016135 -0.18089183 -0.30440772 -0.020194981 0.041023374 0.13393062 -0.16563958
-0.13233611 -0.0905779 -0.014959562 -0.07168088 0.2872957 -0.33089486 0.07437155 0.14704795
-0.029304545 0.11396696 -0.13623957 0.11131051 -0.006591482 -0.033130795 0.026471134 0.013871689
-0.013660465 0.028998123 -0.017278697 -0.049362022 0.05029278 0.28394625 -0.25173917 -0.22179219
0.24557014 -0.029274255 0.04675318 -0.13942069 -0.060553633 -0.06585653 0.01563446 0.1620236
0.14789489 -0.3072221 0.010780323 0.06192587 0.035008285 -0.18397729 -0.19543318 0.05951665
-0.0061256858 -0.25387928 0.10398813 -0.18633685 0.035379745 0.036499508 0.100160964 -0.13632016
-0.062783584 0.01796134 -0.22071487 -0.054766163 0.20474942 -0.15421529 -0.1330387 -0.08061049
-0.08207213 -0.017678672 -0.13314375 0.12079759 0.1732253 -0.0002783168 -0.04135776 -0.2268262
-0.035412226 0.050056748 0.09281673 -0.05096146 0.040434625 0.0028020006 -0.07831073 -0.08346333
-0.07069538 -0.054148063 -0.0048236856 -0.08397123 0.17658047 0.06413087 -0.08466866 -0.5415649
0.13776983 -0.022018155 -0.14345813 0.100180246 -0.14431272 -0.19723347 0.01359352 0.0006308868
-0.020412343 -0.34693462 0.10770813 -0.117298976 0.00425542 0.15383075 -0.12365891 -0.048822455
-0.0900218 -0.07308789 -0.00891762 0.21841764 0.05140823 -0.07659184 0.0030238726 0.07444203
0.27349246 -0.015636362 -0.043855295 0.35319978 0.013505466 0.012586539 -0.3054567 0.17659704
0.13544658 0.12881418 -0.23538238 -0.090012714 0.03209269 0.126162 0.038444195 -0.050255276
-0.009487398 0.16954285 0.017188683 -0.08982547 0.029464765 0.19478635 0.12698631 -0.09498476
0.13397112 -0.0073516364 -0.06428752 0.042982277 -0.23752433 -0.11554166 0.35048166 -0.18521306
-0.25406715 0.20073184 0.1169257 0.042932257 -0.0027326774 -0.023740206 0.18066165 0.026499974
-0.076386824 0.016641965 0.10101036 0.18039879 -0.07553509 0.04089611 0.0070586125 -0.052748963
-0.17946206 -0.12722483 -0.15066838 0.057888944 -0.15284522 0.15217203 -0.12559308 -0.0665693
0.23599155 0.37728325 -0.34440336 -0.24823315 0.31914294 -0.09208876 -0.021030247 -0.20943844
-0.08996989 0.027313413 -0.12078389 0.019959122 0.0031690588 -0.14262752 -0.02761813 0.10154976
0.020469991 -0.058163665 0.15358809 0.029776955 -0.094274886 -0.11106784 0.14636974 -0.053653102
0.053403143 0.046626743 -0.0068523167 0.0013252029 0.49030736 0.1682258 -0.2896736 -0.004383205
-0.008072897 0.14420877 0.08886606 0.10090889 -0.052878883 0.25815243 0.12859268 -0.009362003
-0.13413979 0.025675725 0.18505052 0.18154965 0.025893586 0.1540349 -0.12954867 0.02479479
0.071369156 0.05671225 -0.12499438 0.020170962 -0.01582571 0.03185205 0.010266091 -0.038663324
0.05667554 0.109034784 -0.2658842 -0.43248793 0.014339975 -0.0036022938 -0.092197366 -0.009019413
-0.095080845 -0.32784957 -0.053850934 0.063446894 0.12572363 -0.17996871 -0.1260514 -0.21582979
-0.18833801 0.0673239 -0.1641392 0.068208344 0.1183758 0.038219467 0.14490154 -0.057148144
0.00093654305 0.005222218 -0.04802739 -0.021540748 0.08350514 0.26867938 -0.17424297 -0.22861692
00000000: eee6 8c3e be69 003f b53b 39be 54db 9bbe
00000010: f26f a5bc 2008 283d 1c25 093e 6c9d 29be
00000020: 1e83 07be e880 b9bd f318 75bc 6dcd 92bd
00000030: 6c18 933e 0d6b a9be 1c50 983d bd93 163e
00000040: 1610 f0bc 8267 e93d 6382 0bbe c4f6 e33d
00000050: 5cfd d7bb 28b4 07bd fed9 d83c 1546 633c
00000060: 25d0 5fbc 798d ed3c 0e8c 8dbc d52f 4abd
00000070: cdff 4d3d 6761 913e f5e3 80be 7e1d 63be
00000080: bd76 7b3e 90d0 efbc 4380 3f3d 4cc4 0ebe
00000090: 1607 78bd cadf 86bd d713 803c 84e9 253e
000000a0: c271 173e 374c 9dbe f49f 303c fba5 7d3d
000000b0: d964 0f3d 8b64 3cbe a31f 48be bbc7 733d
000000c0: fab9 c8bb 77fc 81be bbf7 d43d 16cf 3ebe
000000d0: 5aea 103d 8280 153d 3121 cd3d 8397 0bbe
000000e0: ae94 80bd a923 933c 1403 62be 7c52 60bd
000000f0: d5a9 513e 9dea 1dbe 4c3b 08be 1d17 a5bd
00000100: 6f15 a8bd ddd2 90bc d656 08be ba64 f73d
00000110: f961 313e 0ceb 91b9 c166 29bd 2145 68be
00000120: 690c 11bd 4e08 4d3d b316 be3d f7bc 50bd
00000130: c79e 253d c5a1 373b 6061 a0bd d3ee aabd
00000140: bdc8 90bd 5cca 5dbd 0210 9ebb 1cf9 abbd
00000150: 83d1 343e 0c57 833d c366 adbd ffa3 0abf
00000160: 8913 0d3e 6b5f b4bc b0e6 12be 4d2b cd3d
00000170: b7c6 13be 92f7 49be 5bb7 5e3c 1962 253a
00000180: c937 a7bc 6aa1 b1be 1496 dc3d 723a f0bd
00000190: 0d71 8b3b cf85 1d3e e240 fdbd 0efa 47bd
000001a0: 595d b8bd 1baf 95bd 361b 12bc e0a8 5f3e
000001b0: 7091 523d 2fdc 9cbd 2a2c 463b 1075 983d
000001c0: 3407 8c3e d417 80bc 9ca1 33bd 9ad6 b43e
000001d0: 0846 5d3c c537 4e3c d264 9cbe dbd5 343e
000001e0: 82b2 0a3e dde7 033e 1408 71be 9658 b8bd
000001f0: a073 033d 9c30 013e a977 1d3d 7ad8 4dbd
00000200: 0871 1bbc a49c 2d3e 48cf 8c3c 6af6 b7bd
00000210: 1760 f13c 1376 473e b308 023e 5f87 c2bd
00000220: ba2f 093e ffe5 f0bb 2da9 83bd 2f0e 303d
00000230: 9439 73be 1ba1 ecbd 5572 b33e 7ea8 3dbe
00000240: 1715 82be a68c 4d3e be76 ef3d bcd9 2f3d
00000250: b816 33bb d27a c2bc 5eff 383e 7916 d93c
00000260: b270 9cbd bb54 883c 85de ce3d 76ba 383e
00000270: 24b2 9abd ae82 273d ef4b e73b 4c0f 58bd
00000280: e7c4 37be 3a47 02be d048 1abe f51c 6d3d
00000290: 7583 1cbe fcd2 1b3e 799b 00be 7c55 88bd
000002a0: c5a7 713e 452b c13e a355 b0be d530 7ebe
000002b0: b466 a33e 0899 bcbd a047 acbc 0877 56be
000002c0: 2242 b8bd 61c0 df3c 8b5d f7bd 5081 a33c
000002d0: fcaf 4f3b f30c 12be 6b3f e2bc 52f9 cf3d
000002e0: afb0 a73c 063d 6ebd 3246 1d3e cdee f33c
000002f0: 3113 c1bd 8977 e3bd f3e1 153e 5bc3 5bbd
00000300: 41bd 5a3d affb 3e3d 6689 e0bb 6eb2 ad3a
00000310: 9109 fb3e 6243 2c3e 1950 94be fda0 8fbb
00000320: 2f44 04bc 77ab 133e 69ff b53d 52a9 ce3d
00000330: 8797 58bd 8e2c 843e cdad 033e 1663 19bc
00000340: f15b 09be e655 d23c e27d 3d3e 27e8 393e
00000350: c91e d43c 53bb 1d3e 68a8 04be 721e cb3c
00000360: fe29 923d 1b4b 683d 0efd ffbd 933d a53c
00000370: eba4 81bc 4c77 023d 1b33 283c 6f5d 1ebd
00000380: 9c24 683d a14d df3d f921 88be 0f6f ddbe
00000390: 37f2 6a3c 7614 6cbb f9d1 bcbd 29c6 13bc
000003a0: bfb9 c2bd e6db a7be cc92 5cbd 72f0 813d
000003b0: b2bd 003e b849 38be 9e13 01be 7c02 5dbe
000003c0: aedb 40be 1de1 893d 1b14 28be d1b0 8b3d
000003d0: 036f f23d 048c 1c3d 1261 143e 2c14 6abd
000003e0: 5782 753a 241f ab3b 5eb8 44bd 3976 b0bc
000003f0: be04 ab3d 5890 893e c06c 32be 8e1a 6abe

l1.bias f4 [400]
-0.038609557 -0.23941246 -0.072368324 0.19532056 0.17637226 0.046009522 0.061072048 0.18241401
0.1764427 0.10632103 0.030835977 0.19071454 0.11795373 -0.026953459 -0.10112518 -0.01586236
-0.097036205 0.15281206 -0.079604775 -0.018823704 -0.14159371 -0.008165321 0.14294547 0.039450083
0.047772717 -0.12460501 0.001267091 0.1616134 0.023624 0.013921534 -0.23794122 0.26590392
0.12605093 -0.05853338 -0.08289857 -0.22707397 0.1253461 -0.12094703 0.16183501 -0.19236629
0.15224198 -0.20203032 0.015960133 -0.0043713334 0.08280275 0.043833558 0.10235455 0.15751205
0.18431087 -0.065583535 0.24736148 -0.1406762 -0.077291735 0.19647199 -0.17422695 0.16726846
0.037506152 0.17808278 -0.011629454 0.061029203 -0.07773487 -0.15919733 0.14120027 -0.19361688
0.023856692 -0.004253212 0.02789668 -0.09637387 -0.20067033 -0.19868816 0.08854163 0.2271382
-0.028527949 0.04000364 0.07492508 -0.015142129 -0.06359107 0.011375927 -0.0037643462 -0.047397237
0.07191563 0.121746905 0.075623624 0.16603877 -0.10059507 0.0064045857 0.0877872 -0.049079113
-0.05171723 0.094616205 -0.03594564 0.22987235 -0.10780471 0.0013525899 -0.12253669 0.0843038
0.07054398 -0.08377292 0.13589826 0.14278735 0.0068758167 0.25151458 -0.05566376 0.01750626
0.13895693 -0.19501674 -0.15129396 0.054229118 0.18390992 -0.007883605 -0.091910794 -0.29089516
0.18334754 -0.00454331 -0.18751305 0.011419814 0.072111234 0.1543775 -0.16080812 -0.24729757
-0.0941824 -0.016391883 0.16199441 -0.0012956924 0.18769258 0.21903482 -0.024616059 -0.23574695
0.19861768 0.11364618 0.13584279 0.06794512 -0.10029763 -0.13665256 0.16123633 -0.070069395
0.027625997 -0.04705788 -0.00748861 0.039498653 0.086280726 0.16872925 0.20791097 -0.055852138
0.043399993 0.123821124 -0.042809114 0.12739879 -0.179646 0.21155953 -0.14686348 0.03463345
0.13190131 0.045701016 -0.095540024 0.055382773 -0.09696067 0.14481814 0.13777441 0.03585412
0.085052036 0.083670415 0.11525425 0.033257082 -0.031475052 -0.032036364 -0.086848766 0.06950199
0.12725419 -0.15712571 0.07385081 0.06819214 0.29295582 0.010276144 -0.04463826 0.26641744
-0.06748872 0.056552015 -0.0005535267 -0.21946837 0.10424011 0.22551925 0.2688196 0.24159071
0.26072827 0.11025166 -0.098988146 0.07772902 -0.19110942 0.04818868 -0.058785748 0.1379495
-0.104096085 -0.08522834 -0.17340161 -0.1201492 0.021004831 0.0039422824 -0.15979964 0.1099577
-0.008361501 -0.10975379 -0.040898312 0.1693245 0.19444098 -0.17821908 0.04775017 0.012194776
0.14521995 0.13337502 -0.20908195 0.100531384 0.023648664 -0.08830544 0.23532435 -0.011482423
-0.069746695 -0.13286188 -0.03958154 -0.085457414 -0.0023869218 0.030706394 0.1273087 -0.17566422
-0.16165802 0.19490159 0.16225083 0.06907364 0.08123619 0.20384832 -0.116569795 0.122480564
-0.12751162 0.17014703 0.0004315074 -0.016937187 -0.08718895 0.069178686 0.02304763 0.12520523
0.017414995 0.11722958 -0.13329369 -0.0014728602 -0.10653451 -0.10398373 0.13093577 -0.060371555
0.11821675 0.13263793 -0.0058119325 -0.019694226 -0.09496127 -0.09008758 -0.10055753 -0.07773958
00000000: 0e25 1ebd 8a28 75be d835 94bd 1d02 483e
00000010: ee9a 343e 7b74 3c3d af26 7a3d bdca 3a3e
00000020: 65ad 343e d7be d93d bb9b fc3c ac4a 433e
00000030: ba91 f13d 80cd dcbc b81a cfbd c8f1 81bc
00000040: ebba c6bd c47a 1c3e d407 a3bd 2b34 9abc
00000050: f1fd 10be d7c7 05bc 4c60 123e 6996 213d
00000060: 53ad 433d e930 ffbd 8514 a63a fc7d 253e
00000070: 1e87 c13c 2517 643c dda6 73be 8f24 883e
00000080: 7f13 013e b3c0 6fbd bac6 a9bd 1486 68be
00000090: ba5a 003e 14b3 f7bd 14b8 253e abfb 44be
000000a0: 52e5 1b3e 09e1 4ebe d3be 823c 673d 8fbb
000000b0: 7d94 a93d d18a 333d 439f d13d d74a 213e
000000c0: fdbb 3c3e a950 86bd 544c 7d3e 6c0d 10be
000000d0: 214b 9ebd f42f 493e 8d68 32be 6c48 2b3e
000000e0: 0da0 193d 555b 363e 7789 3ebc c2f9 793d
000000f0: 7633 9fbd a004 23be ce96 103e 8143 46be
00000100: 1c6f c33c 875e 8bbb 9487 e43c aa5f c5bd
00000110: 867c 4dbe e974 4bbe 5055 b53d eb96 683e
00000120: 72b3 e9bc dbda 233d 5272 993d b116 78bc
00000130: 093c 82bd 1962 3a3c 40b3 76bb 9b23 42bd
00000140: 8048 933d 7156 f93d 8fe0 9a3d 1106 2a3e
00000150: ca04 cebd 8fdd d13b c7c9 b33d 2e07 49bd
00000160: 72d5 53bd 24c6 c13d bc3b 13bd a863 6b3e
00000170: b7c8 dcbd 6349 b13a 84f4 fabd 78a7 ac3d
00000180: 5d79 903d 2391 abbd ea28 0b3e d936 123e
00000190: 884e e13b 85c6 803e afff 63bd 4a69 8f3c
000001a0: ba4a 0e3e 78b2 47be ceec 1abe 5a1f 5e3d
000001b0: e252 3c3e 3c2a 01bc ba3b bcbd 36f0 94be
000001c0: 75bf 3b3e 0ce0 94bb 6c03 40be 2c1a 3b3c
000001d0: 0eaf 933d 2315 1e3e e2aa 24be 933b 7dbe
000001e0: b4e2 c0bd 4548 86bc dde1 253e 39d4 a9ba
000001f0: 7c32 403e aa4a 603e 9ea7 c9bc a667 71be
00000200: 6f62 4b3e 54bf e83d 5f1a 0b3e d026 8b3d
00000210: d868 cdbd a6ee 0bbe 231b 253e 8b80 8fbd
00000220: ea4f e23c c3bf 40bd 0463 f5bb 57c9 213d
00000230: f3b3 b03d 5cc7 2c3e 9de6 543e 36c5 64bd
00000240: 31c4 313d ee95 fd3d 9c58 2fbd d474 023e
00000250: 1ff5 37be 10a3 583e 6163 16be cedb 0d3d
00000260: 2311 073e fd30 3b3d 7daa c3bd 0cd9 623d
00000270: 5193 c6bd 354b 143e bc14 0d3e c5db 123d
00000280: c32f ae3d 655b ab3d 6c0a ec3d 9438 083d
00000290: fceb 00bd 9038 03bd c4dd b1bd 0f57 8e3d
000002a0: ec4e 023e 90e5 20be 183f 973d 52a8 8b3d
000002b0: 4efe 953e 465d 283c 9cd6 36bd de67 883e
000002c0: 8737 8abd 16a3 673d 8c1a 11ba 51bc 60be
000002d0: d77b d53d 85ee 663e b9a2 893e 8e63 773e
000002e0: 2d7e 853e 9fcb e13d 4cba cabd 6430 9f3d
000002f0: 30b2 43be 7e61 453d 53c9 70bd a242 0d3e
00000300: 5430 d5bd 328c aebd 3190 31be c910 f6bd
00000310: 5312 ac3c 432e 813b 84a2 23be 8131 e13d
00000320: adfe 08bc 98c6 e0bd fd84 27bd 6763 2d3e
00000330: 891b 473e 107f 36be af95 433d 99cc 473c
00000340: 8ab4 143e 7693 083e 9419 56be 66e3 cd3d
00000350: d8ba c13c 7cd9 b4bd def8 703e c620 3cbc
00000360: 5bd7 8ebd f20c 08be 4120 22bd 4c04 afbd
00000370: e76d 1cbb fa8b fb3c 365d 023e 52e1 33be
00000380: ae89 25be 4894 473e 1525 263e 7b76 8d3d
00000390: 295f a63d 9dbd 503e 25bc eebd 17d7 fa3d
000003a0: 6892 02be 063b 2e3e f13b e239 dbbf 8abc
000003b0: 1f90 b2bd 8ead 8d3d 62ce bc3c cd35 003e
000003c0: e4a9 8e3c 1016 f03d 247e 08be fd0c c1ba
000003d0: c42e dabd 6cf5 d4bd 0714 063e 2a48 77bd
000003e0: a01b f23d 3dd2 073e 0672 bebb c955 a1bc
000003f0: 0e7b c2bd d67f b8bd 1bf1 cdbd ee35 9fbd

l2.weight f4 [300, 400]
0.010313058 0.031893007 0.0018690911 -0.005149775 0.024787435 -0.043116797 -0.02002277 -0.014794718
-0.048605 0.004837425 0.00273567 -0.017852943 -0.020200534 0.01052301 0.0043533556 0.0001195939
-0.017919797 -0.0056427713 0.027205708 0.03547275 -0.0134217935 -0.012992053 0.03464261 0.033113245
-0.04412141 -0.013036936 -0.005919502 -0.006212069 0.019070428 0.015902895 -0.046110697 -0.04739309
-0.03083125 0.03153087 0.0095097115 0.0016160011 -0.00056336646 -0.0718091 -0.053499337 0.035295125
-0.041411217 0.04433046 -0.02969684 0.039152574 -0.040474787 -0.018968357 0.015983434 -0.021827755
-0.047900867 0.021711508 -0.04411507 -0.01968122 -0.034198947 0.015304879 -0.019352674 -0.01951943
-0.0101549495 0.016114766 0.0049426286 -0.018637754 0.0065579535 0.02862816 0.039871145 -0.014080133
-0.022347072 -0.028697824 -0.025483109 0.03267597 0.0033950242 0.0053386986 -0.033612862 -0.021552555
0.0088292835 -0.011698129 0.03197818 0.008640986 0.0065272567 0.03633769 -0.045301292 -0.011719383
0.02178429 -0.02678585 0.003044881 -0.002437871 -0.031395055 -0.028734064 -0.029843139 0.012248977
0.049640406 -0.008536157 0.016085222 -0.005560588 -0.030659152 0.042093307 -0.0267914 0.042941447
-0.039014705 0.027247416 0.019928876 -0.019245338 -0.049910773 -0.010387433 -0.03153644 0.0062839873
0.014317819 -0.04244842 -0.034884706 -0.013276525 -0.0096929725 -0.042945303 0.009100539 -0.041235548
-0.03631047 0.01902232 0.013931584 -0.0489829 -0.05241364 -0.011100071 -0.06057602 0.034307454
-0.0066026533 0.009991 0.024108466 0.018634683 0.023541678 -0.012532727 -0.006474953 -0.023194036
-0.04210215 -0.04114159 0.018596498 0.024547677 -0.006901013 -0.049747646 0.013874701 -0.04433351
-0.038473472 0.034949243 0.0010006916 -0.026021993 0.02952926 -0.022064343 0.024364121 -0.046630114
-0.034503046 0.0121438075 0.04286273 -0.029015725 0.00817694 -0.027363228 0.044366475 0.02544043
-0.014675039 0.045096207 -0.027761988 -0.0020551626 -0.041444954 0.037370697 0.00755397 0.020133877
0.029632756 -0.03347816 -0.04581502 0.023813898 0.002858536 -0.0052206316 0.011137471 0.032408006
-0.042347055 0.019916486 -0.005566575 0.0076671764 -0.019273503 -0.016238315 0.011135585 0.04262184
0.037469868 -0.0378666 -0.005565025 0.00027943254 -0.026275624 -0.010097609 -0.039260674 -0.04788108
0.02342024 0.03851746 -0.040695038 -0.062223297 0.028396767 0.022784222 -0.02538748 0.05292788
0.03458725 0.016610876 0.025783565 0.011941001 -0.008499938 -0.0050305435 0.018937068 -0.036334623
0.015866721 0.03892081 -0.013905317 -0.011186127 -0.001322101 -0.029851045 -0.017875753 -0.024533352
-0.06353323 -0.017616281 0.03655598 0.015491182 -0.0480403 0.0044256863 0.018499289 0.014562704
0.0022361882 0.03035364 -0.02136283 0.018267108 0.011066329 -0.021474762 0.022704583 0.028725853
0.029705158 -0.02662267 0.0053994246 0.02225297 0.024066234 0.013821117 0.01864523 -0.0402768
0.04573903 -0.0075281924 -0.010493092 0.03368462 -0.012303791 -0.00039215977 -0.00079677487 -0.017052114
0.01576526 0.011679398 0.04804531 -0.0023015812 -0.047432162 0.0020925328 -0.046944547 0.03478968
-0.04223808 -0.024165928 -0.018630164 -0.04996136 0.045824885 0.01706979 0.003268191 -0.001726795
00000000: 1af8 283c 3ea2 023d 4afc f43a 72bf a8bb
00000010: 050f cb3c 3d9b 30bd cb06 a4bc 8b65 72bc
00000020: 0916 47bd 4383 9e3b ed48 333b 5640 92bc
00000030: 977b a5bc b468 2c3c 98a6 8e3b 7cce fa38
00000040: 8acc 92bc ffe6 b8bb 81de de3c e04b 113d
00000050: 15e7 5bbc 9fdc 54bc 69e5 0d3d c1a1 073d
00000060: a7b8 34bd df98 55bc 62f8 c1bb 9d8e cbbb
00000070: 9639 9c3c ca46 823c 92de 3cbd 421f 42bd
00000080: d191 fcbc 8326 013d 9fce 1b3c 00d0 d33a
00000090: e2ae 13ba a610 93bd 1f22 5bbd 9f91 103d
000000a0: cf9e 29bd db93 353d ca46 f3bc 735e 203d
000000b0: e4c8 25bd 8763 9bbc b1ef 823c 1fd0 b2bc
000000c0: b333 44bd 55dc b13c 01b2 34bd 833a a1bc
000000d0: 3214 0cbd 51c1 7a3c 8089 9ebc 36e7 9fbc
000000e0: f260 26bc 1d03 843c c6f5 a13b 34ae 98bc
000000f0: 1ae4 d63b 9a85 ea3c ed4f 233d 5cb0 66bc
00000100: 3511 b7bc b317 ebbc f4c1 d0bc 3dd7 053d
00000110: 0e7f 5e3b 40f0 ae3b a4ad 09bd fc8e b0bc
00000120: b3a8 103c 82a9 3fbc 8dfb 023d ec92 0d3c
00000130: 99e2 d53b d4d6 143d d98d 39bd a802 40bc
00000140: f874 b23c 006e dbbc a08c 473b b0c4 1fbb
00000150: 1a98 00bd b363 ebbc 9979 f4bc efaf 483c
00000160: bd53 4b3d 3ddb 0bbc 28c5 833c 9835 b6bb
00000170: e728 fbbc 086a 2c3d a379 dbbc 5fe3 2f3d
00000180: e2cd 1fbd f935 df3c e241 a33c 66a8 9dbc
00000190: 3d6f 4cbd 0d30 2abc 5b2c 01bd e8e9 cd3b
000001a0: 4995 6a3c 65de 2dbd 44e3 0ebd c885 59bc
000001b0: 46cf 1ebc 6ae7 2fbd 6d1a 153c 9be6 28bd
000001c0: 4aba 14bd b2d4 9b3c 4c41 643c 4ba2 48bd
000001d0: afaf 56bd 12dd 35bc 901e 78bd f985 0c3d
000001e0: 125b d8bb 4bb1 233c 1e7f c53c c3a7 983c
000001f0: 7ada c03c 1156 4dbc d82b d4bb 6b01 bebc
00000200: 4e73 2cbd 1584 28bd af57 983c 3618 c93c
00000210: e521 e2bb 30c4 4bbd b752 633c 0e97 35bd
00000220: 5c96 1dbd f026 0f3d a329 833a 132c d5bc
00000230: 59e7 f13c 48c0 b4bc 4497 c73c 38ff 3ebd
00000240: 1153 0dbd d2f6 463c d490 2f3d 63b2 edbc
00000250: 92f8 053c d928 e0bc 9fb9 353d 7368 d03c
00000260: 936f 70bc cdb6 383d 1c6d e3bc e8af 06bb
00000270: 2fc2 29bd 0412 193d 4b87 f73b cdef a43c
00000280: 65c0 f23c 6520 09bd 88a8 3bbd 5d15 c33c
00000290: 4756 3b3b d511 abbb f079 363c 42be 043d
000002a0: 1b74 2dbd e627 a33c d167 b6bb f03c fb3b
000002b0: 77e3 9dbc 3706 85bc 0772 363c 3d94 2e3d
000002c0: 017a 193d 021a 1bbd d05a b6bb cd80 9239
000002d0: fa3f d7bc 7170 25bc cdcf 20bd f41e 44bd
000002e0: cedb bf3c 7cc4 1d3d d7af 26bd dbdd 7ebd
000002f0: 56a0 e83c faa5 ba3c 68f9 cfbc e8ca 583d
00000300: 5cab 0d3d 8813 883c 0e38 d33c 30a4 433c
00000310: 5343 0bbc 42d7 a4bb e921 9b3c 9dd3 14bd
00000320: edfa 813c 6d6b 1f3d 20d3 63bc 0446 37bc
00000330: 594a adba 2e8a f4bc 2c70 92bc 2bfa c8bc
00000340: b61d 82bd 0550 90bc b9bb 153d bace 7d3c
00000350: e8c5 44bd 5905 913b d28b 973c 6898 6e3c
00000360: 038d 123b 32a8 f83c 1a01 afbc e7a4 953c
00000370: 8c4f 353c d7eb afbc f6fe b93c 7b52 eb3c
00000380: 3b58 f33c c917 dabc a8ed b03b dc4b b63c
00000390: 8d26 c53c f771 623c e2bd 983c 49f9 24bd
000003a0: d958 3b3d 0eaf f6bb 38eb 2bbc e2f8 093d
000003b0: d795 49bc cb9a cdb9 a8de 50ba e0b0 8bbc
000003c0: 2626 813c f25a 3f3c 29cb 443d 20d6 16bb
000003d0: 3a48 42bd e022 093b ed48 40bd a07f 0e3d
000003e0: d601 2dbd a0f7 c5bc 499e 98bc 48a4 4cbd
000003f0: e0b2 3b3d f2d5 8b3c 252f 563b a055 e2ba

l2.bias f4 [300]
-0.012972152 0.07234399 0.028375443 -0.06354079 0.00090906274 -0.04912788 -0.045611635 -0.0063652038
-0.0085403975 0.13905127 0.14239754 0.11398518 0.11090174 -0.0073835147 -0.108720765 -0.023789037
0.103629336 0.07009447 0.07505523 0.17239144 -0.064179175 0.028084194 0.08326748 -0.046261713
-0.088647865 0.046256896 0.0031649019 0.082405396 -0.07946029 0.060262267 0.050597098 -0.011640707
-0.015090474 -0.09177421 -0.012430786 0.01818718 0.13040219 0.04741924 0.16377266 0.13869177
0.0010445721 0.050004896 -0.0024427979 0.010740316 0.026160266 0.015405813 -0.048796657 -0.05766902
0.008207682 0.1211676 -0.015249873 0.09300276 0.17096744 0.14791845 -0.051277492 -0.020645112
0.10138894 0.087630376 -0.003181827 0.19485289 0.061353628 -0.059246812 0.018618938 0.07331148
0.025701202 0.1381845 -0.105701566 -0.03448885 0.01708501 0.09972958 -0.058534443 -0.057854313
0.08520708 0.09743542 0.02014681 0.07896369 -0.041137077 -0.010184695 -0.14529452 -0.03552845
-0.073589236 -0.07761957 0.024958342 0.005960377 0.16217217 0.10056858 -0.04232529 0.09853541
0.02360738 -0.11984833 0.13791947 -0.05175034 -0.01031198 -0.020470478 0.14481077 0.14347978
0.077994294 0.08698644 0.090043604 -0.006860953 0.1392188 0.10548484 0.05331716 0.13906066
0.10031656 -0.025693115 -0.01611708 0.10935328 0.054519113 0.27458176 0.009587142 -0.021079004
0.08008062 0.008227841 0.018534433 -0.007281527 0.0031337163 -0.034737732 -0.026448902 0.11764408
-0.033262823 -0.053069863 0.04768044 0.08809461 -0.05839748 0.27464724 -0.014922018 -0.05527055
-0.027483637 0.16713957 -0.05524139 0.012427006 -0.016689477 0.14301933 -0.035122395 0.14032613
0.0066447654 -0.020936642 0.14066273 0.014108678 -0.018856036 -0.0038919915 0.100227945 -0.025154067
-0.06277336 0.109099165 0.024417462 0.13540532 -0.01850616 0.13532309 0.10696101 -0.016896503
-0.0019855276 0.15845358 0.13442758 0.10893397 0.011727058 0.06384587 0.025709901 -0.038834028
0.07836091 0.034575183 -0.06752086 -0.01118963 -0.040111795 0.05906425 0.012968721 -0.057247315
0.15414694 0.15527482 0.16400276 0.0898127 0.11333006 0.010669421 -0.019613953 0.16677576
-0.042708248 0.17050862 -0.052197304 -0.053266574 0.08844995 0.1336594 0.099693984 -0.08270327
0.068074 0.063439794 0.2319104 0.08954528 -0.030540092 0.144841 -0.059239518 -0.016082486
0.14344819 -0.21424903 -0.0463968 0.08017838 0.1044449 0.017869307 0.007709406 -0.021694237
-0.06339288 -0.03516695 0.0716831 -0.014976265 0.14549613 0.17618063 -0.020160869 0.12465467
0.037158173 0.120128855 0.009112033 0.07596499 -0.031505212 0.12457698 -0.041311614 -0.057841074
0.009454703 0.07583449 -0.008743296 0.060702045 -0.07605978 -0.038024787 0.12380285 -0.03402823
-0.005369618 0.13227148 -0.027723717 -0.050552733 -0.0120983 0.1081164 0.0014696488 0.14162453
-0.006985841 0.11321248 0.06422592 0.00075517216 -0.010002065 -0.010694839 0.080358535 -0.043853473
0.022169936 0.15873736 0.055789888 0.018524187 -0.0016797327 -0.048247624 0.0017370656 -0.04986709
0.16934854 -0.04332468 0.013232432 0.116368316 0.11318925 -0.02766353 0.1538799 0.11934426
00000000: 2689 54bc 1629 943d 9e73 e83c ac21 82bd
00000010: 2b4e 6e3a 513a 49bd 44d3 3abd 3393 d0bb
00000020: 06ed 0bbc 7563 0e3e a9d0 113e 1071 e93d
00000030: 7420 e33d 69f1 f1bb fea8 debd 3ae1 c2bc
00000040: 9e3b d43d b18d 8f3d 8eb6 993d 6287 303e
00000050: 5f70 83bd d310 e63c 2488 aa3d ec7c 3dbd
00000060: 038d b5bd df77 3d3d 3e6a 4f3b 29c4 a83d
00000070: 14bc a2bd 91d5 763d e73e 4f3d aab8 3ebc
00000080: 093e 77bc 1ef4 bbbd 7faa 4bbc 48fd 943c
00000090: 2788 053e ad3a 423d 05b4 273e 3705 0e3e
000000a0: 06ea 883a efd1 4c3d 5917 20bb 26f8 2f3c
000000b0: 0e4e d63c aa68 7c3c 01df 47bd 5a36 6cbd
000000c0: 8379 063c b826 f83d 9ada 79bc 3b78 be3d
000000d0: 1712 2f3e ef77 173e 5908 52bd f01f a9bc
000000e0: 01a5 cf3d 8e77 b33d 3386 50bb 8487 473e
000000f0: f14d 7b3d c9ac 72bd be86 983c 5424 963d
00000100: 548b d23c 3d80 0d3e 107a d8bd 2e44 0dbd
00000110: ddf5 8b3c 063f cc3d d0c1 6fbd a5f8 6cbd
00000120: 0d81 ae3d 398c c73d ec0a a53c b7b7 a13d
00000130: 5a7f 28bd b5dd 26bc 16c8 14be 4886 11bd
00000140: f4b5 96bd 02f7 9ebd 7075 cc3c 444f c33b
00000150: 7610 263e e6f6 cd3d 495d 2dbd efcc c93d
00000160: 4464 c13c 0b73 f5bd c33a 0d3e 2af8 53bd
00000170: 94f3 28bc b4b1 a7bc 4649 143e 5dec 123e
00000180: 79bb 9f3d f225 b23d c868 b83d d8d1 e0bb
00000190: 608f 0e3e 7008 d83d 1863 5a3d eb65 0e3e
000001a0: c572 cd3d 5e7a d2bc f707 84bc 9df4 df3d
000001b0: 6f4f 5f3d fb95 8c3e 6313 1d3c e0ad acbc
000001c0: 4f01 a43d 11ce 063c 86d5 973c e099 eebb
000001d0: 095f 4d3b 2749 0ebd 5eab d8bc 61ef f03d
000001e0: 993e 08bd c95f 59bd 914c 433d f26a b43d
000001f0: 3232 6fbd 909e 8c3e 7b7b 74bc 5f63 62bd
00000200: 5d25 e1bc a326 2b3e cc44 62bd a49a 4b3c
00000210: 5fb8 88bc a973 123e 80dc 0fbd a7b1 0f3e
00000220: 55bc d93b 5283 abbc e409 103e 1628 673c
00000230: f977 9abc c810 7fbb 4f44 cd3d e70f cebc
00000240: 528f 80bd 626f df3d 2107 c83c b1a7 0a3e
00000250: 3b9a 97bc 2392 0a3e 600e db3d 896a 8abc
00000260: a01f 02bb a841 223e 62a7 093e c618 df3d
00000270: d922 403c a0c1 823d 929d d23c 6e10 1fbd
00000280: af7b a03d b59e 0d3d 6048 8abd b654 37bc
00000290: 444c 24bd 5bed 713d c27a 543c 297c 6abd
000002a0: b2d8 1d3e 5d00 1f3e 57f0 273e b9ef b73d
000002b0: 9719 e83d ccce 2e3c 71ad a0bc 44c7 2a3e
000002c0: d8ee 2ebd d099 2e3e d7cc 55bd 0d2e 5abd
000002d0: 3f25 b53d 02de 083e 5c2c cc3d 5560 a9bd
000002e0: 626a 8b3d b9ec 813d eb79 6d3e 8463 b73d
000002f0: 372f fabc 3351 143e 23a5 72bd 6bbf 83bc
00000300: 15e4 123e 1964 5bbe 920a 3ebd 9034 a43d
00000310: 35e7 d53d a762 923c 2f9f fc3b 1db8 b1bc
00000320: 20d4 81bd 380b 10bd 97ce 923d 025f 75bc
00000330: f0fc 143e b268 343e 6828 a5bc f34a ff3d
00000340: 2b33 183d 1e06 f63d a34a 153c 8893 9b3d
00000350: 9c0b 01bd 3722 ff3d 5e36 29bd c3ea 6cbd
00000360: e6e7 1a3c 1d4f 9b3d 0b40 0fbc b5a2 783d
00000370: 3bc5 9bbd e1bf 1bbd 598c fd3d 2f61 0bbd
00000380: 9ff3 afbb 2d72 073e d91c e3bc 6210 4fbd
00000390: f337 46bc 226c dd3d 3ba1 c03a 0506 113e
000003a0: 7be9 e4bb f2db e73d e188 833d bff6 453a
000003b0: b4df 23bc 6839 2fbc 0493 a43d b39f 33bd
000003c0: ba9d b53c 0c8c 223e f083 643d 09c0 973c
000003d0: 7a2a dcba 4d9f 45bd 40ae e33a 6f41 4cbd
000003e0: b469 2d3e 3875 31bd d8cc 583c 8352 ee3d
000003f0: c4cf e73d a19e e2bc b192 1d3e c36a f43d

l3.weight f4 [1, 300]
0.0043311394 -0.09036847 0.0009978669 0.016746523 0.029809823 0.0128900595 0.039667323 -0.00013628413
0.0144932335 -0.15367062 -0.10634711 -0.16133131 -0.15839638 0.030938286 0.0009837359 0.047283743
-0.06322792 -0.15944242 -0.14866504 -0.25940076 0.022613427 0.043211643 -0.06366815 0.03218603
-0.00910531 -0.1655013 0.021489682 -0.11406621 0.0030746483 -0.16783163 -0.1367465 0.018027484
0.0050561028 -0.009051541 -0.0439535 0.0003456071 -0.1097652 -0.13723369 -0.08694115 -0.10839556
-0.0013235088 -0.0039698305 0.008571285 0.003687158 0.02443721 -0.0013838172 0.008471476 -0.006558676
-0.002313585 -0.1524533 0.027630003 -0.14826508 -0.08484849 -0.14754523 0.041344274 -0.014035686
-0.14314434 -0.13564274 0.009693101 -0.23220007 -0.15117072 0.007532349 0.018581089 -0.17840967
-0.19263045 -0.08574527 2.0251391e-05 0.0033448674 0.0043920516 -0.12580907 -0.04164143 -0.0073653264
-0.10425666 -0.08533489 -0.040483065 -0.14406268 0.0071547814 0.008146095 0.21752469 0.014340618
0.044539385 0.07932287 0.022181552 0.0030122397 -0.1104343 -0.1561094 -0.01274966 -0.11479312
-0.14317104 -0.08456366 -0.16831641 0.013081599 -0.0081248125 0.012934674 -0.16723345 -0.123280585
0.07635976 -0.15916657 -0.15335803 -0.035161745 -0.1306813 -0.12757325 -0.16875525 -0.15456854
-0.1367547 -0.00028677515 -0.16385555 -0.15527043 -0.13314109 -0.19843757 -0.13067721 0.0028914087
-0.12009882 0.043299995 -0.0042993743 -0.16204049 -0.0042080088 0.0073532076 -0.006491935 -0.1668276
0.01763001 -0.02885851 -0.15711711 -0.16242051 0.008021983 -0.16941835 0.015854342 0.026245287
-0.0018659417 -0.100965574 0.025012178 0.015072919 0.023055116 -0.16038024 0.035867553 -0.087626316
0.032831784 0.028195163 -0.14681272 0.024655098 0.04264377 0.06280834 -0.12541263 0.008921125
-0.006886954 -0.1577595 -0.02724013 -0.102557346 -0.010613059 -0.103600316 -0.16191044 0.042614616
0.020078758 -0.2300822 -0.116597734 -0.11762863 0.013877367 -0.14210647 -0.006535801 0.03962065
-0.15331714 0.05884811 0.014737272 0.016870182 -0.006034469 -0.12701254 -0.16411862 0.03753523
-0.12298251 -0.07276627 -0.093296 -0.12113776 -0.13559683 0.0086272 0.01173107 -0.06442059
0.0014908538 -0.087240055 -0.043287303 0.002976066 -0.16701622 -0.14500678 -0.1675314 0.0123815155
-0.13339458 -0.16647567 -0.15165344 -0.15692507 0.0024474587 -0.06901199 -0.017623374 0.031873368
-0.12970851 0.14781009 0.0082102455 -0.10510826 -0.10363885 0.042082086 -0.0035976593 -0.008263008
-0.0055830018 0.036510013 -0.14886796 0.025446532 -0.16760455 -0.09048642 -0.019555451 -0.13946342
0.01087843 -0.1109097 0.002937273 -0.16080913 0.019851383 -0.13776414 0.038257323 -0.004518964
0.03721081 -0.04719281 0.030536944 -0.16449188 -0.006107605 0.015836364 -0.08093617 -0.16217935
-0.000116154406 -0.14808267 -0.006548216 -0.0075871255 0.009444206 -0.1627483 -0.14690962 -0.15635002
-0.047192816 -0.10575048 -0.10869398 0.029165473 0.022065654 0.0076436223 -0.1294142 0.008671915
0.006698195 -0.12907529 -0.14470702 0.017384151 0.011533032 0.0116804615 0.00039164518 -0.14976089
-0.10704616 0.013653182 0.024281949 -0.13273689 -0.16708396 -0.017581692 -0.09072399 -0.11804306
00000000: 3bec 8d3b 1b13 b9bd dbca 823a 0130 893c
00000010: bb33 f43c d430 533c 347a 223d 7ee7 0eb9
00000020: 0775 6d3c d55b 1dbe 83cc d9bd 0934 25be
00000030: a932 22be 4a72 fd3c b3f0 803a 99ac 413d
00000040: a47d 81bd e044 23be a63b 18be 2dd0 84be
00000050: cb3f b93c b1fe 303d 7264 82bd 80d5 033d
00000060: 702e 15bc 2c79 29be 210b b03c 8c9b e9bd
00000070: 0a80 493b 0edc 2bbe 4607 0cbe 60ae 933c
00000080: aaad a53b ea4c 14bc 9608 34bd 9a32 b539
00000090: 94cc e0bd fd86 0cbe 340e b2bd 7efe ddbd
000000a0: 9679 adba 5a15 82bb 936e 0c3c 3fa4 713b
000000b0: 8b30 c83c 3361 b5ba f2cb 0a3c 29ea d6bb
000000c0: 849f 17bb b81c 1cbe 5158 e23c cdd2 17be
000000d0: 0cc5 adbd 1916 17be 9d58 293d eff5 65bc
000000e0: 6e94 12be eee5 0abe d0cf 1e3c dbc5 6dbe
000000f0: 7fcc 1abe ecd1 f63b 5e37 983c 06b1 36be
00000100: eb40 45be 379b afbd 88e1 a937 9035 5b3b
00000110: 33eb 8f3b 18d4 00be 3490 2abd d658 f1bb
00000120: 8484 d5bd 0fc4 aebd 92d1 25bd 2b85 13be
00000130: a872 ea3b 3377 053c cbbe 5e3e e9f4 6a3c
00000140: ee6e 363d 0774 a23d 16b6 b53c ff68 453b
00000150: 612b e2bd 24db 1fbe f3e3 50bc a818 ebbd
00000160: 6e9b 12be b62f adbd 235b 2cbe 3454 563c
00000170: ef1d 05bc f4eb 533c 3f3f 2bbe 887a fcbd
00000180: 8162 9c3d 90fc 22be e309 1dbe c305 10bd
00000190: 52d1 05be 90a2 02be 2dce 2cbe 3747 1ebe
000001a0: 6d09 0cbe 4f5a 96b9 c0c9 27be 36ff 1ebe
000001b0: 2356 08be 3833 4bbe 3fd0 05be ca7d 3d3b
000001c0: 5ff6 f5bd 565b 313d c4e1 8cbb f1ed 25be
000001d0: 56e3 89bb 2df3 f03b 4cba d4bb dbd4 2abe
000001e0: d06c 903c af68 ecbc 4fe3 20be 9051 26be
000001f0: a36e 033c 017c 2dbe f7e0 813c 5b00 d73c
00000200: 9d92 f4ba 0ac7 cebd 57e6 cc3c 68f4 763c
00000210: 15de bc3c b83a 24be dbe9 123d 6d75 b3bd
00000220: 9f7a 063d 8bf9 e63c 1356 16be 7df9 c93c
00000230: 3cab 2e3d a9a1 803d 2b6c 00be e929 123c
00000240: f5ab e1bb b58b 21be b126 dfbc 9609 d2bd
00000250: 65e2 2dbc 672c d4bd dacb 25be aa8c 2e3d
00000260: 357c a43c ab9a 6bbe cbca eebd 47e7 f0bd
00000270: e55d 633c 5c84 11be 462a d6bb 4349 223d
00000280: 2bff 1cbe b70a 713d 9974 713c 5633 8a3c
00000290: ccbc c5bb 930f 02be b60e 28be 8bbe 193d
000002a0: 41de fbbd 7b06 95bd f911 bfbd 1317 f8bd
000002b0: e5d9 0abe 1959 0d3c ac33 403c f1ee 83bd
000002c0: c168 c33a eaaa b2bd 074e 31bd 1a0a 433b
000002d0: 4d06 2bbe a87c 14be 5a8d 2bbe d7db 4a3c
000002e0: 9798 08be 9978 2abe 0a4b 1bbe f7b0 20be
000002f0: 8b65 203b 2956 8dbd e55e 90bc a68d 023d
00000300: 4fd2 04be 875b 173e 4484 063c 0043 d7bd
00000310: 9b40 d4bd 445e 2c3d b5c6 6bbb 9161 07bc
00000320: 9df1 b6bb 868b 153d d870 18be 3f75 d03c
00000330: 87a0 2bbe f250 b9bd c132 a0bc 80cf 0ebe
00000340: 713b 323c a024 e3bd 437f 403b 26ab 24be
00000350: 5e9f a23c 0b12 0dbe b6b3 1c3d d113 94bb
00000360: 5d6a 183d 3f4d 41bd 9d28 fa3c 8f70 28be
00000370: 4e22 c8bb 43bb 813c ddc1 a5bd 5812 26be
00000380: ec97 f3b8 fca2 17be 6b92 d6bb 6c9d f8bb
00000390: dfbb 1a3c 7ea7 26be 7a6f 16be 381a 20be
000003a0: 414d 41bd b593 d8bd f39a debd 6eec ee3c
000003b0: 08c3 b43c 5a77 fa3b 2885 04be a614 0e3c
000003c0: 887c db3b 502c 04be 142e 14be 3569 8e3c
000003d0: 0bf5 3c3c 685f 3f3c ba55 cd39 eb5a 19be
000003e0: 043b dbbd 99b1 5f3c f0ea c63c 2eec 07be
000003f0: 0f18 2bbe 7b07 90bc 80cd b9bd 8fc0 f1bd
