TD3/models/second_training_attempt/train_100_episodes_critic_2.pth (torch, 531051 bytes, 5 tensors)

l1.weight f4 [400, 28]
0.08024408 0.20790714 0.11469335 -0.08642765 0.12056997 0.020620303 -0.0003478008 -0.11149626
-0.11338183 -0.074959 -0.043985702 0.0060483855 0.22429572 -0.1227607 0.08661854 0.1591913
-0.017274529 0.12571321 -0.124867454 0.12218936 0.004209558 -0.023055434 0.036436323 0.0037831925
-0.054510288 -0.008349772 -0.087211624 -0.15302543 -0.03901575 0.18809234 -0.18166126 -0.34363803
0.28605732 -0.023330523 -0.009412202 -0.1897896 0.0074002924 0.0479128 0.06932061 0.20619562
0.19543701 -0.25521034 0.12913752 0.18028213 0.15339322 -0.06554285 -0.07690782 0.17816298
0.11264905 -0.13499345 0.22302951 -0.069929674 0.06273787 0.05169 0.11783393 -0.18362308
0.0030834766 -0.004197352 -0.18407749 -0.040563982 0.2709865 -0.19094807 -0.062110785 -0.014798964
-0.03110678 -0.06414125 -0.16021179 0.0049306373 0.13897002 0.03819606 0.036455885 -0.14900535
0.04240181 0.12787819 0.1706382 0.026852185 0.1182567 0.08068344 -0.00020468327 -0.0067445035
-0.11283813 -0.067125686 0.015112261 -0.074817844 0.1507081 -0.085993156 0.06892319 -0.31266874
0.30590042 -0.002020595 -0.1591976 0.025393033 -0.16906546 -0.072801515 -0.07161213 0.020065213
-0.0546749 -0.19039768 0.13168819 -0.093373686 0.028101115 0.17747274 -0.10031219 -0.025862375
-0.06713523 -0.05063988 0.013681927 0.21860808 0.08311536 -0.117169805 -0.055607624 0.12093985
0.09269516 -0.118259266 0.022981528 0.09653337 -0.012118752 0.010439312 -0.19600861 0.20601802
0.0031663922 0.1447396 -0.146336 -0.06584369 0.02558214 0.018283706 0.006860928 -0.08184705
-0.04102077 0.13819344 -0.013730094 -0.120195985 -0.0007692592 0.16473287 0.09679357 -0.11172336
0.30216223 -0.19652495 -0.06581461 -0.028981956 -0.15693189 -0.006055599 0.22683044 -0.10171139
-0.12018067 0.15649524 0.08697211 0.024497246 -0.020719895 0.11343149 0.17352486 0.07227752
-0.0666106 0.019012524 0.04458241 0.12400919 -0.13196579 -0.015650162 -0.049821198 -0.11014005
-0.23750961 -0.18607242 -0.21117955 -0.010783734 -0.0868885 0.1551054 -0.16675855 -0.12147342
0.14087948 0.22897662 -0.20974772 -0.10873673 0.27820224 -0.093836784 -0.12665457 -0.17994809
-0.12315198 0.11627778 -0.123200834 0.10579901 0.06292927 -0.07205808 -0.04035865 0.08871468
0.0075251507 -0.07137931 0.14000644 0.015700461 -0.108432174 -0.12597246 0.13136233 -0.07856105
0.0931391 0.06718789 -0.036766615 0.03787512 0.18152276 0.009187199 -0.1761742 -0.071516216
0.0062379343 0.11993018 0.17030607 0.15977933 -0.13444716 0.19834222 0.03072485 -0.090382054
-0.1265552 0.044730928 0.18557344 0.18202601 0.02630054 0.15426743 -0.12950216 0.024553819
0.07106766 0.056077626 -0.12518135 0.016655674 -0.11727137 0.09518386 -0.051634118 -0.16339584
0.02830149 0.032950763 -0.20054644 -0.22250237 0.1678626 0.029871024 -0.09477841 -0.026226426
-0.11146049 -0.18180701 -0.18260583 0.101138994 0.13881384 -0.06599213 -0.13847812 -0.22830406
-0.200864 0.054674137 -0.1769511 0.05519223 0.105330385 0.024885383 0.1316594 -0.08744024
0.052095067 -0.037401352 -0.07116068 -0.12345881 0.021009918 0.22340107 -0.12263798 -0.10982401
00000000: 0257 a43d 9ce5 543e 59e4 ea3d fb00 b1bd
00000010: 63ed f63d e9eb a83c 0859 b6b9 2758 e4bd
00000020: bc34 e8bd 1b84 99bd 5a2a 34bd 8931 c63b
00000030: c7ad 653e f669 fbbd 1065 b13d 0b03 233e
00000040: 5083 8dbc f7ba 003e 82ba ffbd 6a3e fa3d
00000050: 55f0 893b c0de bcbc 413e 153d 70ef 773b
00000060: 2e46 5fbd 7bcd 08bc 029c b2bd b3b2 1cbe
00000070: fbce 1fbd 479b 403e 6905 3abe 53f1 afbe
00000080: 1b76 923e a71f bfbc a335 1abc 3458 42be
00000090: 277e f23b 3640 443d f7f7 8d3d f224 533e
000000a0: a420 483e eeaa 82be a03c 043e e19b 383e
000000b0: 1d13 1d3e 543b 86bd d981 9dbd 5b70 363e
000000c0: 8cb4 e63d b93b 0abe d961 643e 4a37 8fbd
000000d0: b67c 803d e5b8 533d ea52 f13d b007 3cbe
000000e0: 2714 4a3b f189 89bb cf7e 3cbe 6b26 26bd
000000f0: bebe 8a3e e487 43be e167 7ebd 5b77 72bc
00000100: a5d3 febc 7d5c 83bd 8f0e 24be 2f91 a13b
00000110: 284e 0e3e 7973 1c3d c452 153d dc94 18be
00000120: 85ad 2d3d 80f2 023e c8bb 2e3e 1df9 db3c
00000130: 9230 f23d 5c3d a53d 3fa0 56b9 ff00 ddbb
00000140: ad17 e7bd 3179 89bd 6b99 773c 193a 99bd
00000150: 3953 1a3e 2e1d b0bd 9a27 8d3d 1e16 a0be
00000160: fb9e 9c3e f56b 04bb b204 23be 0d05 d03c
00000170: 7f1f 2dbe f618 95bd 61a9 92bd cd5f a43c
00000180: caf2 5fbd 9cf7 42be 45d9 063e b43a bfbd
00000190: 4f34 e63c 6abb 353e 7a70 cdbd 55dd d3bc
000001a0: 327e 89bd c36b 4fbd 292a 603c ccda 5f3e
000001b0: 6338 aa3d b9f6 efbd d2c4 63bd 50af f73d
000001c0: f6d6 bd3d ea31 f2bd c243 bc3c 4ab3 c53d
000001d0: bb8d 46bc a609 2b3c 7bb6 48be 63f6 523e
000001e0: 3f83 4f3b 9e36 143e 1bd9 15be 0ed9 86bd
000001f0: a391 d13c b6c7 953c a3d1 e03b 6d9f a7bd
00000200: 6505 28bd 9582 0d3e 30f4 60bc 5029 f6bd
00000210: 1ca8 49ba bcaf 283e b53b c63d 38cf e4bd
00000220: 02b5 9a3e d63d 49be cfc9 86bd 916b edbc
00000230: c1b2 20be 0c6e c6bb 3d46 683e 104e d0bd
00000240: 4821 f6bd 4a40 203e 6f1e b23d 73ae c83c
00000250: c5bc a9bc c54e e83d 80b0 313e 3d06 943d
00000260: 236b 88bd 27c0 9b3c 0c9c 363d 88f8 fd3d
00000270: 0a22 07be c534 80bc 5011 4cbd 1b91 e1bd
00000280: b835 73be c589 3ebe 743f 58be 42ae 30bc
00000290: 99f2 b1bd f3d3 1e3e c1c2 2abe 0ec7 f8bd
000002a0: b642 103e d978 6a3e 1bc8 56be 5db1 debd
000002b0: 8670 8e3e 802d c0bd bcb1 01be 5044 38be
000002c0: 1b37 fcbd 0b23 ee3d b850 fcbd 27ad d83d
000002d0: 10e1 803d 3093 93bd 1d4f 25bd 0bb0 b53d
000002e0: 8a95 f63b 512f 92bd d95d 0f3e 419e 803c
000002f0: b011 debd edfe 00be d983 063e 9ee4 a0bd
00000300: b6bf be3d ce99 893d 9798 16bd f122 1b3d
00000310: 1ae1 393e e885 163c 0267 34be 1877 92bd
00000320: 9667 cc3b f49d f53d b764 2e3e 319d 233e
00000330: 84ac 09be 391a 4b3e aeb2 fb3c 3a1a b9bd
00000340: b097 01be c737 373d f706 3e3e 0765 3a3e
00000350: 3b74 d73c 48f8 1d3e 379c 04be 1725 c93c
00000360: ec8b 913d a7b1 653d 8a2f 00be 7b71 883c
00000370: f92b f0bd c1ef c23d 4c7e 53bd 3d51 27be
00000380: 87d8 e73c 61f7 063d 0c5c 4dbe a9d7 63be
00000390: 2ce4 2b3e 14b4 f43c 2f1b c2bd cdd8 d6bc
000003a0: 6645 e4bd 9e2b 3abe 06fd 3abe f621 cf3d
000003b0: 3725 0e3e e226 87bd 35cd 0dbe 8ac8 69be
000003c0: 4baf 4dbe fdf1 5f3d ab32 35be 3f11 623d
000003d0: 75b7 d73d 6edc cb3c b9d1 063e de13 b3bd
000003e0: a361 553d 2932 19bd b1bc 91bd f9d7 fcbd
000003f0: fe1c ac3c 40c3 643e 9f29 fbbd 69eb e0bd

l1.bias f4 [400]
-0.07077184 -0.11274473 -0.016099649 0.16779655 0.1875632 -0.017823758 0.026162006 0.18307568
0.122962795 0.046022598 -0.00041025307 0.17500407 0.07724761 0.09584992 -0.1672358 0.042761937
-0.16802856 0.14261197 -0.025551941 -0.012683334 -0.12835835 0.026847754 0.12620713 0.16189541
-0.02981022 -0.07100463 0.0999142 0.22038831 -0.024160985 -0.02699311 -0.21642143 0.21207081
0.13081463 0.037964225 -0.07833124 -0.19424278 0.03225699 -0.063696615 0.14380592 -0.11391927
0.10783706 -0.13169979 -0.06595172 0.045136776 0.052285295 0.06990608 0.11509183 0.1503791
0.11920542 -0.103756934 0.1936341 -0.019041644 -0.026628662 0.18979904 -0.12845433 0.09208821
0.15587102 0.1759873 -0.062862575 0.0052345046 -0.049203236 -0.14643158 0.096804 -0.101861335
0.027026193 -0.009887841 0.0569096 -0.17365111 -0.1339975 -0.17817213 0.07931928 0.18270606
0.024037674 0.013110395 0.015210003 -0.0324658 -0.07422144 0.09635379 0.0888273 0.0027723738
0.033217493 0.099108815 0.00072227145 0.13587761 -0.036232393 0.12715837 0.117187984 -0.012690768
-0.14380728 0.09009661 -0.07083423 0.17472371 -0.1303747 0.1157087 -0.14118402 0.034749962
0.14462595 -0.10177786 0.088683315 0.13502046 0.055652905 0.20032093 0.05177576 0.10542611
0.17774147 -0.1597068 -0.009953044 0.041422367 0.21144384 0.08930384 -0.018880986 -0.24419098
0.13122605 0.068426386 -0.18751305 0.009563655 0.0067843753 0.13768697 -0.10203896 -0.13278481
-0.11469508 -0.06311234 0.2183997 -0.05003285 0.15709132 0.22385612 0.06839608 -0.19591834
0.16531701 0.07067068 0.118459776 0.028199749 -0.10493037 -0.13329935 0.1277746 0.038899202
-0.021179626 -0.08697239 -0.07333386 -0.0015505777 0.052074935 0.14112446 0.17773964 -0.037127484
0.094106734 0.059212185 0.015341602 0.097020976 -0.11068964 0.17132603 -0.13089724 -0.0023469215
0.17464915 -0.0044679493 -0.121950164 0.07139533 0.03037204 0.1601362 0.055305235 -0.024387967
0.11609775 0.1718173 0.04088294 0.0360794 -0.038745195 0.05240787 -0.12809734 0.040490378
0.07835734 -0.048664097 0.06418897 -0.008682574 0.22676837 -0.023616059 0.010969209 0.2084816
-0.11876265 -0.02323858 -0.0062079476 -0.11750924 0.08173983 0.19630681 0.23429622 0.20359392
0.21672933 0.20446739 -0.13219255 0.02866343 -0.1659044 0.07849952 -0.105041035 0.09757231
-0.106828436 0.033948366 -0.17586203 -0.038709633 0.10773387 -0.043772426 -0.09141097 0.029632768
0.06533439 -0.09588685 -0.02289241 0.14189285 0.0977433 -0.076745436 -0.0033689737 0.09658543
0.13634412 0.042318955 -0.16970694 0.10682072 -0.03420084 -0.110764 0.18284701 0.050805673
0.040455725 -0.06325365 -0.109714024 0.026100475 -0.032216486 0.01907343 0.096838094 -0.10796058
-0.061289534 0.129431 0.19250792 0.14795566 0.025544126 0.14074251 -0.051696524 0.18196198
-0.1109324 0.1171859 -0.027045917 -0.032733504 -0.07018765 0.1556872 -0.022717431 0.0638186
0.095128976 0.094824225 -0.19468585 0.014169535 -0.024689727 -0.14120656 0.10595053 -0.07617846
0.07242852 0.11088608 -0.04037714 -0.0753199 -0.045954533 -0.13152461 -0.052070454 -0.16654404
00000000: d4f0 90bd b6e6 e6bd 69e3 83bc dcd2 2b3e
00000010: 9110 403e 2103 92bc b451 d63c 3178 3b3e
00000020: ebd3 fb3d 3182 3c3d 3c17 d7b9 4434 333e
00000030: ff33 9e3d f64c c43d dd3f 2bbe 2427 2f3d
00000040: ae0f 2cbe df08 123e 4e52 d1bc c2cd 4fbc
00000050: 5f70 03be d2ef db3c 713c 013e e9c7 253e
00000060: 9034 f4bc e06a 91bd d19f cc3d 79ad 613e
00000070: 42ed c5bc a820 ddbc 949d 5dbe 1729 593e
00000080: 45f4 053e 6080 1b3d 216c a0bd 94e7 46be
00000090: e81f 043d 5f73 82bd dc41 133e 824e e9bd
000000a0: add9 dc3d 4fdc 06be b211 87bd 57e1 383d
000000b0: 1b29 563d eb2a 8f3d 44b5 eb3d fbfc 193e
000000c0: f921 f43d 847e d4bd 0448 463e 39fd 9bbc
000000d0: 5a24 dabc ae5a 423e 8889 03be be98 bc3d
000000e0: a79c 1f3e 0436 343e 18be 80bd 3586 ab3b
000000f0: 5589 49bd 29f2 15be 2d41 c63d ad9c d0bd
00000100: 0966 dd3c 9c00 22bc 0a1a 693d 99d1 31be
00000110: a436 09be c172 36be 2672 a23d 4c17 3b3e
00000120: a8ea c43c fbcc 563c 6033 793c dcfa 04bd
00000130: 6901 98bd 2355 c53d 16eb b53d b7b0 353b
00000140: 110f 083d 90f9 ca3d d156 3d3a 8023 0b3e
00000150: 6b68 14bd ce35 023e 4100 f03d f0ec 4fbc
00000160: 3742 13be 9284 b83d 8911 91bd c6ea 323e
00000170: f280 05be aff8 ec3d 8b92 10be fa55 0e3d
00000180: d318 143e e970 d0bd 999f b53d ce42 0a3e
00000190: 4df4 633d ee20 4d3e d212 543d a5e9 d73d
000001a0: dc01 363e 2e8a 23be 1812 23bc 80aa 293d
000001b0: bc84 583e efe4 b63d 4cac 9abc 330d 7abe
000001c0: 1f60 063e 2223 8c3d 6c03 40be e0b0 1c3c
000001d0: 774f de3b d0fd 0c3e cdf9 d0bd bef8 07be
000001e0: 41e5 eabd 0b41 81bd 2ca4 5f3e 3fef 4cbd
000001f0: 8cdc 203e 8a3a 653e 3e13 8c3d d19e 48be
00000200: dd48 293e cabb 903d 0a9b f23d 2903 e73c
00000210: bce5 d6bd a07f 08be 58d7 023e c554 1f3d
00000220: e580 adbc 951e b2bd 1030 96bd c13c cbba
00000230: 874c 553d ee82 103e 6101 363e fd12 18bd
00000240: 08bb c03d 7a88 723d 585b 7b3c efb2 c63d
00000250: 40b1 e2bd 1770 2f3e ed09 06be cfce 19bb
00000260: 3ad7 323e e067 92bb 02c1 f9bd b737 923d
00000270: c9ce f83c befa 233e be87 623d 46c9 c7bc
00000280: a8c4 ed3d e0f0 2f3e df74 273d fec7 133d
00000290: 48b3 1ebd a2a9 563d f32b 03be 3dd9 253d
000002a0: d079 a03d 0154 47bd 8275 833d 5b41 0ebc
000002b0: f835 683e 7776 c1bc 32b8 333c 337c 553e
000002c0: d539 f3bd d65e bebc 0a6c cbbb afa8 f0bd
000002d0: 3667 a73d a704 493e 59eb 6f3e ed7a 503e
000002e0: 4bee 5d3e e65f 513e 7c5d 07be 92cf ea3c
000002f0: d8e2 29be 5bc4 a03d c11f d7bd fed3 c73d
00000300: dec8 dabd 710d 0b3d 2d15 34be fe8d 1ebd
00000310: 93a3 dc3d b74a 33bd ad35 bbbd 6bc0 f23c
00000320: 09ce 853d 5360 c4bd dd88 bbbc 5c4c 113e
00000330: a42d c83d b62c 9dbd 00ca 5cbb 95ce c53d
00000340: cb9d 0b3e a456 2d3d a8c7 2dbe d2c4 da3d
00000350: 2e16 0cbd 3cd8 e2bd 3f3c 3b3e 9c19 503d
00000360: e7b4 253d 218b 81bd bfb1 e0bd aad0 d53c
00000370: 6ff5 03bd e23f 9c3c 0d53 c63d 701a ddbd
00000380: bc0a 7bbd 8f89 043e cc20 453e b081 173e
00000390: ea41 d13c ce1e 103e bcbf 53bd 3e54 3a3e
000003a0: 8730 e3bd 29ff ef3d 668f ddbc 9113 06bd
000003b0: 8bbe 8fbd 776c 1f3e e819 babc 53b3 823d
000003c0: fbd2 c23d 3433 c23d ba5b 47be 5627 683c
000003d0: 1c42 cabc 7498 10be 97fc d83d 7403 9cbd
000003e0: 6755 943d 3e18 e33d 8062 25bd 5241 9abd
000003f0: d23a 3cbd 63ae 06be d447 55bd 858a 2abe

l2.weight f4 [300, 400]
0.010313058 0.031893007 0.0018690911 -0.005149775 0.024787435 -0.043116797 -0.02002277 -0.014794718
-0.048605 0.004837425 0.00273567 -0.017852943 -0.020200534 0.01052301 0.0043533556 0.0001195939
-0.017919797 -0.0056427713 0.027205708 0.03547275 -0.0134217935 -0.012992053 0.03464261 0.033113245
-0.04412141 -0.013036936 -0.005919502 -0.006212069 0.019070428 0.015902895 -0.046110697 -0.04739309
-0.03083125 0.03153087 0.0095097115 0.0016160011 -0.00056336646 -0.0718091 -0.053499337 0.035295125
-0.041411217 0.04433046 -0.02969684 0.039152574 -0.040474787 -0.018968357 0.015983434 -0.021827755
-0.047900867 0.021711508 -0.04411507 -0.01968122 -0.034198947 0.015304879 -0.019352674 -0.01951943
-0.0101549495 0.016114766 0.0049426286 -0.018637754 0.0065579535 0.02862816 0.039871145 -0.014080133
-0.022347072 -0.028697824 -0.025483109 0.03267597 0.0033950242 0.0053386986 -0.033612862 -0.021552555
0.0088292835 -0.011698129 0.03197818 0.008640986 0.0065272567 0.03633769 -0.045301292 -0.011719383
0.02178429 -0.02678585 0.003044881 -0.002437871 -0.031395055 -0.028734064 -0.029843139 0.012248977
0.049640406 -0.008536157 0.016085222 -0.005560588 -0.030659152 0.042093307 -0.0267914 0.042941447
-0.039014705 0.027247416 0.019928876 -0.019245338 -0.049910773 -0.010387433 -0.03153644 0.0062839873
0.014317819 -0.04244842 -0.034884706 -0.013276525 -0.0096929725 -0.042945303 0.009100539 -0.041235548
-0.03631047 0.01902232 0.013931584 -0.0489829 -0.05241364 -0.011100071 -0.06057602 0.034307454
-0.0066026533 0.009991 0.024108466 0.018634683 0.023541678 -0.012532727 -0.006474953 -0.023194036
-0.04210215 -0.04114159 0.018596498 0.024547677 -0.006901013 -0.049747646 0.013874701 -0.04433351
-0.038473472 0.034949243 0.0010006916 -0.026021993 0.02952926 -0.022064343 0.024364121 -0.046630114
-0.034503046 0.0121438075 0.04286273 -0.029015725 0.00817694 -0.027363228 0.044366475 0.02544043
-0.014675039 0.045096207 -0.027761988 -0.0020551626 -0.041444954 0.037370697 0.00755397 0.020133877
0.029632756 -0.03347816 -0.04581502 0.023813898 0.002858536 -0.0052206316 0.011137471 0.032408006
-0.042347055 0.019916486 -0.005566575 0.0076671764 -0.019273503 -0.016238315 0.011135585 0.04262184
0.037469868 -0.0378666 -0.005565025 0.00027943254 -0.026275624 -0.010097609 -0.039260674 -0.04788108
0.02342024 0.03851746 -0.040695038 -0.062223297 0.028396767 0.022784222 -0.02538748 0.05292788
0.03458725 0.016610876 0.025783565 0.011941001 -0.008499938 -0.0050305435 0.018937068 -0.036334623
0.015866721 0.03892081 -0.013905317 -0.011186127 -0.001322101 -0.029851045 -0.017875753 -0.024533352
-0.06353323 -0.017616281 0.03655598 0.015491182 -0.0480403 0.0044256863 0.018499289 0.014562704
0.0022361882 0.03035364 -0.02136283 0.018267108 0.011066329 -0.021474762 0.022704583 0.028725853
0.029705158 -0.02662267 0.0053994246 0.02225297 0.024066234 0.013821117 0.01864523 -0.0402768
0.04573903 -0.0075281924 -0.010493092 0.03368462 -0.012303791 -0.00039215977 -0.00079677487 -0.017052114
0.01576526 0.011679398 0.04804531 -0.0023015812 -0.047432162 0.0020925328 -0.046944547 0.03478968
-0.04223808 -0.024165928 -0.018630164 -0.04996136 0.045824885 0.01706979 0.003268191 -0.001726795
00000000: 1af8 283c 3ea2 023d 4afc f43a 72bf a8bb
00000010: 050f cb3c 3d9b 30bd cb06 a4bc 8b65 72bc
00000020: 0916 47bd 4383 9e3b ed48 333b 5640 92bc
00000030: 977b a5bc b468 2c3c 98a6 8e3b 7cce fa38
00000040: 8acc 92bc ffe6 b8bb 81de de3c e04b 113d
00000050: 15e7 5bbc 9fdc 54bc 69e5 0d3d c1a1 073d
00000060: a7b8 34bd df98 55bc 62f8 c1bb 9d8e cbbb
00000070: 9639 9c3c ca46 823c 92de 3cbd 421f 42bd
00000080: d191 fcbc 8326 013d 9fce 1b3c 00d0 d33a
00000090: e2ae 13ba a610 93bd 1f22 5bbd 9f91 103d
000000a0: cf9e 29bd db93 353d ca46 f3bc 735e 203d
000000b0: e4c8 25bd 8763 9bbc b1ef 823c 1fd0 b2bc
000000c0: b333 44bd 55dc b13c 01b2 34bd 833a a1bc
000000d0: 3214 0cbd 51c1 7a3c 8089 9ebc 36e7 9fbc
000000e0: f260 26bc 1d03 843c c6f5 a13b 34ae 98bc
000000f0: 1ae4 d63b 9a85 ea3c ed4f 233d 5cb0 66bc
00000100: 3511 b7bc b317 ebbc f4c1 d0bc 3dd7 053d
00000110: 0e7f 5e3b 40f0 ae3b a4ad 09bd fc8e b0bc
00000120: b3a8 103c 82a9 3fbc 8dfb 023d ec92 0d3c
00000130: 99e2 d53b d4d6 143d d98d 39bd a802 40bc
00000140: f874 b23c 006e dbbc a08c 473b b0c4 1fbb
00000150: 1a98 00bd b363 ebbc 9979 f4bc efaf 483c
00000160: bd53 4b3d 3ddb 0bbc 28c5 833c 9835 b6bb
00000170: e728 fbbc 086a 2c3d a379 dbbc 5fe3 2f3d
00000180: e2cd 1fbd f935 df3c e241 a33c 66a8 9dbc
00000190: 3d6f 4cbd 0d30 2abc 5b2c 01bd e8e9 cd3b
000001a0: 4995 6a3c 65de 2dbd 44e3 0ebd c885 59bc
000001b0: 46cf 1ebc 6ae7 2fbd 6d1a 153c 9be6 28bd
000001c0: 4aba 14bd b2d4 9b3c 4c41 643c 4ba2 48bd
000001d0: afaf 56bd 12dd 35bc 901e 78bd f985 0c3d
000001e0: 125b d8bb 4bb1 233c 1e7f c53c c3a7 983c
000001f0: 7ada c03c 1156 4dbc d82b d4bb 6b01 bebc
00000200: 4e73 2cbd 1584 28bd af57 983c 3618 c93c
00000210: e521 e2bb 30c4 4bbd b752 633c 0e97 35bd
00000220: 5c96 1dbd f026 0f3d a329 833a 132c d5bc
00000230: 59e7 f13c 48c0 b4bc 4497 c73c 38ff 3ebd
00000240: 1153 0dbd d2f6 463c d490 2f3d 63b2 edbc
00000250: 92f8 053c d928 e0bc 9fb9 353d 7368 d03c
00000260: 936f 70bc cdb6 383d 1c6d e3bc e8af 06bb
00000270: 2fc2 29bd 0412 193d 4b87 f73b cdef a43c
00000280: 65c0 f23c 6520 09bd 88a8 3bbd 5d15 c33c
00000290: 4756 3b3b d511 abbb f079 363c 42be 043d
000002a0: 1b74 2dbd e627 a33c d167 b6bb f03c fb3b
000002b0: 77e3 9dbc 3706 85bc 0772 363c 3d94 2e3d
000002c0: 017a 193d 021a 1bbd d05a b6bb cd80 9239
000002d0: fa3f d7bc 7170 25bc cdcf 20bd f41e 44bd
000002e0: cedb bf3c 7cc4 1d3d d7af 26bd dbdd 7ebd
000002f0: 56a0 e83c faa5 ba3c 68f9 cfbc e8ca 583d
00000300: 5cab 0d3d 8813 883c 0e38 d33c 30a4 433c
00000310: 5343 0bbc 42d7 a4bb e921 9b3c 9dd3 14bd
00000320: edfa 813c 6d6b 1f3d 20d3 63bc 0446 37bc
00000330: 594a adba 2e8a f4bc 2c70 92bc 2bfa c8bc
00000340: b61d 82bd 0550 90bc b9bb 153d bace 7d3c
00000350: e8c5 44bd 5905 913b d28b 973c 6898 6e3c
00000360: 038d 123b 32a8 f83c 1a01 afbc e7a4 953c
00000370: 8c4f 353c d7eb afbc f6fe b93c 7b52 eb3c
00000380: 3b58 f33c c917 dabc a8ed b03b dc4b b63c
00000390: 8d26 c53c f771 623c e2bd 983c 49f9 24bd
000003a0: d958 3b3d 0eaf f6bb 38eb 2bbc e2f8 093d
000003b0: d795 49bc cb9a cdb9 a8de 50ba e0b0 8bbc
000003c0: 2626 813c f25a 3f3c 29cb 443d 20d6 16bb
000003d0: 3a48 42bd e022 093b ed48 40bd a07f 0e3d
000003e0: d601 2dbd a0f7 c5bc 499e 98bc 48a4 4cbd
000003f0: e0b2 3b3d f2d5 8b3c 252f 563b a055 e2ba

l2.bias f4 [300]
-0.012972152 -0.0021943476 0.03789949 -0.050423853 0.01043822 0.0046289596 -0.045611635 -0.0012077467
-0.0085403975 0.07306584 0.09445902 0.044348016 0.04258619 -0.0073835147 -0.047961023 -0.015915692
0.016655283 0.00454185 0.008101089 -0.013663923 -0.064179175 0.028720658 0.018950352 -0.046261713
0.037119504 -0.015530914 0.0031649019 0.025464373 -0.0402532 -0.010975879 -0.013012331 -0.00699769
-0.005561043 -0.0801253 -0.012430786 0.01818718 0.0766835 -0.016619964 0.12730795 0.08724662
0.011111105 0.02149193 -0.0024427979 0.016162125 0.035690006 0.015405813 -0.03941221 -0.04557424
0.008207682 0.057278927 -0.015249873 0.026446091 0.043178096 0.084147096 -0.041784674 -0.013549588
0.03427671 0.020426603 0.009993812 -0.034697987 -0.0074597574 -0.059246812 0.018618938 -0.022093842
-0.05082935 0.092507824 -0.05149849 -0.024960782 0.026609117 0.033533875 -0.058534443 -0.034566257
0.05372971 0.0253648 -0.031786285 0.011796236 -0.0316458 -0.004537741 -0.0059846337 -0.03552845
0.009368257 -0.07761957 0.045428433 0.023208346 0.11461186 0.03432564 -0.04232529 0.02184738
0.031529337 -0.031706687 0.070551775 -0.05175034 -0.01031198 -0.01068411 0.07580826 0.080780566
0.010866853 0.015968375 0.022827545 -0.006860953 0.07497784 0.04276604 -0.01374342 0.070438296
0.03632553 -0.025693115 -0.08662766 0.041928638 -0.0109723 0.118079744 0.051537886 -0.021079004
0.01971824 0.017746296 0.030559476 -0.07485038 0.016297393 -0.025219021 -0.01691994 0.048283454
-0.023733146 -0.053069863 -0.018985331 0.021144163 -0.051075645 0.1788202 -0.0053952606 -0.045740817
-0.018122036 0.12083532 -0.041046076 0.024245344 -0.010194188 0.004460414 -0.035122395 0.07239034
0.0066447654 -0.012867943 0.07204995 0.011242918 -0.012027472 -0.053802952 0.031209845 -0.0152311595
-0.06277336 0.040110935 -0.029802918 0.08214892 -0.013164096 0.012438202 0.038362965 0.010422904
0.0075442097 -0.05289666 0.07844903 0.05577292 0.021256795 -0.009124156 0.035239637 -0.038834028
0.01173624 -0.02730746 -0.05616532 -0.0016599722 -0.040111795 -0.008259309 -0.028792137 -0.057247315
0.098377705 0.1196823 0.06665312 0.027249208 0.050596714 0.021145597 -0.019613953 0.0868197
-0.0331836 0.121501744 -0.04279247 -0.053266574 0.018482542 0.06657204 0.030484773 0.035167105
-0.0031095853 -0.016924243 0.123763956 -0.054090384 -0.030540092 0.076832846 -0.047734875 -0.016082486
0.07472772 -0.03231938 -0.0463968 0.024038933 0.052207287 0.017869307 0.007709406 -0.021694237
-0.046592083 -0.029364897 0.006781502 -0.014976265 0.076320745 0.056797966 -0.01063368 0.0582194
0.046685416 0.025488956 0.009112033 0.008461831 -0.031505212 0.0587316 -0.037988424 -0.049393725
0.009454703 0.0002787133 0.0003286011 -0.0061495276 -0.06351932 0.039073776 0.09138053 -0.029294796
0.004159977 0.07430014 -0.028148806 -0.041026693 -0.0120983 0.04271875 -0.01684232 0.07106201
0.05013872 -0.0023539786 0.0024218305 0.00075517216 -0.010002065 -0.010694839 -0.0045973826 -0.043853473
0.022169936 0.10453385 -0.012787152 0.018524187 -0.0016797327 -0.048247624 0.009735744 -0.035626136
0.047902975 -0.033794943 0.013232432 0.055652678 0.04375892 -0.02766353 0.1067331 0.05728455
00000000: 2689 54bc 0bcf 0fbb 7f3c 1b3d 3e89 4ebd
00000010: 1105 2b3c 87ae 973b 44d3 3abd 414d 9eba
00000020: 06ed 0bbc 8ba3 953d bb73 c13d 44a6 353d
00000030: db6e 2e3d 69f1 f1bb c772 44bd a061 82bc
00000040: a970 883c cdd3 943b 6eba 043c a6de 5fbc
00000050: 5f70 83bd 9647 eb3c c53d 9b3c ec7c 3dbd
00000060: 9f0a 183d 6075 7ebc 3e6a 4f3b a99a d03c
00000070: 8ae0 24bd 2cd4 33bc ac31 55bc e14c e5bb
00000080: 6939 b6bb bc18 a4bd 7faa 4bbc 48fd 943c
00000090: 3d0c 9d3d 9726 88bc 045d 023e 5bae b23d
000000a0: 5a0b 363c d80f b03c 5917 20bb 6f66 843c
000000b0: af2f 123d aa68 7c3c b36e 21bd 0eac 3abd
000000c0: 8379 063c 4f9d 6a3d 9ada 79bc 79a5 d83c
000000d0: 84db 303d 5055 ac3d 6826 2bbd 17ff 5dbc
000000e0: bc65 0c3d b155 a73c 16bd 233c 7a1f 0ebd
000000f0: fb70 f4bb c9ac 72bd be86 983c 25fe b4bc
00000100: 7032 50bd be74 bd3d 15f0 52bd 8e7a ccbc
00000110: 5dfb d93c d15a 093d d0c1 6fbd 5995 0dbd
00000120: af13 5c3d d7c9 cf3c 5632 02bd 0045 413c
00000130: 079f 01bd 55b1 94bb bf1a c4bb 4886 11bd
00000140: 517d 193c 02f7 9ebd 2a13 3a3d 6e1f be3c
00000150: 9fb9 ea3d 0b99 0c3d 495d 2dbd 47f9 b23c
00000160: e824 013d dfde 01bd 737d 903d 2af8 53bd
00000170: 94f3 28bc 680c 2fbc 5c41 9b3d 4870 a53d
00000180: e30a 323c 1cd0 823c d500 bb3c d8d1 e0bb
00000190: fb8d 993d 712b 2f3d 152c 61bc f441 903d
000001a0: 14ca 143d 5e7a d2bc d869 b1bd 5dbd 2b3d
000001b0: 29c5 33bc cbd3 f13d 6419 533d e0ad acbc
000001c0: 2588 a13c ae60 913c de57 fa3c 284b 99bd
000001d0: 1c82 853c 1f98 cebc b09b 8abc dfc4 453d
000001e0: 046c c2bc c95f 59bd 2087 9bbc 8636 ad3c
000001f0: b234 51bd a41c 373e baca b0bb b95a 3bbd
00000200: aa74 94bc 8278 f73d ee1f 28bd 2c9e c63c
00000210: 8605 27bc aa28 923b 80dc 0fbd 6341 943d
00000220: 55bc d93b 11d4 52bc ed8e 933d 3734 383c
00000230: e00e 45bc 7c60 5cbd caab ff3c 1d8c 79bc
00000240: 528f 80bd 5d4b 243d 4025 f4bc b13d a83d
00000250: 38ae 57bc 9ac9 4b3c 7c22 1d3d d4c4 2a3c
00000260: 6b35 f73b 2baa 58bd e3a9 a03d 2572 643d
00000270: bb22 ae3c 7c7d 15bc 7057 103d 6e10 1fbd
00000280: 5c49 403c e5b3 dfbc 9b0d 66bd 6d93 d9ba
00000290: 444c 24bd 0e52 07bc 7ddd ebbc 297c 6abd
000002a0: 407a c93d fe1b f53d 6e81 883d bb39 df3c
000002b0: 803e 4f3d 8839 ad3c 71ad a0bc 87ce b13d
000002c0: 87eb 07bd e8d5 f83d 2847 2fbd 0d2e 5abd
000002d0: b368 973c ec56 883d 34bb f93c 620b 103d
000002e0: 2fca 4bbb b6a4 8abc f577 fd3d e18d 5dbd
000002f0: 372f fabc 8a5a 9d3d a585 43bd 6bbf 83bc
00000300: d90a 993d 5461 04bd 920a 3ebd 4ced c43c
00000310: 4fd7 553d a762 923c 2f9f fc3b 1db8 b1bc
00000320: 57d7 3ebd a78e f0bc 5d37 de3b 025f 75bc
00000330: 0d4e 9c3d fca4 683d e338 2ebc 7777 6e3d
00000340: 3539 3f3d 37ce d03c a34a 153c 7ea3 0a3c
00000350: 9c0b 01bd 8c90 703d c099 1bbd 1351 4abd
00000360: e6e7 1a3c 4420 9239 1848 ac39 fa81 c9bb
00000370: 6b16 82bd d30b 203d b725 bb3d a4fb efbc
00000380: 6b50 883b ac2a 983d 5398 e6bc 9b0b 28bd
00000390: f337 46bc dbf9 2e3d e8f8 89bc f688 913d
000003a0: 425e 4d3d 3545 1abb 93b7 1e3b bff6 453a
000003b0: b4df 23bc 6839 2fbc a4a5 96bb b39f 33bd
000003c0: ba9d b53c d815 d63d 3481 51bc 09c0 973c
000003d0: 7a2a dcba 4d9f 45bd ac82 1f3c b6ec 11bd
000003e0: e935 443d 916c 0abd d8cc 583c 10f4 633d
000003f0: 8e3c 333d a19e e2bc e296 da3d 34a3 6a3d

l3.weight f4 [1, 300]
0.0043311394 -0.059176918 -0.008517172 0.028761804 0.039327215 0.01124854 0.039667323 0.0029695379
0.0144932335 -0.121657684 -0.075330384 -0.12913483 -0.12817243 0.030938286 0.033712614 0.04772118
-0.028193017 -0.12718345 -0.12157805 0.010087933 0.022613427 0.03038232 -0.026481664 0.03218603
0.0028021506 -0.01726896 0.021489682 -0.08540201 0.02055629 0.0064739906 -0.11111052 0.002762099
-0.004473386 0.0025652936 -0.0439535 0.0003456071 -0.08248877 -0.10815862 -0.07058346 -0.08191894
0.008425526 -0.0017540023 0.008571285 0.018525444 0.033966932 -0.0013838172 -0.0009516504 0.026391633
-0.002313585 -0.11989081 0.027630003 -0.11736016 -0.037640285 -0.11492073 0.050326236 -0.013965504
-0.10909154 -0.10431661 0.021899309 0.02553322 -0.12241303 0.007532349 0.018581089 -0.018639537
-0.008304069 -0.059437238 0.0024969545 0.012873328 0.013908363 -0.09598972 -0.04164143 0.03032677
-0.10091163 -0.045348637 -0.02125594 -0.109925725 -0.0023650124 -0.00089981884 0.36305016 0.014340618
0.044914532 0.07932287 0.03559035 0.013824285 -0.08341516 -0.12807229 -0.01274966 -0.06414396
0.02467572 0.07382466 -0.13165238 0.013081599 -0.0081248125 0.0081881685 -0.13380735 -0.09195119
-0.0110709965 -0.12585485 -0.120608196 -0.035161745 -0.09789333 -0.0967978 -0.13517877 -0.12419537
-0.106492154 -0.00028677515 -0.008444859 -0.12715378 -0.10087902 -0.11426907 0.05641514 0.0028914087
-0.08773215 0.051910933 -0.02693944 -0.0004353462 0.0061911973 -0.0021617357 -0.016010402 -0.13064897
0.027158491 -0.02885851 -0.12685448 -0.13108769 -0.00094898033 -0.13837059 0.025360271 0.035775024
0.007202447 -0.074773304 0.041232433 0.03261227 0.028999599 -0.042473007 0.035867553 -0.033532247
0.032831784 0.032105856 -0.111217566 0.04000445 0.051176995 0.0015925381 -0.09020797 0.018545887
-0.006886954 -0.12469072 -0.024502054 -0.0706673 -0.013501089 -0.048868075 -0.12712745 0.09375728
0.029608447 0.028276391 -0.08421305 -0.08971324 0.02340709 -0.1062839 0.0029939378 0.03962065
-0.11950886 0.02031454 0.024651118 0.026398832 -0.006034469 -0.09874596 0.019228246 0.03753523
-0.087256 -0.06109004 -0.050545067 -0.08669894 -0.10151519 0.0036277613 0.01173107 -0.029672122
0.010954269 -0.058047198 -0.05119426 0.002976066 -0.13320768 -0.11149244 -0.13127095 0.0017348713
-0.09460385 -0.007156887 -0.08838114 0.035268337 0.0024474587 -0.03236527 0.008037046 0.031873368
-0.09559042 0.24229954 0.0082102455 -0.07187307 -0.07201069 0.042082086 -0.0035976593 -0.008263008
0.009078555 0.036522016 -0.11853686 0.025446532 -0.13593677 -0.029317612 -0.029032392 -0.10869612
0.020396903 -0.06015869 0.002937273 -0.13237184 0.019851383 -0.104122624 0.030690337 0.0012804598
0.03721081 -0.026472097 0.03813959 -0.12880248 0.005944273 0.030774428 -0.056930583 0.003627076
0.009413167 -0.115845144 -0.020651627 0.0019410729 0.009444206 -0.12986208 0.016221777 -0.119855225
-0.10884789 -0.046546552 -0.0820017 0.029165473 0.022065654 0.0076436223 -0.015686827 0.008671915
0.006698195 -0.09381568 -0.10937263 0.017384151 0.011533032 0.0116804615 0.04191562 0.03284484
-0.051025353 0.023182912 0.024281949 -0.10351552 -0.13281138 -0.017581692 -0.06659111 -0.09050505
00000000: 3bec 8d3b 7f63 72bd 9c8b 0bbc e09d eb3c
00000010: 9315 213d cc4b 383c 347a 223d 949c 423b
00000020: 0775 6d3c aa27 f9bd d146 9abd ec3b 04be
00000030: a23f 03be 4a72 fd3c 3d16 0a3d 4977 433d
00000040: 0bf5 e6bc 613c 02be eafd f8bd dc47 253c
00000050: cb3f b93c 58e4 f83c 13f0 d8bc 80d5 033d
00000060: 49a4 373b a277 8dbc 210b b03c 40e7 aebd
00000070: aa65 a83c c523 d43b ea8d e3bd 5504 353b
00000080: 7b95 92bb 7c1e 283b 9608 34bd 9a32 b539
00000090: dfef a8bd 4482 ddbd 108e 90bd 1ec5 a7bd
000000a0: 380b 0a3c 8de6 e5ba 936e 0c3c acc2 973c
000000b0: e920 0b3d 3361 b5ba 2d78 79ba 4433 d83c
000000c0: 849f 17bb 5089 f5bd 5158 e23c 865a f0bd
000000d0: b32c 1abd 8f5b ebbd e222 4e3d 92cf 64bc
000000e0: 636b dfbd f2a3 d5bd 2e66 b33c 0b2b d13c
000000f0: afb3 fabd ecd1 f63b 5e37 983c f1b1 98bc
00000100: ca0d 08bc 7674 73bd f2a3 233b a7ea 523c
00000110: e7df 633c 4296 c4bd 3490 2abd d96f f83c
00000120: c2aa cebd 7ebf 39bd f020 aebc bd20 e1bd
00000130: 53fe 1abb d2e1 6bba b6e1 b93e e9f4 6a3c
00000140: 4df8 373d 0774 a23d 30c7 113d 417f 623c
00000150: 91d5 aabd 6225 03be f3e3 50bc e95d 83bd
00000160: bc24 ca3c 6231 973d e2cf 06be 3454 563c
00000170: ef1d 05bc ab27 063c cb04 09be e850 bcbd
00000180: 2063 35bc 18e0 00be 6e01 f7bd c305 10bd
00000190: 4c7c c8bd ed3d c6bd 4e6c 0abe 245a febd
000001a0: 8f18 dabd 4f5a 96b9 4e5c 0abc 9a34 02be
000001b0: a999 cebd e705 eabd 9013 673d ca7d 3d3b
000001c0: eaac b3bd 8fa0 543d 1ab0 dcbc 2e3f e4b9
000001d0: 87df ca3b e8ab 0dbb 3f28 83bc d8c8 05be
000001e0: 7c7b de3c af68 ecbc 24e6 01be da3b 06be
000001f0: fec4 78ba 05b1 0dbe 58c0 cf3c d588 123d
00000200: 8102 ec3b bf22 99bd 57e3 283d 7294 053d
00000210: 9190 ed3c 2df8 2dbd dbe9 123d 1c59 09bd
00000220: 9f7a 063d 6e81 033d 09c6 e3bd b5db 233d
00000230: f89e 513d b6bc d03a f5be b8bd 8bed 973c
00000240: f5ab e1bb d95d ffbd 88b8 c8bc 04ba 90bd
00000250: ac33 5dbc e429 48bd b32d 02be d103 c03d
00000260: 6a8d f23c e4a3 e73c e477 acbd 93bb b7bd
00000270: 3ac0 bf3c 60ab d9bd f135 443b 4349 223d
00000280: 10c1 f4bd ae6a a63c 24f1 c93c 5d42 d83c
00000290: ccbc c5bb 523b cabd 8e84 9d3c 8bbe 193d
000002a0: 46b3 b2bd 8d39 7abd 5808 4fbd 378f b1bd
000002b0: 32e7 cfbd bcbf 6d3b ac33 403c f312 f3bc
000002c0: 8979 333c e6c2 6dbd 13b1 51bd 1a0a 433b
000002d0: 9867 08be 2656 e4bd e46b 06be 9f64 e33a
000002e0: aabf c1bd 5284 eabb 2c01 b5bd 8875 103d
000002f0: 8b65 203b 7291 04bd d0ad 033c a68d 023d
00000300: e9c4 c3bd 5f1d 783e 4484 063c 3032 93bd
00000310: 577a 93bd 445e 2c3d b5c6 6bbb 9161 07bc
00000320: 38be 143c 1c98 153d 74c3 f2bd 3f75 d03c
00000330: 0233 0bbe 7d2b f0bc 57d5 edbc 129c debd
00000340: 6817 a73c f568 76bd 437f 403b 7c8c 07be
00000350: 5e9f a23c 3e3e d5bd 4d6a fb3c 1ad5 a73a
00000360: 5d6a 183d 03dc d8bc 4238 1c3d cce4 03be
00000370: 2dc8 c23b a71a fc3c 0b30 69bd 3db4 6d3b
00000380: af39 1a3c 3840 edbd 9a2d a9bc 996b fe3a
00000390: dfbb 1a3c 91fa 04be 88e3 843c a876 f5bd
000003a0: a4eb debd 99a7 3ebd 82f0 a7bd 6eec ee3c
000003b0: 08c3 b43c 5a77 fa3b a981 80bc a614 0e3c
000003c0: 887c db3b 6f22 c0bd c2fe dfbd 3569 8e3c
000003d0: 0bf5 3c3c 685f 3f3c b7af 2b3d 5088 063d
000003e0: f6ff 50bd 17ea bd3c f0ea c63c f2ff d3bd
000003f0: b5ff 07be 7b07 90bc eb60 88bd b65a b9bd
