TD3/models/second_training_attempt/train_500_episodes_critic_1.pth (torch, 531051 bytes, 5 tensors)

l1.weight f4 [400, 28]
0.10584296 0.091073856 -0.23549391 -0.089389846 0.05452135 -0.12065839 -0.262066 0.019173328
-0.088302135 0.02999277 -0.121910565 -0.111405104 0.17305511 -0.17459136 -0.116871804 -0.0673425
-0.20684966 -0.030253282 -0.08262774 -0.088372126 -0.07841708 -0.14073922 0.08922637 0.067595564
-0.0038034618 0.0241528 -0.014952301 0.0058304816 0.1367172 0.29918677 -0.37992948 -0.37304166
0.26703733 0.2092443 0.12236101 -0.06058054 0.14905609 -0.062631585 -0.20956896 0.115014836
0.19235702 -0.25848842 -0.051151026 -0.13092956 -0.010160432 0.030934555 0.13922368 -0.10216349
0.08360671 0.07358779 -0.10195845 -0.036168266 0.015941065 -0.0006288802 0.026642825 0.03996163
0.3245803 0.4289705 -0.10570796 -0.31665027 -0.28473923 0.23527856 0.2675135 0.24835539
0.07273198 -0.19882804 0.14056991 0.016936334 0.12606451 -0.3258966 -0.12659855 -0.03563883
0.20389114 0.12568246 -0.004011065 0.08897032 -0.08094663 0.048404735 -0.06067453 -0.062593326
0.010478042 -0.0063376334 0.000116527786 0.053669896 0.052106597 0.009961809 -0.101132914 -0.028818106
0.14536299 0.16240107 -0.18718962 -0.06255091 -0.07752004 -0.041187268 -0.18000105 -0.014498634
0.33173501 -0.07276562 0.08095617 -0.061475854 -0.16256617 -0.2473799 -0.11774647 -0.16252832
-0.029799806 0.042973522 -0.24264738 -0.112659484 0.058065947 -0.036609642 0.022187045 -0.0049230494
0.32935062 0.2317387 -0.22967178 -0.0020926835 -0.062229883 0.14512095 -0.030287921 -0.1484237
0.2219768 -0.19382204 0.093737416 -0.114447385 0.018338896 -0.003071026 -0.085664876 0.15277313
-0.052855108 -0.049935583 -0.103659965 -0.053979944 -0.075253874 0.20269004 -0.12175497 -0.09197673
-0.087209165 0.034769878 -0.006385454 -0.00097049645 0.7067485 0.3043133 -0.03949703 -0.13029829
-0.31259382 -0.12326845 0.009873671 -0.15286876 -0.13884695 0.25178218 0.14085902 -0.086652406
-0.033296913 0.048309453 0.12297923 0.2579753 -0.011035981 -0.059924826 -0.036778696 -0.04334502
-0.033700325 -0.075933956 -0.072105214 0.07043925 0.0059561627 0.066303305 0.0112802675 0.122619115
-0.2755628 -0.17959276 -0.07368594 -0.158156 -0.041539546 -0.048950173 0.19282864 -0.12596743
-0.09249382 -0.09476248 -0.20530024 -0.09934862 0.08282242 0.14366256 0.13291177 0.13256027
0.3070824 0.28660223 0.28788567 0.008434687 0.20370992 0.042892415 0.12830822 -0.014660969
0.0038216973 -0.050284352 0.037054893 0.0813603 0.057655938 -0.07700698 -0.12006339 -0.25811246
0.24919267 0.09974724 -0.14925455 0.21609952 -0.1874187 0.060171578 -0.19461247 0.07636565
-0.03020766 -0.23213606 0.042463697 -0.2595261 -0.05878689 -0.20216028 -0.027381547 -0.20162289
-0.002640855 0.090855815 -0.19958913 0.017213104 -0.0001437495 -0.037347857 0.0041617416 -0.043701433
0.46713042 0.2608509 -0.08209004 0.015443927 -0.08280666 -0.017839557 -0.14139785 0.11839109
-0.018274285 -0.11336675 0.061862487 -0.041762434 0.19210067 -0.2862444 0.12622875 -0.10010873
-0.15081824 -0.15956008 0.06117084 -0.06311642 -0.16022576 0.007791226 -0.022428168 0.033630405
-0.0022936251 0.0070099644 -0.023045268 -0.03440356 -0.014427012 0.01093976 0.05905918 -0.37504324
00000000: 32c4 d83d ee84 ba3d 5125 71be 0612 b7bd
00000010: c751 5f3d bf1b f7bd 842d 86be 6211 9d3c
00000020: c0d7 b4bd 66b3 f53c 3fac f9bd 5c28 e4bd
00000030: 5c35 313e 14c8 32be 7c5a efbd ddea 89bd
00000040: 66d0 53be bbd5 f7bc bc38 a9bd 72fc b4bd
00000050: 2299 a0bd f11d 10be 51bc b63d 8b6f 8a3d
00000060: 8043 79bb 18dc c53c 7ffa 74bc a00d bf3b
00000070: 98ff 0b3e 022f 993e 1e86 c2be 51ff bebe
00000080: 1eb9 883e 2344 563e 6998 fa3d 4d23 78bd
00000090: 29a2 183e fd44 80bd 3f99 56be e68c eb3d
000000a0: 3df9 443e 9858 84be bd83 51bd 6612 06be
000000b0: f177 26bc 776a fd3c a790 0e3e 183b d1bd
000000c0: ff39 ab3d 32b5 963d 98cf d0bd 2d25 14bd
000000d0: d696 823c 70db 24ba 0e42 da3c ceae 233d
000000e0: 642f a63e 05a2 db3e 6a7d d8bd fc1f a2be
000000f0: 57c9 91be ddec 703e 88f7 883e e050 7e3e
00000100: 81f4 943d 9499 4bbe 8ff1 0f3e 11be 8a3c
00000110: 0e17 013e ebdb a6be 0da3 01be 06fa 11bd
00000120: d7c8 503e e7b2 003e 406f 83bb 1236 b63d
00000130: 59c7 a5bd 0b44 463d db85 78bd ee30 80bd
00000140: 18ac 2b3c ecab cfbb 6160 f438 f7d4 5b3d
00000150: ba6d 553d db36 233c c61e cfbd f313 ecbc
00000160: 09da 143e 774c 263e a3ae 3fbe b11a 80bd
00000170: d4c2 9ebd fbb3 28bd 3252 38be ae8b 6dbc
00000180: 2cd9 a93e 2406 95bd 59cc a53d 1bce 7bbd
00000190: bf77 26be 2851 7dbe 1025 f1bd d36d 26be
000001a0: b91e f4bc 0105 303d 8e78 78be 04ba e6bd
000001b0: 8fd6 6d3d fef3 15bd 9bc1 b53c 8851 a1bb
000001c0: a5a0 a83e e94c 6d3e 142f 6bbe 6725 09bb
000001d0: c3e4 7ebd 969a 143e 601e f8bc 62fc 17be
000001e0: e34d 633e 4979 46be 67f9 bf3d 6463 eabd
000001f0: 743b 963c 4443 49bb 1171 afbd 8f70 1c3e
00000200: 997e 58bd 4189 4cbd ad4b d4bd 131a 5dbd
00000210: b41e 9abd fa8d 4f3e ab5a f9bd 4c5e bcbd
00000220: b89a b2bd dc6a 0e3d 123d d1bb ea68 7eba
00000230: 78ed 343f f4ce 9b3e a3c7 21bd ea6c 05be
00000240: 4c0c a0be 2b74 fcbd 2ec5 213c a189 1cbe
00000250: e52d 0ebe 98e9 803e 593d 103e d176 b1bd
00000260: 5862 08bd 22e0 453d 89dc fb3d 5715 843e
00000270: 42d0 34bc bc73 75bd 42a5 16bd 8c8a 31bd
00000280: 5a09 0abd 4383 9bbd e6ab 93bd 7442 903d
00000290: ea2b c33b 07ca 873d dfd0 383c bb1f fb3d
000002a0: 9116 8dbe 2ae7 37be a7e8 96bd a5f3 21be
000002b0: 5f25 2abd fa7f 48bd df74 453e 9bfd 00be
000002c0: 666d bdbd d512 c2bd 3a3a 52be 4a77 cbbd
000002d0: cd9e a93d 471c 133e 061a 083e e1bd 073e
000002e0: e839 9d3e 87bd 923e c065 933e a431 0a3c
000002f0: 5599 503e f5af 2f3d 3b63 033e 9034 70bc
00000300: 7175 7a3b f7f6 4dbd dfc6 173d 3ba0 a63d
00000310: a228 6c3d d6b5 9dbd cbe3 f5bd 5127 84be
00000320: 5d2c 7f3e 4848 cc3d 2fd6 18be 3149 5d3e
00000330: b0ea 3fbe 7976 763d 7e48 47be 9865 9c3d
00000340: 0e76 f7bc 13b5 6dbe 6aee 2d3d 9be0 84be
00000350: 86ca 70bd 1b03 4fbe 444f e0bc 3b76 4ebe
00000360: 3212 2dbb 9d12 ba3d 1861 4cbe 7f02 8d3c
00000370: 76bb 16b9 11fa 18bd 385f 883b 4600 33bd
00000380: b82b ef3e 408e 853e d31e a8bd 8608 7d3c
00000390: 8a96 a9bd 4324 92bc 99ca 10be 0777 f23d
000003a0: f4b3 95bc d42c e8bd 8563 7d3d 160f 2bbd
000003b0: 0ab6 443e a08e 92be 1c42 013e ce05 cdbd
000003c0: 1970 1abe b863 23be 468e 7a3d 2e43 81bd
000003d0: 3912 24be 8a4d ff3b 47bb b7bc 09c0 093d
000003e0: a550 16bb d8b3 e53b 6ec9 bcbc bfea 0cbd
000003f0: 465f 6cbc ae3c 333c 0ae8 713d ab05 c0be

l1.bias f4 [400]
-0.08100872 0.1852793 0.021739502 0.15219045 -0.027699988 0.091242075 0.1970106 -0.06186528
0.033448983 0.23442201 -0.041099228 0.089786634 0.2302635 0.16078253 0.035503272 0.09140595
0.0053394567 -0.020919904 -0.23650986 -0.020573458 -0.19977178 0.11099909 0.13176456 -0.19379297
0.1522236 0.18791604 0.04015825 0.16256872 -0.066083714 -0.12399738 -0.05605155 0.077974245
0.005123022 -0.12159803 -0.13500498 -0.22125377 -0.0058360375 0.12836628 0.17601468 -0.009783309
0.28338516 0.07154387 -0.18726167 0.07826475 -0.05320828 0.1579869 0.08973961 0.019705145
0.020633604 -0.0794323 0.08300303 0.04794306 -0.14323504 -0.100459106 0.084364675 0.079877876
-0.02566486 -0.18211326 0.0028319578 0.1825355 -0.09472734 0.19842255 -0.09582186 -0.028604943
-0.120778985 0.06709775 -0.028247135 -0.09517892 -0.02141024 -0.093035206 0.23480849 0.04680529
-0.17678219 -0.02950642 0.053395003 -0.07141119 0.034381382 -0.047615506 -0.10309262 0.081454344
0.114570625 0.11164338 0.2011961 0.12084883 -0.0751135 -0.11527219 0.07956075 -0.08635764
0.19144553 0.032332554 0.06895143 -0.015019775 0.27911174 0.14427808 0.2080546 0.13153239
-0.17282024 -0.06488476 0.167385 0.030533193 0.19110392 0.22656074 0.16406946 -0.233026
-0.18396476 0.14164035 0.022865564 -0.12148348 -0.03460963 -0.09755282 -0.028494647 -0.06593578
0.055408925 0.028031958 0.051695403 0.0025759544 -0.0433372 -0.14079091 0.08281239 0.15312418
-0.020540753 0.058087192 -0.02707557 -0.22356163 0.15257953 0.018954614 -0.04317612 0.1807484
0.08078001 0.15713559 0.20878386 0.07723306 0.1519504 0.10004782 0.16664776 -0.035224218
0.118957974 0.12385385 0.15936898 -0.20585868 0.052055 -0.055051852 0.036791787 -0.08643396
-0.22576696 -0.071758114 -0.016543234 -0.06409407 0.2784531 0.038030766 -0.029345488 0.25161648
-0.11517522 0.03356078 0.08666578 -0.04657212 -0.07011394 0.17200674 -0.08374634 0.12866917
0.1445506 0.1718081 -0.013055815 0.109431714 0.012102794 -0.15753652 0.01563211 0.0779922
-0.06640926 -0.027613029 -0.063902184 -0.20633355 -0.111580975 -0.16340272 0.055962034 0.10144486
-0.053111378 0.12578207 0.16102138 -0.04353754 0.09960274 0.12390534 0.022538858 0.08642908
-0.007837606 -0.0009185309 -0.17965256 -0.1113004 0.10994699 -0.0036410103 -0.13717912 -0.106260695
0.10037483 -0.11793308 -0.084564224 -0.2196196 -0.11998364 -0.083448194 -0.1383629 0.101564
-0.010164188 0.12545136 -0.09128426 -0.049313337 0.10417935 -0.1294054 -0.046104003 -0.045783956
-0.18813327 -0.20280044 -0.06764618 0.01654746 0.14193067 0.08241308 -0.124472976 0.08299574
-0.088910796 -0.022772273 -0.069091134 0.07980829 0.17579578 -0.10109549 0.18577415 0.04503697
0.052195195 0.09330655 0.22072944 -0.04360039 -0.02207939 -0.095279485 0.12957305 0.059576105
0.17889059 0.040256888 -0.052243825 0.038059838 -0.12295074 0.09347044 0.14230293 -0.0991626
-0.21036245 0.03149979 0.08553398 0.20273328 -0.023954079 0.18174961 -0.043441806 -0.13041888
-0.13593164 -0.052467804 -0.1515901 -0.105558865 -0.08537248 -0.21702662 0.09601578 -0.10628535
00000000: e6e7 a5bd dbb9 3d3e 0a17 b23c d0d7 1b3e
00000010: 16eb e2bc 20dd ba3d 26bd 493e 7366 7dbd
00000020: cd01 093d 530c 703e aa57 28bd 0ee2 b73d
00000030: 32ca 6b3e 2da4 243e e16b 113d 0b33 bb3d
00000040: 9cf6 ae3b 3860 abbc a42f 72be ab89 a8bc
00000050: f990 4cbe 7e53 e33d 4aed 063e aa71 46be
00000060: 81e0 1b3e 106d 403e fa7c 243d 6a78 263e
00000070: e656 87bd 57f2 fdbd 4f96 65bd f6b0 9f3d
00000080: 06df a73b 6308 f9bd bf3e 0abe 5990 62be
00000090: 3b3c bfbb 7372 033e 313d 343e 2c4a 20bc
000000a0: dc17 913e 9885 923d 86c1 3fbe 4549 a03d
000000b0: edf0 59bd 51c7 213e 67c9 b73d af6c a13c
000000c0: ce07 a93c 67ad a2bd 7efd a93d f15f 443d
000000d0: 35ac 12be 81bd cdbd 63c7 ac3d 0397 a33d
000000e0: 1d3f d2bc e67b 3abe 5e98 393b 96ea 3a3e
000000f0: 6800 c2bd 482f 4b3e 403e c4bd ea54 eabc
00000100: f95a f7bd 8c6a 893d 8966 e7bc 2aed c2bd
00000110: 8764 afbc 3e89 bebd a371 703e e7b6 3f3d
00000120: 6406 35be 73b7 f1bc b8b4 5a3d 0840 92bd
00000130: 7ed3 0c3d 7a08 43bd 3922 d3bd 89d1 a63d
00000140: 01a4 ea3d 49a5 e43d 5a06 4e3e 977f f73d
00000150: 1bd5 99bd d313 ecbd bff0 a23d 46dc b0bd
00000160: 4c0a 443e 246f 043d 6836 8d3d 8115 76bc
00000170: bce7 8e3e a2bd 133e 440c 553e 6db0 063e
00000180: caf7 30be 4de2 84bd f966 2b3e bf20 fa3c
00000190: bfb0 433e 8aff 673e d301 283e 5e9e 6ebe
000001a0: 4261 3cbe 2b0a 113e 9050 bb3c 55cc f8bd
000001b0: d4c2 0dbd c6c9 c7bd 9b6d e9bc 5709 87bd
000001c0: 78f4 623d 47a3 e53c 8fbe 533d 58d1 283b
000001d0: 5982 31bd 7e2b 10be 8b99 a93d 96cc 1c3e
000001e0: 1545 a8bc d6ec 6d3d 96cd ddbc 57ed 64be
000001f0: cf3d 1c3e b546 9b3c 71d9 30bd 1c16 393e
00000200: fd6f a53d 27e8 203e 70cb 553e 5e2c 9e3d
00000210: e398 1b3e dfe5 cc3d b6a5 2a3e 4547 10bd
00000220: 3da0 f33d 16a7 fd3d 9f31 233e 9ecc 52be
00000230: a037 553d 0d7e 61bd fcb2 163d 4a04 b1bd
00000240: 742f 67be ebf5 92bd ad85 87bc c043 83bd
00000250: 6891 8e3e 26c6 1b3d f365 f0bc e0d3 803e
00000260: fce0 ebbd 0777 093d d47d b13d 68c2 3ebd
00000270: e697 8fbd 8922 303e 3383 abbd dac1 033e
00000280: 1305 143e 76ee 2f3e 0fe8 55bc bc1d e03d
00000290: cc4a 463c 4151 21be e90e 803c 60ba 9f3d
000002a0: 9401 88bd b834 e2bc 26df 82bd 1a49 53be
000002b0: 9184 e4bd 0b53 27be 7238 653d 53c2 cf3d
000002c0: 518b 59bd 04cd 003e cae2 243e 6b54 32bd
000002d0: 85fc cb3d 15c2 fd3d 69a3 b83c bb01 b13d
000002e0: 4d69 00bc 91c9 70ba d7f6 37be 77f1 e3bd
000002f0: e32b e13d 049e 6ebb af78 0cbe 359f d9bd
00000300: 5291 cd3d e686 f1bd 0230 adbd f6e3 60be
00000310: fcb9 f5bd e3e6 aabd 01af 0dbe c900 d03d
00000320: b287 26bc 5276 003e 3ef3 babd c8fc 49bd
00000330: fc5b d53d d982 04be 8dd7 3cbd f587 3bbd
00000340: 02a6 40be ebaa 4fbe 158a 8abd 8a8e 873c
00000350: 4656 113e 30c8 a83d b0eb febd acf9 a93d
00000360: dd16 b6bd eb8c babc a77f 8dbd 8772 a33d
00000370: cf03 343e 270b cfbd 943b 3e3e b078 383d
00000380: a1ca 553d 8117 bf3d e606 623e 5396 32bd
00000390: d6df b4bc e421 c3bd ccae 043e 1306 743d
000003a0: 182f 373e 68e4 243d 9ffd 55bd a2e4 1b3d
000003b0: 99cd fbbd 6e6d bf3d dcb7 113e c315 cbbd
000003c0: 4169 57be ec05 013d 702c af3d 5099 4f3e
000003d0: 583b c4bc 921c 3a3e 09f0 31bd 878c 05be
000003e0: aa31 0bbe 7be8 56bd 6f3a 1bbe 3f2f d8bd
000003f0: c4d7 aebd 3a3c 5ebe eca3 c43d 22ac d9bd

l2.weight f4 [300, 400]
0.013155059 0.0077951355 -0.034458045 0.043383576 -0.0048174947 -0.36557546 0.113660514 0.0017137283
-0.045810845 0.007378357 -0.097790405 0.08636277 0.074897185 0.046641737 0.049599357 0.08194201
0.017824313 -0.036946867 0.0542248 -0.022490768 0.032628488 -0.03694202 -0.015092969 -0.011545131
0.106643885 0.024294266 -0.07908489 0.11614252 -0.2654808 -0.1770576 0.05065864 0.12263973
0.0065373937 -0.00944224 0.05430858 -0.0040958445 0.10192155 0.019398002 0.1661922 0.08689813
0.023635168 -0.027730111 -0.012913295 0.053992704 0.020095432 -0.029202497 -0.057623696 -0.10460934
-0.0080470275 -0.10928847 0.01852428 0.029053159 0.0041674282 -0.049935024 0.02048811 0.031691663
0.035263926 0.074923076 0.04495565 0.087727316 0.012153932 0.002869368 0.08224753 -0.037361175
-0.007852161 -0.012092685 -0.013713735 0.031851098 -0.22601387 0.10334759 -0.034836575 -0.016163724
-0.04790712 -0.05316746 0.045362845 0.07569799 0.01765346 -0.21220575 0.11010279 -0.016341995
0.013209214 0.14929347 0.09550642 0.027708868 0.009977603 -0.02462959 0.10766143 -0.01770417
0.02205868 0.16517144 0.12363233 -0.002305757 -0.030544303 0.00072740315 -0.061491422 0.15930717
0.023778867 0.02934052 0.09738292 0.028370539 0.013696416 -0.019765813 0.015810218 -0.010715786
0.044019446 -0.024730593 -0.029875403 -0.0068386784 0.010514881 -0.011130018 0.13118564 -0.074056
0.10132848 0.023219319 -0.15907328 -0.044316176 0.015524165 -0.01500083 0.016666524 0.036943607
0.03018783 0.04029183 -0.03289809 0.056262948 0.032180615 0.04499608 -0.025813056 0.12904578
0.18070623 0.016160505 -0.02116081 -0.09506662 0.11467898 -0.021571953 0.12559603 -0.01648957
-0.0351128 0.004944775 -0.10939377 0.070013136 -0.01307333 0.0028869973 0.0028630805 0.03542568
-0.04200577 0.0071436916 0.031253032 -0.26434943 -0.022816917 -0.01162658 -0.026053425 0.119298205
0.04189395 -0.023385497 0.007766136 -0.014789322 -0.04677316 0.07447523 -0.029983249 0.045530275
0.098656595 -0.010481345 0.053625625 0.060907684 -0.00022529508 0.041845687 0.02488271 0.013801412
0.013310363 0.007086199 0.00482357 0.046839874 -0.15271705 -0.025663711 0.07772709 -0.001320761
0.020785931 0.0609209 0.09427833 0.010869398 0.014413879 0.041837208 0.093802005 -0.00941427
-0.02783817 0.030033264 0.033930216 -0.052153282 0.06516248 0.15900767 0.07607564 -0.011673097
0.033334017 -0.39321315 -0.019436158 -0.03117351 -0.030376952 0.1015903 0.010937491 -0.04002269
0.026612813 -0.020951755 -0.043396868 -0.032994144 -0.009739526 0.03910551 -0.02694498 -0.040300433
-0.016554896 0.0690069 -0.060029153 0.044034887 -0.07051679 0.056227654 -0.003947505 0.17058027
-0.028088816 -0.046230465 -0.25476193 0.10242216 -0.14143404 0.007855648 -0.022312954 0.05475654
0.0809286 -0.019991966 0.08428902 -0.15797791 0.07532235 -0.0152463 -0.011287797 -0.0064948327
0.12678689 0.13607256 0.07661532 -0.028986752 0.0015552021 -0.18106821 -0.053689677 0.11499863
-0.004703837 0.00984631 -0.034979846 0.09269672 -0.016192246 0.041830465 0.010575044 -0.01072157
0.013188835 -0.015043092 -0.04232343 0.036795046 -0.0196511 -0.027075388 -0.026927192 -0.07172367
00000000: 5188 573c 566e ff3b e123 0dbd fab2 313d
00000010: 13dc 9dbb b52c bbbe d8c6 e83d 2e9f e03a
00000020: 27a4 3bbd 25c6 f13b 5646 c8bd f7de b03d
00000030: b263 993d 680b 3f3d b228 4b3d 36d1 a73d
00000040: 4b04 923c 9955 17bd d31a 5e3d 8f3e b8bc
00000050: 73a5 053d 8450 17bd 8048 77bc ca27 3dbc
00000060: 1c68 da3d c504 c73c 42f7 a1bd 21dc ed3d
00000070: 19ed 87be 964e 35be 6f7f 4f3d 8a2a fb3d
00000080: a237 d63b a0b3 1abc ac72 5e3d 6f36 86bb
00000090: 3fbc d03d 8fe8 9e3c 4a2e 2a3e a6f7 b13d
000000a0: 8a9e c13c 422a e3bc 4992 53bc 7427 5d3d
000000b0: 2d9f a43c 133a efbc d306 6cbd 6c3d d6bd
000000c0: aed7 03bc a2d2 dfbd 3bc0 973c e400 ee3c
000000d0: ec8e 883b ab88 4cbd aed6 a73c 1ecf 013d
000000e0: e870 103d 4571 993d 6a23 383d 61aa b33d
000000f0: 4921 473c 020c 3c3b 6571 a83d 0808 19bd
00000100: 5aa6 00bc 6620 46bc 93af 60bc 4c76 023d
00000110: 2e70 67be e7a7 d33d ccb0 0ebd c969 84bc
00000120: 423a 44bd 1fc6 59bd 64ce 393d 8c07 9b3d
00000130: fd9d 903c 774c 59be 927d e13d a6df 85bc
00000140: 766b 583c 63e0 183e df98 c33d b5fd e23c
00000150: 1a79 233c fec3 c9bc 997d dc3d 5608 91bc
00000160: 68b4 b43c b422 293e f232 fd3d 2f1c 17bb
00000170: 0c38 fabc 33af 3e3a 6ede 7bbd 6b21 233e
00000180: e6cb c23c 885b f03c b270 c73d 5569 e83c
00000190: ef66 603c eaeb a1bc 6e84 813c 4491 2fbc
000001a0: bc4d 343d d097 cabc 43bd f4bc fe16 e0bb
000001b0: 9c46 2c3c ae5a 36bc 8755 063e acaa 97bd
000001c0: 4e85 cf3d 7136 be3c 1be4 22be e184 35bd
000001d0: 1159 7e3c 0bc6 75bc 3c88 883c 2e52 173d
000001e0: 784c f73c 0c09 253d 26c0 06bd fa73 663d
000001f0: d2cf 033d cf4d 383d e775 d3bc 9424 043e
00000200: 0e0b 393e 0963 843c 6f59 adbc 4ab2 c2bd
00000210: d0dc ea3d aab7 b0bc 3f9c 003e 2215 87bc
00000220: 70d2 0fbd c707 a23b d709 e0bd 0c63 8f3d
00000230: 8531 56bc c733 3d3b 85a2 3b3b 851a 113d
00000240: 3e0e 2cbd a115 ea3b 2e03 003d cf58 87be
00000250: 8bea babc 697d 3ebc fe6d d5bc 9e52 f43d
00000260: fe98 2b3d f192 bfbc 127b fe3b ea4e 72bc
00000270: 3795 3fbd 7886 983d 6e9f f5bc f47d 3a3d
00000280: 780c ca3d f2b9 2bbc 8ba6 5b3d 567a 793d
00000290: 303d 6cb9 6266 2b3d d3d6 cb3c 511f 623c
000002a0: b513 5a3c 5833 e83b 0a0f 9e3b 2bdb 3f3d
000002b0: dc61 1cbe b43c d2bc 612f 9f3d 631d adba
000002c0: 4247 aa3c 3288 793d ff14 c13d 8f15 323c
000002d0: 3128 6c3c 7e5d 2b3d 441b c03d 4f3e 1abc
000002e0: e00c e4bc 5208 f63c 69fa 0a3d ae9e 55bd
000002f0: e873 853d e8d2 223e 8ccd 9b3d 8440 3fbc
00000300: 4089 083d 3c53 c9be 9438 9fbc 975f ffbc
00000310: 16d9 f8bc 930e d03d 2a33 333c d5ee 23bd
00000320: 1d03 da3c 04a3 abbc eac0 31bd de24 07bd
00000330: 8892 1fbc 192d 203d b8bb dcbc 1112 25bd
00000340: 229e 87bc 7d53 8d3d 21e1 75bd ed5d 343d
00000350: 1b6b 90bd f84e 663d 125a 81bb 98ac 2e3e
00000360: 841a e6bc 285c 3dbd 2870 82be b6c2 d13d
00000370: 16d4 10be fab4 003c a8c9 b6bc 6548 603d
00000380: e5bd a53d 31c6 a3bc b99f ac3d f6c4 21be
00000390: 9b42 9a3d 9ecb 79bc 74f0 38bc 9bd2 d4bb
000003a0: 6cd4 013e 9b56 0b3e 7ee8 9c3d a075 edbc
000003b0: ecd7 cb3a f269 39be b5e9 5bbd 6784 eb3d
000003c0: a522 9abb 6b52 213c 0747 0fbd c7d7 bd3d
000003d0: 9aa5 84bc 6c56 2b3d f342 2d3c 86a9 2fbc
000003e0: fc15 583c 4d77 76bc 555b 2dbd 67b6 163d
000003f0: 58fb a0bc 34cd ddbc 6a96 dcbc dce3 92bd

l2.bias f4 [300]
0.08624454 0.02722971 0.025551626 0.04183847 0.06442031 0.073741354 0.19870983 0.075433426
0.09220114 0.0929244 -0.00016708007 0.13877787 0.029407661 0.051380318 0.0923577 -0.028919477
-0.07212532 0.117849104 0.0052020974 0.013053823 0.13452746 -0.036446307 0.11820378 0.10935569
0.12546083 0.10890027 -0.028269688 -0.025336448 -0.034442425 0.06252925 -0.057041626 0.08271044
-0.03170751 -0.05727185 0.08240061 0.010760232 0.08458589 0.12834375 0.0046319673 0.09292302
-0.0045305784 0.10958285 0.0064948215 -0.09890808 0.057686 0.043782912 0.048514675 0.00033819195
0.13486443 0.14736865 -0.10971791 0.18901283 0.010725742 0.10403204 -0.0044571143 -0.13007241
-0.041521013 0.22569916 -0.12119667 -0.011172769 0.085470416 0.092272386 0.10395542 0.14705306
0.0113314465 0.07160348 -0.06968679 0.098093465 0.017212514 0.020355593 0.013563362 -0.050126947
0.017126463 0.018351758 -0.057240188 0.12710096 -0.028352194 -0.01629277 0.10502973 0.11753599
-0.0076617426 0.28017548 0.12582862 -0.008251846 0.07913611 0.023338616 0.08415992 0.0025578612
0.086689144 0.11417271 -0.019351074 0.11355508 -0.021204442 -0.06684641 -0.0264157 0.081555545
0.04885219 0.104172096 -0.01247472 -0.01187086 -0.01624739 0.04212793 0.10145366 0.093536116
-0.026274037 -0.07721532 0.011043133 0.31686005 0.053215746 -0.046383344 0.06932133 -0.038694743
0.08397153 -0.020519 0.07306101 0.06313813 -0.033098936 -0.03237907 0.033649616 -0.045962445
0.11755653 0.09216156 0.15086016 0.14433788 -0.048517536 0.10045823 0.14048885 -0.055851057
-0.02967169 0.10822585 0.13958968 -0.043269116 -0.028933967 0.18469042 0.11836897 0.0109898215
-0.019241545 0.12549002 0.10069341 0.01723381 -0.01420279 0.09048751 0.11957849 -0.08405216
0.06224824 -0.008090629 0.07749351 0.11732677 0.08647431 -0.054032646 0.11129428 0.029928222
-0.053311538 -0.08804258 -0.044911373 0.10261265 0.057100046 -0.014462821 0.1313451 0.05806654
0.07551042 0.019208912 -0.0743272 -0.02440517 0.062743075 -0.049323786 0.12997043 0.116390795
-0.02538233 -0.07790525 0.10176414 0.09941767 0.1097701 0.08511359 0.054701366 -0.047463175
0.2607933 0.13523231 -0.016580151 -0.044108305 0.083643794 0.06898688 0.105113305 0.090524465
-0.024366105 -0.06010714 -0.001865281 0.06488656 -0.1256875 0.05730095 0.0074521434 0.11054301
0.08206267 0.0744847 0.0601587 0.13553278 0.0020867812 0.10744652 0.12294414 0.0716708
0.09854551 -0.055775058 -0.02005858 0.11093261 0.055724528 0.14428076 -0.05228427 -0.041962277
-0.03591584 0.04714059 -0.0049398616 -0.04489305 0.096366026 0.11907921 0.16611877 -0.015007299
0.107746445 -0.0539648 0.14451428 0.07878387 0.14534625 -0.022509588 -0.01838278 0.0065375
-0.002560713 -0.035596844 0.04819181 0.029006692 -0.007459502 0.0010524907 0.10977341 -0.013739628
0.030748673 0.01920798 -0.033576764 0.041289046 -0.23747036 0.0021507933 0.24878012 0.021175317
0.1324661 -0.036811166 0.12578484 -0.04806474 0.047389533 -0.09620053 -0.048129916 0.13491204
0.12895559 0.061888896 -0.04059334 0.016823806 0.0034853697 0.13055933 0.06908938 -0.028078713
00000000: faa0 b03d d710 df3c a551 d13c d15e 2b3d
00000010: ccee 833d b505 973d 977a 4b3e d77c 9a3d
00000020: f4d3 bc3d 264f be3d 3732 2fb9 c91b 0e3e
00000030: 56e8 f03c 2b74 523d 0926 bd3d 8ae8 ecbc
00000040: 71b6 93bd df5a f13d 5b76 aa3b b4df 553c
00000050: 91c1 093e b948 15bd d314 f23d e0f5 df3d
00000060: ce78 003e 1b07 df3d d595 e7bc 628e cfbc
00000070: 8013 0dbd 560f 803d 7ba4 69bd 1764 a93d
00000080: bcdf 01bd e395 6abd a7c1 a83d af4b 303c
00000090: 5e3b ad3d 8b6c 033e c2c7 973b 6d4e be3d
000000a0: 3f75 94bb f96c e03d 83d2 d43b 5290 cabd
000000b0: 2848 6c3d b655 333d 53b7 463d 5b4f b139
000000c0: e719 0a3e cfe7 163e c9b3 e0bd 948c 413e
000000d0: 06bb 2f3c c00e d53d fc0c 92bb b431 05be
000000e0: f011 2abd ae1d 673e f635 f8bd fd0d 37bc
000000f0: 1d0b af3d 4ef9 bc3d 94e6 d43d 1495 163e
00000100: 88a7 393c d8a4 923d f3b7 8ebd 3ae5 c83d
00000110: 4201 8d3c c6c0 a63c dd38 5e3c ea51 4dbd
00000120: cc4c 8c3c 6d56 963c b074 6abd c126 023e
00000130: dc42 e8bc 6a78 85bc d419 d73d b6b6 f03d
00000140: 5b0f fbbb 2973 8f3e 38d9 003e c032 07bc
00000150: 1d12 a23d a030 bf3c 095c ac3d caa1 273b
00000160: 148a b13d 62d3 e93d 2586 9ebc 918f e83d
00000170: f0b4 adbc c5e6 88bd bd65 d8bc 9806 a73d
00000180: 3c19 483d 2e58 d53d c562 4cbc ff7d 42bc
00000190: 3f19 85bc 568e 2c3d f0c6 cf3d dd8f bf3d
000001a0: a63c d7bc 1123 9ebd 42ee 343c 7b3b a23e
000001b0: c1f8 593d 76fc 3dbd 57f8 8d3d 617e 1ebd
000001c0: 44f9 ab3d 7617 a8bc 03a1 953d 904e 813d
000001d0: c092 07bd ea9f 04bd 2ed4 093d 1e43 3cbd
000001e0: 7ac1 f03d 33bf bc3d 167b 1a3e 4fcd 133e
000001f0: 53ba 46bd 0bbd cd3d 4fdc 0f3e 14c4 64bd
00000200: 0b12 f3bc 84a5 dd3d 99f0 0e3e f53a 31bd
00000210: ed06 edbc 7c1f 3d3e 6e6b f23d a70e 343c
00000220: 72a0 9dbc 7580 003e 5938 ce3d eb2d 8d3c
00000230: d2b2 68bc 8451 b93d 91e5 f43d 8a23 acbd
00000240: 03f8 7e3d 8f8e 04bc ebb4 9e3d 0549 f03d
00000250: 7119 b13d 5651 5dbd 41ee e33d 082c f53c
00000260: 335d 5abd ab4f b4bd fdf4 37bd 9526 d23d
00000270: bde1 693d 78f5 6cbc 547f 063e 2ed7 6d3d
00000280: 35a5 9a3d 025c 9d3c dc38 98bd 5aed c7bc
00000290: 717f 803d bd07 4abd f816 053e 4c5e ee3d
000002a0: 9bee cfbc ca8c 9fbd b869 d03d 7e9b cb3d
000002b0: 25cf e03d 0950 ae3d 8a0e 603d bf68 42bd
000002c0: b386 853e 577a 0a3e 19d3 87bc e9aa 34bd
000002d0: 704d ab3d fe48 8d3d a545 d73d e464 b93d
000002e0: 6d9b c7bc e832 76bd 727c f4ba 3fe3 843d
000002f0: 39b4 00be 67b4 6a3d 1c31 f43b 6064 e23d
00000300: 7910 a83d 6f8b 983d f868 763d 1bc9 0a3e
00000310: 61c2 083b ec0c dc3d 23ca fb3d 24c8 923d
00000320: 3ad2 c93d 6374 64bd e451 a4bc a330 e33d
00000330: 673f 643d 56be 133e 0828 56bd a3e0 2bbd
00000340: 7d1c 13bd 7e16 413d 90de a1bb c6e1 37bd
00000350: 8d5b c53d cddf f33d 0a1b 2a3e 2de1 75bc
00000360: 2baa dc3d 320a 5dbd 8dfb 133e 7059 a13d
00000370: a6d5 143e 0766 b8bc 7c97 96bc 8638 d63b
00000380: a3d1 27bb ffcd 11bd c664 453d 719f ed3c
00000390: d76e f4bb baf3 893a e2d0 e03d 2d1c 61bc
000003a0: a4e4 fb3c 0e5a 9d3c ca87 09bd b41e 293d
000003b0: 6e2b 73be 53f4 0c3b 37c0 7e3e dc77 ad3c
000003c0: 31a5 073e 4ec7 16bd becd 003e 88df 44bd
000003d0: 871b 423d c904 c5bd e023 45bd 6226 0a3e
000003e0: ef0c 043e 367f 7d3d 3445 26bd 14d2 893c
000003f0: cd6a 643b 58b1 053e bc7e 8d3d 5405 e6bc

l3.weight f4 [1, 300]
-0.09980745 -0.00012141597 -0.16920365 0.15172201 -0.12770568 -0.14707214 -0.25621358 -0.11188643
-0.16157156 -0.14677045 -0.00024436333 -0.12804903 0.012468832 -0.011087576 -0.14720012 0.012254073
0.015719565 -0.10001152 -0.011691289 0.010223238 -0.12243938 0.010906121 -0.14194047 -0.13769968
-0.1126867 -0.10290187 0.028486304 0.050080225 0.00023825957 -0.14231193 0.038093388 -0.023325693
-0.007607126 0.038692128 -0.14173594 -0.0076999227 -0.13684821 -0.099544875 0.018602422 -0.093992844
-0.005232459 -0.10026956 0.020538656 -0.0005642481 -0.067427054 -0.18328817 -0.16960272 0.011645489
-0.13779338 -0.16520719 -0.013442715 -0.09329612 0.024787433 -0.099156864 0.010705148 0.00406258
0.04138224 -0.1688947 -0.007797507 -0.0011934141 -0.10934077 -0.1412934 -0.08632647 -0.1354937
0.007472285 -0.10893472 -0.13005304 -0.09888085 0.042029023 -0.015537736 -0.002515835 0.037965987
0.009416683 0.002373165 0.0069072223 -0.15082318 0.016636329 0.0015533885 -0.14011934 -0.14690661
0.031495605 -0.26040298 -0.11088153 0.008896549 -0.09211435 -0.005261943 -0.103681915 0.01214872
-0.13282134 -0.1818248 0.0073520043 -0.1442426 0.039434686 0.026600402 0.047996204 -0.12710582
-0.044885937 -0.09852792 0.02780155 -0.032213233 0.01923178 -0.14413841 -0.15429182 -0.1157504
0.16073884 0.00014677433 0.03226433 -0.2604744 -0.06682071 0.014686136 -0.1406023 0.014596621
-0.047855552 0.004179219 -0.1422896 -0.120241195 0.00068116235 0.027513849 0.0119406 0.024177829
-0.06882483 -0.13751307 -0.13699836 -0.09845169 0.00018786396 -0.13731901 -0.1263945 -0.004341362
0.0026559476 -0.10241074 -0.10121483 0.005031705 -0.040862996 -0.10671178 -0.0727505 0.045048386
-0.001618688 -0.14479807 -0.10544671 0.044168845 -0.006709329 -0.13091642 -0.1346438 0.017473714
-0.12143874 0.008763403 -0.13564248 -0.122753516 -0.072815105 0.011614823 -0.088836975 0.02902954
-0.004910321 0.0004347697 -0.004825042 -0.13492553 -0.0918477 0.010093834 -0.11792674 -0.12696151
-0.14448482 -0.062428895 0.013535748 0.021398028 -0.15426792 0.039448157 -0.15637417 -0.116027065
-0.00031452783 1.7145698e-05 -0.14496405 -0.19129439 -0.13492987 -0.104361385 -0.15493903 0.046313994
-0.31638256 -0.14195356 0.016128866 0.0010194634 -0.1305781 -0.17858656 -0.1351003 -0.03475316
-0.001996612 0.002052209 0.0072082514 -0.12089466 0.35652506 -0.11648836 0.00878239 -0.099368535
-0.1336187 -0.116162516 -0.12282005 -0.10347139 0.005126766 -0.11300647 -0.11550279 -0.12894177
-0.11963059 -0.032512262 -0.006663844 -0.15177874 -0.12118722 -0.12336169 -0.024437428 0.02264179
0.018020377 -0.11070759 0.03274973 0.016748276 -0.12791419 -0.1065426 -0.11229342 -0.0066063195
-0.103566185 0.0022407644 -0.10803223 -0.14409211 -0.111106806 -0.005528511 0.04104957 0.02340995
0.04006455 0.031897027 -0.14365406 0.031036751 0.013190817 -0.005967183 -0.11045541 0.008954043
-0.005133951 0.05350152 -0.003336521 -0.15754397 0.38195795 0.0025438643 -0.24461085 -0.1926438
-0.1206416 0.023140334 -0.14690597 0.0078890165 -0.11169528 0.0031551768 0.0033467063 -0.13002226
-0.07280813 -0.11198529 0.00066629954 0.016133688 0.021745231 -0.124463364 -0.086938314 0.044867128
00000000: d967 ccbd b4a0 feb8 b943 2dbe 045d 1b3e
00000010: 47c5 02be 149a 16be 6d2e 83be b624 e5bd
00000020: 0473 25be fe4a 16be e41d 80b9 491f 03be
00000030: 124a 4c3c aaa8 35bc a1bb 16be 4fc5 483c
00000040: 51c6 803c d7d2 ccbd d28c 3fbc 5e7f 273c
00000050: 7fc1 fabd 96af 323c d858 11be 2501 0dbe
00000060: 49c8 e6bd 37be d2bd 1c5c e93c ec20 4d3d
00000070: 51d5 7939 38ba 11be d007 1c3d 8615 bfbc
00000080: 3345 f9bb a37b 1e3d 3a23 11be a24f fcbb
00000090: f021 0cbe 2fde cbbd 1b64 983c 527f c0bd
000000a0: 0c75 abbb 215a cdbd af40 a83c 0dea 13ba
000000b0: 3217 8abd e5af 3bbe 56ac 2dbe b9cc 3e3c
000000c0: b519 0dbe 132c 29be d53e 5cbc 0912 bfbd
000000d0: 040f cb3c c112 cbbd a564 2f3c 641f 853b
000000e0: 6c80 293d bbf2 2cbe 3b82 ffbb 556c 9cba
000000f0: 0eee dfbd 38af 10be efcb b0bd dcbe 0abe
00000100: 12da f43b 2b19 dfbd a02c 05be 0b82 cabd
00000110: a026 2c3d fd91 7ebc b5e0 24bb 3982 1b3d
00000120: 6e48 1a3c 1a87 1b3b fb55 e23b 6471 1abe
00000130: e948 883c 129b cb3a 727b 0fbe b06e 16be
00000140: 8901 013d 8a53 85be db15 e3bd d5c2 113c
00000150: 73a6 bcbd 616c acbb 2f57 d4bd 6d0b 473c
00000160: 5102 08be 4830 3abe 15e9 f03b 55b4 13be
00000170: 4486 213d 16e9 d93c ab97 443d 0728 02be
00000180: 51da 37bd 02c9 c9bd 14c0 e33c 06f2 03bd
00000190: f78b 9d3c 0599 13be adfe 1dbe 8c0e edbd
000001a0: b998 243e 6fe7 1939 9a27 043d e75c 85be
000001b0: 4cd9 88bd 1e9e 703c 0dfa 0fbe aa26 6f3c
000001c0: 2f04 44bd d4f1 883b 5db4 11be 0441 f6bd
000001d0: 0890 323a b964 e13c 82a2 433c 9510 c63c
000001e0: 08f4 8cbd 3ad0 0cbe 4c49 0cbe 0aa1 c9bd
000001f0: 59fd 4439 5b9d 0cbe 8f6d 01be fc41 8ebb
00000200: 680f 2e3b b9bc d1bd b949 cfbd 00e1 a43b
00000210: f55f 27bd b58b dabd 37fe 94bd a884 383d
00000220: 282a d4ba f245 14be 72f4 d7bd 64ea 343d
00000230: eed9 dbbb f40e 06be 10e0 09be 0925 8f3c
00000240: e0b4 f8bd 6094 0f3c dde5 0abe 3266 fbbd
00000250: 1620 95bd 194c 3e3c 29f0 b5bd 5ccf ed3c
00000260: c2e6 a0bb cdf1 e339 631b 9ebb eb29 0abe
00000270: a61a bcbd 9c60 253c 9383 f1bd 3302 02be
00000280: d4f3 13be 71b5 7fbd 0bc5 5d3c eb4a af3c
00000290: 69f8 1dbe 6494 213d 8d20 20be 999f edbd
000002a0: 36e7 a4b9 1bd4 8f37 7571 14be ade2 43be
000002b0: 0e2b 0abe 6cbb d5bd 56a8 1ebe beb3 3d3d
000002c0: e5fc a1be 465c 11be af20 843c 849f 853a
000002d0: 44b6 05be 65df 36be bc57 0abe 5459 0ebd
000002e0: 97d9 02bb 5b7e 063b 3233 ec3b 9f97 f7bd
000002f0: 748a b63e 7391 eebd 03e4 0f3c bb81 cbbd
00000300: 57d3 08be 9de6 edbd 1489 fbbd cfe8 d3bd
00000310: 6efe a73b f06f e7bd ba8c ecbd 5009 04be
00000320: e200 f5bd 942b 05bd 605c dabb e36b 1bbe
00000330: 0131 f8bd 0ea5 fcbd 0031 c8bc 467b b93c
00000340: 789f 933c a9ba e2bd 9524 063d ae33 893c
00000350: f0fb 02be 0233 dabd 18fa e5bd d379 d8bb
00000360: 821a d4bd cad9 123b 0040 ddbd e28c 13be
00000370: f78b e3bd 8328 b5bb 9823 283d 39c6 bf3c
00000380: ba1a 243d 75a6 023d 0d1a 13be c940 fe3c
00000390: 4c1e 583c 5c88 c3bb 7236 e2bd fab3 123c
000003a0: b43a a8bb 6924 5b3d 89a9 5abb 3553 21be
000003b0: fe8f c33e f6b6 263b 447b 7abe 6b44 45be
000003c0: f112 f7bd cc90 bd3c 856e 16be ef40 013c
000003d0: 7fc0 e4bd 15c7 4e3b 6a54 5b3b 8e24 05be
000003e0: 6e1c 95bd 8b58 e5bd 9baa 2e3a cc2a 843c
000003f0: 0e23 b23c a6e6 febd b70c b2bd 98c6 373d
