TD3/models/second_training_attempt/train_450_episodes_actor.pth (torch, 528299 bytes, 6 tensors)

l1.weight f4 [400, 24]
0.24228029 0.09931639 -0.35456565 0.09330121 0.04057991 -0.02494483 -0.25587845 0.027577497
-0.12702113 0.08371721 0.09981138 0.38436016 0.07296384 0.15343809 0.006066816 -0.08225581
0.04422854 -0.046548832 -0.20364141 -0.048602656 -0.12533654 -0.14451118 -0.019460715 -0.039003022
0.028861117 0.22334869 -0.20830645 0.15055478 -0.26000696 0.07509222 0.091771424 -0.06557628
-0.12312749 0.03583173 -0.021974461 0.20814522 0.23521021 0.033764377 -0.18847625 -0.06753928
-0.07533598 -0.17976965 -0.11416152 -0.054215696 0.1111402 -0.03687992 0.09330308 -0.17541055
-0.006672535 -0.0081597 -0.32289734 0.14638545 -0.09236586 -0.2374522 -0.17316586 -0.09332136
0.07296973 -0.009844441 0.055080943 0.17490189 0.20710742 -0.11229803 0.07358863 -0.09057117
-0.029486366 -0.1772189 -0.0918311 0.0018661742 0.0645867 -0.19905105 0.030556656 -0.071216606
-0.13792926 -0.06602241 0.16307783 0.188865 0.14252733 0.014059519 0.09405954 -0.08142836
-0.110773675 -0.23671918 0.22118655 0.0936495 0.13321301 -0.20987023 0.0014750629 0.05200329
-0.26427656 -0.2591315 -0.21880521 -0.20930156 0.033344645 0.066276446 -0.018840682 -0.23618719
0.11834311 0.1236904 0.031506192 0.025119301 -0.20414154 0.16134083 -0.091904305 0.14097658
0.09796447 0.12093183 0.066476285 -0.13014384 -0.07137087 0.13401297 0.035686146 -0.15799242
-0.012772654 -0.11789141 -0.012538488 0.16527447 -0.09482278 -0.013923478 -0.070150934 0.04556322
0.25075564 -0.023199541 -0.28330672 -0.07685951 0.13867202 -0.16894442 -0.1496601 0.115433514
0.103971295 0.28908566 0.12909853 -0.064582236 0.10062042 0.09467188 0.014155885 0.2022891
0.2355853 -0.08039143 -0.06382414 0.10963882 -0.08908322 0.048721652 0.24304986 -0.1270869
0.14701381 -0.088140085 -0.19260265 -0.03799317 -0.012468888 -0.090289585 0.017017702 -0.122604154
0.11260971 0.1350727 0.11388082 0.15350784 -0.12318882 -0.13852431 -0.22021069 -0.122462414
-0.0605247 -0.08506069 0.14059576 0.12477078 0.06243412 -0.022133961 -0.033600267 -0.18876486
-0.19502766 -0.2029123 0.029574802 -0.21721391 -0.020052206 0.272313 0.058507506 0.15687118
0.114174366 -0.03358282 0.14081195 0.030413585 -0.15317546 0.029314807 0.0070364536 0.17827637
-0.009308433 0.11744952 -0.10077347 0.20116125 0.14249797 0.023858028 -0.08428591 -0.06697244
-0.06441561 0.012992614 -0.2034902 -0.02763117 -0.029728403 0.1055523 0.3338319 0.09344467
0.19184145 0.077195704 0.06729164 -0.180322 0.08861619 0.02886237 -0.106439166 -0.12922338
0.06719416 -0.1841076 -0.10772367 -0.12002532 -0.10266539 -0.21005867 0.009575981 -0.09050731
0.03360624 -0.12414434 0.13386896 -0.23675674 -0.14350925 0.05415506 0.30393693 -0.22954738
-0.09816605 -0.19308208 0.07654122 -0.121757016 0.14151202 0.06376296 0.21440682 -0.09684974
0.22313851 0.023654906 0.14740813 -0.096236385 -0.069764555 0.034154586 -0.0024509989 -0.1109037
0.0331394 0.20636602 0.021856712 0.1818047 -0.19137384 0.08596286 -0.028015597 -0.026673187
-0.19072716 0.08653869 0.12833574 0.10341798 -0.19461958 0.101902 -0.020687707 -0.27713114
00000000: 5318 783e 6466 cb3d a189 b5be b414 bf3d
00000010: 1f37 263d 1a59 ccbc 8002 83be 34ea e13c
00000020: d411 02be ee73 ab3d e969 cc3d dbca c43e
00000030: 116e 953d e01e 1d3e 24cc c63b bc75 a8bd
00000040: fc28 353d fda9 3ebd 6087 50be 9413 47bd
00000050: 3958 00be bdfa 13be 146c 9fbc a2c1 1fbd
00000060: 266e ec3c 85b5 643e 494e 55be 082b 1a3e
00000070: a21f 85be f3c9 993d a8f2 bb3d db4c 86bd
00000080: 442a fcbd 4bc4 123d c903 b4bc 0524 553e
00000090: f2da 703e 844c 0a3d ebff 40be 0952 8abd
000000a0: c049 9abd 8915 38be 84cd e9bd 4711 5ebd
000000b0: 799d e33d 660f 17bd af15 bf3d d39e 33be
000000c0: 48a5 dabb 43b0 05bc cd52 a5be 11e6 153e
000000d0: 502a bdbd ab26 73be 6452 31be 451f bfbd
000000e0: 2771 953d 944a 21bc 8e9c 613d 7b19 333e
000000f0: f813 543e 82fc e5bd a3b5 963d 617d b9bd
00000100: 648d f1bc df78 35be f211 bcbd 6a9a f43a
00000110: 0846 843d 0ad4 4bbe f451 fa3c 03da 91bd
00000120: 543d 0dbe c236 87bd e0fd 263e d465 413e
00000130: aff2 113e e659 663c 4aa2 c03d e9c3 a6bd
00000140: 4fdd e2bd 8366 72be ba7e 623e 4fcb bf3d
00000150: fe68 083e 39e8 56be e656 c13a 6701 553d
00000160: 424f 87be e2ac 84be 790e 60be 2653 56be
00000170: 6594 083d f2bb 873d c657 9abc 0edb 71be
00000180: df5d f23d 6451 fd3d a30c 013d fec6 cd3c
00000190: 7b0a 51be 8836 253e 5338 bcbd 2a5c 103e
000001a0: 99a1 c83d 1bab f73d b824 883d 6d44 05be
000001b0: e42a 92bd b23a 093e a32b 123d c4c8 21be
000001c0: 6544 51bc 0d71 f1bd 3b6e 4dbc b63d 293e
000001d0: 7232 c2bd 4d1f 64bc 4bab 8fbd 80a0 3a3d
000001e0: 0b63 803e f70c bebc 940d 91be 8568 9dbd
000001f0: 0a00 0e3e c4ff 2cbe 7f40 19be 6868 ec3d
00000200: e7ee d43d 0903 943e 6832 043e b143 84bd
00000210: 1412 ce3d 55e3 c13d 16ee 673c e024 4f3e
00000220: 463d 713e 43a4 a4bd 3bb6 82bd 518a e03d
00000230: 4371 b6bd 5b90 473d 10e2 783e 1123 02be
00000240: ca8a 163e ca82 b4bd a139 45be ba9e 1bbd
00000250: 4f4a 4cbc bfe9 b8bd b568 8b3c e317 fbbd
00000260: eb9f e63d 7f50 0a3e 593a e93d 2931 1d3e
00000270: 6c4a fcbd 51d9 0dbe e97e 61be 93cd fabd
00000280: bfe8 77bd 4d34 aebd 56f8 0f3e d387 ff3d
00000290: ebba 7f3d 4852 b5bc 6fa0 09bd 934b 41be
000002a0: 55b5 47be 3ec8 4fbe db46 f23c 536d 5ebe
000002b0: 8644 a4bc 9c6c 8b3e 91a5 6f3d d7a2 203e
000002c0: 40d4 e93d 248e 09bd 0231 103e e925 f93c
000002d0: 07da 1cbe 9b25 f03c 0d92 e63b 158e 363e
000002e0: 6682 18bc 6089 f03d 5262 cebd 37fd 4d3e
000002f0: fdea 113e e971 c33c 179e acbd d928 89bd
00000300: 55ec 83bd f9de 543c bc5f 50be c35a e2bc
00000310: fb88 f3bc ce2b d83d 04ec aa3e eb5f bf3d
00000320: 1672 443e c818 9e3d 33d0 893d 55a6 38be
00000330: 687c b53d c770 ec3c c7fc d9bd 2253 04be
00000340: 179d 893d b486 3cbe 3a9e dcbd d6cf f5bd
00000350: 3b42 d2bd 9f19 57be 93e4 1c3c e65b b9bd
00000360: b2a6 093d 633f febd f214 093e 5c70 72be
00000370: 17f4 12be b2d1 5d3d 9f9d 9b3e 780e 6bbe
00000380: 480b c9bd 4fb7 45be a5c1 9c3d be5b f9bd
00000390: 87e8 103e 2896 823d 768d 5b3e 2859 c6bd
000003a0: 6c7e 643e efc7 c13c 28f2 163e 9517 c5bd
000003b0: b8e0 8ebd aee5 0b3d f0a0 20bb 7b21 e3bd
000003c0: 2ebd 073d 9d51 533e d90c b33c 032b 3a3e
000003d0: 81f7 43be 4c0d b03d f780 e5bc ba81 dabc
000003e0: fb4d 43be 323b b13d 726a 033e cecc d33d
000003f0: 5b4a 47be ffb1 d03d 4479 a9bc 22e4 8dbe

l1.bias f4 [400]
0.15824315 0.15737246 0.1050111 -0.2293586 -0.0012713803 -0.064149946 -0.092214204 -0.08427595
-0.119893216 -0.051444445 -0.18506715 -0.13612719 -0.14129663 0.024910774 0.06984353 -0.016800236
-0.1473451 0.113817126 -0.058992375 -0.23173916 -0.15879005 0.022603236 0.1806383 0.12646627
-0.1191893 -0.07390865 -0.20233071 -0.056866925 -0.010634635 -0.05162447 0.23956579 -0.18303844
-0.011566451 -0.015987918 -0.008839395 -0.023208622 0.082739115 -0.09706544 -0.05386316 0.10090882
0.11091073 -0.045778617 0.13189115 0.070171796 0.022610866 -0.03675438 -0.1769134 -0.08786088
-0.019627776 -0.20225285 -0.1994769 0.14460072 0.135248 -0.20032403 -0.15341312 0.13445444
-0.16253123 -0.013987744 0.049670532 -0.1516311 0.08997274 0.07057746 -0.23552682 0.060707625
-0.2606056 -0.10652317 0.07616026 -0.12082105 -0.0070427028 -0.035541456 -0.14479944 0.07789177
-0.041552745 -0.08179333 -0.09705935 0.09712014 -0.08252118 -0.1386652 0.21105485 -0.06776409
-0.20455328 -0.07384827 -0.09363844 -0.26558223 -0.104294635 0.06451705 0.12176181 -0.13118225
-0.27816117 -0.016601317 0.02736387 0.12743638 -0.06019897 -0.009429032 -0.18021356 0.08487073
-0.035691164 -0.027070308 0.16452475 -0.040935963 -0.087655455 -0.16365851 0.060816783 -0.28701177
-0.0063709733 0.025037933 -0.14395192 -0.06348402 -0.12317052 0.08233263 -0.072485395 0.11204653
-0.15739852 -0.15891668 -0.085293174 -0.16768377 -0.11674307 -0.12483899 0.11083694 -0.09384419
-0.18006387 0.03720487 -0.22992061 0.08408661 -0.088684045 -0.12664144 -0.07716779 -0.10539325
0.1136412 0.15775523 -0.14645976 0.28956544 -0.0805866 -0.122866906 0.191688 -0.12616788
-0.15718044 0.17194243 -0.18547831 -0.08569794 0.04703701 -0.08487244 -0.04849659 0.13180178
-0.0915906 0.06484745 0.14175323 0.19177131 0.056523114 0.026429335 0.12213916 -0.19167042
-0.22606139 -0.11008976 0.07360653 -0.1259524 -0.07489076 -0.037683003 -0.0040608523 -0.13390298
-0.13509609 0.054326005 -0.16125262 -0.08187807 -0.054557003 0.10066972 0.15396643 -0.09530178
0.16521999 0.09225066 -0.20998299 0.13916512 -0.01919693 -0.07908139 -0.08032178 -0.08593636
-0.21739224 -0.23661476 -0.05737225 0.06967383 -0.23562573 -0.06438208 -0.041205693 0.02862147
-0.22503732 -0.31732395 0.008213201 -0.1466838 -0.2777919 -0.22915646 0.16073155 0.07601996
0.08028849 -0.029700404 -0.19044782 0.1013699 0.04993994 -0.007482641 -0.19570757 -0.018130397
-0.15252964 -0.079377465 -0.1252703 -0.10517492 -0.09893884 0.047758333 0.12415123 -0.093798764
0.10114765 -0.07263862 -0.1895006 -0.18301105 -0.0013258285 -0.22166626 0.112128 -0.14202446
0.15467234 -0.14383125 -0.06265375 -0.09205017 0.059014756 -0.12284299 0.26546746 0.069252536
-0.02197199 -0.18431135 -0.10397463 -0.09932296 -0.17307855 -0.21578194 -0.24292646 0.06539883
0.10545035 0.08239217 -0.16335742 -0.03610817 0.031829175 -0.22822149 -0.21648654 -0.08484579
0.0059314817 -0.054498825 0.03188342 0.14437933 0.20791453 -0.20217879 0.033966128 -0.041883063
-0.08044708 0.08209303 -0.085964575 0.060855404 -0.10849222 -0.07558745 -0.011401205 0.07961723
00000000: 7e0a 223e 3f26 213e 0f10 d73d fbdc 6abe
00000010: 72a4 a6ba 0c61 83bd cdda bcbd df98 acbd
00000020: 938a f5bd 69b7 52bd 3e82 3dbe ed64 0bbe
00000030: 10b0 10be ae11 cc3c 200a 8f3d a6a0 89bc
00000040: a2e1 16be f418 e93d fda1 71bd 084d 6dbe
00000050: dc99 22be 6c2a b93c 3ff9 383e 6080 013e
00000060: 8519 f4bd 6b5d 97bd c82f 4fbe 4bed 68bd
00000070: e43c 2ebc 2e74 53bd bc50 753e 6e6e 3bbe
00000080: 3681 3dbc 18f9 82bc 1cd3 10bc 0220 bebc
00000090: 2073 a93d 3fca c6bd 9e9f 5cbd 49a9 ce3d
000000a0: 2a25 e33d 5c82 3bbd 790e 073e 3bb6 8f3d
000000b0: 6c3a b93c c38b 16bd c928 35be 68f0 b3bd
000000c0: 6eca a0bc 5f1b 4fbe ac43 4cbe 3612 143e
000000d0: 747e 0a3e be21 4dbe 5418 1dbe 6dae 093e
000000e0: 966e 26be da2c 65bc 5473 4b3d 2f45 1bbe
000000f0: a143 b83d ea8a 903d f12d 71be 8fa8 783d
00000100: 196e 85be d228 dabd e9f9 9b3d 0771 f7bd
00000110: 79c6 e6bb eb93 11bd 4e46 14be b885 9f3d
00000120: 3633 2abd 4383 a7bd 0dc7 c6bd ede6 c63d
00000130: dd00 a9bd 40fe 0dbe c31e 583e e6c7 8abd
00000140: 6a76 51be c33d 97bd 83c5 bfbd 65fa 87be
00000150: 6d98 d5bd 8421 843d 415e f93d a454 06be
00000160: 246b 8ebe 7cff 87bc 322a e03c af7e 023e
00000170: 3293 76bd 3a7c 1abc e789 38be b5d0 ad3d
00000180: e630 12bd 8dc2 ddbc 2d79 283e 78ac 27bd
00000190: b484 b3bd 1996 27be 051b 793d 35f3 92be
000001a0: 99c3 d0bb 5a1c cd3c 2268 13be e903 82bd
000001b0: d340 fcbd 039e a83d 3973 94bd a778 e53d
000001c0: 142d 21be 0ebb 22be 30ae aebd 4bb5 2bbe
000001d0: fe16 efbd 96ab ffbd 7afe e23d 6231 c0bd
000001e0: aa62 38be 2264 183d 4f70 6bbe 9a35 ac3d
000001f0: fb9f b5bd 4bae 01be 250a 9ebd 6bd8 d7bd
00000200: b8bc e83d 968a 213e 8cf9 15be ec41 943e
00000210: 960a a5bd a5a1 fbbd dc49 443e 2732 01be
00000220: e9f3 20be ad11 303e 07ee 3dbe 6782 afbd
00000230: e1a9 403d 9ad1 adbd 5ca4 46bd 0cf7 063e
00000240: da93 bbbd bdce 843d c227 113e b35f 443e
00000250: c884 673d 5582 d83c 1924 fa3d 4045 44be
00000260: a37c 67be bd76 e1bd 05bf 963d aaf9 00be
00000270: 5460 99bd 7e59 1abd e610 85bb dd1d 09be
00000280: a156 0abe f284 5e3d 681f 25be b1af a7bd
00000290: 2a77 5fbd ed2b ce3d 60a9 1d3e 942d c3bd
000002a0: 6e2f 293e eaed bc3d c805 57be 4d81 0e3e
000002b0: e142 9dbc 6cf5 a1bd bf7f a4bd 67ff afbd
000002c0: 129c 5ebe 244b 72be 2aff 6abd 27b1 8e3d
000002d0: df47 71be c1da 83bd 4dc7 28bd 9377 ea3c
000002e0: 2f70 66be 4978 a2be a990 063c 4734 16be
000002f0: bd3a 8ebe fea7 6abe d096 243e 5ab0 9b3d
00000300: 4b6e a43d 434e f3bc c104 43be 069b cf3d
00000310: d38d 4c3d f130 f5bb 9167 48be 3386 94bc
00000320: bb30 1cbe a790 a2bd dc46 00be f365 d7bd
00000330: 72a0 cabd 3e9e 433d 0043 fe3d 9119 c0bd
00000340: 8026 cf3d 8fc3 94bd 720c 42be 4067 3bbe
00000350: 6cc7 adba 7bfc 62be 5da3 e53d dc6e 11be
00000360: 6d62 1e3e 8048 13be 9c50 80bd cd84 bcbd
00000370: 75b9 713d 1b95 fbbd 5aeb 873e 46d4 8d3d
00000380: 9afe b3bc 1dbc 3cbe a7f0 d4bd d669 cbbd
00000390: 813b 31be f1f5 5cbe b7c1 78be d2ef 853d
000003a0: 5af6 d73d 3abd a83d 2b47 27be 29e6 13bd
000003b0: 4f5f 023d e5b2 69be a6ae 5dbe a1c3 adbd
000003c0: e05c c23b 293a 5fbd 3098 023d 2dd8 133e
000003d0: 8ce7 543e f507 4fbe 1120 0b3d 938d 2bbd
000003e0: 70c1 a4bd 6420 a83d 320e b0bd 8443 793d
000003f0: 2b31 debd 98cd 9abd 1fcc 3abc 5c0e a33d

l2.weight f4 [300, 400]
0.11201057 -0.07148817 -0.016137471 0.0011711711 0.0058774706 0.049600758 -0.0070565166 -0.024229368
-0.03699382 -0.04408078 -0.07691629 -0.055759396 -0.03454809 -0.09232811 -0.059818063 0.019923082
-0.022442473 -0.028823605 0.037223622 -0.03096888 0.0358179 0.105927914 -0.020495085 -0.045175742
0.02351966 -0.016046872 0.0301 -0.032584593 -0.029200882 -0.04417331 -0.16766953 -0.04215287
0.013006851 -0.06031686 -0.013987886 -0.057284098 0.004607748 0.003834355 0.032879997 -0.008739907
0.07617145 0.03581289 0.01620454 0.039279558 -0.07096642 -0.084156856 0.012216747 -0.065261915
-0.014749512 -0.04002544 0.021512056 0.012846632 -0.09026532 -0.07188892 -0.01226498 -0.036852323
-0.030485207 -0.028185261 -0.07137125 0.0070699593 -0.11438916 -0.023118256 -0.06444213 -0.076918624
-0.032503676 -0.014246928 -0.00434665 0.012382751 -0.05053979 0.00010849601 0.031965513 0.055061307
-0.017815182 0.02882597 -0.061420605 -0.03590047 0.042434655 -0.020903748 -0.09085563 0.038891546
-0.060156036 -0.07297902 0.038354512 -0.008980773 0.021435017 -0.062369667 -0.0819007 0.040695723
-0.045909323 -0.027286798 0.025667138 -0.025360068 0.018833734 0.02238253 0.020322599 -0.059534192
-0.011097313 -0.08985771 0.04723187 -0.029079758 0.012832953 -0.007374296 0.0010160523 0.08617047
0.015654791 -0.15209964 0.014910649 -0.103472345 -0.028752724 -0.12038662 -0.0021452082 -0.023624182
0.0542697 -0.07476159 -0.120877415 0.017862344 -0.004408785 0.025810257 -0.04116598 -0.027722538
-0.06658431 0.016983321 0.0034163934 0.05462395 -0.01899846 -0.06057944 -0.01794754 -0.01738849
0.04746176 0.008170498 -0.036184635 -0.054702483 -0.012070691 0.034462623 0.03392484 -0.05821464
0.030574527 -0.007605984 -0.046657372 -0.061022833 -0.016218672 -0.0068595232 0.021278994 0.02184014
0.01167999 -0.024729135 0.03622397 -0.065810405 -0.08603533 0.024260754 0.061712723 0.10405731
-0.06716844 -0.035135202 -0.16695398 0.035240654 0.023159606 -0.0041558635 -0.2054837 -0.014605065
0.010823968 0.0048138173 -0.04167132 -0.08042116 -0.011635588 -0.030521402 0.058031265 -0.08461706
-0.058853563 -0.031556167 0.048987005 -0.012237217 -0.062140267 0.034883276 -0.034392893 -0.053537276
0.007855566 -0.007047356 0.029127726 0.10227932 -0.058539987 -0.071521975 0.053160228 -0.0071942997
-0.08130985 -0.08398822 0.11814998 0.034067262 0.0029452278 -0.015690725 0.033213943 0.02556822
-0.0037875557 -0.055165693 0.07463898 -0.033134058 -0.021858353 -0.040164858 -0.052510906 -0.03488903
-0.022044782 -0.01913141 0.000730504 -0.040477946 -0.08039201 -0.06138232 0.07289948 -0.02117787
-0.0044172956 0.025020054 -0.06977906 0.06654267 0.004790531 -0.03853471 0.0124377655 0.02376233
0.030452041 0.01420844 -0.05055829 -0.036608223 0.041493446 -0.010972218 0.08816915 0.06415647
0.050183106 -0.112959094 -0.05377229 0.025670806 -0.036580913 0.02088298 -0.028421914 -0.06642304
-0.008503711 0.004190417 -0.020514257 -0.09086481 0.028016811 0.04143971 0.015954481 0.014617965
-0.07393583 0.21412688 -0.03192563 -0.08026722 -0.043052368 -0.017109724 0.0798296 -0.036240447
0.027763309 -0.01718177 -0.004198939 -0.060601495 -0.020707386 0.01640482 0.04338753 0.010137078
00000000: cc65 e53d 6468 92bd bb32 84bc fb81 993a
00000010: cc97 c03b 2a2a 4b3d 5a3a e7bb ab7c c6bc
00000020: d586 17bd 0c8e 34bd 4a86 9dbd f763 64bd
00000030: 4c82 0dbd 8516 bdbd c903 75bd bb35 a33c
00000040: 47d9 b7bc 7b1f ecbc cc77 183d 73b2 fdbc
00000050: cab5 123d bcf0 d83d 4fe5 a7bc 330a 39bd
00000060: 4dac c03c bb74 83bc 4694 f63c 6c77 05bd
00000070: b036 efbc 13ef 34bd 90b1 2bbe 7da8 2cbd
00000080: b01a 553c d00e 77bd 722d 65bc bba2 6abd
00000090: 97fc 963b cd49 7b3b 2dad 063d d431 0fbc
000000a0: c7ff 9b3d 89b0 123d 62bf 843c 9ae3 203d
000000b0: d856 91bd 6e5a acbd c028 483c 0aa8 85bd
000000c0: f0a7 71bc b7f1 23bd 0d3a b03c ae7a 523c
000000d0: 06dd b8bd 803a 93bd 0ef3 48bc 76f2 16bd
000000e0: 1dbc f9bc c7e4 e6bc 172b 92bd 1eab e73b
000000f0: dd44 eabd 7f62 bdbc 3cfa 83bd 8387 9dbd
00000100: 9322 05bd f26b 69bc 586e 8ebb 06e1 4a3c
00000110: d002 4fbd 5a88 e338 45ee 023d f787 613d
00000120: 25f1 91bc 7124 ec3c 2c94 7bbd 5f0c 13bd
00000130: f6cf 2d3d 563e abbc 8412 babd be4c 1f3d
00000140: 2d66 76bd 0676 95bd 9f19 1d3d 1824 13bc
00000150: 7d98 af3c 5677 7fbd 8ebb a7bd 8fb0 263d
00000160: 6a0b 3cbd 9088 dfbc e443 d23c ebbf cfbc
00000170: 3449 9a3c 915b b73c 947b a63c 20da 73bd
00000180: 81d1 35bc 5207 b8bd 3576 413d ac38 eebc
00000190: 4e41 523c 14a4 f1bb 0f2d 853a 257a b03d
000001a0: 7a3e 803c 02c0 1bbe cb4b 743c 4fe9 d3bd
000001b0: d58a ebbc 438d f6bd 9f96 0cbb 8087 c1bc
000001c0: e849 5e3d 9b1c 99bd 948e f7bd 0d54 923c
000001d0: 9277 90bb 0870 d33c a99d 28bd 601a e3bc
000001e0: 5b5d 88bd 9b20 8b3c 92e5 5f3b 5dbd 5f3d
000001f0: a9a2 9bbc 2622 78bd b806 93bc 4e72 8ebc
00000200: 4367 423d 8ddd 053c 5736 14bd b60f 60bd
00000210: 26c4 45bc ae28 0d3d c6f4 0a3d 7972 6ebd
00000220: 6e77 fa3c 9e3b f9bb cd1b 3fbd 14f3 79bd
00000230: 05dd 84bc dac5 e0bb 4951 ae3c 18ea b23c
00000240: 6e5d 3f3c c194 cabc 965f 143d 9bc7 86bd
00000250: 4b33 b0bd 7dbe c63c 7bc6 7c3d 001c d53d
00000260: 9b8f 89bd eee9 0fbd fcf5 2abe 8158 103d
00000270: 37b9 bd3c e92d 88bb 526a 52be 154a 6fbc
00000280: 0357 313c 3abd 9d3b 8caf 2abd d9b3 a4bd
00000290: 31a3 3ebc 0508 fabc 31b2 6d3d b64b adbd
000002a0: 6f10 71bd 0a41 01bd 99a6 483d 9c7e 48bc
000002b0: cb86 7ebd c4e1 0e3d 90df 0cbd e749 5bbd
000002c0: a2b4 003c 82ed e6bb 459d ee3c d277 d13d
000002d0: a0c7 6fbd 1d7a 92bd 8abe 593d 29be ebbb
000002e0: c785 a6bd 0402 acbd 9ef8 f13d 1d8a 0b3d
000002f0: b904 413b d689 80bc 580b 083d 7274 d13c
00000300: a438 78bb 6cf5 61bd 52dc 983d 94b7 07bd
00000310: 4a10 b3bc e883 24bd ad15 57bd cde7 0ebd
00000320: 4297 b4bc 7ab9 9cbc 4b7f 3f3a 34cc 25bd
00000330: 91a4 a4bd 076c 7bbd 534c 953d 367d adbc
00000340: f6be 90bb dbf6 cc3c 53e8 8ebd 8647 883d
00000350: e3f9 9c3b 92d6 1dbd c5c7 4b3c 38a9 c23c
00000360: 8f76 f93c 84ca 683c 3616 4fbd 81f2 15bd
00000370: 08f5 293d d1c4 33bc 0792 b43d 7864 833d
00000380: cd8c 4d3d 1957 e7bd 5540 5cbd 954b d23c
00000390: ded5 15bd c912 ab3c 13d5 e8bc ce08 88bd
000003a0: 2653 0bbc c44f 893b 840d a8bc 5417 babd
000003b0: 8383 e53c afbc 293d f9b2 823c 3080 6f3c
000003c0: ab6b 97bd 1444 5b3e 73c4 02bd 2463 a4bd
000003d0: ae57 30bd b129 8cbc b47d a33d dd70 14bd
000003e0: e16f e33c c9c0 8cbc 4197 89bb 4639 78bd
000003f0: 89a2 a9bc 6763 863c 1fb7 313d fd15 263c

l2.bias f4 [300]
-0.08157967 0.04723693 0.025315365 0.026083224 -0.08666288 0.02905346 -0.029246548 -0.073399805
-0.035661966 -0.023262724 -0.037788544 0.07976315 -0.06078353 0.008223797 -0.08367029 -0.029378915
-0.013195291 -0.022450265 -0.052267298 0.025222415 -0.006537713 -0.061547156 0.032063935 -0.020634029
-0.07383956 -0.036173597 -0.012568311 -0.021135872 -0.022157144 0.08686362 -0.03904358 0.025139594
-0.045551535 0.089253 -0.019620225 -0.039576244 -0.059992567 0.05275409 0.09225319 0.062266495
-0.036590658 0.023123452 0.23578903 -0.05907509 -0.05841912 0.056906074 -0.0063256575 -0.019975146
0.04045969 0.03812388 -0.05598667 0.09971726 -0.056429558 -0.023262225 -0.050343536 0.04493625
-0.04662702 -0.024644442 -0.032546293 -0.0035836669 -0.014828132 0.028121628 -0.024596082 0.04428524
-0.06378462 0.020327963 -0.08495413 -0.046895374 -0.016668908 -0.035492938 0.11136146 -0.038078398
0.0063408553 -0.04862399 0.07417477 -0.02728145 0.011700488 0.10000424 -0.055940837 0.0047545433
0.0026824353 0.15327877 -0.0829666 -0.05003519 0.2817689 0.074014366 -0.04865943 -0.031270668
-0.07339461 0.25127348 -0.012760857 -0.00710316 0.043343127 0.044288516 0.09401511 -0.0074157044
-0.06634887 -0.016106734 -0.030409249 0.08591371 -0.054159522 0.0009781946 0.058363568 -0.059720702
-0.021289976 -0.05632701 -0.07348516 -0.04406592 -0.059955288 -0.0036541356 0.15305415 0.001706407
-0.063313216 -0.014376023 -0.05856648 -0.041598264 0.17600653 -0.014323765 -0.03802302 0.01327522
0.21872766 -0.07118354 0.012512972 -0.013897333 -0.05112468 0.0020547835 -0.033750042 0.15615615
-0.029307088 -0.022219371 0.047607556 -0.057428792 0.020976843 0.00852119 -0.051000774 0.0022117451
0.020907521 0.03375884 -0.021871941 -0.07197976 0.1683558 -0.0017231076 0.029206818 0.09240438
-0.026329655 -0.04719521 -0.027399002 -0.104942836 -0.0425089 -0.04758788 -0.060877718 0.0060492414
-0.061269123 0.0018409401 0.027039627 -0.051643334 0.034629818 -0.00353789 -0.010260083 -0.0655492
-0.022237254 -0.044854496 -0.03309718 -0.0071787997 -0.007871956 -0.02413865 -0.053885598 -0.009217509
0.087181866 -0.031833325 -0.030916316 -0.032396205 -0.03577339 -0.061405737 -0.011614731 -0.05777028
-0.055457823 0.07561238 -0.016639957 -0.09726836 -0.050344612 0.033866562 -0.04599611 -0.05760882
0.06697713 0.01348396 0.0014493902 0.016212268 -0.050954502 -0.062128663 -0.03216701 -0.021744203
-0.050217047 -0.04283331 -0.074625805 0.08934645 -0.072620764 0.030518783 -0.05257471 0.04921894
-0.049299307 -0.031693757 -0.108517624 0.02150826 0.034944095 0.05339151 -0.057367116 -0.021433191
-0.04627488 -0.06088469 -0.047335282 -0.030039674 -0.044739988 -0.0062428024 -0.0060214405 -0.059311744
0.04466016 0.028334422 -0.04670489 -0.036505807 0.017138692 -0.01566781 -0.07266364 -0.055759136
-0.026408149 -0.033525724 0.04506159 0.086431585 0.02896718 -0.039757002 -0.055545896 -0.01766119
-0.034133893 -0.05815363 -0.038281463 0.058192007 -0.05536462 -0.018151784 0.037989397 -0.01998445
0.064307906 0.04510545 -0.00020083989 0.03706954 -0.05919939 0.06736344 -0.03545228 -0.054372415
-0.0009876534 -0.07067446 -0.01797832 -0.03714122 0.018664619 0.09400766 -0.021607049 -0.008405535
00000000: 3e13 a7bd 837b 413d 2b62 cf3c 7cac d53c
00000010: 4f7c b1bd 8601 ee3c 7596 efbc a352 96bd
00000020: 4812 12bd 7891 bebc 29c8 1abd dd5a a33d
00000030: 27f8 78bd 1bbd 063c 545b abbd 0dac f0bc
00000040: 1031 58bc 9ee9 b7bc 3c16 56bd 3d9f ce3c
00000050: 503a d6bb df18 7cbd 7955 033d b208 a9bc
00000060: 3239 97bd c42a 14bd 51eb 4dbc 2325 adbc
00000070: e682 b5bc 8ee5 b13d 29ec 1fbd 8df1 cd3c
00000080: 3f94 3abd 47ca b63d 98ba a0bc b31a 22bd
00000090: c4ba 75bd ac14 583d 3eef bc3d 270b 7f3d
000000a0: 16e0 15bd 656d bd3c ae72 713e b9f8 71bd
000000b0: e348 6fbd 5816 693d 7647 cfbb eba2 a3bc
000000c0: 0fb9 253d c927 1c3d 4752 65bd 9038 cc3d
000000d0: ae22 67bd 6c90 bebc 0635 4ebd 130f 383d
000000e0: f9fb 3ebd 24e3 c9bc 434f 05bd f4db 6abb
000000f0: b2f1 72bc 545f e63c b97d c9bc 7164 353d
00000100: 83a1 82bd d486 a63c 6efc adbd 5d15 40bd
00000110: 3c8d 88bc 0b61 11bd 7a11 e43d 18f8 1bbd
00000120: f3c6 cf3b f329 47bd f1e8 973d 597d dfbc
00000130: 67b3 3f3c 06cf cc3d 3822 65bd 00cc 9b3b
00000140: cccb 2f3b 1cf5 1c3e 65ea a9bd b3f1 4cbd
00000150: 0344 903e d894 973d 1c4f 47bd ac15 00bd
00000160: ea4f 96bd eba6 803e ea12 51bc a0c1 e8bb
00000170: 9088 313d e067 353d fe8a c03d 70ff f2bb
00000180: ebe1 87bd 45f2 83bc d11c f9bc 87f3 af3d
00000190: 60d6 5dbd c436 803a a30e 6f3d b29d 74bd
000001a0: 5168 aebc 27b7 66bd 637f 96bd 777e 34bd
000001b0: ad93 75bd 397a 6fbb 3aba 1c3e 85a9 df3a
000001c0: 5caa 81bd 6989 6bbc 68e3 6fbd f162 2abd
000001d0: 0e3b 343e 3aae 6abc 07be 1bbd 4f80 593c
000001e0: 25fa 5f3e adc8 91bd 3503 4d3c a4b1 63bc
000001f0: 1d68 51bd 8ca9 063b 7c3d 0abd 66e7 1f3e
00000200: 6b15 f0bc 6605 b6bc 2400 433d 743a 6bbd
00000210: a1d7 ab3c 769c 0b3c 30e6 50bd edf2 103b
00000220: 4046 ab3c b646 0a3d c92c b3bc 206a 93bd
00000230: 7665 2c3e e6d9 e1ba 2343 ef3c 823e bd3d
00000240: 4ab1 d7bc c44f 41bd df73 e0bc 45ec d6bd
00000250: d01d 2ebd 82eb 42bd ea5a 79bd b738 c63b
00000260: 55f5 7abd b34b f13a 3582 dd3c f687 53bd
00000270: ffd7 0d3d f2db 67bb e819 28bc a93e 86bd
00000280: e72a b6bc 59b9 37bd e990 07bd 233c ebbb
00000290: 60f9 00bc 6bbe c5bc 25b7 5cbd 0905 17bc
000002a0: 688c b23d a963 02bd 3744 fdbc e2b1 04bd
000002b0: 1e87 12bd 9584 7bbd b64b 3ebc 87a0 6cbd
000002c0: be27 63bd aada 9a3d 8550 88bc a234 c7bd
000002d0: 2736 4ebd aab7 0a3d 6b66 3cbd 3af7 6bbd
000002e0: 4e2b 893d d4eb 5c3c 77f9 bd3a 97cf 843c
000002f0: abb5 50bd a07a 7ebd 8ec1 03bd e620 b2bc
00000300: 64b0 4dbd fb71 2fbd 6ad5 98bd 46fb b63d
00000310: 32ba 94bd 8702 fa3c 9458 57bd cd99 493d
00000320: 12ee 49bd 50d1 01bd 7d3e debd 1732 b03c
00000330: 8a21 0f3d 0eb1 5a3d c8f9 6abd a994 afbc
00000340: bb8a 3dbd 3a62 79bd a4e2 41bd c315 f6bc
00000350: 4741 37bd 6c90 ccbb 814f c5bb dff0 72bd
00000360: 92ed 363d 971d e83c a04d 3fbd 1d87 15bd
00000370: 7166 8c3c c759 80bc add0 94bd b163 64bd
00000380: e755 d8bc 4552 09bd 8092 383d 0b03 b13d
00000390: 944c ed3c 3dd8 22bd 1884 63bd 33ae 90bc
000003a0: fbcf 0bbd 8032 6ebd 06cd 1cbd be5a 6e3d
000003b0: 03c6 62bd 0db3 94bc c59a 1b3d 6eb6 a3bc
000003c0: ddb3 833d 7ec0 383d 8c98 52b9 3bd6 173d
000003d0: 0f7b 72bd d8f5 893d 6936 11bd 9cb5 5ebd
000003e0: 2674 81ba c5bd 90bd 4547 93bc 6421 18bd
000003f0: 8be6 983c 1787 c03d 4401 b1bc 5eb7 09bc

l3.weight f4 [4, 300]
-0.0021231172 0.1101184 0.099340685 -0.037535332 -0.10354215 -0.09488776 0.02895557 -0.077348046
0.03680571 -0.15132077 -0.016078176 -0.18052585 -0.033576004 0.07430396 0.010673809 -0.0274184
-0.05420152 -0.15250787 -0.1286565 -0.117282696 -0.110261045 -0.026068069 -0.061644446 -0.24035567
-0.10626621 -0.034247633 -0.025359856 0.0334185 0.01202287 -0.12464634 -0.003768678 0.08178105
-0.14937054 -0.014367487 -0.10477844 -1.0501686 -0.0009551499 -0.12606792 -0.034672227 0.24731502
-0.026976952 -0.16735005 -0.17975311 0.006245473 -0.07168524 -0.18713811 -0.047115106 -0.13423568
-0.112174876 -0.10456697 -0.019097982 -0.10171912 -0.04069604 0.027493766 -0.016428325 -0.13979954
-0.045432672 -0.052731536 0.032116428 -0.18903874 0.037117623 -0.054544184 0.009834001 -0.15626724
0.00220347 -0.0600368 0.0029698461 0.014496022 -0.000517767 -0.038381115 0.0624413 0.017850298
0.21981834 -0.021084215 0.12748782 0.03932884 -0.08906313 -0.21488622 0.0047028097 -0.13030276
0.086392865 -0.05282358 -0.032862175 -0.019381834 0.049699165 0.034450065 -0.029965565 -0.1419605
0.035235334 -0.21228185 0.04627561 -0.094069675 -0.06906347 -0.097114705 -0.19764166 -0.01783542
-0.01023447 0.023215618 0.03574664 -0.12770623 0.024338143 0.0027750588 -0.028331269 -0.002292192
0.052949596 0.031114243 -0.002928384 -0.0035050395 0.0634991 0.0014363114 -0.012969835 -0.06600024
-0.087846234 -0.08583428 -0.017323567 -0.08937938 -0.13424948 0.034762308 0.08358744 -0.03675423
0.027937578 0.0005299001 0.022666901 0.00086820964 -0.00093398726 0.06041569 -0.009314789 -0.076264165
-0.0069519742 0.03197496 0.01769935 -0.03842114 0.14332335 -0.01121233 0.0030948173 -0.06673279
-0.07634928 -0.10132418 0.014612372 0.027897527 -0.22768761 -0.033222225 0.11248285 0.1192887
0.020171136 -0.056070205 0.09805188 -0.016275184 0.011544618 -0.006995327 0.013778538 0.029591508
0.0033506916 -0.17010662 -0.050465293 0.043483302 0.059383392 -0.038951896 0.082387276 0.051955137
0.015236428 0.028278265 -0.054354537 0.06972819 -0.13064308 -0.07837617 0.011197627 -0.016803762
-0.15349635 0.014311286 0.01515912 -0.00353305 -0.07197902 -0.0451815 -0.03373701 -0.026646031
0.011709781 -0.16106065 -0.0785507 -0.004503374 0.023463402 0.026647594 0.0074817007 -0.090876
-0.043140955 -0.02420734 0.018693935 -0.121008255 -0.01755648 0.019986562 0.03135728 -0.055277992
-0.056917943 -0.026051804 0.07283117 -0.043657932 -0.027230639 -0.08033153 0.008642209 -0.15253608
0.033902388 -0.06295738 0.051109172 0.06295065 0.007278304 -0.07842865 0.030639611 -0.013793326
-0.024014767 -0.028034447 -0.022693839 -0.030022742 -0.012574881 0.0357157 0.035785057 -0.01635156
0.16683649 -0.09054388 0.005101362 0.050109014 -0.019081114 -0.038197774 0.0008244758 0.010181201
0.08717549 0.02679021 -0.036024805 -0.13805571 -0.13595963 -0.023714243 -0.025361272 -0.16763757
-0.20491129 0.02101904 0.009192565 -0.045200914 0.14481832 0.016051248 -0.17734845 0.07800866
-0.14049104 -0.30599007 0.006402885 -0.14497116 0.046296097 -0.05531391 -0.0009184906 0.03644013
-0.057798054 -0.029593583 -0.023664318 -0.07422257 -0.23356614 -0.044747155 0.025368394 -0.079133734
00000000: ff23 0bbb c185 e13d 2173 cb3d a6be 19bd
00000010: e80d d4bd 8454 c2bd 3b34 ed3c a768 9ebd
00000020: 96c1 163d d5f3 1abe 61b6 83bc c5db 38be
00000030: fe86 09bd ad2c 983d 33e1 2e3c 8d9c e0bc
00000040: 6a02 5ebd 062b 1cbe 88be 03be e931 f0bd
00000050: 8bd0 e1bd b48c d5bc e37e 7cbd cc1f 76be
00000060: 19a2 d9bd 3f47 0cbd 79bf cfbc d6e1 083d
00000070: 92fb 443c 9546 ffbd edfb 76bb d37c a73d
00000080: 97f4 18be 9c65 6bbc 1496 d6bd ed6b 86bf
00000090: 0663 7aba f317 01be 7704 0ebd 2640 7d3e
000000a0: c5fe dcbc d05d 2bbe 3311 38be d3a6 cc3b
000000b0: b6cf 92bd 22a1 3fbe c5fb 40bd 1475 09be
000000c0: f1bb e5bd 3527 d6bd 5f73 9cbc 1d52 d0bd
000000d0: e4b0 26bd 9b3a e13c b294 86bc 9c27 0fbe
000000e0: 9c17 3abd 06fd 57bd 848c 033d 5f93 41be
000000f0: a608 183d b969 5fbd ca1e 213c 8504 20be
00000100: 1868 103b 26e9 75bd c0a1 423b b980 6d3c
00000110: c1ba 07ba 8435 1dbd 73c2 7f3d ca3a 923c
00000120: 0f18 613e ceb8 acbc 2b8c 023e 4717 213d
00000130: bb66 b6bd 220b 5cbe 071a 9a3b 166e 05be
00000140: beee b03d 8a5d 58bd 7d9a 06bd a7c6 9ebc
00000150: 5a91 4b3d 831b 0d3d 587a f5bc 185e 11be
00000160: ed52 103d 6a60 59be 7e8b 3d3d 9aa7 c0bd
00000170: 2671 8dbd 13e4 c6bd 9362 4abe 961b 92bc
00000180: 7aae 27bc ae2e be3c 126b 123d 6cc5 02be
00000190: c960 c73c c3dd 353b fa16 e8bc 9a38 16bb
000001a0: ade1 583d 4ce3 fe3c 22ea 3fbb ceb4 65bb
000001b0: d10b 823d 9d42 bc3a 6e7f 54bc 222b 87bd
000001c0: bae8 b3bd e2c9 afbd 27ea 8dbc 890c b7bd
000001d0: b278 09be ec62 0e3d e42f ab3d 9a8b 16bd
000001e0: 59dd e43c fee8 0a3a f0af b93c 9098 633a
000001f0: d3d6 74ba 7176 773d 0f9d 18bc 6330 9cbd
00000200: 63cd e3bb 2df8 023d 3afe 903c 7c5f 1dbd
00000210: 5bc3 123e ecb3 37bc 6bd2 4a3b 33ab 88bd
00000220: 035d 9cbd 0d83 cfbd bb68 6f3c 5b89 e43c
00000230: f126 69be 0714 08bd 695d e63d a24d f43d
00000240: f03d a53c dfa9 65bd 6dcf c83d 8953 85bc
00000250: a325 3d3c 0e39 e5bb 61bf 613c e469 f23c
00000260: 4797 5b3b 6e30 2ebe b2b4 4ebd 8c1b 323d
00000270: 003c 733d 068c 1fbd a9ba a83d e9ce 543d
00000280: 36a2 793c d2a7 e73c dda2 5ebd a7cd 8e3d
00000290: 4dc7 05be af83 a0bd 4076 373c 0ba8 89bc
000002a0: 262e 1dbe e279 6a3c f55d 783c be8a 67bb
000002b0: bd69 93bd 3d10 39bd d22f 0abd c748 dabc
000002c0: 62da 3f3c 15ed 24be 30df a0bd 0a91 93bb
000002d0: 5236 c03c 0e4c da3c 0e29 f53b 321d babd
000002e0: 92b4 30bd 794e c6bc 0624 993c 2dd3 f7bd
000002f0: 9bd2 8fbc dcba a33c 7e70 003d 2d6b 62bd
00000300: ca22 69bd 986a d5bc 8228 953d a9d2 32bd
00000310: ca12 dfbc db84 a4bd 0d98 0d3c 6b32 1cbe
00000320: 3bdd 0a3d cdef 80bd da57 513d 45ec 803d
00000330: d77e ee3b 339f a0bd ecff fa3c 67fd 61bc
00000340: 9eba c4bc 7fa8 e5bc 6ee8 b9bc 41f2 f5bc
00000350: e006 4ebc a04a 123d 5a93 123d b5f3 85bc
00000360: 2fd7 2a3e 126f b9bd 5329 a73b 1c3f 4d3d
00000370: ff4f 9cbc 4575 1cbd a221 583a 0dcf 263c
00000380: 1089 b23d 2477 db3c bf8e 13bd 7a5e 0dbe
00000390: 0039 0bbe 5f44 c2bc 71c2 cfbc 2fa9 2bbe
000003a0: 44d4 51be 1f30 ac3c 6a9c 163c 9824 39bd
000003b0: 414b 143e e87d 833c d59a 35be 01c3 9f3d
000003c0: e2dc 0fbe bbaa 9cbe 4bcf d13b 5273 14be
000003d0: faa0 3d3d d790 62bd dcc6 70ba 3f42 153d
000003e0: a7bd 6cbd 3e6e f2bc acdb c1bc 0102 98bd
000003f0: f62b 6fbe cb48 37bd 61d1 cf3c de10 a2bd

l3.bias f4 [4]
-0.005067116 0.11796867 0.09721735 0.054054618
00000000: 0d0a a6bb 8f99 f13d e419 c73d 6068 5d3d
