TD3/models/third_training_attempt/train_250_episodes_actor.pth (torch, 528299 bytes, 6 tensors)

l1.weight f4 [400, 24]
00000000: c0f6 3cbe 9303 0bbf 5f16 053f 5930 99be
00000010: 096e a23e b7b0 bc3d 4e5b 75be 5a12 d9be
00000020: 7c07 9abe 21ea 033e 50e5 993d 662a a03d
00000030: 32e8 19bf 602e a73d 83cc 55be eb61 b53d
00000040: 9789 18be 9b41 59be b4bb 4ebe 758f 08be
00000050: 16e0 2abe ddaf b93c b147 273d b49d 0b3d
00000060: c084 03be 557e 9f3d 23b2 27bf 61d2 92bd
00000070: 034b d73e 5948 92be ea25 78be ca47 61bb
00000080: 9b9a b4be 0320 573d 09ee 143e e7d2 1bbe
00000090: dc08 2d3d b51a e8be 44d4 253d d484 58bd
000000a0: b794 1f3d dc8e 4bbe bb5f 80bd ad83 80bd
000000b0: aa8e debd 3004 57be 8f15 303e dff1 c23b
000000c0: 6b87 703e 0309 fe3d e37f 27bf 35db 673e
000000d0: c692 003f 3005 c43e f99a ac3c 8073 30bc
000000e0: 9833 c13d b2ee 513e a91c a13e 243a 73bd
000000f0: 1499 b5be 76f3 aabe 4964 2bbe 3d6d b43d
00000100: 5b0e 51be 0263 72be 98b2 bb3d dd75 6abe
00000110: b9bf 183d 9335 22be be36 52be f07b 123e
00000120: be09 5e3e 8b70 0d3f cea1 19be 3717 2bbf
00000130: bdd6 6b3d a478 7bbe 79fc 9c3e 5bb1 9f3d
00000140: defc b0be 8ad1 fcbd 5411 f1be 1617 e0be
00000150: aef8 23be e4b7 53bd dcd5 f13c e8d1 013e
00000160: 2339 b6bd 5e69 9ebd 4b06 31bc 6faa 07bd
00000170: af67 cc3c ed59 83bd 760a 753e 8cc1 10bc
00000180: bfb6 863e c042 dfbe a723 623e 036d 38ba
00000190: 7823 593d f9e3 20bd b2fb 6737 f27a 983e
000001a0: 6c7b b4be d902 de3e 7c3c 2c3e 18af adbe
000001b0: df33 ff3e 3f7e d13d 210b 84be bd35 78be
000001c0: 82fe 68be 3c6b 6abe 30b5 7d3d 7512 dfbd
000001d0: 962a e93d 78a4 fbbd 6470 df3d ae4e 82bd
000001e0: 3e4a 2b3e 65cf c83e e495 b2be 95c2 023f
000001f0: 17f4 56be 5515 453e af96 543e d1a3 86be
00000200: a554 83bd 377f c83e 095a f23c 0558 903d
00000210: 3860 92bc 16e9 7b3e 2ead 37ba 5a5a 9b3c
00000220: 3038 12bd d5fb a9bd c6d9 323d 3980 92be
00000230: cdb0 9cbe 25c7 a0bd 1038 c6bd 3725 c8bd
00000240: 3429 56be dde5 f73d 0f43 dd3e e2e1 82be
00000250: 2231 9ebe 54f7 73be 8f12 de3d ff7d 923d
00000260: 44ec 933e 6119 4a3e c25f ce3e d0d6 433e
00000270: 2607 ce3e fbbe 9d3e 4102 06be 7eb1 d4bd
00000280: 09e1 84bd 90ee 9d3a 868a 8ebd 5614 3bbe
00000290: d5d8 aebd 89b7 76be 3bda 9cbe 9094 613b
000002a0: d2ab d43e 6a27 cf3e 6776 97bf 281d 29be
000002b0: dff5 21be 5f36 1ebd 3ec9 043f 6ebd 7ebd
000002c0: 8007 68be 4877 b73e 97c0 693e bf1d c5bd
000002d0: 0a5a f6bd 6f8e 123d 503d 74bd 48e0 14be
000002e0: 010e 7f3d cfb3 243e 4bee 0cbe 0f1c 0dbe
000002f0: f389 48bc e56c 21be 0aba 09bd 9843 5ebe
00000300: 6f7b 733e 88ca 883e 616a fbbe d569 16bf
00000310: cbbd f13d 66e9 04bf 9181 a13e 6a2a 4fbe
00000320: e9b3 9cbe 2835 68bc f485 ad3e 655d 22bc
00000330: 2738 a33e f024 6f3d 6c81 903e cb0c 7e3e
00000340: 4583 133d 8616 003c 4dbc 303e b4bd 5c3e
00000350: c839 5cb9 a2b0 4c3e 81cd 213e cd40 f9bd
00000360: 32cd 3c3e b345 89be 9206 ad3e 7065 5a3e
00000370: 6b04 753e 9fe7 5e3d 9579 cb3d 49ae afba
00000380: 4b16 a4bd 7bcc 4e3e c9a4 cb3e ba69 abbc
00000390: 5e46 ce3e efb9 4c3e 1916 03be 8a1f d1bd
000003a0: 6d63 46bc 79ff 5d3d b783 62be 0013 6ebe
000003b0: c72d 1dbe 9cdb 05be 1a87 063e e341 35bb
000003c0: 4862 3fbc 6d68 bebe 7ea1 d13e b34c 73bd
000003d0: 1cb9 15bc ab8a 2ebe b37c 1fbb 0cdf cdbd
000003e0: 07c1 a4be 3157 953e 8754 b4be e3be 87bd
000003f0: 00ce dd3d 3349 8abd bd0a 56be e69e 0cbe
-0.18453503 -0.5430233 0.5198726 -0.299197 0.31724575 0.09213393 -0.23960611 -0.42396814
-0.30083835 0.12882282 0.07514441 0.07820587 -0.60119927 0.08163142 -0.20878796 0.08856567
-0.14896236 -0.21216433 -0.2018879 -0.13335975 -0.16687045 0.022666866 0.040839855 0.034085944
-0.12843609 0.07787768 -0.6550619 -0.07169033 0.42049417 -0.28570822 -0.24233213 -0.0034375065
-0.35274205 0.052520763 0.14543928 -0.15217172 0.042244777 -0.45332876 0.040485635 -0.05286105
0.038960185 -0.19878715 -0.06268259 -0.06275115 -0.10867055 -0.20997691 0.17195724 0.0059492434
0.23489158 0.124040626 -0.65429515 0.22642215 0.5022396 0.38285208 0.02106999 -0.010769725
0.09433669 0.20501211 0.31467178 -0.05938162 -0.35468352 -0.3338887 -0.16737475 0.08809898
-0.20415632 -0.23670581 0.091649234 -0.22896524 0.037292216 -0.1584075 -0.20528695 0.14305091
0.21683404 0.5524985 -0.1500313 -0.668323 0.057577837 -0.2455774 0.3066137 0.077975
-0.34567922 -0.12344654 -0.47083533 -0.43767613 -0.16012833 -0.051689044 0.029520921 0.12677729
-0.08897617 -0.07734941 -0.010804723 -0.033121523 0.024951784 -0.06413636 0.23929772 -0.008835208
0.263113 -0.43605614 0.22083913 -0.0007035287 0.05301234 -0.03927991 1.3827275e-05 0.297813
-0.35250413 0.43361548 0.16819948 -0.33922648 0.49844262 0.10229158 -0.2578974 -0.2423925
-0.22753337 -0.22892469 0.061940372 -0.10892192 0.11385076 -0.12287229 0.10910109 -0.06362663
0.1672754 0.3922073 -0.34879982 0.5107816 -0.2099155 0.19246419 0.20760606 -0.26296857
-0.06412629 0.39159557 0.029583948 0.070480384 -0.017868146 0.24600634 -0.0007006702 0.018963981
-0.035698116 -0.08299986 0.043664716 -0.2861345 -0.30603638 -0.07850484 -0.09678662 -0.09772723
-0.20914155 0.1210439 0.43215224 -0.2556296 -0.3089686 -0.23824817 0.108433835 0.07152938
0.28891194 0.19736244 0.40307432 0.19124913 0.4023983 0.3080977 -0.13086797 -0.103854164
-0.064882345 0.0012049247 -0.06960015 -0.18269476 -0.08537451 -0.2409345 -0.30635247 0.0034420826
0.41537338 0.40459758 -1.1833009 -0.16515028 -0.15816449 -0.03862607 0.5186957 -0.062192373
-0.22659111 0.35833192 0.22827373 -0.09624814 -0.12028892 0.035780367 -0.059628785 -0.14538682
0.062269215 0.16084217 -0.13762777 -0.13780235 -0.012239921 -0.15764196 -0.033624686 -0.21705472
0.23777555 0.2671702 -0.49104598 -0.58755237 0.11803778 -0.5191864 0.31544164 -0.20231023
-0.3060601 -0.01417283 0.3389126 -0.009909962 0.31878778 0.058384836 0.2822374 0.24809568
0.03601386 0.00781787 0.17259331 0.21556741 -0.0002100236 0.19989255 0.1580105 -0.12170563
0.18437651 -0.2681099 0.33794075 0.21327758 0.23927467 0.05442011 0.09935299 -0.0013403381
-0.080120645 0.2019519 0.3977416 -0.020924438 0.4028806 0.19992803 -0.12801398 -0.10211094
-0.012108666 0.054198716 -0.22120558 -0.23249435 -0.15349494 -0.13072056 0.13137475 -0.002765768
-0.011681147 -0.37189046 0.4094352 -0.059399318 -0.009138372 -0.17045085 -0.00243358 -0.100523084
-0.32178518 0.29168084 -0.3522074 -0.066282056 0.10830307 -0.06752243 -0.20902534 -0.1373249

l1.bias f4 [400]
00000000: b0cd 00be 8b92 24be 938e 503d c3a7 eabd
00000010: 5b72 a13d c0fa 8abe 4c52 84bd c7cc 013e
00000020: e49e 6bbc fb5d 97bd 9163 ab3d 33f9 b2bd
00000030: 9487 adbc 9a13 2cbe cf92 7fbe c488 50bd
00000040: a34f fe3c 7a29 28be ce18 0abe 21ea 23bd
00000050: 88a6 bf3c 2396 963d bc46 84be b11f 83be
00000060: baf5 8cbd dc88 02be 9f62 fabb 9f5c 143d
00000070: 2705 9b3e e4a4 ac3d 5690 86bd 5359 1cbe
00000080: 9f05 383e 8886 93be 1984 69bc bc49 85bd
00000090: b959 d2bd feac fd3c 3df7 0fbe 3419 a3bd
000000a0: 3948 14be 245e f5bd bc2d 5e3e b904 74be
000000b0: 162e 053e c11c b7bd cde9 f13c aae5 0c3e
000000c0: 2e35 43be 4da1 70bd 3e38 f6bc 1a27 14be
000000d0: e859 993d ed4c 95be 15b4 55bc 1495 28be
000000e0: db05 09bd 5411 5abe 7d40 073d 9755 b5bd
000000f0: 1e5b 0fbc 4db2 4dbe 22de f73d 74e4 c9bd
00000100: 963e 85bc 499f 443d ac3c cabd 542e bbbd
00000110: 76bd 0fbe af80 003e 32de ad3d c5ec dabc
00000120: ce9e 4dbd dbd3 a9be c919 9bbe 9637 243e
00000130: e5c0 2ebe 2f26 20be 6b62 1dbe d9df dcbd
00000140: e1eb ab3d d426 c4bd 2656 d1bd da09 33be
00000150: 66d6 1dbe 92eb 40be 4839 27bd 748c 21be
00000160: 46f8 d23d e126 af3d f637 93be 38ed 22be
00000170: 5e13 033d a77e 37be e38c 573e df6a acbb
00000180: c945 b0bd 6f5f b7bd 32c6 90bc 6825 38be
00000190: 560d debd f4e5 10be 5e48 583d 2764 ddbd
000001a0: da23 3cbd 60e5 57be 93b0 fb3d ed97 a4be
000001b0: 4c45 31bd 7443 7abe c7fc 8f3d 5236 adbc
000001c0: 1764 453e cfc8 98bd f3ed 033e c653 1ebe
000001d0: 319b 06bd 5022 f5bd 95c9 41be 5eba a4be
000001e0: 5ed8 1f3e e6e6 ebbd 432d b83d 0e03 aebe
000001f0: 1bbe 103e d297 b53d 98d7 06be fc63 d5bd
00000200: 275a 143e a9f0 4cbc 69ef 8bbc d82f 25be
00000210: 2504 18be fbfe 7d3d 031a dc3c bd97 86be
00000220: 123a 393d e720 a63d 1791 5e3d c2d4 e2bd
00000230: 28de 29be deb8 9a3d 1d2a 52be ce45 1fbe
00000240: e811 b73c 3eeb 093e 04c0 5c3e a44e 4cbe
00000250: 9d4d 80be 9c3e 42be 6fe0 363e 8598 f0bd
00000260: 4ce8 fa3c fb32 07bc 7374 8abc 7694 ea3d
00000270: d5cf 3e3e f4d7 1dbe 6a21 61be dfc1 d23c
00000280: 4a95 45b8 5217 7ebe 15fc 8ebe db9e 053e
00000290: 5f9b 18be b5a1 78be d961 67be f666 133e
000002a0: ab8c 093e fef9 c73d fa77 32be 735e a13d
000002b0: 8fdf 133d 3e74 90be d035 8f3d 849b a5bd
000002c0: 3ed8 cfbb 1f91 1f3e 4922 8dbe d679 f13d
000002d0: 21ee cd3d 20af 14be 073e 583c a86c 5e3e
000002e0: ddfb a23d 2bed 83be 832c 8dbe c988 6cbe
000002f0: dde1 5abe 8df2 acbd 47da 40be dc7d 08be
00000300: 2afd 91bb 92a8 223e 5d79 a4bd 5197 01be
00000310: 55f3 89be 1e3a 2abd ebfe 8cbe 797c 00be
00000320: 7d23 abbd c0fd 0f3e f5da 453e c242 2abe
00000330: b926 e8bd 15cb b73b dfc2 413c de8d b33d
00000340: da5a 0d3c 74a9 383e dc8c 0b3e 030e 74bd
00000350: e5c5 dc3d d146 aabc b121 373e da38 afbe
00000360: 0142 7dbe c4a9 8cbe d675 56be 6840 1fbd
00000370: ca35 343e b5a1 46be f040 3ebe e573 033d
00000380: e76b 0a3e 3570 7bbd 6a83 38be fbfa bebd
00000390: 00dc 1cbd 2bf3 883c cc83 dd3b 0d3a 163e
000003a0: ea40 eb3c 882e 5f3d 7ddb 63be 48d5 c33d
000003b0: 41c8 37be f94b cfbc 2446 2cbe 5f14 c43c
000003c0: bfb8 39bd 739d e53c 7ee6 f7bc 39f5 273e
000003d0: 87a9 a13d a4fc 963d bdb6 10bc ddcf 163e
000003e0: 928a d9bd 6cf4 a1be a89f e6bd 6dca dfbd
000003f0: 2f1c 463e 901d 9a3e 585e bdbe dede 9bbc
-0.12578464 -0.16071527 0.05091722 -0.11457779 0.0788314 -0.27144432 -0.064610094 0.12675773
-0.014381144 -0.07390972 0.083686 -0.08738937 -0.021182813 -0.16804352 -0.24958347 -0.05091168
0.031043833 -0.16422072 -0.13486025 -0.040018205 0.023394838 0.07352855 -0.25835216 -0.25610116
-0.06882806 -0.1274752 -0.007641151 0.036221143 0.30277368 0.08429888 -0.06570499 -0.1526845
0.17970894 -0.28813577 -0.014252686 -0.06508204 -0.102710195 0.030966278 -0.14059158 -0.079637915
-0.14480676 -0.119808465 0.21697134 -0.23829927 0.13005862 -0.08941031 0.02953043 0.13759485
-0.19063255 -0.05874758 -0.030056115 -0.14468041 0.074878514 -0.29160252 -0.013043423 -0.16463119
-0.03345285 -0.21295673 0.033020485 -0.088542156 -0.008749751 -0.20087548 0.12102915 -0.09858027
-0.016265195 0.04800347 -0.098748535 -0.09139696 -0.14037117 0.12549089 0.08489646 -0.026724229
-0.050200276 -0.33169445 -0.3029311 0.1603683 -0.17065771 -0.15639566 -0.15369575 -0.10784883
0.083946 -0.095777184 -0.1022151 -0.17484227 -0.15413818 -0.18839863 -0.040826112 -0.15776235
0.10301261 0.085523374 -0.28753632 -0.15910804 0.032000892 -0.17919408 0.21049838 -0.0052617635
-0.086070605 -0.089537494 -0.017672632 -0.1798302 -0.108423874 -0.1415022 0.05280339 -0.10810118
-0.04593263 -0.21083593 0.12289538 -0.3214716 -0.043278977 -0.24439794 0.07030635 -0.021144066
0.19276462 -0.07460176 0.12883739 -0.15461645 -0.032862846 -0.11969435 -0.18924554 -0.32173437
0.15609881 -0.1151865 0.08993008 -0.33986706 0.1413502 0.08866848 -0.1316818 -0.10419461
0.14487515 -0.01250855 -0.017081933 -0.16131532 -0.14845331 0.062010746 0.026867872 -0.26287642
0.045221396 0.081117444 0.054337587 -0.110757366 -0.16588652 0.07554792 -0.20523877 -0.15553972
0.022347406 0.13468644 0.21557623 -0.19951874 -0.25059214 -0.18969196 0.17859052 -0.11747841
0.030628346 -0.008251901 -0.01690123 0.11454098 0.18633969 -0.15414411 -0.21985403 0.02572721
-4.7107496e-05 -0.24813583 -0.27926698 0.1304888 -0.1490302 -0.24280436 -0.2259592 0.14394745
0.13432567 0.09764479 -0.1742858 0.07879343 0.036101874 -0.28213686 0.06992686 -0.08086303
-0.0063429167 0.15582703 -0.2756522 0.117908165 0.10055185 -0.1451993 0.013198382 0.21721137
0.07958195 -0.25766882 -0.27573022 -0.23099054 -0.21375223 -0.084447004 -0.18833266 -0.13329262
-0.0044552283 0.15884617 -0.08030961 -0.12655379 -0.2694346 -0.04155933 -0.27538237 -0.12547483
-0.08356378 0.14061642 0.19321807 -0.16627029 -0.11335511 0.005608926 0.011826246 0.087672934
0.008627618 0.18033391 0.13627952 -0.059583675 0.10779933 -0.020785721 0.17883946 -0.34223062
-0.2473221 -0.2747327 -0.20943388 -0.038879782 0.17598644 -0.19397624 -0.18579459 0.032092948
0.13517724 -0.061386306 -0.1801888 -0.093252145 -0.038295746 0.016717514 0.006760096 0.14670582
0.028717477 0.054487735 -0.22251697 0.095621645 -0.17947485 -0.025304781 -0.16823632 0.023935495
-0.045342203 0.02802918 -0.030261274 0.16402139 0.07893663 0.07372406 -0.008832631 0.14727731
-0.10622133 -0.31631792 -0.11260921 -0.109272815 0.19346689 0.3010068 -0.3698604 -0.01902717

l2.weight f4 [300, 400]
00000000: 8773 2fbc 0ae6 17bd f172 e6bc 2c4f 0dbd
00000010: 28ab 5bbc 7d1a 6ebd df25 95bc d246 3dbd
00000020: 8aaa 033d 8f9f 4fbd a5f8 01bd 8e0b 39bd
00000030: 0111 28bd f29f dbba 6930 00bd 5cf7 02bc
00000040: d56c 12bd d94d 47bd 0653 1dbc c587 c3bc
00000050: 1656 cbbc 5e33 123d 145b 623c 6f6a e63c
00000060: ead4 963c cd8c 27bd f53f 083d dffb 81b8
00000070: c65d e73c f708 c5bc f4c3 7e3a 6d9f febb
00000080: 917b ebbc 0998 d6bc 0771 2e3d e691 70bc
00000090: ab5b 78bd 54dc 79bc cdd3 bc3c a828 34bd
000000a0: 618b e03c 6cf9 19bc ee4e d1bc 9bce 11bd
000000b0: e049 0fbc 7346 36bd c36f d43c b119 b8bc
000000c0: 8da5 c7bc 82a2 e0bb 33d5 eb3c da34 873c
000000d0: f4d2 97bd 2aba 4ebd 4f0d f13c 18fc 43bc
000000e0: 915d 093d b0aa abbb 144f 933b dafe fcba
000000f0: 528f 44bd 1de2 99bd afdc 363c 9498 d73a
00000100: bc6a 333c cc71 8a3c fde0 863c 38dd 7f3c
00000110: 101a 36bd 6f3e c9bc a605 7b3c 2418 9dbd
00000120: 1771 2e3c 9d47 21bd 4003 173a 5aad 25bd
00000130: a3a1 d9bb 686b 7ebc 5432 30bd 16cf 93bd
00000140: f95d 1f3c 8754 c43c b9fd da3b 732d 36bd
00000150: 4c93 d9bb b10f d93b 4960 2f3d 6864 033d
00000160: 926a 46bd 497e 643b 1279 8e3c 7264 ea3c
00000170: e88b c8b9 adbe b9bb 2262 e13c c0c0 e0bc
00000180: 8c4f 1dbb 448a 37bc 3bb4 cdbc 221b 35bd
00000190: 48db 2bbb 7ac7 f13c b0c7 67bd ea84 3fbd
000001a0: abf2 4abd a033 673b e896 3dbc 83d7 2abd
000001b0: 6464 953b 50a8 b63b 7bdc 5ebd aa50 6e3c
000001c0: f96a c13b 68e2 7dbc dafb f9bc a69d 1a3d
000001d0: e801 11bc 4b0a ef3c 30ce 1dbb 567c 0bbd
000001e0: f812 3cbd 1fda b33c a11f 82bc 9a86 1abd
000001f0: 759f 133c c99e 03bd cbd7 cbbc d3f0 9e3c
00000200: 1cef 3bbd f4ca 30bd 0550 9dbc 32f2 aa3c
00000210: d6bf 0bbd cf09 103d 14cc 5dbc 60fc 48bd
00000220: f8dc e7bc d82c 59bc 4b3a 583a d72e eabc
00000230: 6044 f1ba dc1b e0bc 5a49 9fbc 361c 58bc
00000240: 98e2 d7bc b0e5 b2bc b9b1 edbc 3904 cf3c
00000250: d7c5 41bd 6c45 b8bc 6b4a cfbc 22c8 98bd
00000260: 0cd7 2abd d2e2 83bc ca6d ee3a 3777 a2bc
00000270: a97a 393d bb60 dc3c cf90 dbbc 2544 243d
00000280: 7d4b 22bd 60d4 45bc a83f a0bb 26e1 883b
00000290: 0e2d 973a 6b27 fbbc 7746 00bd 2923 a4ba
000002a0: b8fb 47bc f97a 48bd c058 de3a bb46 2d3c
000002b0: 2006 d3bc 8044 82bb ae01 41bc f77d 90bc
000002c0: 1024 ffbb 535e 1f3b 4762 eabb 399f 83bd
000002d0: 8eb2 1b3c 6ade 83bb 3565 41bd 1972 c8bc
000002e0: 00b6 6f3a 83e8 3ebd 31af 65bc 21aa 083d
000002f0: 82ea 983c 25c9 d33c 9eed bd3c d05b 623c
00000300: ffe5 803c 0cc6 fabc 62a7 07bc df1a 08bc
00000310: 06d3 a9bc ea90 1cbd 871f 01bc 8b97 25bd
00000320: 575b bebc eaed 9fbd 45ec fdbc 76b3 e53c
00000330: 797b 79bd e3bf c93c 269c 42bc dd2b 4f3c
00000340: 16f6 233d ae1a bcbc a9a3 dbbc 935e 47bd
00000350: 0856 2d3d e71f 943b a368 92bd 272c 803c
00000360: 976e 68bc a261 2abd 7398 65bd f6de 46bd
00000370: 82e1 35bd f4df 75bc 9ddf febc 63b7 53bc
00000380: 8720 09bd 826b 9f3c 1726 4f3c 1260 52bd
00000390: fed8 1f3c e6bd 8e3c 550d abbb a24c aa3c
000003a0: e2d0 ed3c 9646 e1bb e3f9 59bd 9c3d 1d3d
000003b0: addc 3a3d 96ad 27bc 2c05 e53c 8275 0e3d
000003c0: aeb6 7d3c 169e babd 06df 523c 5bbc 84bd
000003d0: 8028 8fbd 0a7b 2b3c 6e53 06bd 19dc c6bc
000003e0: ea52 39bd 820e cc3c 69f9 f3bc 9c23 b43b
000003f0: 0538 51bd 6cfd 86bd 8af0 3abd cb28 32bd
-0.010708696 -0.037084617 -0.02813098 -0.034499332 -0.013407506 -0.05813073 -0.018206535 -0.046210118
0.03214506 -0.050689276 -0.031731267 -0.045177035 -0.04103184 -0.0016756041 -0.031296168 -0.007993545
-0.03574832 -0.048658226 -0.009602314 -0.02386845 -0.024821322 0.03569352 0.01381566 0.028126923
0.018412072 -0.040905762 0.03326412 -6.198114e-05 0.028242957 -0.024052126 0.00097185303 -0.00777047
-0.028745444 -0.026195543 0.04258826 -0.014683222 -0.060634296 -0.015250284 0.023050213 -0.043984085
0.027410211 -0.009397846 -0.025550332 -0.035597425 -0.0087456405 -0.04450078 0.025932198 -0.022473188
-0.024370933 -0.00685531 0.028788185 0.016504694 -0.07413283 -0.05047051 0.029425291 -0.011961959
0.033536498 -0.0052388534 0.004495511 -0.0019302026 -0.047988243 -0.07513831 0.0111610135 0.001644867
0.01095074 0.016899966 0.016464705 0.0156167075 -0.04445845 -0.024565903 0.015321171 -0.0767062
0.01064708 -0.039374936 0.0005760677 -0.040448524 -0.006641583 -0.015528537 -0.043016747 -0.07217233
0.009726995 0.023966087 0.006683078 -0.044476938 -0.0066398736 0.006624185 0.042816434 0.032078177
-0.048441477 0.003486531 0.017391715 0.02861235 -0.0003825121 -0.0056684823 0.027512614 -0.02743566
-0.0024003712 -0.011202399 -0.025110355 -0.04421533 -0.002622323 0.029514063 -0.05658692 -0.046757616
-0.049547832 0.0035278574 -0.011571623 -0.041709434 0.0045590866 0.0055742636 -0.054409485 0.014545599
0.0059026447 -0.015495874 -0.0305156 0.037748 -0.008850552 0.029179713 -0.0024079196 -0.034054123
-0.045916528 0.021954594 -0.015884222 -0.037726022 0.0090101855 -0.03213385 -0.024883172 0.019401943
-0.04588233 -0.0431623 -0.019203195 0.02086744 -0.034118496 0.035165604 -0.013537426 -0.04906881
-0.028303608 -0.0132553205 0.00082484324 -0.028586788 -0.0018407218 -0.027357034 -0.019444156 -0.01319032
-0.026353166 -0.02183804 -0.029015409 0.025270568 -0.047307815 -0.02249404 -0.02530404 -0.07460047
-0.04170899 -0.016099367 0.0018190679 -0.019832237 0.045282993 0.026901593 -0.026802449 0.04010405
-0.039622772 -0.01207456 -0.004890401 0.0041772304 0.0011533813 -0.030658444 -0.0313172 -0.0012522686
-0.0122060105 -0.0489454 0.0016963705 0.0105759455 -0.025759757 -0.003975451 -0.011780186 -0.01763819
-0.0077862814 0.0024317696 -0.007152829 -0.06426854 0.00950302 -0.0040243166 -0.04721566 -0.024468469
0.00091442466 -0.04660846 -0.01401882 0.033365373 0.01866651 0.02585275 0.023184594 0.013815835
0.01573467 -0.030612014 -0.008279653 -0.008307188 -0.020730507 -0.03822414 -0.007881052 -0.040427726
-0.023236914 -0.078090504 -0.030996451 0.028039675 -0.06090877 0.024627632 -0.011878049 0.012644735
0.040029608 -0.02296194 -0.026811438 -0.048674177 0.042318374 0.0045204046 -0.07148864 0.015646053
-0.014186523 -0.041597016 -0.05605359 -0.048552476 -0.044404514 -0.015007008 -0.031112486 -0.012922141
-0.033478286 0.019460443 0.012643359 -0.05136115 0.009756325 0.017424535 -0.005220095 0.020788494
0.029030267 -0.0068748696 -0.053216826 0.038388833 0.04562061 -0.010234257 0.027956568 0.034780033
0.015485449 -0.09112184 0.012870556 -0.064812385 -0.06990147 0.0104663465 -0.03279441 -0.024274873
-0.04524509 0.024909262 -0.029782014 0.005497409 -0.051078815 -0.06591305 -0.045639552 -0.043495934

l2.bias f4 [300]
00000000: 8a10 89bd 6976 873d 328b 24be 23e7 98bd
00000010: 1f28 753b 192a 2ebd 8a4c 92bd 1f05 c73c
00000020: a778 66bc c40f 90bd 2e73 a0bd acd7 ccbc
00000030: a77a 10be f19e 90bc 35e5 bbbd b05f 86bd
00000040: b604 39bb ae2e 48be 47a3 c83c 0626 b3bd
00000050: 2df0 dabb 217d a5bd d9e8 22be d068 aa3d
00000060: e963 8dbd ac79 f83c fb76 0bbe 3a83 2a3e
00000070: 1eec 2ebb 987e 76bd fb26 90bd e419 0ebc
00000080: 696d 65bd f3b6 20bd a2a6 89bd 6fa7 abbd
00000090: 7458 eebc 00f5 88bc 3b67 88bd d580 c1bb
000000a0: 75ed 3eba fab1 3fbe d113 d4bd abf8 f53d
000000b0: 4ee1 a9bb fd1a a83c 5703 993d d036 1dbd
000000c0: ddcb fc3c 49a5 38bd 7c57 65bc 7834 68bc
000000d0: d2e7 c7bc dc79 fbbc 393a d73d 858a 85bd
000000e0: ceb5 a9bd 747e a2bc fc4f e7bc 2c29 6bbd
000000f0: 6b51 8dbd fe3c 593c 6e30 c2bb bfde 13be
00000100: bba6 e3bc 70cf a6bd 37d0 a0bd 226d c3bc
00000110: 6fe7 393c d6d3 39bd 4fa1 90bd 4be5 cdbd
00000120: e537 5ebd 4ed1 e03b dfbc a1bd e8f4 54be
00000130: 9ab2 3ebb a1c9 71bc 87fb c4bd 64ef bdbd
00000140: 460c 18bd f25e a8bc 96d6 003e 9cfb d9bc
00000150: 3996 823d 3f22 fbbc 33a3 00be 23ae 53bd
00000160: fb1b a0bd 13e0 35bd edd0 82bd 45c5 8e3d
00000170: ae41 50be 7b97 20bd a977 5bbd 1ff6 2fbd
00000180: 44b0 a1bd cc21 39bd 073f f7bd 9c00 9ebd
00000190: 112f 213c 9512 47bd 0452 61bc ff10 90bd
000001a0: 9f06 a4ba 4974 7ebd b1b1 96bc d8b5 933c
000001b0: 32f6 f3bc bd2d 9abd 6c09 f1bd e055 03bd
000001c0: 685d 96bd 1f48 10bd 1df9 39be 3eb1 ce3d
000001d0: 1b07 4bbd a07d 33bd 2065 6dbd 1e13 98bd
000001e0: 8113 d7bd ae1f 8fbd af57 b43c b638 3d3e
000001f0: 6907 ffbc 20a1 11bd 12be 9ebd 9ce0 84bd
00000200: 3c49 e53d 1cc5 07be 40f8 a6bd aaf7 7cbd
00000210: c95b edbb 58a1 27bd 7125 ccbd f1c8 21bd
00000220: fe2d bdbc a7ef 41bd 0cdc 833d fcc8 9dbd
00000230: 7eae 09bd df78 323c 8a90 413a 1f31 02bd
00000240: 87e1 923c b632 90bd 9097 d53d 2d02 963d
00000250: f534 18bd 80a0 52bd f5ca 7e3d 313a 14bd
00000260: f4f0 8abd 77b6 53bd 4cfe 84bd 705b 43bd
00000270: be79 b3bd e89d ae3d 864f bcbd c64b d33d
00000280: 8ae4 0a38 c1b9 9cbc 09f0 a3bd 6df3 89bd
00000290: 38bb cbbd 4ffa bc3c c196 a2bd 3239 d3bb
000002a0: 290b da3c 6c8d 28bd b4b9 b33d 7f04 0a3e
000002b0: 6918 abbd 5dfa bdbc 01ef 833d 6dff ffba
000002c0: ff13 edbc ea76 e3bc 45bc 8bbd 2b9e 49bd
000002d0: a49d 98bd 899e 03be 9f52 4cbe 6d50 d0bd
000002e0: f35d 92bc c083 20bd 409b 8ebd 4034 fbbd
000002f0: 566c 60bd 0fc8 63bd aba1 29bd d897 2abd
00000300: 6899 f3bd a8cb 8abd 9231 a2bd 599f bf3c
00000310: 415b 26bd a53c acbc be15 a3bd 545b 99bd
00000320: 5770 433d 18b8 103a 53c2 7fbc e451 3abd
00000330: 690f 6bbc d552 4cbd 342f aabc b52e 8dbd
00000340: c3ee 2abd 13d4 983d 310a 12bd 1007 b8bd
00000350: c145 d23d 6b79 5dbd ca5a 6b3b db90 b43d
00000360: 82ff 10be a29f 07bd 5935 a33c f071 1bbd
00000370: 7887 f3bc 1ab4 943b fe4d b4bd f4c3 53bd
00000380: b7e6 f3bc c2b7 87bd 6816 b23d 8e7c ccbd
00000390: dde4 333d 9c34 bfbd 1a5f d4bd 062b 97bd
000003a0: 43e4 10bd 4454 83bd f0a2 2a3c 6b35 5d3e
000003b0: 01b4 f13d c4c0 c8bc a8a8 aa3d 9ee6 ebbc
000003c0: cde5 84bd 3b16 9abc cc62 14be 9f82 94bd
000003d0: 57c5 3cbd d0a8 b4bd 50e7 6bbe 0ff9 d2bd
000003e0: b3fb 4dbd 89c2 02bd 0a9e 32bb eb51 ddbc
000003f0: 0d47 7fbd d785 dcbd 4c51 65bd be4b 9bbd
-0.06692608 0.06614382 -0.16068724 -0.07465961 0.0037407947 -0.042520616 -0.07143505 0.024294434
-0.014066852 -0.07034257 -0.07834469 -0.025005184 -0.14109288 -0.017653914 -0.09174577 -0.0656122
-0.0028231568 -0.19549057 0.02449192 -0.08747487 -0.006681463 -0.08080507 -0.15909137 0.08320773
-0.06903822 0.030331455 -0.13619606 0.16651621 -0.002669103 -0.060179323 -0.07038685 -0.008673165
-0.056012545 -0.039236974 -0.06721236 -0.08381545 -0.029094912 -0.016718388 -0.06660315 -0.0059052506
-0.00072833087 -0.18720236 -0.10355342 0.1201032 -0.005184329 0.020520682 0.0747134 -0.03838235
0.030858928 -0.045079503 -0.013997909 -0.014172666 -0.024402533 -0.030697756 0.10509152 -0.06520561
-0.082866296 -0.019835688 -0.028236382 -0.05741231 -0.06900295 0.013259171 -0.0059261834 -0.1444044
-0.027789464 -0.08145034 -0.07852214 -0.02385575 0.011346682 -0.045368038 -0.07062017 -0.100535
-0.054252524 0.0068608886 -0.078973524 -0.2079655 -0.0029098154 -0.014757545 -0.096182875 -0.09274176
-0.03712108 -0.020553086 0.12581858 -0.026609235 0.06376309 -0.030655978 -0.12562256 -0.05167974
-0.07817837 -0.044403147 -0.06387506 0.0697122 -0.20337555 -0.039206963 -0.053580914 -0.04295933
-0.07894948 -0.045198247 -0.120725684 -0.0771496 0.009837882 -0.048601706 -0.013752464 -0.07034492
-0.001251418 -0.062122617 -0.018395277 0.018031046 -0.029780481 -0.07528255 -0.11769375 -0.03206432
-0.073420346 -0.03522503 -0.18161435 0.100924 -0.049567323 -0.043820977 -0.05795777 -0.07425521
-0.10501767 -0.06988464 0.022014467 0.18478665 -0.031131463 -0.03555405 -0.07751097 -0.06488153
0.11195609 -0.13258785 -0.08152819 -0.06175963 -0.0072436077 -0.040925354 -0.09968079 -0.039498273
-0.02309322 -0.04734769 0.06438455 -0.0770435 -0.033613674 0.010893076 0.0007383904 -0.031785127
0.017929805 -0.07040922 0.10429299 0.07324634 -0.03715988 -0.051422596 0.062205274 -0.03618831
-0.067842394 -0.051687684 -0.06493816 -0.047694623 -0.08763455 0.08526212 -0.091948554 0.10317187
3.3114608e-05 -0.019131543 -0.080047674 -0.06735883 -0.099478185 0.023068575 -0.0793891 -0.006446027
0.02661665 -0.041150495 0.087756544 0.13478278 -0.08354265 -0.023190672 0.06442071 -0.0019531079
-0.028940199 -0.027766664 -0.06823019 -0.049223106 -0.074519426 -0.12853445 -0.19953392 -0.1017159
-0.017867064 -0.039188147 -0.06963205 -0.12265825 -0.054790817 -0.055610713 -0.041413944 -0.041648716
-0.11894494 -0.067771256 -0.07919611 0.023391413 -0.04061437 -0.021025011 -0.07963131 -0.074881226
0.047714557 0.0005520596 -0.015610295 -0.045488253 -0.014346936 -0.049883682 -0.020774461 -0.06893674
-0.041731607 0.07462325 -0.03565425 -0.08985722 0.10267211 -0.05407087 0.0035912269 0.088166915
-0.14159968 -0.033111222 0.0199229 -0.037950456 -0.029727682 0.0045380713 -0.08803938 -0.051700547
-0.0297731 -0.06626846 0.0869568 -0.099846944 0.043919433 -0.09336206 -0.10369702 -0.07381253
-0.035373937 -0.06412557 0.010414824 0.21602409 0.11801911 -0.02450598 0.0833295 -0.02879649
-0.064891435 -0.018809428 -0.14490813 -0.072514765 -0.046086635 -0.08821261 -0.23037457 -0.103014104
-0.050288867 -0.031923804 -0.0027254843 -0.0270166 -0.06232362 -0.107677154 -0.055985734 -0.07582806

l3.weight f4 [4, 300]
00000000: 0bf9 8bbd 34dc af3b 301f 59bd ab73 2fbc
00000010: be31 d93c 2dde 023c a749 0b3d fc2f e4bd
00000020: 0ba7 163b 6bf3 ba3c 26f1 cc3c d4b0 903e
00000030: 975b 073e c688 83bb 3187 14bb dbc9 603c
00000040: 8284 383d 788f 99bd 4636 13be 1174 1e3b
00000050: b206 613e ba33 53be 7606 6d3d 1118 8dbe
00000060: 75d6 47bb d0c4 4b3b bd23 7bbd 96a4 a0be
00000070: 359b 063d c5ee bd3c b089 4c3c 6746 e1bc
00000080: 4697 e9bc e82b 023e d374 403e ce5b 11bd
00000090: 069f 163a a133 e33c e28b 663d b85c 2e3b
000000a0: 6cf8 4a3c 6432 2d3d c7a9 813e 02b3 953d
000000b0: 20a5 d5bc bb8a a8be c131 7fbd 559f cebc
000000c0: a995 363d 2201 cd3c e902 c1bc 825b 173d
000000d0: b89e c33c c437 efbb f696 b1bd 1ca4 a93c
000000e0: 2ae9 e43c 0695 c0bb b5e5 ae3b 0ab0 0d3d
000000f0: 13f7 f9bd e02a 023d 44db 1cbb 0ffa d8bc
00000100: c5bd b63c 42d1 22bd 44be 60bd bac1 e4bd
00000110: 18ca 4f3c 76fb 42bc 0133 ddbb f1a1 efbb
00000120: 8b81 12bf 6b6b cfbc a1c0 c73a d235 5a3e
00000130: ec68 ff3c 6bbb 3f3e 4937 f13b 8e4d 86bb
00000140: 8385 24bd dc9a a33a 30e0 c03e dd4b 153c
00000150: 1e74 f1be 56be 733c bbf2 afbe 9c70 4c3c
00000160: 7dc1 07bc 7538 8e3c a54a 843c 7b74 31be
00000170: 338e 113e cf08 673c bd7a e1bb 284f 45bc
00000180: 411a 05be e530 84bc 404c 84be 8f0c a6bb
00000190: 3463 10bb 929d 1c3e c756 1cb9 1a4d 733d
000001a0: 9b27 b23c 108c 94bd ed28 d9bb 4054 8fbc
000001b0: 997d 14bc 4612 c3b9 6f67 883d 9b19 a53c
000001c0: ca6c eb3b 745a 333c 981f 553d fc74 20be
000001d0: fb6b 903c 3c3e d9bd 8a0d fd3b 0252 723f
000001e0: 516f 2f3e 65be 3fbf 2e50 c43e cdb3 823d
000001f0: 1017 283e 4e70 0e3c 4aac 963c 65b6 ce3c
00000200: dc81 553e 240d 893d 7758 be3c cdbb d73b
00000210: adcd 20bb 0886 c5bb be28 f83e 9087 d93c
00000220: 2a54 26bc 1e77 583c 6ea7 f73c 6710 013d
00000230: 77cf 33bd cae3 cf3b def9 e239 a706 9fbc
00000240: 3123 abbb f3ec 993b df30 28bc d258 933e
00000250: 1f06 103d 58de 6f3c 6224 ff3d d5e5 bd3c
00000260: 075a 6bbd c5fb b43c d9aa 593e 2101 ad3c
00000270: e288 0abc a271 71bb ef1f 2bbf a730 30bf
00000280: 7fce 04bd b6df 083d a454 babc 87bc 9b3c
00000290: ce34 8e3c b340 6dbe e2cf 263e 22fe dd3d
000002a0: 4391 153d 6517 8fbd 375b 213d 6587 aebe
000002b0: 93cb 9bbf 5820 16bb 5267 83be eb37 32bd
000002c0: 44e0 b83a e744 273e 3ddc 88bd 045a 04bc
000002d0: e389 893c c22a 8abc 7829 41bd 65e2 d73d
000002e0: 5935 163f 2a11 a43c bf96 41bf c490 a0be
000002f0: cc13 b6bc 3353 94bd 70cb 723b 51aa 8c3a
00000300: ab6f cdbc 7484 103d b140 49bd 7ae8 0cbe
00000310: 2ae6 183d 54ad 7f3d c404 e73d 5cd0 0a3d
00000320: c0d5 f63e 0be6 bf3c 7eaa cdbc 25d6 7fbb
00000330: ec66 b33c 495c c6bb e084 9b3c 595a 683d
00000340: 31ff 393d ab24 17bd bef9 83bc fd9a 3c3e
00000350: 4b52 a5bc 90fe a83c 309c ec3c a1d3 a6bc
00000360: 6e3c a2bc 3958 413d 1358 07bf 8a4c a6bc
00000370: b0c0 8fbb 2e7b e2bd 8deb db3c 7980 113d
00000380: 8a5c d13c 12e2 533d 5935 20bd 07a0 863d
00000390: 9fc0 9cbe 8592 453e b9f1 043d 2de9 1b3c
000003a0: 34c0 fbba 3f0b b2ba f544 cebc e8ab 8a3e
000003b0: 60fb 3bbd 7186 153d dffd 63be 386b 663d
000003c0: a9b8 173d 33ec 163c b5a0 87be 2ab8 473c
000003d0: 0305 92bc 5073 81bd 1077 f13d 8df0 db3c
000003e0: 6c3d 05bd 26fe 383c e8b6 d2bb c5a5 753c
000003f0: 0459 2c3c 8495 0dbd a5ab 153b 544c 5eba
-0.068346106 0.0053668264 -0.05300826 -0.01070873 0.026512977 0.007987541 0.034005787 -0.11141965
0.002298775 0.022821149 0.025017332 0.2825991 0.13218533 -0.0040141074 -0.0022663588 0.013720001
0.045048244 -0.074980676 -0.14376172 0.0024178068 0.2197521 -0.20625201 0.05786749 -0.27557424
-0.0030492817 0.0031092651 -0.06131338 -0.3137557 0.03286286 0.023185143 0.012483999 -0.02749939
-0.028514516 0.12712061 0.18794565 -0.035487942 0.0005745742 0.02773458 0.056285746 0.0026605558
0.01238833 0.042284384 0.25324842 0.07309534 -0.026079714 -0.32918343 -0.06230331 -0.02522246
0.04457632 0.025024954 -0.023560958 0.036952503 0.023879394 -0.007300349 -0.08671372 0.020708136
0.027943213 -0.00587714 0.005337442 0.034591712 -0.12205329 0.03177917 -0.0023934403 -0.026486425
0.022307286 -0.039750345 -0.05486895 -0.11169763 0.01268246 -0.011900773 -0.006750465 -0.007313006
-0.57228917 -0.025319776 0.0015239903 0.21309593 0.03117796 0.18723838 0.007361327 -0.0040986007
-0.04016639 0.0012482065 0.3767104 0.0091123255 -0.47158903 0.014876923 -0.34364876 0.01247802
-0.008285877 0.017360905 0.016148875 -0.1732959 0.14214401 0.014101221 -0.0068810866 -0.012042798
-0.12998296 -0.016136596 -0.25839424 -0.005067415 -0.0022031786 0.15294483 -0.00014909646 0.0593997
0.021747401 -0.07253277 -0.006627193 -0.017496228 -0.009063148 -0.00037206913 0.066603534 0.020153811
0.0071845995 0.010946859 0.052032083 -0.15669626 0.017629614 -0.106075734 0.0077225612 0.94656384
0.17132308 -0.74899894 0.38342422 0.063819505 0.16415048 0.008693768 0.0183927 0.025233457
0.20850319 0.066919595 0.023235543 0.006583667 -0.0024536655 -0.0060279407 0.48468584 0.026553899
-0.010151902 0.0132119935 0.030231204 0.031509783 -0.043899026 0.0063442932 0.00043292245 -0.019412352
-0.005222701 0.004697436 -0.010265558 0.28778702 0.035162088 0.014640413 0.12458111 0.023180882
-0.057458904 0.02209271 0.2125658 0.021118702 -0.008455487 -0.0036841412 -0.668456 -0.6882424
-0.032423493 0.033416472 -0.022745438 0.019010795 0.017359164 -0.23169212 0.16290238 0.108394876
0.036515485 -0.06986884 0.03939363 -0.34087673 -1.2171501 -0.0022907462 -0.25664765 -0.04351036
0.0014104922 0.16334878 -0.06682632 -0.008078102 0.016789382 -0.016866092 -0.04715869 0.10541228
0.5867515 0.020027716 -0.75620645 -0.31360447 -0.022226237 -0.072424315 0.0037047528 0.0010731911
-0.025077661 0.035282567 -0.04913396 -0.13760558 0.037328877 0.062421158 0.11280206 0.033890113
0.48209953 0.023425123 -0.025105711 -0.0039037552 0.021899663 -0.0060534817 0.018984258 0.056726787
0.045409385 -0.036900204 -0.016110297 0.18418498 -0.020180842 0.020629197 0.02888307 -0.020364584
-0.019804206 0.047203276 -0.52868766 -0.020300169 -0.004386984 -0.11058651 0.026845718 0.03552291
0.025556821 0.05172927 -0.039113376 0.065734915 -0.30615708 0.19294174 0.032457087 0.009516043
-0.0019207061 -0.0013583674 -0.025179366 0.2708428 -0.045894027 0.036505166 -0.22264813 0.056254596
0.03704134 0.009211588 -0.26489797 0.012189904 -0.017824655 -0.06320822 0.117902875 0.026848102
-0.03252928 0.011291062 -0.0064304955 0.014993136 0.01051927 -0.034566417 0.0022837904 -0.00084800017

l3.bias f4 [4]
00000000: 8a90 70bd 32f0 edbc 39f0 b93c 52d3 23be
-0.058731593 -0.029045198 0.022697555 -0.15998581
