TD3/models/third_training_attempt/train_250_episodes_critic_2.pth (torch, 531051 bytes, 5 tensors)

l1.weight f4 [400, 28]
00000000: 4deb 57be 3392 05bd 12e3 5dbe daf8 d13d
00000010: e5b7 d4bd 9ef8 3dbc 2ea2 633e 097e 003d
00000020: 2723 4bbe e91a 523e bd34 353e b93d 513e
00000030: c226 ff3d 95c9 f0bd 91e3 10be f573 aabe
00000040: e190 c4be 19b3 b6be 10c2 1abe a2e6 b1bd
00000050: c9b9 b5be d91b 2ebe 9d24 c3be 1f60 a8be
00000060: e465 953e 63f8 ab3c 207c e13d 0479 053d
00000070: 19cf c6bd 6202 12bf fefe f53c 0e6b 6f3e
00000080: 2573 1d3f 14c0 7d3e f18a eabd 6e9a 093e
00000090: eddd abbe b700 323f cff9 12bd 791d 5dbe
000000a0: 6370 3e3c 445b 83bd d4ed 493e 0397 f93d
000000b0: b35c debc 6a47 abbc 29b7 853c f8cf 4d3e
000000c0: 7a24 ac3d e01e 493c 131e c9bd e867 553e
000000d0: 2894 ab3d a731 f13d d2c6 0bbe 080a 483e
000000e0: d2c4 f4bd d2a3 843d 6f11 83be f847 3fbf
000000f0: 6cec 89be aeed a5be 6f5a 003e e32b 163e
00000100: ed0b f13e 04fe 013c 57be 37be 3e28 793e
00000110: 2055 86bd 2608 9c3d 167f 97be e514 dfbe
00000120: 6512 25be 98eb febd 9c8b 06be c430 b1bd
00000130: b3d8 4fbe e8db 6abe dccc 85bd 1d24 0dbe
00000140: 636e a13d 02a5 2b3e 0f19 e83e 5aa0 903d
00000150: 505b f43a 0793 8c3e c924 203f a592 50be
00000160: ea24 453d fc9b d7bd 506b 743e 1881 193e
00000170: 6610 91be d743 5e3e 675b 7abc b934 03be
00000180: b70b a03e 0e6c 01be 72c0 6dbe 897b 6ebe
00000190: 348f 01be 032d c5be 23c9 5bbe 23f3 31be
000001a0: 232e f5be 66f0 ecbe e5e8 b5be 0e2a 48be
000001b0: d6f5 9e3e 10e8 263e e080 643e 8ed7 883b
000001c0: bee3 eabd 0ca4 393e 0c61 2a3f fd5f 34be
000001d0: fc11 d6bd 4ee7 93be dbc5 743e ae51 1d3d
000001e0: 2ad5 90be a55d 9ebd 85e8 253e 0d28 81bc
000001f0: 010f 1b3e aabe 14be 0c3e 20bf 9d9e e2be
00000200: d10f 28bf 18a8 c5be 3ccd afbe c057 14bf
00000210: 31d2 a6be d863 c5be a43e 23bf 542c fcbe
00000220: 022a 953e a456 7e3e 26ef 1d3e 3bc6 bdbd
00000230: 2207 72bd a03c 5e3e bcd2 1cbe 431c 2bbf
00000240: 274e 8cbe a49a 85be dcdd 88bd 516e 38be
00000250: f12a 37be 4d4a 4f3e 2651 3d3f 5f3d b13d
00000260: def4 d63e 215e 0fbe bf7d 3cbe c58e 09be
00000270: d4b1 a8be 0944 58be ce3a bbbe e1fa 53be
00000280: 7290 46be 4acc 7dbe 8cb2 76be d226 a83d
00000290: 5fe1 3cbd 839a 0c3e 338d 6f3e b5c5 343d
000002a0: 8508 0bbe 001c f9be afd6 38bf f5d6 01bd
000002b0: 9a30 f43e ca6a 19be 6544 d5bd 0d30 1cbe
000002c0: 2e29 20bf 8b29 21bd d498 163f 26cb c0bd
000002d0: 3102 cc3d 52f0 12be 3200 b2be 4299 21bd
000002e0: ff18 36bd 5e80 c4be d83a 82be c0e9 bcbe
000002f0: e92e e1bd 7f60 34be 5d8a 97be 39c6 b4bd
00000300: bb44 07bd 8ad1 75bd 49a3 dd3d 7c5a 3b3d
00000310: a419 963d 5bd9 a53d 9f3b 83bd e521 debd
00000320: fff3 75ba de62 adbd 139e fd3d 20d5 973d
00000330: c2f1 a83d 8e59 0c3e ac57 84bc 1517 c13d
00000340: 2922 c53d 122f c93d c9eb 98be f978 87bd
00000350: fe7f fbbd 170b 21be ce43 a5bd 3ae7 b6be
00000360: 42d8 29bc f6db 40be 1cf1 16be 15f1 a8be
00000370: 9082 fc3d 6967 0dbd 4428 2b3e b826 a0bc
00000380: d3fb 01be fee1 b53d 7769 04be 3593 95bd
00000390: 9352 9abd d6f3 22be 34ce da3d 2670 6b3e
000003a0: e79c d7bd 91e0 743b e2e7 1d3e 1986 043e
000003b0: 481c 783d 8401 133e 5a0f 90be 0f20 57be
000003c0: 9b7f 5bbe 3477 cebe a3d9 35be b36b abbe
000003d0: a6bc ebbd 1ef7 b4be ef74 5ebe b423 d0bd
000003e0: 1663 7dbd 7297 ae3b 6174 483e d2dd ef3d
000003f0: a325 20be d809 52bf 8dce e13e b00e 26bf
-0.21085854 -0.03261013 -0.21668652 0.10252543 -0.103866376 -0.0115949195 0.22229835 0.031370196
-0.19837628 0.20518078 0.176959 0.20433702 0.12458564 -0.11757199 -0.1414931 -0.33291593
-0.38391784 -0.35683516 -0.15113091 -0.08686568 -0.35493305 -0.1700281 -0.3811387 -0.32885835
0.291793 0.020992463 0.11010003 0.032586113 -0.097074695 -0.57034886 0.030028816 0.23380682
0.6150382 0.24780303 -0.11452282 0.13437817 -0.33567753 0.6953234 -0.035882767 -0.21593274
0.011623475 -0.06413892 0.1971963 0.12187006 -0.027143812 -0.020908076 0.01632269 0.20098865
0.08405395 0.012275428 -0.09820189 0.20840418 0.08377868 0.117770486 -0.13650063 0.19535077
-0.11951603 0.06476559 -0.25599238 -0.7471919 -0.26938188 -0.32407898 0.12534498 0.14665179
0.4707941 0.007934097 -0.17943703 0.24331757 -0.06559205 0.07618742 -0.29589146 -0.4357063
-0.16120298 -0.1244728 -0.13139194 -0.086518794 -0.20297508 -0.2293545 -0.065332144 -0.13783307
0.07882383 0.16762164 0.45331618 0.07061835 0.0018642936 0.27455923 0.6255613 -0.2036844
0.048130907 -0.105277985 0.23869061 0.14990652 -0.28332824 0.21705566 -0.015280581 -0.12813081
0.31258938 -0.12638876 -0.23217943 -0.23289312 -0.12652284 -0.38510904 -0.21463446 -0.17377906
-0.47886762 -0.4627716 -0.35529247 -0.19547293 0.31046933 0.16299462 0.22314787 0.0041760867
-0.114692196 0.18128985 0.6655433 -0.17614742 -0.10452649 -0.2888741 0.23903601 0.038407974
-0.2828763 -0.07732705 0.1620198 -0.015766168 0.15142442 -0.14525858 -0.62594676 -0.44261637
-0.65649134 -0.38604808 -0.3433627 -0.57946396 -0.32582238 -0.38552737 -0.63767457 -0.4925257
0.29133612 0.24837738 0.15423259 -0.09266325 -0.059088834 0.21702814 -0.15314764 -0.6684
-0.27403376 -0.26094544 -0.06682941 -0.18010832 -0.17887475 0.20243187 0.7395195 0.08654284
0.41983694 -0.14000751 -0.18407343 -0.13433369 -0.32948172 -0.21119703 -0.36568302 -0.20701171
-0.19391039 -0.24784961 -0.24091548 0.082105294 -0.046113368 0.13730817 0.23393707 0.04413386
-0.13577469 -0.48654175 -0.7220258 -0.03169914 0.4769333 -0.14982143 -0.10413436 -0.15252705
-0.62562835 -0.03934626 0.5882695 -0.094137475 0.099613555 -0.14349487 -0.34765774 -0.0394528
-0.044457432 -0.38379186 -0.2543552 -0.36897087 -0.109952755 -0.17614935 -0.2959775 -0.088268705
-0.03302453 -0.060014285 0.1082216 0.04574059 0.07329109 0.08098098 -0.06407856 -0.108463086
-0.00093823666 -0.08466123 0.12383666 0.07413697 0.08249237 0.13706037 -0.016155086 0.09428231
0.09625656 0.09823431 -0.2986739 -0.066148706 -0.12280272 -0.15726887 -0.08069573 -0.35723287
-0.010366501 -0.18833908 -0.14740413 -0.3299643 0.1232959 -0.034522448 0.16714579 -0.019549713
-0.1269372 0.08880995 -0.12930857 -0.07303468 -0.07535281 -0.15913329 0.106838614 0.22992
-0.105279736 0.0037365297 0.15420488 0.12941779 0.060573846 0.14356047 -0.28136712 -0.21008323
-0.21435396 -0.4032532 -0.17758803 -0.33480605 -0.11510591 -0.35344785 -0.21724294 -0.1016306
-0.061862074 0.0053281123 0.19575645 0.11712231 -0.15639357 -0.8204627 0.44102898 -0.6486616

l1.bias f4 [400]
00000000: 1e3f 65bd 8a9b f6bd f37f c33e 2c76 edbd
00000010: ad89 6fbd 68bb 643e 4f3c 7cbe d887 9b3c
00000020: 9667 1fbe db6d 1b3e 1a2a ab3e 3b86 99be
00000030: c328 acbd 5ccb 8e3c 10a4 933d e163 783e
00000040: 7f13 033e 0053 80bd 73f8 ccbd f121 67bd
00000050: 1f24 d23d 7ecd 7cbe 1920 483e 441c 8abc
00000060: 67e2 a33e 7d24 00be 391a f33c f0bf 71bd
00000070: 4620 32be cc8a 4a3e a09f 39be 2771 ceba
00000080: ea32 05bd 6783 77be 56ff 2cbe 37ed 58be
00000090: ed00 d4bd 0285 5dbe 8b1c 663e 4319 1a3e
000000a0: 8fd0 143d 85e0 dd3e 9470 03bd 7aa1 5cbe
000000b0: 4579 27bc 47a1 3e3e b111 06be d7a8 c33d
000000c0: 05c1 ab3c 508a 403e e050 2e3d 466b 6a3e
000000d0: d6a1 b5bd ddd4 07be 950b 003e a506 12be
000000e0: 2805 02bd 31e2 ac3d 7ad9 843e 3ab3 9c3e
000000f0: 4db4 7f3e 451f e73c 8659 32be 1bf5 42be
00000100: 917e 01bd 49f2 d03b b0d1 763d 1e97 db3d
00000110: da89 7ebd 8c2c 25be 87ad 44be c89e b03d
00000120: af43 c73e a6dd e1bd 6669 96bd e6ff efbd
00000130: dd53 5e3e c170 b43e d208 4b3e 81ca 84be
00000140: 261e a3bd f3b7 e63e c0cd 38be 9879 15be
00000150: cc30 a8bb 959b 3f3e b534 2fbd 50a4 393c
00000160: 650f 8b3d 6f71 883e d154 5ebe 2451 2dbe
00000170: 32ed a1bc 1102 cf3e a1a3 f3bd 10e2 09bd
00000180: 8431 08be 140c 0d3e afd0 60be db09 913e
00000190: 3ee6 3cbe 6535 533d c6ec 9e3e 7cff 093e
000001a0: be17 0ebc 5446 80be e813 433d cf39 143e
000001b0: f4e6 aa3c 5cff 7dbe 82af cf3e 44eb 99be
000001c0: 775a 3e3e f445 ad3d 633e 1cbd f58c a63e
000001d0: d7ba 503e 1c2a 12be 1054 183e 8630 32bd
000001e0: 5561 65bd ba4f a23b 8c94 aa3d a138 953d
000001f0: 46d2 4d3e 0f2e 403c f81a b63e 1134 34be
00000200: 9018 fbbd 7d8e 1fbe 9942 cabd 6a3e 1fbe
00000210: 9826 79be 0bdc 033e 1c93 d13d 4248 6bbe
00000220: 127d 9cbe 023d 27be 1270 73be f2f6 1ebd
00000230: 438c 2b3d bb12 3fbe fe8e d43c 3f05 31be
00000240: 6f2f 063e 3f7b 01be ed70 4abd abc8 953e
00000250: 08a3 d83e f061 a23d 074e 0c3e 2e28 a3bd
00000260: bc72 a9be 92f9 e8bd 3991 03be ae3d 56be
00000270: b217 c0bc a7e7 b03c 8f0a bcbc 82d3 713d
00000280: 4ff3 b33d 5648 4d3e 9d9f 8ebd 7707 82bd
00000290: e4a1 a3bd 60c9 80bd 707b e33d a413 51be
000002a0: 6e7d b7bd 128a c63d 87a5 b5bd bbc6 9fbc
000002b0: f1e5 6dbe 93bc 11be 17d0 6d3e 851a 703e
000002c0: d569 1e3e 39bc 1abe 085e b0be bf4f 58be
000002d0: 1f16 c03b db1d 5d3e 06e4 2dbe c30b 33be
000002e0: cab8 50be 5753 a5bc 14c0 ff3c 0b2b 83be
000002f0: 0722 5cbd f46f ddbd f5cf 67be 2a9d 1bbe
00000300: cbad 0c3c 9cf1 a9bc dd55 e7bd ed40 9e3e
00000310: 1118 3d3e 02ca 7d3e bf0b 1bbe fd82 80be
00000320: f230 e4bd 0a0e 31be 4297 c5bb 4978 203e
00000330: 6329 5abe 1f1e 803d 5e85 93bd ee20 563e
00000340: 67f9 3fbd b09a bf3d c4e0 95bd 2ad4 92bd
00000350: aad1 e2bd 3a8d 6ebe a0e0 253c fbf1 953c
00000360: 3eff 8cbe 4c11 85be bf62 4bbb cfc4 683e
00000370: d4f0 593e 6e61 843e cae5 e2bd e033 debd
00000380: 7c2a a33d 9d56 2fbe 815b 8f3d 9d11 d53d
00000390: 95f7 8c3e b88e bc3e 278f 11be eedc c2bc
000003a0: 37fe 8ebc d338 e7bd 8dfa 9d3e 6adc 54bc
000003b0: c598 933e e97c bb3e 0225 fdbc 0571 a63e
000003c0: 238b f83e 814b 7e3a 5c99 03be 70f3 763d
000003d0: b3ee 0cbe 978b a43e 568d d9bd d032 72be
000003e0: 857b a93e 77e0 0d3e 3057 9d3e 1547 18bd
000003f0: 1532 d23e 2993 c7bd 7251 26be e2dd 63be
-0.055968396 -0.120413855 0.38183555 -0.11594805 -0.058480907 0.22337115 -0.24632381 0.018985674
-0.15566859 0.15178625 0.33430558 -0.29985222 -0.08406212 0.017430954 0.07209027 0.24256851
0.12800406 -0.06265831 -0.100083254 -0.056428853 0.10260796 -0.24687764 0.19543494 -0.016859181
0.3200867 -0.12513919 0.02967559 -0.059020936 -0.17395124 0.1977951 -0.18127298 -0.0015750275
-0.03251926 -0.2417122 -0.16894278 -0.2118424 -0.10351739 -0.2163277 0.22471826 0.15048699
0.03633171 0.43335357 -0.032089785 -0.21545973 -0.010221784 0.1861621 -0.13092686 0.09553688
0.020966062 0.18802762 0.042557597 0.22892484 -0.088687584 -0.13264795 0.12504418 -0.14260347
-0.0317432 0.0844158 0.2594717 0.3060549 0.24971123 0.028213153 -0.17416963 -0.19038813
-0.031614844 0.006376539 0.060258567 0.10722183 -0.062143184 -0.16130275 -0.1920682 0.08624035
0.38918826 -0.11028604 -0.07344322 -0.11718731 0.21711679 0.35242274 0.19827583 -0.25935748
-0.07964735 0.45062217 -0.18047237 -0.14597166 -0.00513277 0.18711694 -0.042774875 0.011330679
0.06790046 0.26649043 -0.21712042 -0.16925484 -0.019766424 0.40431264 -0.11896444 -0.033662856
-0.13300139 0.13774139 -0.21954606 0.28327832 -0.18447205 0.051564593 0.3104002 0.13476366
-0.008672653 -0.25053656 0.047626406 0.14475177 0.02086208 -0.24804443 0.4056359 -0.30062306
0.18589197 0.08460608 -0.038145434 0.32529417 0.20383774 -0.14273876 0.14875817 -0.043503307
-0.056001026 0.004953352 0.08329114 0.07286192 0.20099744 0.011729731 0.3556745 -0.17597987
-0.12260544 -0.15581699 -0.09875984 -0.15551153 -0.24331129 0.12876908 0.10233137 -0.22976783
-0.3056417 -0.16331866 -0.2377322 -0.038809724 0.04188181 -0.18659489 0.02594709 -0.17287157
0.13104032 -0.12644671 -0.0494241 0.2925466 0.42311883 0.07928836 0.1370164 -0.07966648
-0.33095348 -0.11375727 -0.12848367 -0.20921966 -0.023448799 0.021594835 -0.022954253 0.0590396
0.08786642 0.20047125 -0.069640376 -0.0634908 -0.079898626 -0.06288409 0.11107528 -0.20417649
-0.08959471 0.096943036 -0.088694625 -0.019503942 -0.23232247 -0.14232092 0.23223911 0.23447616
0.15470059 -0.15110864 -0.3444674 -0.2112417 0.005862012 0.2159342 -0.16981515 -0.17484955
-0.20382991 -0.020181341 0.03121952 -0.25618777 -0.05374339 -0.10812369 -0.22637923 -0.15196672
0.008586357 -0.020745091 -0.11295674 0.3090891 0.18466212 0.24784091 -0.151412 -0.25099936
-0.11142148 -0.17290512 -0.006029994 0.15670885 -0.2130485 0.06255745 -0.07203172 0.20910999
-0.046868708 0.09355676 -0.07318261 -0.07169373 -0.110751465 -0.23296061 0.010124356 0.018303862
-0.27538484 -0.2598976 -0.00310342 0.22731327 0.21283275 0.25855583 -0.11078985 -0.10849738
0.079670876 -0.17122884 0.06999875 0.1040375 0.2753264 0.36827636 -0.14214765 -0.023786988
-0.017455203 -0.11290135 0.30855218 -0.012992004 0.2882749 0.36618736 -0.030901436 0.32508102
0.48543653 0.0009700582 -0.1285147 0.060290754 -0.13762932 0.3213775 -0.10622661 -0.23652196
0.3310205 0.13855158 0.3073058 -0.037177164 0.41053835 -0.097448654 -0.16242006 -0.2225261

l2.weight f4 [300, 400]
00000000: 7217 0bbd bc95 dabb 122b 97bc 20cc 46bb
00000010: 83e2 fdbb 2139 ec3b 2a5d 08bd a9f1 bfbc
00000020: 411a 5cbd 2fd8 09bc 05e5 c03c 8fe4 023d
00000030: 8ae8 fbbc 7e0b 16bd 3335 453d d82b de3c
00000040: eeaf a73c 2c84 1fbc 9e11 943c f41f b73b
00000050: 8296 e03b 785a 08bc 86f9 dcbc 9fe0 073d
00000060: 7f49 633c f410 ebbc 4b11 38bd 6883 473c
00000070: 7ff0 343d 51f7 a53c efcd 0a3b 6bba ec3b
00000080: 2866 233d 6a58 e53c a637 593c 09b6 1f3d
00000090: 355e 233d da29 82bc b8e4 8fbc 1f35 e93b
000000a0: 0e67 28bd 741f 40bc 2541 b33c 66a9 9e3c
000000b0: d309 3e3d d413 03bd 657d d03c 2cbb 2dbc
000000c0: ea3c babc c439 ccbc 701a 0f3d 8bad 35bc
000000d0: b079 1bbd 955d 18bd b057 883c b07b af3b
000000e0: a3a4 873c fb50 2ebd a3bb 0f3d 72ca 68bd
000000f0: 799d c5bc 9a35 ca3c 4058 e3bb eeee 09bd
00000100: 6772 e1bc 93de 33bd 92ba 1c3b 3955 163d
00000110: ba4f c4bc 4bf0 20bd 983e 71b8 fa1a 04bd
00000120: 01f0 083c c5e2 a4bc c690 e6bc 48e6 423c
00000130: 8bec 1f3d f484 e93c 6f8b 2e3d 55df 3bbd
00000140: dca1 953b baff b3bc 00c5 b6ba a89c de3c
00000150: ca7f 20bd 2a00 05bd db8d aebc df4c c1bc
00000160: 5e09 07bc 5f35 f43c b918 fe3c 481d 06bc
00000170: f3e7 3bbd 73ff 48bc 3262 b43c 73e1 073d
00000180: 1b14 213d bde8 d5bc e079 6dbc cb9b e1bc
00000190: f9c3 f23b ffe4 3bbc ac76 e7bb e777 47bd
000001a0: bebe 8d3c 0811 3bbc 1108 bbbb 8eca 85bc
000001b0: a81a feba 1e9c 12bd 1f62 3dbd 710c 373d
000001c0: b577 4a3b ad9b 2abd b61b de3c 9e3c 233d
000001d0: 1085 2dbd 65fb 34bd 4ad2 40bd 8484 0b3d
000001e0: 80dc 1fbd 02c3 193d 883d 1cbc 3e90 6cbd
000001f0: 2856 f0bb 70b5 cdbc 9beb 143d aa4d e0bc
00000200: e3b3 4b3d 2d88 41bd 1ed3 273b 7dca 153d
00000210: f05e e23b cf90 e1bc 4b6e 68bd a801 233c
00000220: 0231 46bc 52d6 8abc 125b efba b9fe 9e3b
00000230: 4f79 05bd efa8 7fbc da60 a93c f0b9 aebc
00000240: c62b d4bc 182e 70bc c366 a3bc 1155 d9bb
00000250: 9554 92bc de76 b3bc f93f d4bc 8984 163d
00000260: 25be 3dbd deed f53c 3035 9dbb 06ef ec3c
00000270: 8c7b 3b3d 7611 a03c a808 013c 7fd8 38bd
00000280: 57a1 eebc b595 7d3c a535 ea3c 8287 f63c
00000290: 2af1 d4bc 5af4 24bd a59f 93bc 3837 2fbc
000002a0: 908e c0bc d591 e8bc 2db3 31bd 4f80 3b3d
000002b0: 9c4a 883c 8409 573c 7704 473b e18e 423d
000002c0: cf39 35bd 915c 7a3b 7944 143d 9de2 acbc
000002d0: 17e1 273d 04bf 0cbc 464e 943c 6f6a 0fbd
000002e0: 253f 473d e717 c0bc 12ea 1ebd ac67 0bbc
000002f0: e240 8b3c 71c0 253d 6a64 eabc 6c68 383c
00000300: dc7e 2dbc aa3a e23c 63b2 e1ba 178e b43c
00000310: 2994 bc3c 3120 67bd 82fc 06bd 3efb f13c
00000320: eb11 4ebd c0e8 423c 621d 383c 8259 0d3d
00000330: a471 3cbd d002 3bbd d20e 833c 8c0c 5f3c
00000340: 217f e23a a348 9f3c 2767 a2bc 3656 83bc
00000350: 79aa fcbc 12e7 bcbc fd6c 9dbc fc1d f5bc
00000360: 5aee 4dbd 4571 23bd bbf2 52bd 40e3 2b3c
00000370: d08d 62bb 805c 113c 4f8e 37bd 6b75 3abd
00000380: df8f 09bc 0bf8 efbc d146 35bd ba58 0b3d
00000390: feae dcbc 5f38 08bb 7a33 b0bc 4c46 21bd
000003a0: 10c6 dbbc 184e 2ebd 089d 03bd e0b8 77bb
000003b0: efc7 bfbc 4d0e 173d e892 38bc c970 3b39
000003c0: a9ff 7cbc f816 003c e0c2 00bd a4a8 2f3b
000003d0: 6a7a ca3c 7be3 99bc 5a17 5dbd 5e9b 993c
000003e0: 7015 f63b f56e 36bd b0b2 54bd c058 923a
000003f0: 9adb 52bd 0db6 1ebd 7436 443c 2d63 13bd
-0.033957906 -0.0066706818 -0.018453155 -0.003033407 -0.0077479496 0.0072089587 -0.033291973 -0.023430662
-0.053735975 -0.008413359 0.023546705 0.03195625 -0.030750532 -0.036632054 0.048146438 0.027120516
0.020469632 -0.009736102 0.018074807 0.005588526 0.0068538794 -0.008322351 -0.02697445 0.0331732
0.013872503 -0.028694607 -0.044938367 0.012177326 0.044174667 0.020259531 0.0021179875 0.007224371
0.039892346 0.02799626 0.0132578965 0.03899196 0.039884765 -0.015889097 -0.017565116 0.007116928
-0.041113906 -0.011726249 0.02188165 0.019367885 0.046396088 -0.03200133 0.025450418 -0.010603707
-0.022734124 -0.024929889 0.034937322 -0.011088739 -0.037957847 -0.03719862 0.016643375 0.005355321
0.016557997 -0.042557698 0.035091054 -0.056833692 -0.02412294 0.024683762 -0.0069380105 -0.033675127
-0.027520372 -0.043913435 0.0023914916 0.03670237 -0.023963798 -0.03929166 -5.7517173e-05 -0.03225229
0.008358003 -0.020127663 -0.028145205 0.011895724 0.039043944 0.02850578 0.042613443 -0.045867283
0.0045664143 -0.021972526 -0.0013944209 0.027174309 -0.03918437 -0.03247086 -0.021307876 -0.023596225
-0.008241979 0.029810606 0.031017648 -0.008185692 -0.0458755 -0.012267935 0.02201948 0.03317399
0.039325815 -0.026111955 -0.014494389 -0.027540108 0.0074086157 -0.011468171 -0.0070637073 -0.048698332
0.017302867 -0.011417635 -0.0057077487 -0.016331937 -0.0019386606 -0.035793416 -0.046236154 0.0446896
0.0030894105 -0.04165237 0.027112823 0.03985273 -0.042363226 -0.04418506 -0.047075547 0.034061924
-0.039028645 0.03753949 -0.009536155 -0.057754748 -0.0073344894 -0.02511093 0.036357503 -0.027380783
0.0497321 -0.047249008 0.0025608013 0.03657006 0.00690829 -0.02753487 -0.05674581 0.009949125
-0.012096645 -0.016947899 -0.0018261394 0.0048521427 -0.032586392 -0.015604242 0.020676065 -0.021328896
-0.025899779 -0.014659427 -0.019946462 -0.006632455 -0.017862597 -0.021907266 -0.02590941 0.03674749
-0.046323914 0.03002065 -0.0047976 0.028922569 0.04577212 0.019539576 0.007875599 -0.04512834
-0.029129667 0.0154775875 0.028590033 0.030093912 -0.025993902 -0.040272094 -0.01802046 -0.0106943175
-0.02350548 -0.02838985 -0.043383766 0.04577666 0.016637139 0.013124827 0.0030367651 0.04749954
-0.044244584 0.0038202147 0.036198113 -0.021104151 0.040986147 -0.008590464 0.01810373 -0.035013612
0.048644204 -0.023448898 -0.038797446 -0.008508604 0.016998712 0.04046673 -0.028612334 0.011255365
-0.010589328 0.027615864 -0.0017219301 0.02204041 0.023019867 -0.056427184 -0.032955654 0.029538747
-0.050310057 0.011896312 0.011237474 0.03450919 -0.046006814 -0.04565698 0.015998278 0.013613831
0.0017280319 0.019443816 -0.019824577 -0.01603232 -0.030843006 -0.023059402 -0.019217009 -0.029921524
-0.050276138 -0.039902944 -0.051501017 0.010491192 -0.003456939 0.008872151 -0.04481345 -0.045522135
-0.008396118 -0.02929308 -0.04425699 0.034020163 -0.026938912 -0.0020785553 -0.021508921 -0.03937368
-0.026827842 -0.042554945 -0.03213218 -0.0037799403 -0.023410765 0.036878873 -0.011265494 0.00017875725
-0.0154418135 0.007817976 -0.031435847 0.0026803399 0.024716575 -0.018785229 -0.053977348 0.018750843
0.00750988 -0.04453941 -0.051928222 0.0011165366 -0.05147896 -0.038747836 0.011975873 -0.035983253

l2.bias f4 [300]
00000000: 7e0c 20bd a860 00bb ac87 cf3c bc65 3d3d
00000010: eebb 54bd 1089 67bd dceb 9ebd 14b4 b13d
00000020: 3f52 26bb bca7 713c e255 5bbd cfd6 9a3d
00000030: ff25 4dbd 713c a1bc d6d4 c13d b709 80bd
00000040: 80e4 8c3c d742 af3c 9236 81bc 5611 8abc
00000050: 4b35 0e3e cc83 ff3d a4ff 023e af38 b8bb
00000060: 8dfc a0bc e3d5 d33e e2b2 383e 1233 02bd
00000070: e872 2fbc 9b28 28bd d71f 283c febf 4a3d
00000080: 1293 b43d 410e c53c df96 80bd 72b4 80bd
00000090: 1b0f 9c3c 4ba0 52bd 977b a53c 6062 2cbd
000000a0: d4bb 52bd 44fd 2a3d 0fad b53d f2a2 bd3d
000000b0: 925a d53e f9d8 c13e 0d9f d23c 9c1c a5bd
000000c0: 6f71 333c d4cd eebc efdc 493c 835b 2ebe
000000d0: d3e4 57bd 76c2 ad3c 56eb 52bc fb16 b53d
000000e0: 02ec 723d 4128 b83d f665 3fbd 9b58 993d
000000f0: 26cd 4dbc 66d9 083d 6e1f b73d 677e 783c
00000100: 2c1b 0b3d bc52 b3bc e69c e5bc 69f6 b93a
00000110: 7332 b43d 5ed0 95bc fce8 97bb 5e67 92bd
00000120: a1ab c03d 2368 e13e 2f9c b2bb f891 8a3d
00000130: 82bd ed3e a489 aa3c 0b16 e63e 6625 13be
00000140: 1583 29bd 7194 91bc 21cb a13d e544 823d
00000150: 5ba3 c7bc 166d 90bd 725f 55bb a523 30bd
00000160: 4cb6 8dbc 0077 e63c 929b e53b b791 97bd
00000170: ca5d 073e 56c4 88bc dd96 7d3c b4aa 67bd
00000180: 9b29 a0bd 1270 be3c 9634 d23c 7422 66bd
00000190: 1703 16bb aa62 1fbd 7241 163d 0efc 74bc
000001a0: c9ae ae3d 7520 bb3c 9013 d23d 7759 f0bc
000001b0: a97a a3bc a2af b03d 5d46 64bd b5e4 953d
000001c0: 0cf1 9dbc 0266 57ba 9e69 b53d ab61 71bd
000001d0: cc7f ecbd 84ed b93b 51e3 9ebe bdf0 733d
000001e0: e369 ba3c 38ac d8bd 6136 54bd 582e 74bd
000001f0: f113 8cbd 9506 c3bc e159 5abe 9233 dcbc
00000200: 3fe3 a2bc 41cb 81bd 8d75 f63c a364 d3bd
00000210: 37a2 c83d e3da 313e 694d 96bd e6be 56bd
00000220: 7153 01bc 7cdf 9dbc a0cf 9bbd c363 50bd
00000230: d180 c73c ca12 6cbd 42ee 9dbc 662d 3e3d
00000240: 38e5 383d 90b4 103e 6b98 abbd 1ee1 bc3d
00000250: 2272 27bc 1c26 da3c 296c e3bc 431c 5fbd
00000260: 1ccb 363e e79c 3ebd 7959 fb3c 4213 393d
00000270: 97e7 4abd 7bac acbd 0ba9 8eba 0df8 863d
00000280: 5b53 b93e b0f5 28bd c2b2 663c 957d 4e3c
00000290: 0338 7bbc 03bf bdbd fa87 76bd db64 2d3c
000002a0: 028a 3ebd 5337 053e 9a63 fb3a 4a06 133c
000002b0: 60c6 a73c acfb 37bc d722 453d b171 f5bc
000002c0: 23fa 21bd 110d 033f 9e3b 2f3c 6a49 adbd
000002d0: a2b0 6abd 4bf6 9a3a f556 bc3d b803 463d
000002e0: b2e0 9cbd 5908 843d 8656 e3bb d3b1 3abd
000002f0: 3e2e db3a 3fc4 2f3b b26f 0bbd 81f3 803c
00000300: f1e7 93bb 06d7 c53e a09b abbd ac6c 103e
00000310: 9bd0 72bd 614e e13e 5f01 85bc 8af7 febb
00000320: 6e47 efbc 9aab 293d 739b 2d3e fd31 a13e
00000330: 9604 d23e 2f09 70bc afd1 1abd 35dd cfbc
00000340: 0c42 dd3b 4abb 73bc 580e 48bd 5082 93bc
00000350: 751b 123c b3af 89bc dadf 2fbd c322 b23d
00000360: 20f0 51bc f6db 05bd 4ad2 17bd 58b2 30bc
00000370: 9a85 b43d 5cbc 3b3c 5648 e53c a115 003f
00000380: 201d 0dbd e84e 9ebd ae58 09bc 9371 483d
00000390: 8bff b8bd 9596 693c d810 d63c 9200 54bd
000003a0: b812 5abc c31c 813d 00dd be3e ee86 01bd
000003b0: efb6 36bd 1552 8dba 6e05 72bd 4fe4 0fbd
000003c0: 8fb3 603d 2722 13bd 673d 75bd 87dc 613b
000003d0: b2b1 c8bd d56f 61bd e19b 84bd 864c df3e
000003e0: 9af2 9bbc 5bcf 20be 2617 b13d 8dbe 9d3d
000003f0: 0822 80bd cac4 30bc 179d 563d 811b 013d
-0.039074413 -0.0019588862 0.025333248 0.0462396 -0.051937036 -0.056527197 -0.0775983 0.08676925
-0.0025378612 0.014749464 -0.0535487 0.07560503 -0.050085064 -0.019682141 0.09464423 -0.06251853
0.017198801 0.021394176 -0.015773091 -0.01685397 0.13887517 0.1247631 0.12792832 -0.0056219916
-0.019651676 0.4137412 0.18036988 -0.031786986 -0.010708548 -0.04105435 0.010261497 0.049499504
0.08817114 0.024054648 -0.062787764 -0.06284417 0.019050172 -0.0514224 0.020200534 -0.042086005
-0.051448658 0.04174544 0.08870899 0.09259595 0.41670662 0.3786085 0.025710607 -0.080620974
0.010952338 -0.02915088 0.012320741 -0.17027096 -0.05270846 0.02121089 -0.012873491 0.08842274
0.059307106 0.08992053 -0.046728097 0.07487603 -0.012561118 0.033410452 0.089415416 0.015166855
0.03396146 -0.021890037 -0.028028917 0.0014187816 0.08798685 -0.018287834 -0.004635928 -0.07148622
0.094077356 0.44024763 -0.0054507474 0.067661226 0.46433645 0.020817585 0.44938692 -0.14369735
-0.041384775 -0.017770978 0.07900072 0.06360797 -0.024369886 -0.070520565 -0.003255811 -0.043002743
-0.01729884 0.028132915 0.007007071 -0.0740084 0.13219371 -0.016695183 0.015477863 -0.05655928
-0.078204356 0.023246799 0.02565984 -0.0561852 -0.0022890025 -0.038912453 0.036683507 -0.014952673
0.085294314 0.022842625 0.102576375 -0.029339535 -0.01995595 0.08627249 -0.055731166 0.07319013
-0.01927998 -0.00082167995 0.088580355 -0.058931034 -0.11547813 0.005674066 -0.31032804 0.059555758
0.022755569 -0.10579723 -0.051809672 -0.05961451 -0.06839741 -0.02380685 -0.21323349 -0.02688006
-0.01988375 -0.06337596 0.03008535 -0.10321929 0.09796565 0.17368655 -0.073389836 -0.05242815
-0.007893429 -0.019271605 -0.07607961 -0.05087639 0.024353417 -0.057635106 -0.01927865 0.046430014
0.045140475 0.14131379 -0.08378681 0.09222625 -0.0102200825 0.0266295 -0.027761536 -0.05447031
0.17850918 -0.046536352 0.030682312 0.04518438 -0.049537268 -0.084313355 -0.0010884119 0.06590281
0.36196408 -0.04124993 0.014080705 0.012603183 -0.015333178 -0.09264948 -0.06018827 0.010583128
-0.046518333 0.13009386 0.0019179464 0.008973667 0.020480335 -0.011229437 0.04812893 -0.029961439
-0.03954519 0.5119181 0.010695366 -0.08461268 -0.057297356 0.0011822669 0.09196273 0.04834339
-0.07660045 0.06446905 -0.0069378046 -0.045579743 0.0016722155 0.0026819853 -0.034042068 0.015741112
-0.0045137336 0.38640612 -0.083792925 0.14103955 -0.059280973 0.4400511 -0.016236005 -0.007780974
-0.029208865 0.041423418 0.1695383 0.3148345 0.41019124 -0.014650627 -0.037797626 -0.025374034
0.006752258 -0.014876196 -0.048841804 -0.018006474 0.008917679 -0.016807413 -0.04293809 0.086980365
-0.012813598 -0.032680474 -0.03706578 -0.010784708 0.08814545 0.011458483 0.027988594 0.50033003
-0.034451604 -0.07729894 -0.008382959 0.048936438 -0.09033116 0.014257093 0.026131079 -0.051758356
-0.013310127 0.06304314 0.37277985 -0.03162282 -0.044608053 -0.0010781909 -0.05908721 -0.03512984
0.05485874 -0.035921242 -0.05987301 0.003446372 -0.09799518 -0.055038292 -0.06475044 0.4361307
-0.01903658 -0.157041 0.08646993 0.0770236 -0.06256491 -0.010789106 0.052395906 0.03152037

l3.weight f4 [1, 300]
00000000: 6f16 c9bc 6056 3c3e 9c66 123d 8bb9 45be
00000010: 3826 b93b b84b 693c 9040 6a3e 07ba 33be
00000020: d4be cabb 5666 07bd aa10 3d3e 5b53 52be
00000030: 6f19 613e 2a5f 563e b16f 5bbe 42dd ddbc
00000040: 2952 523d 4303 523e 2242 5d3e 3132 e83c
00000050: 3a67 96be 2865 73be c8e4 2bbe 2889 0ebd
00000060: b520 ffbc 5bf1 00bf c28c 8cbe 934a 833e
00000070: f453 0c3d 8e0c 593e 3476 163d 576c 51be
00000080: ecf1 3cbe b7a7 f1bd 91dd 8d3a 235b 663e
00000090: 1d44 23bb 3ecb 803e 2e58 5a3e 672f 2b3d
000000a0: b842 803e f1ec 22be acf0 22be 6ea9 4bbe
000000b0: 7672 b7be 8d23 cbbe 9feb b6be 9253 7c3c
000000c0: a502 743e 042c 2abc 30bf 9d3b eb91 343f
000000d0: 594d 733d 0093 55bb bff2 673e e396 90be
000000e0: b3c3 69be cfc9 69be 1572 163d e59d 56be
000000f0: 8e8f 23bd 8cd4 48be 10bf b0bd 7e68 863e
00000100: e9b2 0dbe 387d 613e a483 7d3e 86a0 afbc
00000110: cf4d 52be 0a32 553e 44ad 073d 57a8 153d
00000120: eb59 4ebe 39f7 d4be 7107 71bb 5e1c 01be
00000130: b88e bdbe 0822 36be cb75 bbbe 888b 0f3f
00000140: 7eda a53c 2962 823e 521d a2be e6d1 55be
00000150: f73a edbc 2295 c23c 7187 c23c 069d d3bc
00000160: 29e0 27bd 329f c9bc 96ee 193d 3309 c9bc
00000170: 0c3f 1e3e 8fcf 593e 03c8 e1bd f4a4 703e
00000180: eed5 b53c be22 21be 7db9 4dbe 9f9f 463d
00000190: 44ac e53b 0157 053c adfa 683c 739d 3e3b
000001a0: 1f69 a1be b2c8 1ebe 3294 1dbe 4633 723e
000001b0: 18dd 22bd f71c a8be 6a10 3abb 360c 20be
000001c0: 2fd1 5f3e 7f1a c7bc 1885 5fbe b48b 113d
000001d0: 7fcc d93e a926 7d3e 0deb 4d3f 219d 34be
000001e0: 102e 463e cd9a 2dbc 4cbb 893b 9483 553e
000001f0: 8c0f 713c 3f38 7d3e 6517 7e3e c700 623e
00000200: f4c4 07bc c0d9 433e d38b f63c 3f96 24bb
00000210: 5c3e 70be fe36 e1be 45a3 593e d76b 3a3e
00000220: 12b6 213d 410c 54bd cb24 603e b5be 563e
00000230: 7238 403d e93d 053d b393 c33c 007a 61be
00000240: 8b59 7cbe 5dc4 8abe 47a7 4a3e 3354 26be
00000250: e75d a13c 4d37 a43b 86e8 a13c ae23 153c
00000260: f75b 7abe fa06 4f3e a78d 123c 93e1 12be
00000270: 5527 833d 2813 1a3d dd96 e6be 1b7d 56be
00000280: f01a b9be 0cca d23c d904 27be 5ddd 653e
00000290: 921a 5ebc 765e 4d3b 56f6 503e 7c46 48bc
000002a0: c2ed 4e3e bd97 3bbe e423 513e ce83 7fbc
000002b0: 80f3 033d 261b 88bc 89eb 3cbe ea37 1b3d
000002c0: 54a5 3b3d 0d92 45bf e3a4 863e 961c 98bb
000002d0: a276 7a3e 24ed 253c fb72 57be 6ea4 19be
000002e0: dcce d5bc e3de 83be eb5c 9b3c 6b79 a83c
000002f0: b3c2 1ebc b78c aa3a 8fa6 e13c cbd5 35be
00000300: 3b6d 23bb f951 c4be d67b 3f3e 8d9c 20be
00000310: 1a21 933b d9ed e8be b728 633e 1182 473e
00000320: f0f8 dfbc 8ba7 48be a597 a3be 6f09 88be
00000330: 9cc9 41be 9ed8 6d3e 946d 813e bec8 fe3a
00000340: 1e2e 4cbc cbc6 6739 4310 353d a869 4c3e
00000350: b62a 0bbd 6e87 613c 2f63 163d 1a6f 54be
00000360: 5132 dd3b 9557 8b3e b824 9fbb 0293 473e
00000370: 270c 77be 51ce 493e 0357 f33c 07e3 4ebf
00000380: 8a3e d03c 930f d33c febf 693e 85de 3cbe
00000390: 394c b13c a398 2d3d 20d7 46be 2987 1638
000003a0: eab3 81bc 6821 5dbe 3c8e d7bd e7c2 783e
000003b0: b24b 543d 2530 d3b9 e94d 123b 751a 053b
000003c0: 4ce6 59be 4426 81ba 6f33 e33a ae6f 6b3e
000003d0: cb09 be3b be77 533e 0f86 733e e1ed 50bf
000003e0: 41a3 683d d923 213f 7353 2fbe adf0 6bbe
000003f0: b3cd dfbc f0d5 4e3e 36af 53be 4f25 313d
-0.02454683 0.18392324 0.035742387 -0.1930906 0.005650308 0.014239244 0.22876191 -0.17551433
-0.0061872993 -0.03305658 0.18463388 -0.2053961 0.21982358 0.2093474 -0.21429326 -0.027083043
0.051347885 0.20509057 0.21607259 0.028344246 -0.2937563 -0.23769057 -0.16786492 -0.03479877
-0.031143526 -0.5036828 -0.2745114 0.25642833 0.03425975 0.21196195 0.03673382 -0.20451485
-0.18451661 -0.11799567 0.0010823478 0.22495703 -0.0024912425 0.2515506 0.213227 0.041793253
0.25050902 -0.15910698 -0.15912122 -0.19888851 -0.35829514 -0.3967556 -0.3572664 0.015400784
0.23829134 -0.010386471 0.004814051 0.70535153 0.059399936 -0.003258884 0.22651194 -0.28240117
-0.2282856 -0.2283089 0.03672989 -0.2095867 -0.039931826 -0.1961233 -0.08630192 0.26251596
-0.1383778 0.22020423 0.24757248 -0.021438848 -0.20537494 0.2081987 0.033124223 0.036537495
-0.20151488 -0.41594866 -0.0036778117 -0.12608477 -0.37022948 -0.1778642 -0.36613306 0.5607228
0.020245787 0.25465515 -0.31662995 -0.20880851 -0.02895878 0.023752753 0.023746224 -0.02583171
-0.04098526 -0.024612043 0.03758105 -0.02454052 0.15453738 0.21270584 -0.11024477 0.23500425
0.022196736 -0.1573591 -0.2009029 0.04849207 0.007009061 0.008138419 0.014219922 0.0029085546
-0.31525514 -0.15506247 -0.15388563 0.23652372 -0.039761633 -0.32834598 -0.0028391131 -0.15629658
0.21857141 -0.024304627 -0.21828115 0.035533622 0.4253883 0.24721779 0.80436784 -0.17638065
0.19353509 -0.010595989 0.0042032357 0.20850974 0.014713179 0.24728487 0.24813612 0.22070609
-0.008286703 0.19126034 0.03009597 -0.0025113968 -0.23461288 -0.43987268 0.21253689 0.182052
0.039480276 -0.0517695 0.21889035 0.20971186 0.04692883 0.032529745 0.02387414 -0.22019196
-0.24643533 -0.27102938 0.19790374 -0.16243057 0.019698096 0.005011475 0.019764196 0.009102745
-0.24449144 0.20217505 0.008944905 -0.14343862 0.06403986 0.037615925 -0.45036975 -0.20946161
-0.36153364 0.02573111 -0.16310443 0.22447725 -0.01355614 0.003133682 0.2040647 -0.012223836
0.20207885 -0.18319602 0.20423847 -0.0155953895 0.03221464 -0.016614508 -0.18449225 0.03789512
0.045811966 -0.7717598 0.26297674 -0.0046420796 0.24459317 0.0101273395 -0.21039955 -0.15004131
-0.026099615 -0.25755987 0.018965205 0.02056571 -0.009689975 0.0013011907 0.027545242 -0.17757337
-0.0024936933 -0.3834379 0.18699583 -0.1568472 0.00449003 -0.45493963 0.221835 0.1948321
-0.027340382 -0.19595163 -0.31951633 -0.26569697 -0.18924564 0.23227164 0.25278914 0.0019438488
-0.012462167 0.00022103933 0.04420496 0.1996218 -0.03397628 0.013765199 0.036715683 -0.20745507
0.006750383 0.27215257 -0.004856672 0.19489673 -0.2412573 0.1970761 0.029704576 -0.80815166
0.025420446 0.025764262 0.22827145 -0.1844426 0.021642791 0.042381894 -0.19418001 3.5888665e-05
-0.01583286 -0.21594775 -0.10525176 0.242931 0.05183 -0.00040280927 0.002232427 0.002030996
-0.21279258 -0.0009853323 0.0017334054 0.22991821 0.0057995073 0.20651147 0.23781608 -0.81612974
0.056796316 0.62945324 -0.17121677 -0.2304103 -0.027319765 0.20198798 -0.20672306 0.04324847
