TD3/models/third_training_attempt/train_610_episodes_actor_goal.pth (torch, 528299 bytes, 6 tensors)

l1.weight f4 [400, 24]
0.15908349 0.015029419 0.949497 -0.46710712 0.7684417 -0.07111362 -0.39407945 0.073061205
-2.1383543 -1.0255227 -0.22853188 -0.2992424 0.22108428 -0.34263462 -0.49559224 -0.19686987
-0.43305498 -0.49516308 -0.4834329 -0.41326028 -0.44592366 -0.25291172 -0.15245542 0.012813241
0.37880877 1.1653793 -2.3357654 0.6378597 0.3037247 -0.38352942 -0.30820698 -0.2282577
0.16006397 -0.7175751 -0.49347028 -0.64496464 -1.0762105 0.3895853 -0.18917489 -0.28188553
-0.18976498 -0.427321 -0.29031363 -0.29065934 -0.33914775 -0.44281822 -0.03760572 -0.21305849
0.3900919 1.1493574 -1.6275303 0.09519839 1.0027716 -0.15905067 -0.029364442 -0.023776874
0.18605159 -0.032277808 0.14240906 0.8231708 -0.42649844 0.6920642 -0.65260595 -0.3987048
-0.6915755 -0.7228799 -0.39151052 -0.70799065 -0.43670875 -0.6291694 -0.7217474 -0.13967617
0.54128814 1.3817681 -0.43433648 0.05962147 0.37610868 -0.24424964 0.33162564 0.17122194
-0.99430776 -0.21591355 -0.38258767 -0.3338608 -0.2963099 -0.30201402 -0.5189722 -0.42097312
-0.6355948 -0.621981 -0.55288726 -0.5727476 -0.51272565 -0.60274065 -0.38903692 -0.6226009
1.0698686 -2.5378966 1.273775 -1.7990011 0.6838015 -0.0467303 -0.17101039 0.5026613
-0.6557558 0.4453844 -0.16540337 -0.125866 0.3648007 0.19302614 -0.41769928 -0.40336415
-0.3843499 -0.37880677 -0.0810994 -0.24367745 -0.018934151 -0.26315096 0.042041898 -0.16261452
0.3832493 1.4338626 -1.8062727 1.7146722 -0.84586823 -0.06990067 0.24690801 -0.021405723
-1.0481964 -0.012168021 -0.15528962 0.8133837 0.52986795 -0.33672783 0.118980676 0.13903542
0.08511775 0.035904758 0.16044842 -0.16533896 -0.18084215 0.04908112 -0.18766093 -0.6728834
-0.785739 1.1364353 -0.18750596 0.016563216 -0.5371874 -0.3511343 0.7289119 0.50885135
-0.53921396 0.82578146 -0.3493104 0.29418793 0.0014051227 0.54364854 -0.48610315 -0.46003205
-0.42412022 -0.3653619 -0.44458848 -0.56739503 -0.48281297 -0.66209495 -0.6401962 -0.16903147
1.133741 3.505591 -1.1540543 0.52987987 -0.34303397 -0.21546651 0.63952863 0.68407714
0.17917918 1.1474739 0.2595636 -0.5246466 0.34286708 0.17680095 -0.4888271 -0.5462473
-0.31296346 -0.19224454 -0.47388422 -0.45655116 -0.31853053 -0.47139275 -0.39810875 -0.60702026
-0.6077236 0.43883663 -0.7539459 -1.6589061 -0.124480695 0.4433368 0.8593269 -0.3902886
-0.63095754 -0.3809247 0.26995862 -0.21573772 0.8292504 -0.5170172 0.24174623 0.19938517
-0.021317063 -0.059189335 0.09588683 0.12610418 -0.10284568 0.07998876 0.06668052 -0.39369205
0.6574995 -2.8534055 2.3556228 -1.3167441 0.8236921 -0.058895364 -0.14988153 -0.17324187
-0.27043158 0.1834985 0.5955968 0.9537954 0.08522499 -0.3635403 -0.07024487 -0.038303014
0.05884965 0.13370338 -0.13133462 -0.13626496 -0.047766205 -0.021917367 0.10968783 -0.016284741
-0.68179095 -1.6632382 0.9296817 0.5365291 -0.24484876 -0.1753542 0.30185896 0.8001607
-0.22700138 1.0218678 -0.85534537 0.052229233 -0.114318706 0.26160812 -0.5508394 -0.46496722
00000000: c8e6 223e f43d 763c 3c12 733f aa28 efbe
00000010: 98b8 443f 05a4 91bd c8c4 c9be 1da1 953d
00000020: ccda 08c0 5444 83bf 4304 6abe 4d36 99be
00000030: eb63 623e ce6d afbe 44be fdbe 4198 49be
00000040: 62b9 ddbe 0486 fdbe 8484 f7be da96 d3be
00000050: 1b50 e4be a57d 81be 461d 1cbe a1ee 513c
00000060: 39f3 c13e 262b 953f 2e7d 15c0 c64a 233f
00000070: ce81 9b3e f85d c4be 4ecd 9dbe 63bc 69be
00000080: cfe7 233e 00b3 37bf 23a8 fcbe 671c 25bf
00000090: 44c1 89bf b977 c73e 10b7 41be 4d53 90be
000000a0: c051 42be d1c9 dabe fda3 94be 4dd1 94be
000000b0: c6a4 adbe 12b9 e2be 7508 1abd 012c 5abe
000000c0: 20ba c73e 251e 933f ea52 d0bf 60f7 c23d
000000d0: d25a 803f 2ede 22be b38d f0bc b8c7 c2bc
000000e0: 4f84 3e3e bc35 04bd aed3 113e 52bb 523f
000000f0: 015e dabe 1f2b 313f 2f11 27bf 0923 ccbe
00000100: 180b 31bf a80e 39bf 1174 c8be e03e 35bf
00000110: 4a98 dfbe 3f11 21bf 70c4 38bf 4507 0fbe
00000120: dc91 0a3f c7dd b03f 5a61 debe a435 743d
00000130: 5191 c03e 941c 7abe d6ca a93e ce54 2f3e
00000140: f48a 7ebf 7118 5dbe 88e2 c3be ceef aabe
00000150: eeb5 97be 95a1 9abe 5ddb 04bf ca89 d7be
00000160: 57b6 22bf 263a 1fbf 058a 0dbf 969f 12bf
00000170: fd41 03bf 364d 1abf d92f c7be c662 1fbf
00000180: 74f1 883f e66c 22c0 0f0b a33f ab45 e6bf
00000190: 9d0d 2f3f 4568 3fbd 591d 2fbe 69ae 003f
000001a0: 9ddf 27bf 6d09 e43e 805f 29be 04e3 00be
000001b0: 28c7 ba3e a5a8 453e aedc d5be bf85 cebe
000001c0: 83c9 c4be f6f2 c1be 7117 a6bd 9586 79be
000001d0: cb1b 9bbc b9bb 86be 2034 2c3d 6c84 26be
000001e0: 4139 c43e cf88 b73f f233 e7bf 617a db3f
000001f0: d28a 58bf 1528 8fbd 74d5 7c3e 0e5b afbc
00000200: 4d2b 86bf 615c 47bc 3e04 1fbe ea39 503f
00000210: 6da5 073f 9767 acbe 24ac f33d 4d5f 0e3e
00000220: 3752 ae3d de10 133d 974c 243e 9e4e 29be
00000230: af2e 39be 4909 493d 302a 40be 1642 2cbf
00000240: 3126 49bf b676 913f 9001 40be 95af 873c
00000250: 1d85 09bf e0c7 b3be f899 3a3f 1544 023f
00000260: ed09 0abf 6a66 533f d0d8 b2be cd9f 963e
00000270: 182c b83a 8d2c 0b3f 83e2 f8be 5289 ebbe
00000280: 4926 d9be b710 bbbe 1aa1 e3be cd40 11bf
00000290: 4333 f7be 0e7f 29bf e6e3 23bf 9616 2dbe
000002a0: 6d1e 913f 9a5b 6040 0db8 93bf 35a6 073f
000002b0: 26a2 afbe 41a3 5cbe 26b8 233f ae1f 2f3f
000002c0: bf7a 373e 6de0 923f 85e5 843e 3d4f 06bf
000002d0: 468c af3e 4f0b 353e 8c47 fabe ddd6 0bbf
000002e0: bf3c a0be c1db 44be f4a0 f2be 13c1 e9be
000002f0: 6f16 a3be 645a f1be e9d4 cbbe ae65 1bbf
00000300: c693 1bbf 32af e03e 9902 41bf 0957 d4bf
00000310: bcef febd 0bfd e23e d9fc 5b3f e8d3 c7be
00000320: 6f86 21bf 9008 c3be 0438 8a3e 59ea 5cbe
00000330: c149 543f 3d5b 04bf 538c 773e a02b 4c3e
00000340: 1fa1 aebc 8470 72bd 5060 c43d 7421 013e
00000350: c2a0 d2bd 26d1 a33d cc8f 883d 0192 c9be
00000360: e351 283f 329e 36c0 86c2 1640 128b a8bf
00000370: 7cdd 523f 443c 71bd 8b7a 19be 5166 31be
00000380: 0276 8abe 08e7 3b3e 0879 183f ef2b 743f
00000390: 718a ae3d f421 babe 8bdc 8fbd 9fe3 1cbd
000003a0: 550c 713d 8ae9 083e 957c 06be 0b89 0bbe
000003b0: 7fa6 43bd 0d8c b3bc 03a4 e03d 9467 85bc
000003c0: da89 2ebf fde4 d4bf 9fff 6d3f f959 093f
000003d0: a2b9 7abe 0d90 33be 428d 9a3e 55d7 4c3f
000003e0: 0d73 68be 90cc 823f eaf7 5abf 52ee 553d
000003f0: ed1f eabd 80f1 853e d003 0dbf 2f10 eebe

l1.bias f4 [400]
-0.103249505 -0.37720537 -0.20041038 -0.72023344 -0.02243473 -0.86920935 -0.053054515 -0.24452978
-0.2922806 -0.090652466 -0.065378785 0.043532666 0.11939642 -0.35935193 -0.24958128 -0.21820801
-0.11393662 -0.19036104 -0.27704564 0.18010603 -0.102470174 0.28372115 -0.26021925 -0.3315005
-0.29962388 -0.18709469 -0.26601282 -0.21611322 0.50536525 0.015975736 -0.19767807 -0.45152053
0.29939345 -0.17213392 -0.016240979 -0.18845984 -0.10614926 0.030966317 -0.11161204 -0.20458569
-0.42158702 -0.4429737 0.42526963 -0.24781996 0.18683837 -0.030599004 0.14503165 -0.168493
-0.2978298 0.073818654 -0.071816966 -0.4970585 0.084883705 -0.46363762 -0.04436341 -0.16462968
-0.13344748 -0.7399864 0.03302063 -0.28578967 -0.27002418 -0.45045954 0.26984537 -0.10707165
0.033105567 -0.025054278 0.08733951 -0.19033398 -0.28218955 -0.1915114 -0.11037226 -0.07306288
-0.21122566 -0.48878384 -0.57010114 0.6769484 -0.029546611 -0.37128067 -0.39432508 -0.2436534
-0.02818576 -0.33970207 -0.038755152 -0.1927482 -0.50968575 -0.6540483 -0.19995141 0.0048716506
0.07662705 -0.049662054 -0.28753608 -0.4211221 -0.05715979 -0.38243565 0.37225506 -0.098853655
-0.49054968 -0.39097354 -0.25540912 -0.12782675 -0.34818983 -0.19959082 -0.19116569 -0.10975238
-0.13620587 -0.46607003 0.17818886 -0.46216428 -0.07128797 -0.30775398 0.06670251 -0.048409823
0.024947735 -0.20775658 -0.1349346 -0.15461609 -0.14392003 -0.15979871 -0.31973734 -0.17869668
0.12795128 -0.19514431 0.123292 -0.56092197 0.5200928 0.22027662 -0.25732246 -0.25585654
-0.013510616 -0.29789537 -0.29725164 -0.16131268 -0.58016235 0.19385685 0.2225714 -0.15492305
0.28906536 0.058082975 0.1390755 -0.30249682 -0.3022942 0.23188463 -0.30848116 -0.31975242
0.18156001 0.3979478 -0.02566262 -0.2047496 -0.55951524 -0.57350856 0.25124997 -0.4548523
0.14863177 -0.06713054 -0.10942008 0.14065044 0.10492223 -0.3860865 -0.21985345 0.025727438
-0.06856403 -0.6093682 -0.2983066 0.062423628 -0.016566563 -0.41137677 -0.5147999 0.2693268
0.2668294 0.14535649 -0.300059 -0.18767881 -0.32610625 -0.34727785 -0.21181276 -0.534839
-0.053927723 0.59738815 -0.2756509 -0.035817586 0.081544444 -0.123042725 -0.2570721 0.1838939
0.6016558 -0.668282 -0.47154176 -0.31714174 -0.21374992 -0.41265827 -0.0025287063 -0.46222553
0.22646956 -0.1627432 -0.080309145 -0.5617326 -0.33545226 -0.11894342 -0.51077056 -0.33872458
-0.2042966 0.0721164 0.023171512 -0.16626881 -0.1429008 -0.056264974 -0.42426038 0.13901158
-0.29065937 0.16512142 -0.076680504 -0.16372965 0.02157465 -0.4853035 -0.015187138 -0.3839288
-0.7740803 -0.40606594 -0.20943156 -0.3373298 0.20299125 -0.19878913 -0.18579233 -0.16640292
0.42505005 -0.17438398 -0.20083655 0.06448112 -0.109402195 -0.36334026 -0.07077902 -0.050422225
0.1724528 0.2606007 -0.48290837 0.09605671 -0.1793103 -0.2678371 -0.536043 0.07975079
-0.056858044 0.24023186 0.22077432 0.11201819 0.23033361 -0.054382212 0.032996044 -0.056868475
-0.20623375 -0.44322357 -0.44687137 -0.48706877 0.05371613 0.7183141 -0.42234403 -0.4779433
00000000: 7a74 d3bd 1021 c1be 6138 4dbe 3861 38bf
00000010: 0ac9 b7bc 8184 5ebf b14f 59bd 0466 7abe
00000020: cea5 95be 00a8 b9bd 50e5 85bd 4f4f 323d
00000030: 1c86 f43d fafc b7be 3c92 7fbe ec71 5fbe
00000040: 9a57 e9bd 01ee 42be edd8 8dbe b76d 383e
00000050: e2db d1bd e643 913e 753b 85be 6fba a9be
00000060: 4d68 99be c095 3fbe d532 88be c94c 5dbe
00000070: 9e5f 013f 8cdf 823c 1f6c 4abe b32d e7be
00000080: 194a 993e e043 30be cd0b 85bc 9efb 40be
00000090: c964 d9bd 13ad fd3c da94 e4bd e97e 51be
000000a0: 41da d7be 73cd e2be f1bc d93e 84c4 7dbe
000000b0: 8f52 3f3e c3aa fabc 2d83 143e 6e89 2cbe
000000c0: 267d 98be 3c2e 973d c614 93bd 747e febe
000000d0: 82d7 ad3d e961 edbe 68b6 35bd af94 28be
000000e0: 75a6 08be c06f 3dbf a440 073d 0653 92be
000000f0: 9c40 8abe a2a2 e6be 2c29 8a3e 6248 dbbd
00000100: b499 073d a13e cdbc 0fdf b23d e9e6 42be
00000110: 267b 90be 901b 44be da0a e2bd fea1 95bd
00000120: 8a4b 58be e041 fabe 26f2 11bf 7e4c 2d3f
00000130: bc0b f2bc 8018 bebe fae4 c9be 4780 79be
00000140: d3e5 e6bc 6eed adbe b9bd 1ebd c95f 45be
00000150: c47a 02bf b66f 27bf 10c0 4cbe 5ea2 9f3b
00000160: a5ee 9c3d 706a 4bbd ee37 93be 519d d7be
00000170: 6220 6abd 9bce c3be 3798 be3e c973 cabd
00000180: 5429 fbbe af2d c8be fcc4 82be 04e5 02be
00000190: f045 b2be 8961 4cbe f0c0 43be dbc5 e0bd
000001a0: 8d79 0bbe bba0 eebe 2477 363e cca0 ecbe
000001b0: 6dff 91bd ee91 9dbe 539b 883d 6149 46bd
000001c0: 315f cc3c 24be 54be 4c2c 0abe ae53 1ebe
000001d0: c65f 13be 46a2 23be 9db4 a3be 43fc 36be
000001e0: a905 033e e9d3 47be 8480 fc3d 9598 0fbf
000001f0: cd24 053f 3290 613e c5bf 83be a1ff 82be
00000200: a15b 5dbc be85 98be 5e31 98be 272f 25be
00000210: 8585 14bf 6982 463e c2e9 633e 26a4 1ebe
00000220: 6000 943e 6ae8 6d3d cf69 0e3e dde0 9abe
00000230: 4ec6 9abe 2a73 6d3e 3ef1 9dbe 97b6 a3be
00000240: deea 393e d0bf cb3e 6a3a d2bc e1a9 51be
00000250: 643c 0fbf 75d1 12bf d6a3 803e 67e2 e8be
00000260: ed32 183e bd7b 89bd a317 e0bd ab06 103e
00000270: 77e1 d63d 21ad c5be 4321 61be 59c2 d23c
00000280: 4c6b 8cbd 8eff 1bbf a5bb 98be ebaf 7f3d
00000290: 9ab6 87bc fa9f d2be edc9 03bf 34e5 893e
000002a0: dd9d 883e 55d8 143e 55a1 99be e02e 40be
000002b0: 66f7 a6be 67ce b1be 72e5 58be 35eb 08bf
000002c0: 51e3 5cbd 6eee 183f 1d22 8dbe 76b5 12bd
000002d0: c600 a73d d3fd fbbd f49e 83be af4e 3c3e
000002e0: 1d06 1a3f 8714 2bbf ec6d f1be 6760 a2be
000002f0: 42e1 5abe f247 d3be a7b8 25bb d3a8 ecbe
00000300: a3e7 673e 27a6 26be 1f79 a4bd b5cd 0fbf
00000310: 66c0 abbe 9c98 f3bd dcc1 02bf 4f6d adbe
00000320: 2133 51be c3b1 933d 2fd2 bd3c 5f42 2abe
00000330: 9654 12be 1a76 66bd a838 d9be 0d59 0e3e
00000340: 4ed1 94be 9715 293e ab0a 9dbd bfa8 27be
00000350: 52bd b03c b379 f8be 79d3 78bc 5192 c4be
00000360: 202a 46bf e0e7 cfbe 3a75 56be 7eb6 acbe
00000370: f0dc 4f3e 618f 4bbe 5840 3ebe 8765 2abe
00000380: 29a0 d93e b791 32be 19a8 4dbe ad0e 843d
00000390: 420e e0bd bc07 babe 97f4 90bd 8987 4ebd
000003a0: 7897 303e 746d 853e c43f f7be 61b9 c43d
000003b0: 1f9d 37be f221 89be 1d3a 09bf 6254 a33d
000003c0: fbe3 68bd 57ff 753e aa12 623e cb69 e53d
000003d0: 93dc 6b3e e2bf 5ebd dc26 073d ebee 68bd
000003e0: f12e 53be 33ee e2be 53cc e4be 1461 f9be
000003f0: 7205 5c3d 6fe3 373f 7a3d d8be fcb4 f4be

l2.weight f4 [300, 400]
-0.048645258 -0.13108414 0.08738422 0.0014951351 -0.33712715 0.2800378 -0.20561387 0.29870003
0.17296837 -0.16763972 0.3460977 0.055876803 -0.23684675 -0.968332 -0.03129601 0.119684
-0.9358117 0.14868839 -0.33658475 -0.024559932 -0.2869877 -0.10048533 0.013815718 0.34661028
-0.15217228 0.11605408 -0.368515 0.3250334 -0.031130232 -0.28734532 0.20172168 0.53886825
-0.00030339314 -0.57737285 0.042588674 0.05253894 0.8166023 -0.015250284 0.44563755 -0.09463364
0.31605098 -0.16983913 -0.004056892 -0.01989996 0.28947917 -0.25729266 -0.16693935 -0.67469543
-0.024370687 -0.52321607 0.37190056 0.016504727 -0.14284119 0.18318163 0.029425537 -0.011961959
-0.87133133 -0.0052388534 0.004495545 -0.97257584 0.042137172 0.102483585 0.17933117 -0.61629474
0.15383825 -0.44997674 -0.029701954 0.47883138 -0.024579303 -0.112863734 -0.5760139 -0.6816096
-0.26422468 0.20865072 0.23401849 0.11387999 -0.6469793 -0.16924605 0.13112289 0.07813804
0.47996983 0.03479089 -0.026170377 -0.044476938 -0.2523693 -0.012697571 -0.25170174 0.31227794
-0.10679151 -0.39313176 0.01739172 -0.9328911 -1.1125216 0.17190742 -0.28286308 -0.15694663
-0.0024003698 0.19568074 -0.1993196 -0.4521225 0.1318322 0.07969074 0.04089069 -0.18311012
0.2907845 0.95868796 -0.8313724 0.3116104 0.3365967 0.0055742636 -0.45463187 0.014545688
0.25342432 0.508446 0.31391117 0.037748773 -0.008850552 -0.8114286 -0.21006933 -0.5614941
-0.044648767 -0.12567504 0.0088784 -0.03772568 0.33042166 -0.023337288 -0.41813594 0.5968278
0.15328987 0.0068639936 0.50936395 0.02086744 -0.49317822 -0.5504435 -0.24151973 -0.5032008
0.082197115 -0.6112045 0.17832087 -0.28353658 0.6548828 0.054528985 -0.1328246 -0.024184048
0.73888963 -0.021562189 -0.08889222 0.06878606 -0.34851763 0.024573714 0.12690884 -0.380275
-0.21703413 -1.2415302 0.36025974 0.1802759 0.3954146 -0.06224407 -0.026802186 0.04010465
0.42626598 0.0024506613 -0.27559125 -0.2766284 0.34586522 0.18627512 -0.009232116 0.18108952
-0.15586479 0.5608146 -0.4426573 -0.26511276 0.6650037 -0.35658216 -1.2731446 -0.017637964
0.080631 -0.20312239 -0.007152797 0.07465415 -0.829322 0.5415743 -0.09280675 0.08510582
-0.1257853 0.75483996 -0.014018747 0.013963053 0.018666517 0.24634773 0.74834293 -0.33913583
0.24611229 -1.0815034 -0.008279559 -0.09949142 0.039632283 -0.018365514 -0.45019135 0.23149423
-0.2559873 0.18294917 -0.06295821 0.028039675 -0.7959552 -0.10330017 0.2975556 0.3724966
-1.3422382 -0.7325954 -0.27220574 0.47511804 0.010287864 -0.20176639 -0.011348828 0.40854555
-0.64532226 0.3474567 -0.05605338 -0.13024075 0.09787763 -0.015007008 -0.031112486 0.31861994
-0.19701888 -1.1926543 -0.24476817 0.44209704 -0.071919784 -0.31839344 -0.32567117 0.23227207
0.26484454 0.006041821 -0.4437421 -1.1558901 0.019464472 -0.20558406 0.6655878 0.16552374
-0.1187795 0.13728899 0.18131304 0.10188604 0.2640816 -0.17101334 -0.55038387 0.069559425
0.20488074 -1.0907302 0.07895313 0.0054974626 0.03054536 -0.06717078 -0.045639552 0.012553961
00000000: 4040 47bd ec3a 06be 7ff6 b23d 69f8 c33a
00000010: ee9b acbe 1d61 8f3e 718c 52be 36ef 983e
00000020: 9f1e 313e bfa9 2bbe b833 b13e 13df 643d
00000030: f487 72be 9be4 77bf 3f30 00bd e31c f53d
00000040: 5b91 6fbf c541 183e d654 acbe e931 c9bc
00000050: 0df0 92be 41cb cdbd 525b 623c e776 b13e
00000060: 0dd3 1bbe c3ad ed3d 00ae bcbe c76a a63e
00000070: d404 ffbc ed1e 93be 2190 4e3e 45f3 093f
00000080: bd10 9fb9 b5ce 13bf 7671 2e3d 1233 573d
00000090: d90c 513f 54dc 79bc 9b2a e43e 48cf c1bd
000000a0: 6fd1 a13e 4fea 2dbe adef 84bb 3e05 a3bc
000000b0: 9d36 943e ddbb 83be 26f2 2abe d7b8 2cbf
000000c0: 09a5 c7bc 7df1 05bf c069 be3e ec34 873c
000000d0: f644 12be f793 3b3e d30d f13c 18fc 43bc
000000e0: 920f 5fbf b0aa abbb 5d4f 933b bbfa 78bf
000000f0: 0798 2c3d eae2 d13d 97a2 373e 7ec5 1dbf
00000100: c687 1d3e 5a63 e6be 8351 f3bc 6329 f53e
00000110: 895a c9bc 1a25 e7bd a675 13bf f77d 2ebf
00000120: 7548 87be 89a8 553e 8ba2 6f3e ea39 e93d
00000130: 6fa0 25bf d64e 2dbe 1445 063e d606 a03d
00000140: 9bbe f53e e480 0e3d 4263 d6bc 732d 36bd
00000150: 8d36 81be 7909 50bc 0ddf 80be e5e2 9f3e
00000160: 82b5 dabd 9148 c9be 1579 8e3c f3d1 6ebf
00000170: 1c67 8ebf 8008 303e 6ed3 90be 9eb6 20be
00000180: 864f 1dbb 8860 483e 701a 4cbe 9a7c e7be
00000190: 05ff 063e e634 a33d ff7c 273d 3881 3bbe
000001a0: b5e1 943e 936c 753f d2d4 54bf 668b 9f3e
000001b0: 6756 ac3e 50a8 b63b 82c5 e8be 0a51 6e3c
000001c0: d5c0 813e 8429 023f f7b8 a03e 759e 1a3d
000001d0: e801 11bc c9b9 4fbf 6a1c 57be 14be 0fbf
000001e0: a0e1 36bd f5b0 00be b576 113c 3e86 1abd
000001f0: 072d a93e d72d bfbc ea15 d6be b5c9 183f
00000200: 05f8 1c3e 5aeb e03b ad65 023f 32f2 aa3c
00000210: db81 fcbe dde9 0cbf f350 77be c5d1 00bf
00000220: f656 a83d e677 1cbf bf99 363e b52b 91be
00000230: 66a6 273f c959 5f3d 2c03 08be a01d c6bc
00000240: df27 3d3f 30a3 b0bc 200d b6bd b5df 8c3d
00000250: e770 b2be d04e c93c 64f4 013e 68b3 c2be
00000260: 323e 5ebe 76ea 9ebf f773 b83e 3f9a 383e
00000270: c873 ca3e a3f3 7ebd 4290 dbbc c644 243d
00000280: 893f da3e 469b 203b 4c1a 8dbe 3da2 8dbe
00000290: 3f15 b13e e8be 3e3e 4d42 17bc 886f 393e
000002a0: 059b 1fbe 8c91 0f3f faa3 e2be dcbc 87be
000002b0: af3d 2a3f f091 b6be 67f6 a2bf 7e7d 90bc
000002c0: de21 a53d 51ff 4fbe 0362 eabb 46e4 983d
000002d0: 724e 54bf 9da4 0a3f 7711 bebd f64b ae3d
000002e0: ddcd 00be 313d 413f e3ae 65bc 4ac5 643c
000002f0: 86ea 983c 9442 7c3e 6793 3f3f 36a3 adbe
00000300: dc04 7c3e b46e 8abf fda6 07bc 28c2 cbbd
00000310: 7655 223d 4673 96bc 7b7f e6be d30c 6d3e
00000320: c410 83be 0757 3b3e 3cf0 80bd 76b3 e53c
00000330: b8c3 4bbf 0a8f d3bd 3559 983e e0b7 be3e
00000340: 76ce abbf 5f8b 3bbf 8d5e 8bbe ac42 f33e
00000350: 6e8e 283c d99b 4ebe 6ff0 39bc e22c d13e
00000360: d733 25bf d8e5 b13e 3b98 65bd d55d 05be
00000370: 1174 c83d f4df 75bc 9ddf febc 2722 a33e
00000380: 51bf 49be e5a8 98bf 82a4 7abe 8b5a e23e
00000390: ae4a 93bd 7704 a3be 5fbe a6be bbd8 6d3e
000003a0: b499 873e 78fa c53b 2a32 e3be 35f4 93bf
000003b0: f573 9f3c a184 52be f663 2a3f 0e7f 293e
000003c0: ab42 f3bd 7c95 0c3e 20aa 393e a1a9 d03d
000003d0: b435 873e 1f1e 2fbe f5e5 0cbf 2c75 8e3d
000003e0: 42cc 513e 0c9d 8bbf 2eb2 a13d 0f24 b43b
000003f0: 433a fa3c d590 89bd 8af0 3abd 21af 4d3c

l2.bias f4 [300]
-0.084533624 0.34305188 -0.87310755 -0.10636683 0.39994457 -0.042520132 -0.071434006 -0.21183957
-0.04275408 -0.07034175 -0.109023705 -0.27619925 -0.5729502 -0.42048436 0.026111376 -0.091361344
-0.034536082 0.3032598 -0.4442905 -0.08747363 0.16291903 -0.023208765 -0.780601 -0.7387705
-0.44841513 -0.016225705 0.34178823 0.087869994 -0.03612306 -0.30383793 -0.1018637 -0.030403055
-0.08771354 -0.40358642 -0.13272327 -0.14129147 -0.060716704 -0.3253612 -0.26280013 -0.27927485
0.084931485 0.34883353 0.17069742 -0.091504395 0.031666864 -0.16508366 -0.36203003 -0.070092894
-0.11319157 -0.075531825 0.12558042 -0.049096767 -0.055893194 -0.0720986 0.6050056 0.39882997
-0.082866184 -0.051236577 -0.037168376 -0.100518115 0.7583804 0.12186107 -0.0059261513 -0.17600226
-0.04706276 -0.7402035 -0.10998782 -0.7288642 0.0026009302 -0.09419853 -0.10216768 0.5759066
-0.5557483 -0.024594205 -0.3254983 -0.19578804 -0.034632195 -0.4514132 -0.09618188 -0.09274119
-0.06809018 0.085263774 -0.7232733 -0.042497035 0.09550686 -0.062240347 -0.4881774 -0.07737808
-0.07817828 -0.044402897 -0.06387464 0.39486626 0.31861395 -0.06580583 -0.09178454 -0.18198954
0.2220886 -0.09028697 -1.1188397 -0.0771486 -0.019397046 -0.6753081 -0.0454728 -0.537998
-0.056393128 -0.126283 -0.10231222 -0.04863036 -0.13521178 -0.075281486 -0.7842131 0.21306446
-0.08062952 -0.03522452 -0.2541515 -0.61309993 0.27877414 -0.46217188 -0.05795775 -0.08328341
-1.4358654 -0.8497187 0.018766353 0.0626166 -0.4160617 -0.035553835 -0.10892238 0.50135607
-0.22787921 0.58335716 -0.11326756 -0.09349072 -0.038899146 -0.073091015 -0.30552474 -0.07121645
-0.05472867 -0.07909768 0.0011806038 -0.0770428 -0.06515912 0.3660593 0.000738394 -0.8685299
-0.021718279 -0.9620258 0.79765993 -0.4366491 -0.05459828 -0.08316868 -0.08176797 -0.12420055
-0.09947652 -0.088561416 -0.43558222 -0.07932269 -0.09985501 0.14295146 0.39305428 0.035041228
0.069957286 0.12337354 -0.080046885 -0.09904439 -0.099478014 -0.32399628 -0.17310248 -0.025241287
-0.12584788 -0.0023856084 -0.0049440707 -0.024975302 -0.26654327 -0.023190513 0.18664764 -0.03321137
-0.08297645 -0.21565726 -0.06823025 -0.08087837 -0.10612394 -0.076159164 -0.2628657 -0.41553718
0.05680663 -0.070778355 -0.7734843 -0.65369076 -0.079145364 -0.08728886 -0.04141372 -0.06782494
-0.11894491 -0.06777129 -0.14180705 0.22258034 -0.07214032 0.17214583 -0.8097512 -0.08757347
0.47791946 -0.031196915 -0.051749922 -0.2052622 -0.040493574 -0.34118623 -0.61875045 -0.068936564
-0.08155786 -0.23695105 -0.06734363 -0.3950868 0.05934952 0.12029495 -0.012574264 -0.35906765
-0.2056109 -0.06478957 -0.7736512 -0.06376884 -0.01833124 -0.018207189 -0.088038385 -0.10282631
-0.0716158 -0.05312157 -0.23094587 -0.09984607 -0.094131276 1.0013131 0.021730943 -0.09726519
-0.20285203 -0.06412498 -0.021337925 0.36789513 0.24666674 -0.024505915 0.14147623 -0.028796336
-0.42983633 -0.034716386 -0.23825936 -0.028774522 -0.077829584 -0.08821124 -0.56205446 -0.13468726
-0.48054802 -0.031923164 -0.0027254485 -0.1891898 -0.62485397 -0.13907714 0.24459533 -0.107479945
00000000: f71f adbd 7fa4 af3e fa83 5fbf dad6 d9bd
00000010: 89c5 cc3e 9729 2ebd fe4b 92bd 79ec 58be
00000020: e71e 2fbd 560f 90bd d247 dfbd fd69 8dbe
00000030: ddac 12bf ba49 d7be 86e7 d53c a81b bbbd
00000040: b575 0dbd de44 9b3e 0b7a e3be 6025 b3bd
00000050: 3fd4 263e 4f20 bebc 78d5 47bf 1020 3dbf
00000060: ab96 e5be c5eb 84bc defe ae3e 2ff5 b33d
00000070: c6f5 13bd a590 9bbe ea9d d0bd d40f f9bc
00000080: 28a3 b3bd e1a2 cebe 9ce8 07be b6ae 10be
00000090: 14b2 78bd be95 a6be bd8d 86be 1dfd 8ebe
000000a0: 8ff0 ad3d 4f9a b23e 4ecb 2e3e a866 bbbd
000000b0: 1db5 013d b10b 29be 005c b9be dd8c 8fbd
000000c0: fbd0 e7bd 6eb0 9abd 2798 003e b119 49bd
000000d0: 43f0 64bd 6ea8 93bd a6e1 1a3f 7133 cc3e
000000e0: bfb5 a9bd 72dd 51bd de3d 18bd 71dc cdbd
000000f0: 3825 423f 4c92 f93d 2930 c2bb f039 34be
00000100: e1c4 40bd fa7d 3dbf 4b41 e1bd d896 3abf
00000110: 5e74 2a3b 29eb c0bd 4a3d d1bd 9d6e 133f
00000120: 8545 0ebf c979 c9bc b7a7 a6be a97c 48be
00000130: 7dda 0dbd a21f e7be 01fb c4bd 18ef bdbd
00000140: dd72 8bbd c69e ae3d 7028 39bf 5f11 2ebd
00000150: 1a99 c33d bcef 7ebd 63f2 f9be 6678 9ebd
00000160: ef1b a0bd d0df 35bd b5d0 82bd e92b ca3e
00000170: 5e21 a33e 35c5 86bd 88f9 bbbd 775b 3abe
00000180: 326b 633e 60e8 b8bd 2436 8fbf 1600 9ebd
00000190: 8ee6 9ebc fee0 2cbf b041 3abd 3dba 09bf
000001a0: 7bfc 66bd 5550 01be 1289 d1bd a130 47bd
000001b0: f574 0abe 2e2d 9abd 31c2 48bf 922d 5a3e
000001c0: 1721 a5bd 9647 10bd 2520 82be 1ef4 1cbf
000001d0: 7cbb 8e3e cba1 ecbe 1b65 6dbd 7e90 aabd
000001e0: 70ca b7bf 2a87 59bf e5bb 993c 223d 803d
000001f0: 0a06 d5be e6a0 11bd b212 dfbd df58 003f
00000200: 2b59 69be e556 153f d3f8 e7bd 1078 bfbd
00000210: b654 1fbd beb0 95bd bd6d 9cbe eed9 91bd
00000220: 2b2b 60bd f7fd a1bd 7dbe 9a3a 9ec8 9dbd
00000230: 2572 85bd 206c bb3e c890 413a fa57 5ebf
00000240: 88ea b1bc 5347 76bf 7133 4c3f 7990 dfbe
00000250: 72a2 5fbd 5754 aabd f775 a7bd dc5c febd
00000260: 59ba cbbd b05f b5bd a204 dfbe ef73 a2bd
00000270: c980 ccbd de61 123e 693e c93e 6487 0f3d
00000280: c445 8f3d 44ab fc3d 9fef a3bd c9d7 cabd
00000290: 21bb cbbd d7e2 a5be c741 31be d1c6 cebc
000002a0: 44de 00be de57 1cbb df01 a2bb 0199 ccbc
000002b0: 5c78 88be 08fa bdbc 8f20 3f3e a508 08bd
000002c0: 8fef a9bd 42d5 5cbe 4dbc 8bbd 8fa3 a5bd
000002d0: 8257 d9bd 56f9 9bbd 5596 86be 4ac1 d4be
000002e0: 12ae 683d 3ef4 90bd 1103 46bf 4758 27bf
000002f0: f716 a2bd 80c4 b2bd 6fa1 29bd cde7 8abd
00000300: 6499 f3bd adcb 8abd de35 11be 1aec 633e
00000310: 4ebe 93bd ff46 303e db4b 4fbf b859 b3bd
00000320: dcb1 f43e ac90 ffbc baf7 53bd 4130 52be
00000330: 97dc 25bd f6af aebe 6e66 1ebf 9d2e 8dbd
00000340: cf07 a7bd 4ca3 72be 75eb 89bd d148 cabe
00000350: 7b18 733d 335d f63d 4904 4ebc b7d7 b7be
00000360: aa8b 52be 65b0 84bd 010e 46bf 3d99 82bd
00000370: 662b 96bc 3e27 95bc 784d b4bd 9a96 d2bd
00000380: 4eab 92bd 0196 59bd 137d 6cbe 197c ccbd
00000390: e6c7 c0bd 072b 803f 1705 b23c f932 c7bd
000003a0: 71b8 4fbe f553 83bd dfcc aebc c05c bc3e
000003b0: 3596 7c3e a1c0 c8bc 25df 103e 4be6 ebbc
000003c0: 8213 dcbe c532 0ebd 43fa 73be 8cb8 ebbc
000003d0: 1e65 9fbd 18a8 b4bd cde2 0fbf 75eb 09be
000003e0: 640a f6be ddc1 02bd 709d 32bb f9ba 41be
000003f0: 6ef6 1fbf 3d6a 0ebe 3377 7a3e 721e dcbd

l3.weight f4 [4, 300]
0.2838942 0.051168777 0.46394807 -0.032163072 0.120844804 0.007987682 0.0340056 -0.6993002
-0.056201648 0.022820964 -0.0060501103 0.75435114 -0.44098243 -0.92430794 0.20140891 0.014152485
0.044174906 -0.47951686 -1.3848675 0.0024177856 1.7390864 -0.85670435 0.15118584 -1.031984
-1.0456452 -0.028578034 0.2037095 -0.28784004 0.0207985 0.14260277 -0.018721279 0.01954457
-0.05764408 0.305787 1.1983763 0.0064920234 0.027872464 -0.9687493 0.009708954 -0.5413239
-0.55174285 0.3613565 -0.25249448 -0.26588166 -0.10285611 -0.036948353 0.38842896 -0.0259029
-1.1120448 0.017639453 0.03445189 0.626511 0.024304377 -0.012577617 0.026257548 0.18277037
0.027942872 -0.035383217 -0.018804725 0.039650913 -0.09913678 -0.049714416 -0.0023934315 0.00490123
0.0011538981 1.1806862 -0.024729058 0.25293553 -0.4961048 -0.0006519788 0.024863916 0.48870787
-0.3191325 0.0025098005 -0.7162399 0.44802174 0.00018061417 0.4121278 0.007361321 -0.004098522
-0.008727711 0.6053155 0.16362831 -0.017580222 -0.09053352 -0.01670366 -1.439394 -0.000631513
-0.008285891 0.0173608 0.016148591 -0.43199995 0.8268186 0.050256077 0.040284958 -0.018283185
-1.2310158 0.07201962 0.3543589 -0.0050674705 0.029219529 -0.29678687 -0.022333324 -0.1460032
0.023011325 -0.03632124 0.0087930905 0.015810335 -0.21163693 -0.00037207245 0.65811336 0.42163473
-0.003159445 0.010947054 0.03713112 -1.1266124 0.18054414 -0.3194663 0.0077225803 0.76924044
0.2532753 -0.31715366 0.4964386 -0.20216276 -0.6089633 0.008693625 -0.0047470955 -0.08417451
-0.42451957 -0.039495196 -0.008369152 0.0066908607 -0.034063715 0.07854187 0.152667 0.025984855
-0.04052263 -0.016145611 0.060764387 0.031510398 -0.014427224 -0.036597658 0.00043292282 0.7618613
0.002976347 -0.31093684 -0.32276243 0.059282467 -0.005922519 0.04604575 -0.10136747 -0.13625783
-0.025793748 -0.028126528 0.21521915 -0.0039126533 -0.04650694 -0.3770385 -1.071609 -0.32768583
-0.30500025 -0.15157624 -0.022745341 0.05016369 0.017359309 -0.21936469 0.20996502 0.0992977
0.7930346 -0.19250382 0.22058062 -0.040340833 -1.2305152 -0.002290753 -0.84644043 -0.014952864
0.009882366 -0.7126398 -0.06682655 -0.006676518 -0.0070178485 -0.44755086 -0.07628135 -0.18703508
0.21489729 -0.010224349 -0.05156291 -0.6522602 -0.022033064 -0.07377498 0.0037047814 -0.01373637
-0.025077745 0.03528189 -0.037736107 -0.6791061 0.022021143 0.1102918 0.1649551 0.07015846
0.61279 -0.0048225326 0.00025237413 -0.4046533 -0.008185309 0.5232309 -0.8391209 0.05672617
0.012918294 -0.56882554 -0.040232804 -0.6505913 -0.22227637 0.32774538 -0.08098417 -0.25531375
-0.05130661 0.015643347 -0.67748487 0.0082544135 -0.779409 -0.36130285 0.02684577 -0.0031164177
0.026647212 0.19874443 -0.06690106 0.065734304 -0.071298614 -0.2186821 -0.23427479 0.011694349
0.21763162 -0.001358347 0.0063174 0.23268335 0.46741977 0.03650453 -0.40562487 0.056254547
-0.49515113 -0.023618178 -0.15050039 0.23873298 -0.048461977 -0.06320707 0.31113952 -0.0043283724
-1.3124121 0.0112909 -0.0064305556 0.15585586 -0.36980247 -0.004175728 0.6585306 -0.014018002
00000000: 955a 913e 5a96 513d 9a8a ed3e 6dbd 03bd
00000010: 7b7d f73d c4de 023c 7549 0b3d 5705 33bf
00000020: b333 66bd 08f3 ba3c 0140 c6bb 281d 413f
00000030: 73c8 e1be 729f 6cbf 233e 4e3e d3df 673c
00000040: bff0 343d 3c83 f5be 5743 b1bf b673 1e3b
00000050: 629a de3f fa50 5bbf 76d0 1a3e 0d18 84bf
00000060: b4d7 85bf 7b1c eabc 3999 503e c55f 93be
00000070: 9e61 aa3c 7606 123e 5e5d 99bc ef1b a03c
00000080: 331c 6cbd 1d90 9c3e 6564 993f 0abb d43b
00000090: cb54 e43c f4ff 77bf 4e12 1f3c 3494 0abf
000000a0: 053f 0dbf b803 b93e f546 81be a421 88be
000000b0: 39a6 d2bd 2857 17bd 29e0 c63e 5232 d4bc
000000c0: 7c57 8ebf 9d80 903c 6d1d 0d3d 0663 203f
000000d0: f919 c73c 5912 4ebc 121a d73c 2828 3b3e
000000e0: 73e8 e43c feed 10bd 5e0c 9abc ff68 223d
000000f0: 3908 cbbd 58a1 4bbd 1edb 1cbb 7f9a a03b
00000100: 653e 973a ba20 973f 9894 cabc c480 813e
00000110: 7301 febe 8ee9 2aba 69af cb3c eb37 fa3e
00000120: 5665 a3be 777b 243b 805b 37bf 1b63 e53e
00000130: 3f63 3d39 6a02 d33e 3c37 f13b e54c 86bb
00000140: acfe 0ebc f5f5 1a3f 2e8e 273e 6604 90bc
00000150: a369 b9bd 1dd6 88bc 103e b8bf 1f8c 25ba
00000160: 8cc1 07bc 3d38 8e3c 0d4a 843c 192f ddbe
00000170: 62aa 533f 51d9 4d3d d701 253d 9ec6 95bc
00000180: ed91 9dbf 067f 933d 886e b53e 060d a6bb
00000190: cb5d ef3c 73f4 97be 60f4 b6bc dd81 15be
000001a0: 3f82 bc3c 95c5 14bd e510 103c ad84 813c
000001b0: 5ab7 58be b812 c3b9 1e7a 283f 82e0 d73e
000001c0: b10e 4fbb 465b 333c cd16 183d d634 90bf
000001d0: 90e0 383e 1691 a3be b30d fd3b f1ec 443f
000001e0: 4dad 813e f761 a2be 332d fe3e c103 4fbe
000001f0: 05e5 1bbf b56f 0e3c 868d 9bbb af63 acbd
00000200: a15a d9be b7c5 21bd c51e 09bc 023f db3b
00000210: 6586 0bbd 8fda a03d bd54 1c3e 31de d43c
00000220: 0ffb 25bd cd43 84bc 14e4 783d 0c11 013d
00000230: 2a60 6cbc 6de7 15bd ebf9 e239 5809 433f
00000240: d10e 433b 1d33 9fbe 1e41 a5be 2cd2 723d
00000250: b111 c2bb 789a 3c3d c099 cfbd 2c87 0bbe
00000260: 694d d3bc 9b69 e6bc 6962 5c3e b735 80bb
00000270: 107e 3ebd 310b c1be 7c2a 89bf 70c6 a7be
00000280: fe28 9cbe cd36 1bbe 7054 babc 7178 4d3d
00000290: 1c35 8e3c 23a1 60be 1201 573e 985c cb3d
000002a0: 5104 4b3f b91f 45be e3df 613e 6e3c 25bd
000002b0: 8681 9dbf 7520 16bb 52b0 58bf dbfc 74bc
000002c0: a6e9 213c 906f 36bf 5cdc 88bd b1c6 dabb
000002d0: fbf5 e5bb 6325 e5be 6539 9cbd 2086 3fbe
000002e0: 090e 5c3e 0784 27bc a133 53bd 86fa 26bf
000002f0: af7e b4bc 5617 97bd ebcb 723b 830e 61bc
00000300: d86f cdbc be83 103d 2d91 1abd e6d9 2dbf
00000310: af65 b43c abe0 e13d fde9 283e 3daf 8f3d
00000320: cedf 1c3f 5606 9ebb 1551 8439 b82e cfbe
00000330: ad1b 06bc 76f2 053f a1d0 56bf b359 683d
00000340: 41a7 533c 8d9e 11bf 27cb 24bd 278d 26bf
00000350: 6b9c 63be 3ece a73e 07db a5bd 7cb8 82be
00000360: e126 52bd 7a26 803c a66f 2dbf 853d 073c
00000370: 5987 47bf b0fc b8be a9eb db3c d03c 4cbb
00000380: 414b da3c a983 4b3e 6c03 89bd b59f 863d
00000390: 0205 92bd 33ee 5fbe bbe5 6fbe a899 3f3c
000003a0: d3da 5e3e 900a b2ba 3102 cf3b 8b44 6e3e
000003b0: a551 ef3e c685 153d 10ae cfbe 2b6b 663d
000003c0: 7384 fdbe e97a c1bc c61c 1abe 6b76 743e
000003d0: 1180 46bd b572 81bd ae4d 9f3e 05d5 8dbb
000003e0: 1ffd a7bf 78fd 383c 69b7 d2bb ae98 1f3e
000003f0: c056 bdbe 8cd4 88bb 7695 283f c3ab 65bc

l3.bias f4 [4]
-0.5708225 -0.20946841 -0.19509715 0.41000205
00000000: 6c21 12bf e37e 56be 8cc7 47be caeb d13e
