TD3/models/third_training_attempt/train_610_episodes_critic_2_goal.pth (torch, 531051 bytes, 5 tensors)

l1.weight f4 [400, 28]
0	0xbdce1bb8	-0.10063881
1	0x3dd1fbea	0.10253127
2	0xbe326918	-0.17422903
3	0x3e434d51	0.19072463
4	0xbd41dfb0	-0.047332466
5	0xbd133d66	-0.035947226
6	0x3e1a6635	0.15078051
7	0xbddbd821	-0.10734583
8	0xbe71f12c	-0.23627156
9	0x3c35b7f7	0.011091224
10	0x3dcf1109	0.10110671
11	0x3e4a3480	0.1974659
12	0xbcc88ea1	-0.024482073
13	0xbe4b71b2	-0.1986759
14	0xbe9fcf5e	-0.31212896
15	0xbf00d035	-0.503177
16	0xbf0dc565	-0.55379325
17	0xbf06b8b5	-0.5262559
18	0xbea40edf	-0.32042596
19	0xbe82e505	-0.25565353
20	0xbf05bb95	-0.5223935
21	0xbeac5ca7	-0.33664438
22	0xbf0c6f35	-0.5485719
23	0xbf059d1d	-0.5219286
24	0x3e110635	0.14162524
25	0xbcf76f6b	-0.030204495
26	0x3e25763f	0.16158389
27	0xbe1a32a6	-0.15058383
28	0xbe381ed0	-0.17980504
29	0xc049ab01	-3.1510623
30	0xc0528baa	-3.2897744
31	0x400d5354	2.208211
32	0x3f9dcc85	1.232804
33	0x3d85ed94	0.06539455
34	0xbecbc2f0	-0.39797163
35	0xbd1fc9e5	-0.0390109
36	0xbf22789e	-0.634653
37	0x3f857ea4	1.0429273
38	0xbd9d4945	-0.07679991
39	0xbe72f6e3	-0.23726992
40	0xbdd0dec1	-0.10198737
41	0xbea1a676	-0.31572312
42	0x3e75a343	0.2398806
43	0x3e2bcc1e	0.16777083
44	0x3cc2d050	0.023780972
45	0x3d0ceaa4	0.03440346
46	0x3d9e7545	0.07737211
47	0x3e8c4f2c	0.27404153
48	0x3e337c17	0.17527805
49	0x3e033644	0.1281367
50	0xbed9601a	-0.42456132
51	0xbda931b7	-0.082614355
52	0xbcaaad67	-0.020834638
53	0xbd8212dc	-0.063512534
54	0xbd7d1713	-0.061789583
55	0x3cedb4ca	0.029016871
56	0x3f01462c	0.504977
57	0x406c2b0a	3.690127
58	0xc03906d7	-2.8910425
59	0xc08c394c	-4.3819942
60	0xbe91a4cd	-0.28446046
61	0x3eac6d0f	0.33676955
62	0xbe8d09e5	-0.2754661
63	0x3e446cd0	0.19182134
64	0xbde9178b	-0.113814436
65	0x3f57919a	0.84206545
66	0xbf9bbb9e	-1.2166631
67	0xbebb1dff	-0.36546323
68	0x3e71ef9b	0.23626558
69	0xbec17700	-0.37786102
70	0xbf2d3f37	-0.67674583
71	0xbf4fe7e1	-0.81213194
72	0xbf082bcd	-0.53191835
73	0xbef7854c	-0.48343885
74	0xbef48a04	-0.47761548
75	0xbeda25c2	-0.42606932
76	0xbf0bd22d	-0.5461758
77	0xbf1cba4e	-0.6122178
78	0xbee992fb	-0.4561995
79	0xbebf2798	-0.37334895
80	0x3e604043	0.21899514
81	0x3ee0dd4a	0.4391883
82	0x3ecfce19	0.40586928
83	0x3e6a26a3	0.22866301
84	0x3deb20a3	0.11480834
85	0x3ea5a83f	0.32354924
86	0x3f110955	0.56654865
87	0xbdca5a00	-0.098804474
88	0x3e03163c	0.1280145
89	0xbeb06a28	-0.3445599
90	0x3e6d0502	0.23146442
91	0x3e114c85	0.14189346
92	0xbeb196f0	-0.3468547
93	0x3e4ac440	0.19801426
94	0xbd77291c	-0.06034194
95	0x3dcdb561	0.10044361
96	0x3df0b71b	0.117536746
97	0xbe21f307	-0.15815364
98	0xbeeb5753	-0.4596506
99	0xbeebb5db	-0.46037182
100	0xbeb54458	-0.35403705
101	0xbf1cda56	-0.61270654
102	0xbee27ceb	-0.4423593
103	0xbecd9df1	-0.40159562
104	0xbf34dae0	-0.70646477
105	0xbf307770	-0.6893225
106	0xbf14f21e	-0.5818194
107	0xbec7ac11	-0.38998464
108	0x3e6ac85a	0.2292799
109	0x3dd26629	0.10273392
110	0x3e4e3968	0.20139086
111	0xbe116fad	-0.14202757
112	0xbda0a56e	-0.07844053
113	0x3e64a60b	0.22328965
114	0x3f21c1ce	0.6318635
115	0xbdf0482b	-0.11732515
116	0xbd5ab262	-0.053392775
117	0xbed571da	-0.41688424
118	0x3e317c5f	0.173326
119	0x3d5d4a71	0.05402607
120	0xbea11847	-0.31463835
121	0xbd9b0a46	-0.07570319
122	0x3e352770	0.17690825
123	0x3ca8d8a7	0.02061112
124	0x3d95a506	0.07306866
125	0xbe14bf55	-0.14526112
126	0xbf55128a	-0.83231413
127	0xbf25eb6f	-0.6481237
128	0xbf5c99e2	-0.86172307
129	0xbf1751ee	-0.5910939
130	0xbf0c5a1d	-0.54825
131	0xbf48e491	-0.78473765
132	0xbf08226d	-0.5317753
133	0xbf170946	-0.58998525
134	0xbf56384a	-0.8367964
135	0xbf2e2cb7	-0.6803698
136	0x3ed947e1	0.42437652
137	0x3e47c6a0	0.19509363
138	0x3e3a59e7	0.18198358
139	0xbcf082c3	-0.029359227
140	0x3e6a4452	0.22877625
141	0x3fddba2a	1.7322438
142	0xbf3cee10	-0.73800755
143	0xc053d491	-3.309849
144	0xbda0d1f7	-0.078525476
145	0xbf05071c	-0.51963973
146	0xbe418448	-0.18898118
147	0xbf252f26	-0.6452507
148	0x3eee704a	0.46570045
149	0x3ed18141	0.40918925
150	0x3f8941ed	1.0723244
151	0xbf9df6b5	-1.2340914
152	0x3eee5bfa	0.46554548
153	0x3e5d080a	0.21585098
154	0xbeb0db70	-0.34542418
155	0xbe90b29e	-0.28261274
156	0xbef0c39c	-0.47024238
157	0xbeaffcc7	-0.3437254
158	0xbefc5d24	-0.4928981
159	0xbeae6bff	-0.3406677
160	0xbeaf3fb7	-0.34228298
161	0xbed6afd2	-0.41931015
162	0xbeb9d5e0	-0.36295986
163	0xbe95bc76	-0.29245347
164	0xbda74d57	-0.08169048
165	0xbe4dc1e0	-0.20093489
166	0x3e948d55	0.29014078
167	0x3e3542c7	0.17701255
168	0x3f28c51f	0.6592578
169	0xbf63949b	-0.8889863
170	0xbfec698b	-1.8469709
171	0xbe1f2765	-0.15542372
172	0x3fa4a98e	1.2864244
173	0xbfa0fa96	-1.2576473
174	0x3ef8aef4	0.4857098
175	0xbf147c25	-0.5800193
176	0xbfa9a7af	-1.3254298
177	0x3e5ed2a1	0.21760036
178	0x3f8e6975	1.1125933
179	0xbf1f94c6	-0.62336385
180	0x3ed1a46a	0.4094575
181	0xbff69254	-1.9263406
182	0xbf1bd566	-0.60872495
183	0xbe998c3e	-0.2998981
184	0xbe9bd566	-0.30436248
185	0xbf24a98f	-0.64321226
186	0xbf03613d	-0.5132025
187	0xbf20894f	-0.62709516
188	0xbebbd8b8	-0.3668878
189	0xbeddf012	-0.43347222
190	0xbee984eb	-0.4560922
191	0xbee5b393	-0.44863567
192	0xbe308af8	-0.17240512
193	0xbdafcde6	-0.08584194
194	0x3f1a5055	0.60278827
195	0xbe6057b2	-0.21908453
196	0x3d5f3f39	0.054503653
197	0x3d8b264c	0.06794414
198	0x3b5c545a	0.0033619613
199	0xbd9fed0d	-0.07808886
200	0x3b779b2c	0.0037781699
201	0xbd8cd334	-0.06876221
202	0x3dd27e61	0.10278011
203	0x3d9ecd8d	0.077540495
204	0x3d83c2e4	0.06433657
205	0x3dd7f409	0.10544593
206	0xbd2a51ff	-0.041582104
207	0x3d7beca3	0.06150497
208	0x3dfb3cdc	0.122674674
209	0x3da40006	0.08007817
210	0xbea8e397	-0.32986137
211	0xbdc75879	-0.09733672
212	0xbe1daf9e	-0.15399024
213	0xbe40fac9	-0.18845667
214	0xbde523d3	-0.111884736
215	0xbec6e281	-0.38844684
216	0xbd2ab217	-0.041673746
217	0xbe60f32b	-0.21967761
218	0xbe3728b8	-0.17886627
219	0xbeb934f0	-0.361732
220	0x3dae0b1e	0.08498214
221	0xbdaefe17	-0.085445575
222	0x3e013a74	0.12619954
223	0xbd3eacf0	-0.046551645
224	0xbdf44b83	-0.11928465
225	0x3e4c43d9	0.19947757
226	0xbe30bf50	-0.1726048
227	0xbba9a61e	-0.0051772734
228	0x3d77adec	0.0604686
229	0xbdfb6193	-0.1227447
230	0x3e0edabc	0.13950628
231	0x3e2b604e	0.16735956
232	0xbdce3e18	-0.10070437
233	0xbe198dce	-0.149955
234	0x3e0c41e4	0.1369701
235	0x3de6522a	0.1124614
236	0x3d34fa1f	0.044183847
237	0x3c8b7f5c	0.017028503
238	0xbee1dcc3	-0.4411374
239	0xbebd5850	-0.3698144
240	0xbebf8490	-0.37405825
241	0xbf101a46	-0.5629009
242	0xbeaca09f	-0.33716294
243	0xbefd0e7c	-0.49425113
244	0xbe8c6cdd	-0.27426806
245	0xbf031aed	-0.5121296
246	0xbec05911	-0.37567952
247	0xbe847b45	-0.25875297
248	0x3d23ec7f	0.040020462
249	0x3cb05fff	0.02153015
250	0x3db89bcf	0.09014093
251	0x3cf2507b	0.029579392
252	0x3f17b076	0.59253633
253	0xc055b829	-3.3393652
254	0x3fdfbd01	1.7479554
255	0xc09ac715	-4.836802

l1.bias f4 [400]
0	0xbe366c70	-0.17814803
1	0xbecb5e29	-0.39720276
2	0x3e4a0a50	0.19730496
3	0xbe94d856	-0.290713
4	0xbe03389d	-0.12814565
5	0xbcfd33fc	-0.030908577
6	0xbefb670b	-0.49102053
7	0xbc4e5971	-0.012594567
8	0xbe8b138d	-0.27163354
9	0xbeafcc57	-0.34335586
10	0x3dd1b279	0.10239119
11	0xbea9c947	-0.33161375
12	0xbea1d3c6	-0.31606883
13	0xbea9660f	-0.33085677
14	0xbef8790c	-0.4852985
15	0xbec26161	-0.3796492
16	0x3d649412	0.055805273
17	0xbe11376e	-0.14181301
18	0xbee61603	-0.4493867
19	0xbdd1f4e2	-0.10251786
20	0x3e472b28	0.19450057
21	0xbf817c14	-1.0115991
22	0x3ceb4ebb	0.028724065
23	0xbf376990	-0.7164545
24	0x3dc59998	0.09648436
25	0x3cc444f9	0.02395867
26	0xbf558f8a	-0.8342215
27	0xbea481b7	-0.32130215
28	0xbe89b58d	-0.26896325
29	0xbf443d28	-0.7665582
30	0xbf311158	-0.6916709
31	0xbf06d344	-0.52666116
32	0x3ee406ab	0.44536337
33	0xbe9e6be6	-0.30941695
34	0xbf3b3638	-0.73129606
35	0xbf0c3d32	-0.54780877
36	0xbe7f4cb4	-0.24931604
37	0xbe5d850a	-0.21632782
38	0x3e0b1b5c	0.13584656
39	0xbcdcca52	-0.026951943
40	0xbf307518	-0.6892867
41	0x3f118a3e	0.56851566
42	0xbedda12a	-0.4328702
43	0xbf38d8bf	-0.7220573
44	0xbf2cf9af	-0.67568487
45	0xbe33cd58	-0.17558801
46	0xbe4242e9	-0.18970837
47	0xbe907e46	-0.2822134
48	0xbe0abcd5	-0.13548596
49	0x3d75c1bb	0.05999921
50	0xbf539ac2	-0.82658017
51	0x3ddfaa42	0.10921146
52	0xbf4092e1	-0.7522412
53	0xbf1dd83e	-0.61658084
54	0xbec92311	-0.39284566
55	0xbe7e9774	-0.24862462
56	0xbdbd3460	-0.09238505
57	0x3ec16f31	0.37780145
58	0x3f0d622d	0.5522793
59	0x3f077a74	0.52921224
60	0x3e0f4d95	0.13994439
61	0xbeedd4d3	-0.46451434
62	0xbe896dad	-0.26841488
63	0xbe611333	-0.2197998
64	0xbedf5389	-0.4361842
65	0xbf0ba66d	-0.5455082
66	0xbd6b4d2a	-0.057446636
67	0x3ed8616a	0.4226182
68	0xbe1e2c9e	-0.15446708
69	0xbf53779a	-0.8260437
70	0xbe867c8c	-0.26266897
71	0x3f5e4244	0.86819863
72	0x3f9210c2	1.1411364
73	0xbf340408	-0.7031865
74	0xbe9f7716	-0.31145543
75	0xbf0dbb3c	-0.5536382
76	0xbeac397f	-0.33637616
77	0x3f000ea6	0.5002235
78	0xbe85b72e	-0.26116318
79	0xbe8d51c5	-0.27601448
80	0xbf7a37eb	-0.97741574
81	0x3f5cecb2	0.8629867
82	0xbefb43e4	-0.49075234
83	0xbf5ba432	-0.8579742
84	0xbf0a198d	-0.5394524
85	0x3d97fe95	0.074216045
86	0xbec7b890	-0.39007998
87	0xbf5811ba	-0.8440205
88	0x3d53e5c1	0.051732782
89	0xbc55d5da	-0.0130514745
90	0xbf5ef8ea	-0.8709856
91	0xbf534982	-0.8253404
92	0xbd82f6fd	-0.063947655
93	0x3f2bdedf	0.6713695
94	0xbe276e27	-0.16350614
95	0xbdbc0c48	-0.0918203
96	0xbf1296fd	-0.5726164
97	0xbee13593	-0.43986186
98	0xbec269f9	-0.37971476
99	0xbd89bc95	-0.06725422
100	0xbe70469c	-0.23464435
101	0xbf1b078a	-0.6055838
102	0x3e75577b	0.23959152
103	0xbf1ece55	-0.6203359
104	0xbe8830a1	-0.265996
105	0xbe9aa89e	-0.3020677
106	0x3d787393	0.060657095
107	0xbf17c8ae	-0.5929059
108	0xbdf3f274	-0.11911479
109	0xbf32eb8f	-0.69890684
110	0x3fb8d320	1.443943
111	0xbeb50128	-0.35352445
112	0xbca99747	-0.020702017
113	0xbeb387d0	-0.35064554
114	0xbf2f3d5f	-0.6845302
115	0x3e73812b	0.23779742
116	0x3e0b458c	0.13600749
117	0xbf6ac469	-0.9170595
118	0xbe1601fd	-0.14649196
119	0xbe5a2cc9	-0.21306147
120	0xbdb42be0	-0.08797431
121	0xbee06b3b	-0.4383181
122	0xbcd6d93a	-0.026226629
123	0xbf63674a	-0.8882948
124	0x3da61bde	0.08110784
125	0xbdb553f8	-0.088539064
126	0x3fc488ee	1.5354288
127	0xbf291e2f	-0.6606168
128	0xbe632f0b	-0.22185914
129	0xbe895e0d	-0.26829568
130	0xbe98e126	-0.29859275
131	0xbe3f1280	-0.18659401
132	0xbf36d83f	-0.71423715
133	0xbefe4f94	-0.49670088
134	0xbec4d4b9	-0.38443545
135	0xbe6b47b3	-0.2297657
136	0xbf3b5e10	-0.73190403
137	0xbe8f323d	-0.27968016
138	0xbf708903	-0.93959063
139	0xbf3f0150	-0.7461138
140	0xbe898e7c	-0.2686652
141	0xbf2c0a9f	-0.67203707
142	0xbc6d25d3	-0.01447435
143	0xbe394558	-0.18092859
144	0x3f5635fa	0.8367611
145	0xbe1e73b6	-0.15473828
146	0xbee166ca	-0.44023734
147	0x3f78114c	0.9690139
148	0x3f99e486	1.2022865
149	0x3d351d47	0.044217374
150	0xbd7be1b4	-0.061494544
151	0xbf2542af	-0.64554876
152	0xbf2092ae	-0.62723815
153	0xbe3ae9a8	-0.18253195
154	0xbe24183f	-0.16024874
155	0xbe76c454	-0.2409833
156	0xbea84117	-0.3286216
157	0xbf2649f6	-0.64956605
158	0xbe2962ef	-0.16541646
159	0xbee75eeb	-0.45189604
160	0xbe00fd84	-0.12596709
161	0x3f42de61	0.76120573
162	0xbf6eaf93	-0.93236655
163	0xbed6c4ea	-0.41947109
164	0xbf6ec5b5	-0.93270427
165	0xbee5951b	-0.4484032
166	0x3b921485	0.0044580125
167	0xbeb871a0	-0.3602419
168	0xbf2a777f	-0.66588587
169	0xbeb26aa7	-0.34846994
170	0xbdd3297a	-0.103106454
171	0xbb9e9ac6	-0.004840228
172	0xbf1370f6	-0.5759424
173	0xbe086b15	-0.13322099
174	0xbee08502	-0.43851477
175	0xbef62364	-0.48073876
176	0xbe390098	-0.18066633
177	0xbf451b09	-0.7699438
178	0xbede22da	-0.43385965
179	0xbf5b3a51	-0.8563586
180	0xbf2c4dcf	-0.67306226
181	0xbc65abc2	-0.014018001
182	0xbe433069	-0.19061436
183	0xbebf83c8	-0.3740523
184	0xbf1fa465	-0.6236022
185	0xbf2eb637	-0.6824679
186	0xbed6502d	-0.41858044
187	0xbe9d1e4e	-0.30687183
188	0xbf3f91d7	-0.7483191
189	0xbdffd6fc	-0.12492177
190	0xbf9051bd	-1.1274945
191	0xbe5f777a	-0.2182292
192	0xbf16f5bd	-0.58968717
193	0xbf470f08	-0.7775731
194	0xbf45dc01	-0.77288824
195	0x3ed8b11a	0.42322618
196	0x3ebb388f	0.36566588
197	0x3f2a2706	0.66465795
198	0xbf0d8d24	-0.5529349
199	0xbf8885a5	-1.0665785
200	0xbf5ca780	-0.86193085
201	0xbf5170da	-0.8181282
202	0x3cc43df1	0.023955317
203	0xbdbc8c68	-0.09206468
204	0xbf66f621	-0.9021931
205	0xbf088e3d	-0.5334204
206	0xbe574122	-0.2102094
207	0xbeb6a4af	-0.3567252
208	0xbf5fd791	-0.87438303
209	0xbd1e779e	-0.038688295
210	0xbf095e0c	-0.5365913
211	0xbe97db6d	-0.29659596
212	0xbeb53327	-0.3539059
213	0xbf3862c8	-0.7202573
214	0xbf56947a	-0.8382031
215	0xbedd30aa	-0.4320119
216	0xbf8e658d	-1.1124741
217	0xbf80d0fd	-1.0063778
218	0xbe9966bd	-0.29961196
219	0x3ec9b398	0.39394832
220	0xbf884fbd	-1.0649334
221	0xbf56d2fa	-0.83915675
222	0xbe2bc9c6	-0.16776189
223	0xbe8dc565	-0.27689663
224	0xbf0f2e55	-0.5593007
225	0xbf352b58	-0.7076926
226	0x3d422920	0.0474025
227	0xbf104c45	-0.5636638
228	0x3e35d738	0.1775788
229	0x3f799314	0.9749005
230	0xbe65bdbb	-0.22435658
231	0xbf81b06d	-1.0131966
232	0xbf1a20ef	-0.602065
233	0xbf4f6311	-0.8101054
234	0x3edd6620	0.43241978
235	0xbe0bed85	-0.13664825
236	0xbf1426fd	-0.5787199
237	0x3e485409	0.19563307
238	0xbdffa12d	-0.12481914
239	0x3f88e4f5	1.0694872
240	0x3ef65f8b	0.48119769
241	0xbe517c92	-0.20457676
242	0xbf1b8e4e	-0.60764015
243	0x3d0c605c	0.034271583
244	0xbf3ba2cc	-0.73295283
245	0x3efa49e3	0.48884496
246	0xbe9dd776	-0.30828446
247	0xbf81b2c5	-1.0132681
248	0x3ed40d9a	0.41416627
249	0x3d8e1c1c	0.06938955
250	0x3e49b780	0.19698906
251	0xbd6ada53	-0.057337116
252	0x3f959d4a	1.1688626
253	0xbe041295	-0.12897713
254	0xbe2650ff	-0.16241835
255	0xbf5dfe0a	-0.8671576

l2.weight f4 [300, 400]
0	0xbd0b1775	-0.033957917
1	0xbbda957a	-0.006670651
2	0xbc972ade	-0.018453058
3	0xbb46cc20	-0.003033407
4	0xbbfde234	-0.007747913
5	0x3bec39e2	0.0072090486
6	0xbd085d2a	-0.033291973
7	0xbcbff128	-0.023430422
8	0xbd5c19c2	-0.053735502
9	0xbc09d7ed	-0.008413297
10	0x3cc0e5b0	0.023547024
11	0x3d02e504	0.031956688
12	0xbcfbe88a	-0.030750532
13	0xbd160b7e	-0.036632054
14	0x3d453533	0.048146438
15	0x3cde2c39	0.027120696
16	0x3ca7b08e	0.02046993
17	0xbc1f842c	-0.009736102
18	0x3c9411e5	0.018074939
19	0x3bb7201f	0.005588546
20	0x3be096fa	0.0068539353
21	0xbc085a78	-0.008322351
22	0xbcdcf932	-0.026974294
23	0x3d07e0cc	0.033173367
24	0x3c63499a	0.013872528
25	0xbceb103c	-0.028694265
26	0xbd38114b	-0.044938367
27	0x3c478371	0.012177334
28	0x3d34f07f	0.044174667
29	0x3ca5f7ee	0.020259824
30	0x3b0ace04	0.0021179924
31	0x3becbaca	0.0072244154
32	0x3d2366e6	0.039893053
33	0x3ce5586a	0.02799626
34	0x3c593841	0.013258041
35	0x3d1fb609	0.03899196
36	0x3d235d87	0.039884117
37	0xbc8229da	-0.015889097
38	0xbc8fe45d	-0.017564947
39	0x3be9353a	0.007116941
40	0xbd28675e	-0.041114204
41	0xbc401f74	-0.011726249
42	0x3cb3417f	0.021881817
43	0x3c9ea966	0.019367885
44	0x3d3e09d3	0.046396088
45	0xbd03131d	-0.03200065
46	0x3cd07de1	0.025450649
47	0xbc2dbaa7	-0.010603583
48	0xbcba3cea	-0.022734124
49	0xbccc39b1	-0.024929853
50	0x3d0f1acc	0.034937665
51	0xbc35ad08	-0.011088617
52	0xbd1b7936	-0.037957393
53	0xbd185d1e	-0.03719818
54	0x3c885854	0.01664368
55	0x3baf7bb0	0.005355321
56	0x3c87a56c	0.016558371
57	0xbd2e50fb	-0.042557698
58	0x3d0fbbbc	0.035091147
59	0xbd68ca33	-0.056833457
60	0xbcc59d81	-0.024122955
61	0x3cca3610	0.024683982
62	0xbbe35840	-0.0069380105
63	0xbd09eeee	-0.033675127
64	0xbce171bb	-0.027520051
65	0xbd33de93	-0.043913435
66	0x3b1cbb15	0.002391522
67	0x3d165539	0.03670237
68	0xbcc44fba	-0.023963798
69	0xbd20f04b	-0.03929166
70	0xb8713e44	-5.7516867e-05
71	0xbd041a65	-0.032251734
72	0x3c08f0ac	0.008358162
73	0xbca4e297	-0.020127578
74	0xbce690ab	-0.028145155
75	0x3c42e6f8	0.011895888
76	0x3d1fed0d	0.03904443
77	0x3ce985b2	0.028506134
78	0x3d2e8c06	0.042614006
79	0xbd3bdf55	-0.045867283
80	0x3b95a2ac	0.004566511
81	0xbcb3ff58	-0.021972343
82	0xbab6c500	-0.0013944209
83	0x3cde9cb9	0.02717434
84	0xbd207f27	-0.039183762
85	0xbd050015	-0.03247078
86	0xbcae8d97	-0.02130775
87	0xbcc14cd1	-0.0235962
88	0xbc07092d	-0.008241934
89	0x3cf435a3	0.029810732
90	0x3cfe18e3	0.031017726
91	0xbc061d48	-0.008185692
92	0xbd3be7f3	-0.0458755
93	0xbc48ff21	-0.012267859
94	0x3cb46232	0.02201948
95	0x3d07e173	0.03317399
96	0x3d21141b	0.039325815
97	0xbcd5e8bd	-0.026111955
98	0xbc6d79e0	-0.014494389
99	0xbce19b23	-0.027539795
100	0x3bf2c41b	0.0074086315
101	0xbc3be470	-0.011468038
102	0xbbe7765b	-0.0070636696
103	0xbd4777e7	-0.048698332
104	0x3c8dbebe	0.017302867
105	0xbc3b1108	-0.011417635
106	0xbbbb0758	-0.0057076626
107	0xbc85ca6d	-0.016331876
108	0xbafe1a74	-0.0019386546
109	0xbd129c1e	-0.035793416
110	0xbd3d621f	-0.046236154
111	0x3d370c71	0.0446896
112	0x3b4a7878	0.003089456
113	0xbd2a9b6f	-0.04165214
114	0x3cde1bb6	0.027112823
115	0x3d233cb6	0.03985282
116	0xbd2d8510	-0.042363226
117	0xbd34fb65	-0.04418506
118	0xbd40d24a	-0.047075547
119	0x3d0b84d4	0.03406222
120	0xbd1fdc80	-0.039028645
121	0x3d19c3b5	0.037540156
122	0xbc1c3d88	-0.009536155
123	0xbd6c8fd3	-0.05775435
124	0xbbf05628	-0.0073344894
125	0xbccdb570	-0.02511093
126	0x3d14ebdd	0.03635775
127	0xbce04daa	-0.027380783
128	0x3d4bb3e3	0.0497321
129	0xbd418831	-0.047249023
130	0x3b27d3b6	0.0025608367
131	0x3d15ca86	0.036570095
132	0x3be25ef0	0.00690829
133	0xbce19033	-0.02753458
134	0xbd686e03	-0.05674554
135	0x3c2301a8	0.009949125
136	0xbc463061	-0.012096495
137	0xbc8ad5d5	-0.016947666
138	0xbaef5aab	-0.0018261274
139	0x3b9efec5	0.0048521482
140	0xbd05792d	-0.032586265
141	0xbc7fa8e4	-0.0156042315
142	0x3ca9615e	0.020676311
143	0xbcaeb9f0	-0.021328896
144	0xbcd42b4a	-0.025899548
145	0xbc702e18	-0.014659427
146	0xbca366c3	-0.019946462
147	0xbbd95462	-0.0066323737
148	0xbc925496	-0.0178626
149	0xbcb376a0	-0.02190715
150	0xbcd43f9a	-0.025909234
151	0x3d168489	0.03674749
152	0xbd3dbe25	-0.046323914
153	0x3cf5edde	0.03002065
154	0xbb9d3530	-0.0047976
155	0x3cecef06	0.028922569
156	0x3d3b7bbf	0.04577231
157	0x3ca011c6	0.019539725
158	0x3c0108a8	0.007875599
159	0xbd38d87f	-0.04512834
160	0xbceea157	-0.029129667
161	0x3c7d966b	0.015477757
162	0x3cea3642	0.028590325
163	0x3cf68782	0.030093912
164	0xbcd4f12a	-0.025993902
165	0xbd24f3c7	-0.040271547
166	0xbc939f0e	-0.01802018
167	0xbc2f371f	-0.010694294
168	0xbcc08e90	-0.02350548
169	0xbce8912b	-0.028389534
170	0xbd31b32d	-0.043383766
171	0x3d3b806f	0.04577678
172	0x3c884b0c	0.016637348
173	0x3c570984	0.013124827
174	0x3b4704e0	0.0030367896
175	0x3d428ee1	0.04749954
176	0xbd353968	-0.0442442
177	0x3b7a5ca3	0.0038202188
178	0x3d144479	0.036198113
179	0xbcace23f	-0.021103976
180	0x3d27e1c6	0.0409868
181	0xbc0cbee5	-0.008590435
182	0x3c944e46	0.01810373
183	0xbd0f69b5	-0.03501292
184	0x3d473f25	0.048644204
185	0xbcc017e7	-0.023448898
186	0xbd1ee9ae	-0.038797073
187	0xbc0b67ac	-0.008508604
188	0x3c8b40dd	0.016998703
189	0x3d25c077	0.040466752
190	0xbcea646a	-0.028612334
191	0x3c38686c	0.011255365
192	0xbc2d7e7f	-0.010589241
193	0x3ce23b4a	0.027616162
194	0xbae1b1cb	-0.0017219124
195	0x3cb48e4f	0.022040514
196	0x3cbc9437	0.023019893
197	0xbd671fa3	-0.056426656
198	0xbd06fc82	-0.032955654
199	0x3cf1fb3e	0.029538747
200	0xbd4e1191	-0.05030972
201	0x3c42e8c0	0.011896312
202	0x3c381e07	0.011237628
203	0x3d0d5994	0.034509256
204	0xbd3c7110	-0.046006262
205	0xbd3b02a8	-0.04565683
206	0x3c830ed2	0.015998278
207	0x3c5f0c8c	0.013613831
208	0x3ae27f42	0.0017280357
209	0x3c9f48fd	0.019443983
210	0xbca26727	-0.019824577
211	0xbc835636	-0.01603232
212	0xbcfcaa7c	-0.030843012
213	0xbcbce708	-0.023059383
214	0xbc9d6c6e	-0.019216742
215	0xbcf51dac	-0.029921375
216	0xbd4deda1	-0.05027545
217	0xbd237145	-0.039902944
218	0xbd52f202	-0.051500328
219	0x3c2be340	0.010491192
220	0xbb628dd0	-0.003456939
221	0x3c115ced	0.008872253
222	0xbd378e48	-0.044813424
223	0xbd3a7540	-0.045521975
224	0xbc098f45	-0.0083959745
225	0xbceff7b3	-0.029292917
226	0xbd3546b0	-0.044256866
227	0x3d0b5914	0.0340205
228	0xbcdcaefa	-0.026938904
229	0xbb08384d	-0.002078551
230	0xbcb0337a	-0.021508921
231	0xbd214597	-0.039373007
232	0xbcdbc562	-0.026827518
233	0xbd2e4d87	-0.042554405
234	0xbd039c9d	-0.03213178
235	0xbb77b8e0	-0.0037799403
236	0xbcbfc7c0	-0.023410678
237	0x3d170ebd	0.03687929
238	0xbc3892e8	-0.011265494
239	0x393b7197	0.00017876025
240	0xbc7cffa4	-0.015441809
241	0x3c0016f8	0.007817976
242	0xbd00c2e0	-0.031435847
243	0x3b2fa92e	0.002680372
244	0x3cca7a6a	0.024716575
245	0xbc99e2f6	-0.018784981
246	0xbd5d16e2	-0.0539769
247	0x3c999b5e	0.018750843
248	0x3bf61570	0.00750988
249	0xbd366ec8	-0.044539243
250	0xbd54b272	-0.05192799
251	0x3a9258c0	0.0011165366
252	0xbd52db5a	-0.05147872
253	0xbd1eb60d	-0.038747836
254	0x3c443674	0.011975873
255	0xbd13632d	-0.035983253

l2.bias f4 [300]
0	0xbd200c4f	-0.03907424
1	0x3d3be2df	0.045870658
2	0x3ccf87c8	0.0253333
3	0xbc62b84b	-0.013837884
4	0xbd54bbd2	-0.051936932
5	0xbdb4c1e0	-0.08826041
6	0xbe87b69d	-0.2650651
7	0x3d8b84d4	0.06812444
8	0xbd0c5bad	-0.034267116
9	0xbd353d50	-0.044247925
10	0x3ea38315	0.31935945
11	0x3d11dab5	0.035608966
12	0xbefa1c91	-0.4884992
13	0xbe87830c	-0.26467168
14	0x3d6befaa	0.05760161
15	0xbdacd10f	-0.08438312
16	0xbc6e7d93	-0.014556306
17	0xbe1492ce	-0.14509127
18	0x3e561112	0.2090495
19	0xbc8a10f5	-0.016853789
20	0x3e0c3c6c	0.13694924
21	0x3dbe763f	0.092998974
22	0x3e42b048	0.19012558
23	0xbd20ae07	-0.039228465
24	0xbd177386	-0.036975406
25	0x3f805bfc	1.0028071
26	0x3e0eab14	0.13932449
27	0x3ced2f53	0.02895323
28	0xbc2f727f	-0.01070845
29	0xbe9a494e	-0.30134052
30	0xbcb006f0	-0.021487683
31	0x3cdb7359	0.0267884
32	0x3d59bea1	0.053160314
33	0xbbfc9c6c	-0.0077090766
34	0xbd809697	-0.06278723
35	0xbdb6e1a0	-0.08929753
36	0x3c9c0f35	0.01905022
37	0xbd3ce943	-0.046120893
38	0x3e7b1cb6	0.24522671
39	0xbd973cd6	-0.073846504
40	0x3d9665a3	0.073436044
41	0x3d2afdde	0.041746013
42	0x3d8cec34	0.0688099
43	0x3dbda34f	0.09259664
44	0x3f5e381a	0.86804354
45	0x3f50d954	0.81581616
46	0xbb70883c	-0.0036702296
47	0xbda51c67	-0.08062058
48	0x3dbbb82c	0.09165987
49	0xbd79749c	-0.060902223
50	0xbc22d33f	-0.00993806
51	0xbff7692b	-1.932897
52	0xbdacfccf	-0.08446657
53	0xbd0ce145	-0.03439452
54	0x3e0a30ca	0.13495174
55	0xbd5ea6e1	-0.054358367
56	0x3d72ecbb	0.059307795
57	0x3d6b83da	0.05749879
58	0xbd3f6550	-0.04672748
59	0x3cbfbfef	0.02340695
60	0xbc4dccd1	-0.012561039
61	0xbd3da738	-0.04630205
62	0xbc50a5ba	-0.012734825
63	0x3e5f7b2a	0.21824327
64	0x3aaf78be	0.0013387424
65	0xbebe2370	-0.37136412
66	0x3d55bd2c	0.05218236
67	0x3d1cc9ed	0.03827851
68	0x3d81dc2c	0.063408226
69	0xbded01e3	-0.115726255
70	0xbd4f00a1	-0.05053771
71	0xbe127566	-0.14302596
72	0x3d5a6829	0.05332199
73	0x3f9ce6d6	1.2257946
74	0xbd176f9e	-0.03697168
75	0x3c5701d9	0.013122999
76	0x3f6e9219	0.9319168
77	0xbca3260f	-0.019915609
78	0x3f6dd7ec	0.92907596
79	0xbf07817c	-0.5293195
80	0xbd2982f7	-0.041384663
81	0x3e51eb99	0.2050003
82	0x3ea9534e	0.3307137
83	0x3d3a8417	0.045536127
84	0xbd87f905	-0.066392936
85	0xbdbaf560	-0.09128833
86	0xbd0f10a5	-0.034927983
87	0xbd302310	-0.04300219
88	0xbd931e26	-0.07183485
89	0xbb6a3003	-0.0035734184
90	0xbc423989	-0.011854538
91	0xbd979136	-0.07400744
92	0xbc8e3455	-0.017358938
93	0x3e587102	0.21136859
94	0xbd571d32	-0.052518077
95	0x3e98c68a	0.29838973
96	0xbdfb52bc	-0.1227164
97	0x3bd935e9	0.006628741
98	0x3cd234f1	0.02566001
99	0xbd6621bc	-0.056184515
100	0xbd7db354	-0.0619386
101	0xbd1f61fe	-0.038911812
102	0x3ba161b6	0.004924978
103	0xbd408a49	-0.04700688
104	0x3f5adee9	0.85496384
105	0xbc72c4e4	-0.01481745
106	0x3d8a053c	0.0673928
107	0xbd53e1da	-0.05172906
108	0xbd53d622	-0.051717885
109	0x3d041bf4	0.03225322
110	0xbdb27ca0	-0.087151766
111	0x3d71c56b	0.059026163
112	0xbe2a52c6	-0.16633138
113	0xbd13ac56	-0.036053024
114	0x3c393cbf	0.011305987
115	0xbdde4792	-0.10853495
116	0xbfc0a731	-1.5051023
117	0x3e27c5c4	0.16384035
118	0xc00f4755	-2.2387288
119	0xbeb95a70	-0.3620181
120	0x3e80a372	0.251247
121	0xbdd8aba2	-0.10579611
122	0xbd54363a	-0.051809527
123	0x3e1692fb	0.14704506
124	0xbd8c13cd	-0.06839714
125	0x3df64bc3	0.12026169
126	0xc01b8105	-2.4297497
127	0xbd33b6b0	-0.043875396
128	0xbda2531f	-0.0792601
129	0xbf29084e	-0.66028297
130	0xbada28e2	-0.0016644264
131	0xbe0a2abd	-0.13492866
132	0x3d7a220b	0.061067622
133	0x3e223d3e	0.15843675
134	0xbe8af76d	-0.27141896
135	0x3dfec115	0.12439171
136	0xbc015375	-0.007893433
137	0xbd50dd32	-0.0509922
138	0xbe14e518	-0.14540517
139	0xbe5e18b2	-0.21689108
140	0xbcbbd1b0	-0.022927135
141	0xbdb71530	-0.08939588
142	0xbc9dee1e	-0.019278582
143	0xbc9dbce6	-0.019255113
144	0xbc609ecc	-0.013709735
145	0x3dd9a349	0.10626847
146	0x3e7a2e8c	0.24431819
147	0x3d7e4313	0.062075686
148	0xbc27720f	-0.010220065
149	0xbd36ea38	-0.044656962
150	0xbd73c204	-0.0595112
151	0xbd5f1c12	-0.05447013
152	0x3e0fc904	0.14041525
153	0xbe848ecd	-0.25890198
154	0xba6b6243	-0.0008979181
155	0x3cbd3397	0.023095889
156	0xbda6014f	-0.08105718
157	0xbdeda2d3	-0.11603322
158	0x3e513c82	0.20433238
159	0x3d0bd614	0.034139708
160	0x3f3f8ad6	0.7482122
161	0xbdb0d9e0	-0.08635306
162	0x3b5f03d9	0.0034029393
163	0x3da4f0c5	0.08053736
164	0xbc7b3764	-0.01533303
165	0xbdbdbea8	-0.092648804
166	0xbd62945b	-0.055317264
167	0x3c2d657e	0.01058328
168	0x3d879ad9	0.06621332
169	0x3db4c437	0.088264875
170	0x3de8acdb	0.113610946
171	0xbcba9ac0	-0.022778869
172	0xbd77165c	-0.060324058
173	0xbc37fba8	-0.011229433
174	0x3c8610bc	0.016365401
175	0xbd7cd18c	-0.061723277
176	0xbd8c54a5	-0.06852082
177	0x401443e6	2.3166442
178	0x3e93569f	0.28777024
179	0xbdad495f	-0.0846126
180	0x3d607dc5	0.054807443
181	0xbda12657	-0.07868641
182	0x3d397b3f	0.045283552
183	0xbcb3ebd0	-0.02196303
184	0xbdf279e4	-0.11839655
185	0x3c61860a	0.013764868
186	0xbcff13ac	-0.03113731
187	0xbd90421e	-0.07043861
188	0x3adb2e99	0.0016722261
189	0xbceab27b	-0.02864956
190	0xbd0b6ef5	-0.034041364
191	0xbb99e7a6	-0.004696804
192	0xbd0b264d	-0.033972073
193	0x3f502a12	0.81314194
194	0xbea931b6	-0.3304574
195	0x3df67d3b	0.120356046
196	0xbdba6f00	-0.09103203
197	0x3ff84c84	1.9398351
198	0xbf07f134	-0.5310242
199	0xbe1079ba	-0.14108935
200	0xbcef4723	-0.029208725
201	0x3d0bd86c	0.034141943
202	0x3dea933a	0.114538625
203	0x3e314f0f	0.17315315
204	0x3f2bf8a7	0.6717629
205	0xbefa3273	-0.48866615
206	0xbe85634d	-0.26052323
207	0xbdbc14e0	-0.09183669
208	0x3bdd42a1	0.0067523276
209	0xbc73bafc	-0.0148761235
210	0xbddd6692	-0.10810579
211	0x3e3951d6	0.18097624
212	0xbcbaf0b0	-0.022819847
213	0xbd8cf01d	-0.068817355
214	0xbd98e8f6	-0.07466309
215	0x3cf30cc3	0.029669171
216	0xbd2ea43f	-0.042637106
217	0x3d95a99f	0.07307743
218	0xbd17d20e	-0.037065558
219	0xbd83276d	-0.06404004
220	0x3f421661	0.758154
221	0x3e806c02	0.25082403
222	0xbb770914	-0.003769462
223	0x40146bbe	2.319076
224	0xbd0d1ca5	-0.034451146
225	0xbd9e4e36	-0.07729761
226	0xbe0135c5	-0.12618168
227	0xbcb74668	-0.02237244
228	0xbdb8ff08	-0.09033018
229	0xbc6f9c4b	-0.0146246655
230	0x3c2dce2e	0.010608239
231	0xbda2f8bf	-0.07957601
232	0xbc5a123a	-0.01331001
233	0x3d24cb26	0.0402328
234	0x3f4fb0be	0.8112906
235	0xbf0a95c5	-0.5413478
236	0xbd82899d	-0.06373904
237	0xbd24a287	-0.04019406
238	0xbdb2d1c8	-0.08731419
239	0xbd0fe395	-0.03512915
240	0x3cbd3077	0.023094399
241	0xbd89d97d	-0.06730936
242	0xbdaad927	-0.083422
243	0xbe1208ce	-0.14261171
244	0xbdfd01fc	-0.12353894
245	0x3dad5ac4	0.08464578
246	0x3d9c2821	0.076248415
247	0x400c682d	2.1938584
248	0xbc9bf24e	-0.019036438
249	0xbfe348d2	-1.7756598
250	0x3d2b3dee	0.041807108
251	0x3d3960af	0.04525822
252	0xbd8021cb	-0.062564455
253	0xbe1630de	-0.14667079
254	0x3d52d5e1	0.051473502
255	0xbc9071c6	-0.017632376

l3.weight f4 [1, 300]
0	0xbcc91690	-0.024546891
1	0x3e0b59dd	0.13608499
2	0x3d126755	0.035743076
3	0xbe1370f5	-0.14398558
4	0x3bb92618	0.005650293
5	0xbc8f5c6d	-0.017500127
6	0x3ebea908	0.37238336
7	0xbe2233de	-0.15840098
8	0x3cd13192	0.025536332
9	0xbcf97884	-0.030452974
10	0x3f74fb4b	0.9569594
11	0xbe210586	-0.15724763
12	0xbf00776f	-0.5018224
13	0xbe1ce865	-0.15323026
14	0xbe25d4c6	-0.16194448
15	0x3c09adbd	0.008403239
16	0x3ca12d5e	0.019674953
17	0xbe7e52b4	-0.24836236
18	0x3f05e9ad	0.52309686
19	0x3ce831db	0.028344085
20	0xbeca3d18	-0.39499736
21	0xbe52de79	-0.20592679
22	0xbf20bffe	-0.62792957
23	0x3b070545	0.0020602506
24	0xbc0eb154	-0.0087092705
25	0xbef5edfd	-0.48033133
26	0xbf0e6eec	-0.55638003
27	0x3c8438f8	0.016140446
28	0x3d0c53dd	0.034259666
29	0xbe952d7d	-0.29136267
30	0x3ba8da36	0.005152966
31	0x3c2779df	0.010221927
32	0xbe2e435e	-0.17017886
33	0xbdb09a97	-0.08623236
34	0x3a8ddcd5	0.0010823259
35	0x3e7069c3	0.23477845
36	0xbb234486	-0.002491267
37	0x3ca7985a	0.02045839
38	0x3e118fbc	0.14214987
39	0x3c248efe	0.010043858
40	0x3cecb85b	0.028896501
41	0xbe22ec3f	-0.15910433
42	0xbe2455f6	-0.16048416
43	0xbe4ba9f0	-0.19889045
44	0xbe37e23f	-0.179574
45	0xbe0f798d	-0.14011212
46	0xbe351707	-0.17684565
47	0x3c7c53c3	0.01540083
48	0x3db78b41	0.089621074
49	0x3caf0cef	0.021368472
50	0xbc213467	-0.009839154
51	0x3faac40f	1.3341082
52	0x3ce2bf52	0.02767912
53	0x3cfd326c	0.030907832
54	0x3e3029b3	0.17203407
55	0xbf63179a	-0.8870789
56	0xbe69c432	-0.22828749
57	0xbda3cece	-0.07998429
58	0x3d16727d	0.03673028
59	0xbe37a747	-0.17934905
60	0xbd23904e	-0.03993254
61	0xbe176f9d	-0.14788671
62	0xbc000e42	-0.007815899
63	0x3e30c9d2	0.17264488
64	0xbe18a115	-0.14905198
65	0x3c6fbb8b	0.014632116
66	0x3d90c84b	0.07069453
67	0xbfa5524e	-1.2915742
68	0xbe3ac107	-0.18237697
69	0x3e9395ae	0.28825134
70	0x3d00523b	0.03132842
71	0xbcc92889	-0.024555461
72	0xbe106c4d	-0.14103813
73	0xbfae81de	-1.3633382
74	0x3ce5a00b	0.028030416
75	0xbe36261f	-0.1778798
76	0xbe4a2ee1	-0.19744445
77	0xbdfed84b	-0.12443598
78	0xbe638ce1	-0.2222171
79	0x3faab46e	1.3336313
80	0x3ca5db06	0.02024604
81	0x3e45cbe9	0.19316067
82	0xbeefafd2	-0.46813828
83	0xbe40b928	-0.18820632
84	0xbd005f83	-0.031341087
85	0x3c84e584	0.016222723
86	0xbbf4dd9c	-0.007472707
87	0xbcd39c52	-0.025831375
88	0x3ca82cc7	0.020529164
89	0x3be06113	0.0068475096
90	0x3c4c00a8	0.012451328
91	0xbcc90881	-0.024540188
92	0xbf027ac4	-0.50968575
93	0x3e21651e	0.1576123
94	0xbdb28857	-0.08717411
95	0x3ea99755	0.3312327
96	0xbc977f3e	-0.018493291
97	0xbe0ea4d4	-0.13930064
98	0xbe4dba10	-0.20090508
99	0x3d46a018	0.04849252
100	0xbca3f12e	-0.020012464
101	0x3c0556cd	0.008138371
102	0xbc8fadad	-0.01753887
103	0xbd0b7d05	-0.034054775
104	0xbe9eb555	-0.3099772
105	0xbdd60649	-0.104504175
106	0xbe034904	-0.12820822
107	0xbe11a8b5	-0.14224513
108	0xbc032dac	-0.0080064945
109	0xbee1fc02	-0.4413758
110	0x3cea49cb	0.02859964
111	0xbde65b8a	-0.112479284
112	0x3d790fd4	0.06080611
113	0xbc37d0b0	-0.011219189
114	0xbe143c15	-0.14476044
115	0xbc4096c9	-0.0117547
116	0x3f88e42d	1.0694634
117	0x3d94ea87	0.07271295
118	0x3f6e4552	0.93074524
119	0xbf5e2081	-0.8676835
120	0x3d7cb532	0.06169624
121	0xbc2d9b66	-0.010596132
122	0x3b89bb05	0.0042032027
123	0x3e923dd6	0.28562802
124	0x3c710f64	0.014713142
125	0x3d5e3b2e	0.054255657
126	0x3f20e007	0.6284184
127	0xbe6d700a	-0.23187271
128	0x3cb06640	0.021533132
129	0x3ec4a5d9	0.38407782
130	0xbad00fba	-0.0015873828
131	0x3cef6e33	0.029227352
132	0xbe3c7bff	-0.18406676
133	0xbebd296f	-0.36945674
134	0x3e2d87de	0.1694636
135	0x3db29710	0.08720219
136	0x3d21b6de	0.039481036
137	0xbcab19fe	-0.020886417
138	0xbe8849f6	-0.26618928
139	0xbe698e4a	-0.22808185
140	0x3cd794ba	0.026316036
141	0x3a4aac08	0.0007731323
142	0x3cc393a1	0.023874106
143	0xbdf1aec3	-0.11800911
144	0xbe80c2ec	-0.25148714
145	0xbe9aabbd	-0.3020915
146	0xbeef1202	-0.46693426
147	0xbdf74f63	-0.12075689
148	0x3ca15e96	0.019698422
149	0xbb4ee3b9	-0.0031568839
150	0xbc3b3ed0	-0.01142855
151	0x3c15241d	0.009102848
152	0xbea978ce	-0.3309998
153	0x3e6c52e2	0.23078492
154	0xbcae949f	-0.021311102
155	0xbdc76750	-0.09736502
156	0x3d0f5c6c	0.03500025
157	0x3bc2df28	0.0059470125
158	0xc03655c7	-2.8489854
159	0xbe35f73f	-0.17770098
160	0xbdeb41d5	-0.11487166
161	0xbce7e09b	-0.028305342
162	0xbe1c0a85	-0.15238388
163	0x3da0537d	0.07828424
164	0xbc5e1a42	-0.013556065
165	0x3b4d5de1	0.0031336474
166	0xbe9294a5	-0.28629032
167	0xbc4846c0	-0.012223899
168	0x3e1c61b2	0.15271643
169	0xbece8e90	-0.40343142
170	0x3e4af19e	0.19818732
171	0x3c842eb5	0.016135553
172	0xbcfcde0c	-0.030867599
173	0xbc881b64	-0.016614623
174	0xbe1c726d	-0.15278025
175	0x3bc93698	0.0061405413
176	0x3da60f5e	0.081084
177	0xbfac7f06	-1.3476264
178	0x3e8c4bb0	0.27401495
179	0xbb981c46	-0.0046420423
180	0x3c5aa22e	0.013344331
181	0xbc97a64e	-0.018511917
182	0xbe4d2fc8	-0.20037758
183	0xbdec909a	-0.11551018
184	0x3b93126d	0.0044882805
185	0xbe581be1	-0.21104385
186	0x3bc372d0	0.0059646145
187	0xbc011bfd	-0.007880208
188	0xbc1ec365	-0.00969014
189	0xbcf8d9ec	-0.03037735
190	0x3ce1a6da	0.027545381
191	0xbe1fdca5	-0.15611513
192	0xbcf3b264	-0.02974815
193	0xbe0c3ab3	-0.13694267
194	0xbefb8c8b	-0.49130663
195	0xbe69d242	-0.22834113
196	0xbcdf5902	-0.027264122
197	0xbf244d5e	-0.6418055
198	0x3f97136e	1.1802804
199	0xbebebfba	-0.3725565
200	0xbcdff862	-0.027340118
201	0xbe3ffb4f	-0.1874821
202	0xbec087f0	-0.37603712
203	0xbcd4b97a	-0.025967348
204	0xbf99f35d	-1.2027394
205	0xbfbde680	-1.4835968
206	0xbeab9ece	-0.33519596
207	0x3d3bef60	0.045882583
208	0xbc4c2ec0	-0.012462318
209	0x3967c6d3	0.00022103945
210	0x3b8c04f4	0.0042730514
211	0x3e95edb3	0.29282913
212	0xbb3740ef	-0.0027962287
213	0xbbfb350b	-0.0076662353
214	0x3baa7076	0.0052013947
215	0xbe246e2e	-0.16057655
216	0xbd06ba45	-0.032892484
217	0x3d90eedf	0.07076811
218	0xbb9f250d	-0.0048567117
219	0xbf467a98	-0.77530813
220	0xbeb0906f	-0.34485194
221	0xbfb398ff	-1.4031066
222	0xbb047ff5	-0.002021787
223	0xbfb5f5af	-1.4215602
224	0x3cd03e99	0.025420474
225	0x3cd30eea	0.025763948
226	0x3d03c605	0.032171268
227	0xbdcc6890	-0.09980881
228	0x3cb14bf0	0.021642655
229	0x3c7e71f3	0.015530097
230	0xbe492f90	-0.1964705
231	0xbc7b2c74	-0.015330423
232	0xbc81b38d	-0.015832687
233	0xbe510441	-0.20411779
234	0xbe8e0e75	-0.27745405
235	0xbf047f2c	-0.5175655
236	0x3cdaa069	0.026687818
237	0xbc17cb06	-0.009264713
238	0xbd259c87	-0.04043248
239	0x3b0519dd	0.0020309605
240	0xbe39687f	-0.18106268
241	0x3cfbfdd4	0.030760683
242	0xbccc00a9	-0.024902659
243	0x3e0f404d	0.13989373
244	0xbbcb4dc1	-0.0062043373
245	0x3e0cecb7	0.13762175
246	0x3d1a6278	0.037691563
247	0xbfa9bfe7	-1.3261689
248	0x3d68a3ea	0.056796946
249	0x3fa2def7	1.2724293
250	0xbe0e176c	-0.13876122
251	0xbe4b69e0	-0.19864607
252	0xbcdfcd6a	-0.027319629
253	0xbddc16a1	-0.107465036
254	0xbd7d4dc3	-0.061841737
255	0xbb7568ac	-0.0037446423
