TD3/models/third_training_attempt/train_250_episodes_critic_2_goal.pth (torch, 531051 bytes, 5 tensors)

l1.weight f4 [400, 28]
-0.21114013 -0.032892685 -0.21640466 0.10224367 -0.10414928 -0.011595069 0.22258097 0.03136977
-0.19837488 0.20546256 0.17724241 0.20461912 0.12430345 -0.117571026 -0.14121038 -0.33263355
-0.38363722 -0.35655293 -0.15084845 -0.086584 -0.35465154 -0.16974612 -0.38085434 -0.32857502
0.29288784 0.019862456 0.1098285 0.031673193 -0.09781146 -0.57135123 0.031456426 0.23409863
0.6133516 0.2477405 -0.113869414 0.13368985 -0.34314957 0.6946228 -0.0356575 -0.21437465
0.01179276 -0.06413839 0.1959228 0.120596364 -0.02841761 -0.022179864 0.015054106 0.19972183
0.08278773 0.011004957 -0.09948025 0.20712928 0.083795995 0.1178369 -0.13461272 0.19607091
-0.12016014 0.063891895 -0.25491032 -0.74696296 -0.27070725 -0.32414758 0.12627515 0.14774251
0.46770358 0.0073559843 -0.17943554 0.24415217 -0.06610377 0.07618748 -0.29672268 -0.4365376
-0.16203408 -0.1252998 -0.13221274 -0.087336585 -0.20379137 -0.23017922 -0.06617218 -0.13866715
0.0762397 0.15990679 0.45243412 0.070344575 0.0012449465 0.2739379 0.626183 -0.2043037
0.047511447 -0.1057069 0.23930964 0.1499073 -0.283328 0.21767575 -0.014661254 -0.1275126
0.31197134 -0.12638731 -0.23155895 -0.23227416 -0.12590371 -0.38449225 -0.2140143 -0.17316085
-0.4782505 -0.46215135 -0.35467216 -0.1948541 0.31136346 0.16360956 0.22372973 0.0035925629
-0.114793375 0.18119 0.6656465 -0.17624748 -0.10462767 -0.28897554 0.2391364 0.03840815
-0.28288093 -0.077226244 0.16212106 -0.01566568 0.15132505 -0.14526112 -0.62584436 -0.4425178
-0.65638626 -0.38594708 -0.343264 -0.5793639 -0.32572237 -0.3854284 -0.63757455 -0.4924249
0.29036167 0.24828117 0.15407766 -0.091980025 -0.058870673 0.21734442 -0.15350385 -0.66853404
-0.27362537 -0.26095766 -0.067500405 -0.18225034 -0.1800882 0.20247461 0.73918694 0.08647228
0.4204985 -0.14000994 -0.18373547 -0.13399562 -0.3291437 -0.2108586 -0.3653439 -0.20667298
-0.19357158 -0.24751131 -0.24057809 0.082448825 -0.047071718 0.13833289 0.23340741 0.044304974
-0.13612673 -0.48682448 -0.72164977 -0.031344123 0.4765769 -0.15041421 -0.10380957 -0.15017977
-0.6256289 -0.03969908 0.58588916 -0.098341204 0.103952944 -0.14349683 -0.3479944 -0.03979028
-0.044794846 -0.38413057 -0.25469336 -0.36930862 -0.11029018 -0.17648683 -0.29631525 -0.088606
-0.026030732 -0.07355396 0.12830336 0.048190746 0.07336762 0.081056625 -0.06415422 -0.10853886
-0.0008620499 -0.0846414 0.12391245 0.074212536 0.082492165 0.13713712 -0.016154924 0.094358906
0.09621587 0.09823377 -0.298597 -0.06607309 -0.12272738 -0.15719384 -0.08061964 -0.35715863
-0.010290371 -0.18826284 -0.14732926 -0.32988948 0.12326964 -0.03456491 0.16712967 -0.019372964
-0.12750602 0.088240676 -0.12874055 -0.073603995 -0.0759211 -0.15920612 0.107407324 0.22991769
-0.105280526 0.0043053795 0.15477465 0.12998568 0.060005166 0.14356239 -0.28080067 -0.20951396
-0.21378464 -0.4026864 -0.1770203 -0.33423674 -0.114536755 -0.35288072 -0.21667527 -0.10106162
-0.060711987 0.0040945713 0.19579299 0.116834275 -0.15686537 -0.8209311 0.441523 -0.6491411
00000000: 1e35 58be 7bba 06bd 2f99 5dbe 2165 d13d
00000010: 384c d5bd 3ff9 3dbc 44ec 633e 977d 003d
00000020: c922 4bbe c764 523e 097f 353e ad87 513e
00000030: cf92 fe3d 14c9 f0bd 7499 10be f24e aabe
00000040: 196c c4be 1b8e b6be 0478 1abe f452 b1bd
00000050: e394 b5be edd1 2dbe 57ff c2be fc3a a8be
00000060: 65f5 953e 97b6 a23c c4ed e03d c0bb 013d
00000070: 6051 c8bd 1344 12bf 74d8 003d 8db7 6f3e
00000080: 9c04 1d3f b0af 7d3e 5e34 e9bd fee5 083e
00000090: 4db1 afbe cdd2 313f 990d 12bd 0785 5bbe
000000a0: 6c36 413c fd5a 83bd fd9f 483e 3afb f63d
000000b0: 0ccc e8bc 8cb2 b5bc 7fa5 763c e183 4c3e
000000c0: 9d8c a93d 234e 343c 4dbc cbbd b319 543e
000000d0: 3c9d ab3d 7954 f13d ebd7 09be d0c6 483e
000000e0: 8516 f6bd c1d9 823d 9b83 82be f738 3fbf
000000f0: 249a 8abe acf6 a5be 464e 013e d049 173e
00000100: d876 ef3e 780a f13b f3bd 37be 0703 7a3e
00000110: 6a61 87bd 2e08 9c3d 09ec 97be db81 dfbe
00000120: 43ec 25be 974e 00be c762 07be 86dd b2bd
00000130: afae 50be 1ab4 6bbe 4885 87bd c3fe 0dbe
00000140: 8f23 9c3d 9bbe 233e 72a5 e73e d110 903d
00000150: 792d a33a 9741 8c3e 874d 203f fd34 51be
00000160: 5d9b 423d dc7c d8bd 960d 753e 4d81 193e
00000170: 5e10 91be 64e6 5e3e c235 70bc aa92 02be
00000180: b5ba 9f3e ad6b 01be ca1d 6dbe 47d9 6dbe
00000190: e7ec 00be 2bdc c4be 9126 5bbe 1451 31be
000001a0: 40dd f4be 1a9f ecbe 9797 b5be d587 47be
000001b0: 086b 9f3e 4489 273e 6819 653e 3471 6b3b
000001c0: ca18 ebbd df89 393e cf67 2a3f 387a 34be
000001d0: 0847 d6bd 9af4 93be 2ce0 743e dd51 1d3d
000001e0: c5d5 90be cb28 9ebd 1003 263e 5055 80bc
000001f0: f4f4 1a3e 55bf 14be 5637 20bf b191 e2be
00000200: ee08 28bf db9a c5be 4dc0 afbe 3151 14bf
00000210: 15c5 a6be df56 c5be 1638 23bf 1e1f fcbe
00000220: 49aa 943e 6b3d 7e3e 89c6 1d3e 0660 bcbd
00000230: 6022 71bd 898f 5e3e 1d30 1dbe 0c25 2bbf
00000240: a018 8cbe 3e9c 85be a73d 8abd d59f 3abe
00000250: 0b69 38be 8155 4f3e 5b3b 3d3f 6118 b13d
00000260: 944b d73e c45e 0fbe 2725 3cbe 2636 09be
00000270: 8685 a8be 51eb 57be 5b0e bbbe 15a2 53be
00000280: a137 46be 9b73 7dbe 1a5a 76be eeda a83d
00000290: 46ce 40bd 23a7 0d3e 5a02 6f3e 2279 353d
000002a0: ce64 0bbe 0f41 f9be 0abe 38bf b262 00bd
000002b0: e301 f43e 2f06 1abe 1d9a d4bd bac8 19be
000002c0: 3729 20bf 819b 22bd d5fc 153f 1d67 c9bd
000002d0: 48e5 d43d d5f0 12be 522c b2be 22fb 22bd
000002e0: cd7a 37bd c3ac c4be 2b67 82be 0516 bdbe
000002f0: d1df e1bd f7b8 34be a2b6 97be 1077 b5bd
00000300: 673e d5bc 75a3 96bd f561 033e a963 453d
00000310: c341 963d 0401 a63d 4a63 83bd 9f49 debd
00000320: 31fb 61ba 7858 adbd d0c5 fd3d befc 973d
00000330: a7f1 a83d ac6d 0c3e 5557 84bc 3e3f c13d
00000340: d30c c53d c92e c93d b5e1 98be 5451 87bd
00000350: 7e58 fbbd 6cf7 20be e91b a5bd 7fdd b6be
00000360: f298 28bc f9c7 40be 7bdd 16be 46e7 a8be
00000370: cb74 fc3d ef93 0dbd 0a24 2b3e 0db4 9ebc
00000380: f090 02be 87b7 b43d 90d4 03be b1bd 96bd
00000390: 867c 9bbd ee06 23be 5ff8 db3d 8b6f 6b3e
000003a0: 519d d7bd 2414 8d3b 3f7d 1e3e f71a 053e
000003b0: fac7 753d 0502 133e 1bc5 8fbe d48a 56be
000003c0: 5cea 5abe e92c cebe cf44 35be 1421 abbe
000003d0: 3f92 eabd c8ac b4be 1fe0 5dbe 65f9 cebd
000003e0: 22ad 78bd c12b 863b f57d 483e cf46 ef3d
000003f0: 51a1 20be 8a28 52bf 4d0f e23e 1c2e 26bf

l1.bias f4 [400]
-0.055686522 -0.120895475 0.38144353 -0.115328155 -0.05838063 0.22349082 -0.24667484 0.019061776
-0.15510067 0.15227611 0.33475378 -0.2998504 -0.07818588 0.01745308 0.069101304 0.2428975
0.12836015 -0.06235669 -0.100083 -0.05544951 0.10486823 -0.24721031 0.19365832 -0.016504783
0.32052183 -0.12513785 0.029749734 -0.062080186 -0.17394888 0.1978589 -0.17945707 -0.004975058
-0.032432456 -0.24103385 -0.16682087 -0.21090288 -0.10622408 -0.21632782 0.2229418 0.15424027
0.04109306 0.43061662 -0.031772625 -0.21821806 -0.00909497 0.18250795 -0.13002709 0.0926593
0.021322146 0.1854233 0.04225089 0.22728944 -0.088686585 -0.13531032 0.12500815 -0.1424574
-0.03174286 0.081338055 0.25955087 0.306509 0.25007817 0.028662214 -0.17416942 -0.18970178
-0.03160718 0.016040465 0.057763096 0.108214855 -0.061757375 -0.16164525 -0.19206573 0.085085355
0.3876634 -0.11320971 -0.07167272 -0.11718657 0.21531376 0.34868267 0.19527286 -0.25926745
-0.07982492 0.45095 -0.18015856 -0.14903107 -0.005451956 0.18744878 -0.043063335 0.008737353
0.06879124 0.26361844 -0.21742682 -0.16948438 -0.019766225 0.40466753 -0.11840275 -0.033662874
-0.13297743 0.13739835 -0.22196884 0.2836571 -0.18447208 0.05019665 0.3107721 0.13444851
-0.008922009 -0.25053498 0.048725184 0.14449319 0.02114396 -0.25099206 0.4065 -0.30022705
0.18243653 0.08317411 -0.03780922 0.32570937 0.2044123 -0.14537725 0.14888948 -0.042661473
-0.056000482 0.0055705467 0.08330302 0.07303204 0.20155679 0.012589502 0.35606915 -0.17530781
-0.12223849 -0.15525629 -0.098224334 -0.15494928 -0.2437701 0.12639363 0.10231533 -0.2297657
-0.30812502 -0.16094352 -0.2382855 -0.040193062 0.04472161 -0.18632838 0.026054686 -0.17287004
0.1314021 -0.12588795 -0.049410496 0.2928837 0.42136943 0.08093597 0.13682504 -0.079665415
-0.33104098 -0.1130187 -0.12848242 -0.20921698 -0.026287764 0.018747447 -0.02212025 0.056054417
0.0885059 0.2008346 -0.07231617 -0.062455587 -0.08018555 -0.065562874 0.11016775 -0.20353222
-0.09295316 0.09778794 -0.08850622 -0.01889463 -0.23111555 -0.14231965 0.2326924 0.2311404
0.15222327 -0.15042107 -0.34446454 -0.21399087 0.0058095693 0.21634929 -0.16981529 -0.17442831
-0.20670694 -0.023092588 0.028187644 -0.256184 -0.056675073 -0.107357085 -0.22590588 -0.15115322
0.009546167 -0.023873242 -0.115623266 0.30977005 0.18171178 0.24877605 -0.15109287 -0.25099692
-0.11151488 -0.17557748 -0.0060109287 0.15710345 -0.21553783 0.060562693 -0.070991874 0.2087982
-0.050200015 0.093597814 -0.072441414 -0.07169329 -0.11050643 -0.2329605 0.014755402 0.018764947
-0.27471647 -0.26127577 0.007619963 0.22512612 0.21250793 0.25467923 -0.1107895 -0.108496204
0.07963488 -0.17402534 0.07052007 0.10172565 0.27193 0.3686123 -0.14207314 -0.027244918
-0.016956856 -0.1157372 0.30629712 -0.0122643085 0.28850022 0.36697018 -0.031604055 0.32544068
0.4833919 0.00097004906 -0.12851518 0.06029127 -0.13727728 0.32172614 -0.10650108 -0.23940642
0.33308917 0.14112937 0.30767584 -0.036868326 0.40889993 -0.09647324 -0.16241835 -0.22232081
00000000: 8d17 64bd 0c98 f7bd 914c c33e 2b31 ecbd
00000010: 8720 6fbd c7da 643e 5498 7cbe 7127 9c3c
00000020: b6d2 1ebe 45ee 1b3e d964 ab3e fe85 99be
00000030: eb1f a0bd c3f9 8e3c fc84 8d3d 1fba 783e
00000040: d870 033e bb69 7fbd 51f8 ccbd 071f 63bd
00000050: 28c5 d63d b324 7dbe 5e4e 463e 0a35 87bc
00000060: 701b a43e 2324 00be b7b5 f33c cb47 7ebd
00000070: a81f 32be 869b 4a3e 98c3 37be d005 a3bb
00000080: e5d7 04bd 94d1 76be 17d3 2abe edf6 57be
00000090: 038c d9bd 0a85 5dbe db4a 643e 29f1 1d3e
000000a0: 3251 283d c879 dc3e 0324 02bd 8e74 5fbe
000000b0: 1203 15bc 5de3 3a3e d225 05be 29c4 bd3d
000000c0: c8ab ae3c 9bdf 3d3e 450f 2d3d 90be 683e
000000d0: 50a1 b5bd ca8e 0abe 2302 003e 5ae0 11be
000000e0: cd04 02bd 9194 a63d dae3 843e bfee 9c3e
000000f0: 3f0a 803e 05cd ea3c 7859 32be 2f41 42be
00000100: 8876 01bd 4b67 833c ff98 6c3d c09f dd3d
00000110: 4df5 7cbd 5586 25be e1ac 44be 3b41 ae3d
00000120: d17b c63e 7eda e7bd 26c9 92bd 83ff efbd
00000130: 367b 5c3e 8986 b23e 9cf5 473e b4be 84be
00000140: 3f7b a3bd ebe2 e63e 7c7b 38be 9a9b 18be
00000150: 52a6 b2bb 93f2 3f3e 2e63 30bd 1d27 0f3c
00000160: 6ce2 8c3d fff8 863e 23a5 5ebe 508d 2dbe
00000170: c7ec a1bc 9530 cf3e 247d f2bd 15e2 09bd
00000180: 3c2b 08be 27b2 0c3e cd4b 63be 813b 913e
00000190: 40e6 3cbe 019b 4d3d 851d 9f3e dfac 093e
000001a0: 9e2d 12bc 1f46 80be 0f94 473d 06f6 133e
000001b0: 1936 ad3c 0882 80be c520 d03e 5cb7 99be
000001c0: a4d0 3a3e 3057 aa3d d7dd 1abd 61c3 a63e
000001d0: 7551 513e c6dd 14be 7c76 183e ccbd 2ebd
000001e0: c360 65bd 2289 b63b c69a aa3d d291 953d
000001f0: e764 4e3e 3344 4e3c b24e b63e e483 33be
00000200: 2c58 fabd 81fb 1ebe d729 c9bd 06ab 1ebe
00000210: de9e 79be 556d 013e b38a d13d b347 6bbe
00000220: 90c2 9dbe 61ce 24be 1d01 74be 7ba1 24bd
00000230: 022e 373d decc 3ebe a370 d53c d804 31be
00000240: 468e 063e c5e8 00be a962 4abd daf4 953e
00000250: bcbd d73e c2c1 a53d dd1b 0c3e 9f27 a3bd
00000260: 347e a9be 5976 e7bd e590 03be fa3c 56be
00000270: 7059 d7bc 3f94 993c 8735 b5bc 5199 653d
00000280: 9542 b53d 96a7 4d3e 801a 94bd 6ed1 7fbd
00000290: 5238 a4bd d445 86bd a19f e13d c06a 50be
000002a0: 3a5e bebd 0b45 c83d c042 b5bd e9c8 9abc
000002b0: 8ea9 6cbe 3ebc 11be eb46 6e3e 12b0 6c3e
000002c0: 6be0 1b3e fb07 1abe a85d b0be 6c20 5bbe
000002d0: 335e be3b ab8a 5d3e 0fe4 2dbe 569d 32be
000002e0: fcaa 53be ab2c bdbc c6e9 e63c 8d2a 83be
000002f0: 1f24 68bd 08de dbbd df53 67be e9c7 1abe
00000300: 8767 1c3c d191 c3bc e4cb ecbd 2e9a 9e3e
00000310: a712 3a3e 26bf 7e3e 17b8 1abe ab82 80be
00000320: ea61 e4bd 95ca 33be 53f7 c4bb badf 203e
00000330: f3b5 5cbe 9610 783d 3064 91bd 32cf 553e
00000340: 889e 4dbd 36b0 bf3d 2a5c 94bd eed3 92bd
00000350: 3251 e2bd 338d 6ebe a4c0 713c f2b8 993c
00000360: a3a7 8cbe f0c5 85be e2b0 f93b 7687 663e
00000370: ae9b 593e 5165 823e 9be5 e2bd 4233 debd
00000380: 9d17 a33d b333 32be d46c 903d 8a55 d03d
00000390: 693a 8b3e c0ba bc3e 9f7b 11be bc30 dfbc
000003a0: 1be9 8abc a007 edbd fad2 9c3e 3df0 48bc
000003b0: 4db6 933e 84e3 bb3e 4173 01bd 29a0 a63e
000003c0: 257f f73e e44a 7e3a 7c99 03be fbf3 763d
000003d0: 6a92 0cbe 4ab9 a43e 3d1d dabd f526 75be
000003e0: aa8a aa3e 3884 103e b087 9d3e 3e03 17bd
000003f0: 555b d13e c393 c5bd ff50 26be 11a8 63be

l2.weight f4 [300, 400]
-0.033957917 -0.006670651 -0.018453058 -0.003033407 -0.007747913 0.0072090486 -0.033291973 -0.023430422
-0.053735502 -0.008413297 0.023547024 0.031956688 -0.030750532 -0.036632054 0.048146438 0.027120696
0.02046993 -0.009736102 0.018074939 0.005588546 0.0068539353 -0.008322351 -0.026974294 0.033173367
0.013872528 -0.028694265 -0.044938367 0.012177334 0.044174667 0.020259824 0.0021179924 0.0072244154
0.039893053 0.02799626 0.013258041 0.03899196 0.039884117 -0.015889097 -0.017564947 0.007116941
-0.041114204 -0.011726249 0.021881817 0.019367885 0.046396088 -0.03200065 0.025450649 -0.010603583
-0.022734124 -0.024929853 0.034937665 -0.011088617 -0.037957393 -0.03719818 0.01664368 0.005355321
0.016558371 -0.042557698 0.035091147 -0.056833457 -0.024122955 0.024683982 -0.0069380105 -0.033675127
-0.027520051 -0.043913435 0.002391522 0.03670237 -0.023963798 -0.03929166 -5.7516867e-05 -0.032251734
0.008358162 -0.020127578 -0.028145155 0.011895888 0.03904443 0.028506134 0.042614006 -0.045867283
0.004566511 -0.021972343 -0.0013944209 0.02717434 -0.039183762 -0.03247078 -0.02130775 -0.0235962
-0.008241934 0.029810732 0.031017726 -0.008185692 -0.0458755 -0.012267859 0.02201948 0.03317399
0.039325815 -0.026111955 -0.014494389 -0.027539795 0.0074086315 -0.011468038 -0.0070636696 -0.048698332
0.017302867 -0.011417635 -0.0057076626 -0.016331876 -0.0019386546 -0.035793416 -0.046236154 0.0446896
0.003089456 -0.04165214 0.027112823 0.03985282 -0.042363226 -0.04418506 -0.047075547 0.03406222
-0.039028645 0.037540156 -0.009536155 -0.05775435 -0.0073344894 -0.02511093 0.03635775 -0.027380783
0.0497321 -0.047249023 0.0025608367 0.036570095 0.00690829 -0.02753458 -0.05674554 0.009949125
-0.012096495 -0.016947666 -0.0018261274 0.0048521482 -0.032586265 -0.0156042315 0.020676311 -0.021328896
-0.025899548 -0.014659427 -0.019946462 -0.0066323737 -0.0178626 -0.02190715 -0.025909234 0.03674749
-0.046323914 0.03002065 -0.0047976 0.028922569 0.04577231 0.019539725 0.007875599 -0.04512834
-0.029129667 0.015477757 0.028590325 0.030093912 -0.025993902 -0.040271547 -0.01802018 -0.010694294
-0.02350548 -0.028389534 -0.043383766 0.04577678 0.016637348 0.013124827 0.0030367896 0.04749954
-0.0442442 0.0038202188 0.036198113 -0.021103976 0.0409868 -0.008590435 0.01810373 -0.03501292
0.048644204 -0.023448898 -0.038797073 -0.008508604 0.016998703 0.040466752 -0.028612334 0.011255365
-0.010589241 0.027616162 -0.0017219124 0.022040514 0.023019893 -0.056426656 -0.032955654 0.029538747
-0.05030972 0.011896312 0.011237628 0.034509256 -0.046006262 -0.04565683 0.015998278 0.013613831
0.0017280357 0.019443983 -0.019824577 -0.01603232 -0.030843012 -0.023059383 -0.019216742 -0.029921375
-0.05027545 -0.039902944 -0.051500328 0.010491192 -0.003456939 0.008872253 -0.044813424 -0.045521975
-0.0083959745 -0.029292917 -0.044256866 0.0340205 -0.026938904 -0.002078551 -0.021508921 -0.039373007
-0.026827518 -0.042554405 -0.03213178 -0.0037799403 -0.023410678 0.03687929 -0.011265494 0.00017876025
-0.015441809 0.007817976 -0.031435847 0.002680372 0.024716575 -0.018784981 -0.0539769 0.018750843
0.00750988 -0.044539243 -0.05192799 0.0011165366 -0.05147872 -0.038747836 0.011975873 -0.035983253
00000000: 7517 0bbd 7a95 dabb de2a 97bc 20cc 46bb
00000010: 34e2 fdbb e239 ec3b 2a5d 08bd 28f1 bfbc
00000020: c219 5cbd edd7 09bc b0e5 c03c 04e5 023d
00000030: 8ae8 fbbc 7e0b 16bd 3335 453d 392c de3c
00000040: 8eb0 a73c 2c84 1fbc e511 943c 1f20 b73b
00000050: fa96 e03b 785a 08bc 32f9 dcbc cce0 073d
00000060: 9a49 633c 3c10 ebbc 4b11 38bd 7183 473c
00000070: 7ff0 343d eef7 a53c 04ce 0a3b caba ec3b
00000080: e666 233d 6a58 e53c 4138 593c 09b6 1f3d
00000090: 875d 233d da29 82bc 5de4 8fbc 3a35 e93b
000000a0: 5e67 28bd 741f 40bc 7f41 b33c 66a9 9e3c
000000b0: d309 3e3d 1d13 03bd e17d d03c a7ba 2dbc
000000c0: ea3c babc b139 ccbc cc1a 0f3d 08ad 35bc
000000d0: 3679 1bbd 1e5d 18bd 5458 883c b07b af3b
000000e0: 6ca5 873c fb50 2ebd bcbb 0f3d 33ca 68bd
000000f0: 819d c5bc 1036 ca3c 4058 e3bb eeee 09bd
00000100: bb71 e1bc 93de 33bd 15bb 1c3b 3955 163d
00000110: ba4f c4bc 4bf0 20bd 443e 71b8 651a 04bd
00000120: acf0 083c 97e2 a4bc ab90 e6bc f8e6 423c
00000130: 0ded 1f3d b285 e93c 068c 2e3d 55df 3bbd
00000140: aca2 953b 58ff b3bc 00c5 b6ba b99c de3c
00000150: 277f 20bd 1500 05bd 978d aebc d14c c1bc
00000160: 2d09 07bc a335 f43c e318 fe3c 481d 06bc
00000170: f3e7 3bbd 21ff 48bc 3262 b43c 73e1 073d
00000180: 1b14 213d bde8 d5bc e079 6dbc 239b e1bc
00000190: 1bc4 f23b 70e4 3bbc 5b76 e7bb e777 47bd
000001a0: bebe 8d3c 0811 3bbc 5807 bbbb 6dca 85bc
000001b0: 741a feba 1e9c 12bd 1f62 3dbd 710c 373d
000001c0: 7878 4a3b 6f9b 2abd b61b de3c b63c 233d
000001d0: 1085 2dbd 65fb 34bd 4ad2 40bd d484 0b3d
000001e0: 80dc 1fbd b5c3 193d 883d 1cbc d38f 6cbd
000001f0: 2856 f0bb 70b5 cdbc ddeb 143d aa4d e0bc
00000200: e3b3 4b3d 3188 41bd b6d3 273b 86ca 153d
00000210: f05e e23b 3390 e1bc 036e 68bd a801 233c
00000220: 6130 46bc d5d5 8abc ab5a efba c5fe 9e3b
00000230: 2d79 05bd e4a8 7fbc 5e61 a93c f0b9 aebc
00000240: 4a2b d4bc 182e 70bc c366 a3bc 6254 d9bb
00000250: 9654 92bc a076 b3bc 9a3f d4bc 8984 163d
00000260: 25be 3dbd deed f53c 3035 9dbb 06ef ec3c
00000270: bf7b 3b3d c611 a03c a808 013c 7fd8 38bd
00000280: 57a1 eebc 6b96 7d3c 4236 ea3c 8287 f63c
00000290: 2af1 d4bc c7f3 24bd 0e9f 93bc 1f37 2fbc
000002a0: 908e c0bc 2b91 e8bc 2db3 31bd 6f80 3b3d
000002b0: 0c4b 883c 8409 573c e004 473b e18e 423d
000002c0: 6839 35bd a35c 7a3b 7944 143d 3fe2 acbc
000002d0: c6e1 273d e5be 0cbc 464e 943c b569 0fbd
000002e0: 253f 473d e717 c0bc aee9 1ebd ac67 0bbc
000002f0: dd40 8b3c 77c0 253d 6a64 eabc 6c68 383c
00000300: 7f7e 2dbc 4a3b e23c cbb1 e1ba 4f8e b43c
00000310: 3794 bc3c a31f 67bd 82fc 06bd 3efb f13c
00000320: 9111 4ebd c0e8 423c 071e 383c 9459 0d3d
00000330: 1071 3cbd a802 3bbd d20e 833c 8c0c 5f3c
00000340: 427f e23a fd48 9f3c 2767 a2bc 3656 83bc
00000350: 7caa fcbc 08e7 bcbc 6e6c 9dbc ac1d f5bc
00000360: a1ed 4dbd 4571 23bd 02f2 52bd 40e3 2b3c
00000370: d08d 62bb ed5c 113c 488e 37bd 4075 3abd
00000380: 458f 09bc b3f7 efbc b046 35bd 1459 0b3d
00000390: faae dcbc 4d38 08bb 7a33 b0bc 9745 21bd
000003a0: 62c5 dbbc 874d 2ebd 9d9c 03bd e0b8 77bb
000003b0: c0c7 bfbc bd0e 173d e892 38bc 9771 3b39
000003c0: a4ff 7cbc f816 003c e0c2 00bd 2ea9 2f3b
000003d0: 6a7a ca3c f6e2 99bc e216 5dbd 5e9b 993c
000003e0: 7015 f63b c86e 36bd 72b2 54bd c058 923a
000003f0: 5adb 52bd 0db6 1ebd 7436 443c 2d63 13bd

l2.bias f4 [300]
-0.03907424 -0.001958962 0.0253333 0.046240207 -0.051936932 -0.05652724 -0.07759861 0.08753823
-0.0025378333 0.014749649 -0.053549234 0.075606324 -0.050085455 -0.019682404 0.09464556 -0.06251752
0.017199121 0.021394176 -0.015773453 -0.016853789 0.13926353 0.12476381 0.1280585 -0.005621981
-0.019651486 0.41120267 0.18069385 -0.03178756 -0.01070845 -0.0410546 0.010261601 0.050060198
0.088407606 0.02405478 -0.06278723 -0.06284496 0.01905022 -0.051422838 0.02020022 -0.042085763
-0.051448915 0.041746013 0.089269035 0.09259664 0.41419947 0.37608558 0.025710674 -0.08062058
0.0109522715 -0.02915061 0.012320757 -0.17055306 -0.052708067 0.021211263 -0.012873591 0.08842283
0.059307795 0.09048183 -0.04672748 0.07487617 -0.012561039 0.03341104 0.089416735 0.015166696
0.03396164 -0.021890385 -0.028029297 0.0014187897 0.08844929 -0.018288026 -0.0046358956 -0.07148616
0.09478246 0.44119272 -0.0054507107 0.06796022 0.46182072 0.0212467 0.4468732 -0.14369652
-0.041384663 -0.017771328 0.079000816 0.06428207 -0.02436957 -0.070520565 -0.0032557906 -0.04300219
-0.017298589 0.028133232 0.007007138 -0.07400744 0.1321928 -0.016695462 0.015477943 -0.056560017
-0.07820361 0.024134789 0.02566001 -0.056184515 -0.0022889837 -0.038911812 0.036684085 -0.014952678
0.08529358 0.022842942 0.102577455 -0.029339856 -0.019955842 0.08627259 -0.05573077 0.073190846
-0.01928007 -0.0008216776 0.08858078 -0.0589308 -0.114879884 0.0056740073 -0.31061062 0.05656965
0.0227554 -0.10579611 -0.051809527 -0.05961476 -0.06839714 -0.023807049 -0.21296316 -0.026880415
-0.019883571 -0.06337693 0.030085659 -0.10321821 0.09796703 0.17410251 -0.07339052 -0.052428667
-0.007893433 -0.019271504 -0.07608018 -0.05087671 0.024353549 -0.05763514 -0.019278582 0.0463227
0.045141246 0.1413153 -0.08378707 0.092700176 -0.010220065 0.026629703 -0.02776145 -0.05447013
0.17883381 -0.04653674 0.03068245 0.04518446 -0.049537096 -0.08431309 -0.0010884028 0.06590417
0.35945338 -0.041249808 0.014547166 0.012603135 -0.01533303 -0.092648804 -0.060188454 0.01058328
-0.04651886 0.13050418 0.0019178692 0.008973767 0.02048036 -0.011229433 0.048129678 -0.029961236
-0.039545115 0.51222235 0.010695226 -0.0846126 -0.057297625 0.0011822801 0.09196334 0.04834351
-0.07660024 0.06446919 -0.006937755 -0.045579344 0.0016722261 0.0026820018 -0.034041364 0.016406348
-0.004513706 0.38388005 -0.08379303 0.14222425 -0.059280977 0.44035578 -0.016236134 -0.0077811014
-0.029208725 0.04256793 0.16985023 0.31239212 0.4110538 -0.0146507425 -0.037797946 -0.025373908
0.0067523276 -0.0148761235 -0.048841212 -0.018006766 0.008917701 -0.016807223 -0.04293811 0.086981885
-0.012813428 -0.032680884 -0.037065558 -0.010784819 0.088145666 0.011458352 0.02798869 0.5006322
-0.034451146 -0.07729761 -0.008383121 0.04940825 -0.09033018 0.014257165 0.026872128 -0.051758118
-0.01331001 0.06304464 0.37371486 -0.0316229 -0.04460779 -0.0010781816 -0.05908726 -0.03512915
0.05485905 -0.03592115 -0.059872553 0.0034462872 -0.09799386 -0.05503861 -0.06475082 0.4364345
-0.019036438 -0.15732245 0.086894214 0.077024914 -0.062564455 -0.010789289 0.05239663 0.03152083
00000000: 4f0c 20bd ee61 00bb c887 cf3c 5f66 3d3d
00000010: d2bb 54bd 1b89 67bd 05ec 9ebd 3e47 b33d
00000020: c751 26bb 83a8 713c 7156 5bbd 7dd7 9a3d
00000030: 6826 4dbd fe3c a1bc 88d5 c13d 2f09 80bd
00000040: 2ce5 8c3c d742 af3c 5437 81bc f510 8abc
00000050: 199b 0e3e 2b84 ff3d c421 033e 9838 b8bb
00000060: 27fc a0bc 2889 d23e cf07 393e ac33 02bd
00000070: 7f72 2fbc de28 28bd 4620 283c ec0b 4d3d
00000080: 0c0f b53d 880e c53c 9796 80bd dcb4 80bd
00000090: 350f 9c3c c1a0 52bd ef7a a53c 1f62 2cbd
000000a0: 19bc 52bd defd 2a3d afd2 b63d 4fa3 bd3d
000000b0: f411 d43e 4a8e c03e 319f d23c 671c a5bd
000000c0: 2871 333c 43cd eebc 00dd 493c 76a5 2ebe
000000d0: 6ae4 57bd 3ec3 ad3c c1eb 52bc 0717 b53d
000000e0: bbec 723d 8a4e b93d 5065 3fbd ad58 993d
000000f0: d1cc 4dbc 04da 083d 1f20 b73d bc7d 783c
00000100: 5c1b 0b3d 7753 b3bc b29d e5bc aff6 b93a
00000110: e724 b53d c5d0 95bc b6e8 97bb 5667 92bd
00000120: 4e1d c23d 03e4 e13e e09b b2bb ba2e 8b3d
00000130: c473 ec3e 8f0d ae3c 90cc e43e 2e25 13be
00000140: f782 29bd 2d95 91bc 2ecb a13d 51a6 833d
00000150: b1a2 c7bc 166d 90bd 1a5f 55bb 1023 30bd
00000160: c5b5 8dbc aa77 e63c 229c e53b 3691 97bd
00000170: 8d5d 073e ecc4 88bc 3397 7d3c 7aab 67bd
00000180: 3729 a0bd 52b6 c53c f134 d23c bc21 66bd
00000190: c602 16bb fe61 1fbd 0d42 163d 14fc 74bc
000001a0: 67ae ae3d 1f21 bb3c 2114 d23d 235a f0bc
000001b0: 6f7a a3bc afaf b03d f345 64bd 15e5 953d
000001c0: 3df1 9dbc da65 57ba d769 b53d 6c61 71bd
000001d0: 2546 ebbd 06ed b93b 5b08 9fbe 94b5 673d
000001e0: 8869 ba3c a2ab d8bd 3a36 54bd 9b2e 74bd
000001f0: cd13 8cbd 0007 c3bc 0413 5abe 5134 dcbc
00000200: dfe2 a2bc c4cb 81bd 3376 f63c 1264 d3bd
00000210: f0a2 c83d ee47 323e c54d 96bd 71bf 56bd
00000220: 7553 01bc 46df 9dbc edcf 9bbd 1964 50bd
00000230: 1881 c73c d312 6cbd 1eee 9dbc dfbc 3d3d
00000240: 07e6 383d f5b4 103e 8e98 abbd 97d9 bd3d
00000250: 0f72 27bc 8926 da3c fb6b e3bc 121c 5fbd
00000260: 3620 373e 4f9d 3ebd c359 fb3c 5713 393d
00000270: 69e7 4abd 57ac acbd bda8 8eba c4f8 863d
00000280: 460a b83e 8ff5 28bd 3d57 6e3c 617d 4e3c
00000290: 6437 7bbc a8be bdbd 2b88 76bd 7e65 2d3c
000002a0: 8f8a 3ebd e3a2 053e 0361 fb3a b506 133c
000002b0: 6ec6 a73c a8fb 37bc a023 453d 4471 f5bc
000002c0: 0ffa 21bd 0121 033f 073b 2f3c 5f49 adbd
000002d0: eab0 6abd bdf6 9a3a 4757 bc3d d803 463d
000002e0: 96e0 9cbd 6c08 843d 1b56 e3bb 68b1 3abd
000002f0: 992e db3a 86c4 2f3b f56e 0bbd 9b66 863c
00000300: b6e7 93bb ed8b c43e ae9b abbd 3ca3 113e
00000310: 9cd0 72bd 5076 e13e a401 85bc 9cf8 febb
00000320: 2347 efbc b65b 2e3d 38ed 2d3e dcf1 9f3e
00000330: a575 d23e ab09 70bc 05d2 1abd f1dc cfbc
00000340: a142 dd3b fcba 73bc b90d 48bd ed82 93bc
00000350: 8d1b 123c 4daf 89bc dfdf 2fbd 8f23 b23d
00000360: 6aef 51bc 64dc 05bd 0ed2 17bd cfb2 30bc
00000370: b785 b43d d0bb 3b3c 8a48 e53c 6f29 003f
00000380: a51c 0dbd 364e 9ebd 5c59 09bc 4e60 4a3d
00000390: 08ff b8bd e296 693c f022 dc3c 5200 54bd
000003a0: 3a12 5abc 8c1d 813d 8e57 bf3e 0487 01bd
000003b0: a8b6 36bd c551 8dba 7c05 72bd 95e3 0fbd
000003c0: e2b3 603d 0e22 13bd ec3c 75bd 1bdb 613b
000003d0: 01b1 c8bd 2a70 61bd 149c 84bd 5874 df3e
000003e0: 4ef2 9bbc 2319 21be 98f5 b13d 3dbf 9d3d
000003f0: cb21 80bd 8fc5 30bc d99d 563d fc1b 013d

l3.weight f4 [1, 300]
-0.024546891 0.18392074 0.035743076 -0.19309092 0.005650293 0.014239283 0.22876136 -0.1763735
-0.006187294 -0.03305714 0.18463302 -0.20539631 0.21982364 0.20934513 -0.21429528 -0.027083071
0.051348332 0.20508936 0.21607152 0.028344085 -0.29414642 -0.23769312 -0.16804174 -0.034799084
-0.031143641 -0.5019847 -0.27489376 0.2564284 0.034259666 0.21196178 0.036734004 -0.20507628
-0.18476552 -0.11799719 0.0010823259 0.2249556 -0.002491267 0.25154677 0.2132254 0.041793697
0.25050518 -0.15910433 -0.15968028 -0.19889045 -0.35691753 -0.39548573 -0.3572676 0.01540083
0.23828918 -0.010386399 0.0048139645 0.70502883 0.059400182 -0.0032589103 0.22651128 -0.28239816
-0.22828749 -0.22887029 0.03673028 -0.2095895 -0.03993254 -0.19612479 -0.08630239 0.26251402
-0.13837975 0.22020213 0.2475726 -0.021438878 -0.20593075 0.20819774 0.03312494 0.036538053
-0.20218474 -0.416541 -0.0036777733 -0.12716721 -0.36891314 -0.17841986 -0.36481172 0.5607312
0.02024604 0.25465217 -0.31662914 -0.20931329 -0.028958758 0.023752661 0.023746327 -0.025831375
-0.04098531 -0.024612084 0.037581135 -0.024540188 0.15453562 0.21270385 -0.1102456 0.23500198
0.022196606 -0.15816206 -0.20090508 0.04849252 0.007009001 0.008138371 0.014220098 0.0029085928
-0.31525227 -0.15506311 -0.15388592 0.2365219 -0.039761923 -0.32834145 -0.0028390698 -0.15629694
0.21856895 -0.024304748 -0.21828283 0.035533715 0.4259696 0.24721795 0.8041166 -0.1743728
0.19353499 -0.010596132 0.0042032027 0.20850769 0.014713142 0.24728352 0.24831012 0.22070579
-0.008286823 0.19125809 0.03009609 -0.00251143 -0.23461454 -0.44062734 0.21253696 0.18205214
0.039481036 -0.051770035 0.21888785 0.2097117 0.04692939 0.032530382 0.023874106 -0.2206677
-0.24643712 -0.27102557 0.19790103 -0.16302161 0.019698422 0.0050114053 0.01976436 0.009102848
-0.24520436 0.20217468 0.008945082 -0.1434402 0.064040035 0.037616152 -0.4503761 -0.20946433
-0.36022937 0.025731163 -0.16372138 0.22447579 -0.013556065 0.0031336474 0.20406416 -0.012223899
0.20207633 -0.18358937 0.20423701 -0.015595291 0.032215223 -0.016614623 -0.18449293 0.03789555
0.045812543 -0.7722495 0.26297298 -0.0046420423 0.24459237 0.01012749 -0.21040012 -0.1500444
-0.026099596 -0.25756085 0.018965283 0.020566043 -0.00969014 0.0013012101 0.027545381 -0.17817926
-0.002493735 -0.3822809 0.18699336 -0.1581158 0.00449005 -0.45553124 0.22183232 0.19483139
-0.027340118 -0.19701385 -0.3198516 -0.26427045 -0.18986118 0.2322691 0.25278655 0.0019438699
-0.012462318 0.00022103945 0.044205453 0.19962062 -0.03397654 0.01376524 0.036716122 -0.20745565
0.0067503722 0.2721521 -0.0048567117 0.19489397 -0.24125749 0.1970755 0.029704934 -0.80864453
0.025420474 0.025763948 0.22826962 -0.18503903 0.021642655 0.042382292 -0.19486803 3.5889057e-05
-0.015832687 -0.21594931 -0.10600229 0.2429294 0.051830385 -0.00040281194 0.0022324058 0.0020309605
-0.21279325 -0.0009853287 0.001733391 0.22991769 0.0057995836 0.20651093 0.23781532 -0.816577
0.056796946 0.62913215 -0.17181982 -0.2304124 -0.027319629 0.20198692 -0.2067255 0.0432488
00000000: 9016 c9bc b855 3c3e 5567 123d a0b9 45be
00000010: 1826 b93b e24b 693c 6b40 6a3e 419b 34be
00000020: c9be cabb ec66 07bd 7010 3d3e 6953 52be
00000030: 7319 613e 925e 563e 3970 5bbe 51dd ddbc
00000040: a152 523d f202 523e da41 5d3e db31 e83c
00000050: 5c9a 96be d365 73be 2213 2cbe 7c89 0ebd
00000060: f320 ffbc 1282 00bf e0be 8cbe 954a 833e
00000070: dd53 0c3d 820c 593e 6576 163d 84ff 51be
00000080: 2c33 3dbe 83a8 f1bd d5dc 8d3a c35a 663e
00000090: 8644 23bb bdca 803e c257 5a3e de2f 2b3d
000000a0: 3742 803e 3fec 22be 3a83 23be f0a9 4bbe
000000b0: e5bd b6be 1b7d cabe c7eb b6be c353 7c3c
000000c0: 1402 743e b72b 2abc 76be 9d3b c57c 343f
000000d0: 9b4d 733d 7193 55bb 93f2 673e 7e96 90be
000000e0: 32c4 69be f95c 6abe 7d72 163d a19e 56be
000000f0: 4e90 23bd f0d4 48be 4fbf b0bd 3d68 863e
00000100: 6cb3 0dbe ab7c 613e ac83 7d3e 96a0 afbc
00000110: 83df 52be ca31 553e 04ae 073d eda8 153d
00000120: 8409 4fbe dd44 d5be cc06 71bb 1f38 02be
00000130: 2fe2 bcbe b2b3 36be 9ac8 babe 148c 0f3f
00000140: 06db a53c c561 823e 371d a2be 3956 56be
00000150: eb3a edbc f194 c23c a887 c23c 529c d3bc
00000160: 36e0 27bd 489f c9bc adee 193d 8108 c9bc
00000170: 963e 1e3e 0acf 593e 72c8 e1bd 5ca4 703e
00000180: a8d5 b53c 3cf5 21be 10ba 4dbe 18a0 463d
00000190: c3ab e53b cd56 053c 6afb 683c 179e 3e3b
000001a0: bf68 a1be ddc8 1ebe 4594 1dbe cc32 723e
000001b0: 66dd 22bd 5f1c a8be b00f 3abb 4e0c 20be
000001c0: 8ad0 5f3e c01a c7bc 8985 5fbe cd8b 113d
000001d0: b018 da3e b426 7d3e 96da 4d3f c98e 32be
000001e0: 092e 463e 669b 2dbc 05bb 893b 0a83 553e
000001f0: 640f 713c e437 7d3e 0245 7e3e b300 623e
00000200: 74c5 07bc 29d9 433e 138c f63c ce96 24bb
00000210: cb3e 70be e899 e1be 4aa3 593e e06b 3a3e
00000220: deb6 213d d10c 54bd 2324 603e aabe 563e
00000230: 0839 403d 943e 053d a193 c33c b7f6 61be
00000240: 035a 7cbe ddc3 8abe 91a6 4a3e 23ef 26be
00000250: 965e a13c b736 a43b dee8 a13c 1d24 153c
00000260: da16 7bbe e106 4f3e 658e 123c fde1 12be
00000270: 6c27 833d 6513 1a3d b297 e6be d17d 56be
00000280: fc6f b8be 29ca d23c 94a6 27be fbdc 653e
00000290: 421a 5ebc e15d 4d3b 32f6 503e c046 48bc
000002a0: 19ed 4e3e dafe 3bbe 8223 513e 6483 7fbc
000002b0: 1cf4 033d 641b 88bc b7eb 3cbe 5d38 1b3d
000002c0: efa5 3b3d 25b2 45bf 65a4 863e 461c 98bb
000002d0: 6c76 7a3e c6ed 253c 2173 57be 3da5 19be
000002e0: d2ce d5bc 04df 83be 155d 9b3c 1e7a a83c
000002f0: 65c3 1ebc 5e8d aa3a daa6 e13c a074 36be
00000300: ee6d 23bb 52ba c3be 307b 3f3e 1ce9 21be
00000310: 4521 933b 643b e9be 0328 633e e181 473e
00000320: 62f8 dfbc 00be 49be 97c3 a3be 754e 87be
00000330: f86a 42be f3d7 6d3e 3d6d 813e 73c9 fe3a
00000340: c02e 4cbc d3c6 6739 c710 353d 5969 4c3e
00000350: fc2a 0bbd 9a87 613c a563 163d 416f 54be
00000360: 3a32 dd3b 8557 8b3e 0d25 9fbb 4992 473e
00000370: 340c 77be 29ce 493e c357 f33c 5403 4fbf
00000380: 993e d03c ea0e d33c 83bf 693e df7a 3dbe
00000390: f04b b13c 0e99 2d3d 7c8b 47be 9587 1638
000003a0: 8db3 81bc d121 5dbe bb17 d9bd 7cc2 783e
000003b0: 194c 543d 8130 d3b9 8e4d 123b dd19 053b
000003c0: 79e6 59be 2526 81ba f332 e33a 8b6f 6b3e
000003d0: 6f0a be3b 9a77 533e dc85 733e 310b 51bf
000003e0: eaa3 683d ce0e 213f 89f1 2fbe 3af1 6bbe
000003f0: 6acd dfbc a9d5 4e3e d9af 53be a725 313d
