TD3/models/third_training_attempt/train_50_episodes_critic_1.pth (torch, 531051 bytes, 5 tensors)

l1.weight f4 [400, 28]
0	0xbdd05dd5	-0.10174147
1	0x3da365b3	0.07978382
2	0xbe82238a	-0.2541774
3	0xbec7e6c0	-0.39043236
4	0x3e82b5b6	0.2552926
5	0x3dc23a5a	0.09483786
6	0xbd930ccd	-0.07180176
7	0x3c10e3a3	0.008843335
8	0xbe3d3e5d	-0.18480821
9	0x3e281205	0.16413124
10	0xbe92784c	-0.28607404
11	0xbdf06764	-0.1173847
12	0xbd8e52a5	-0.06949357
13	0xbe70fce2	-0.23533967
14	0x3e05d8cb	0.13070981
15	0x3e41ebcc	0.18937606
16	0x3df1cbd7	0.118064575
17	0x3defa77a	0.117018655
18	0x3e02bf3c	0.12768263
19	0x3d5ce8ca	0.053932942
20	0x3d914a44	0.07094243
21	0x3de3e8dd	0.111283995
22	0xbe0bdc38	-0.13658226
23	0x3cbf8f5f	0.023383794
24	0xbc24555c	-0.010030117
25	0x3b12ebd0	0.0022418387
26	0xbd2ec508	-0.042668372
27	0xbdbf62f7	-0.09345048
28	0xbea15051	-0.3150659
29	0xbe339665	-0.1753784
30	0x3e8d72cc	0.27626646
31	0xbe20049a	-0.15626755
32	0xbe30df90	-0.17272782
33	0xbd0b9bfa	-0.034084298
34	0x3cd48b63	0.025945371
35	0xbe24d9db	-0.1609873
36	0xbdb12330	-0.086492896
37	0xbe2cc5f4	-0.16872388
38	0x3e0661f4	0.13123304
39	0xbd94bd8b	-0.07262715
40	0xbdaa4468	-0.08313829
41	0x3e380089	0.17968954
42	0x3d00fcbe	0.031491034
43	0x3dff42fd	0.12463949
44	0xbcca6388	-0.024705663
45	0xbd8625e2	-0.06550194
46	0x3d8961be	0.06708096
47	0xbd3a2a20	-0.04545033
48	0xbd30fceb	-0.04320995
49	0x3da402e5	0.080083646
50	0xbc38f4b6	-0.011288812
51	0x3dd6433d	0.104620434
52	0x3c45ab7a	0.012064809
53	0x3c53ba27	0.0129228
54	0x3c2b8bfa	0.010470385
55	0xbc19c56a	-0.009385446
56	0x3d937ae7	0.07201176
57	0x3e3b9b43	0.18320946
58	0xbe0e3d88	-0.1389066
59	0xbe15a627	-0.14614163
60	0x3e9640e1	0.29346374
61	0x3e32ce80	0.17461586
62	0xbe00c862	-0.1257644
63	0x3d5b00e5	0.05346765
64	0xbe09bb45	-0.13450344
65	0x3e92df80	0.28686142
66	0xbe676f6a	-0.22601095
67	0xbdd12954	-0.10212961
68	0x3dcf968a	0.10136135
69	0xbdedbf6a	-0.11608775
70	0xbe1990f7	-0.14996706
71	0x3e333a56	0.17502722
72	0x3e4edf6b	0.20202415
73	0xbe189264	-0.14899594
74	0x3cf784b9	0.030214654
75	0xbd7702bd	-0.060305346
76	0xbe10f8df	-0.14157437
77	0xbd82c5c9	-0.06385381
78	0x3d9ea527	0.07746344
79	0x3cc3fc2b	0.023923954
80	0xbcaed74a	-0.021342892
81	0xbd6edec3	-0.05831791
82	0x3c6a9258	0.014317118
83	0xbdafd934	-0.0858635
84	0x3dbd7b9d	0.09252093
85	0x3d5a574e	0.053305916
86	0x3dc809b4	0.09767476
87	0xbecc67e0	-0.39923
88	0xbe27cb37	-0.16386114
89	0xbdf9ae6d	-0.12191472
90	0x3cbe72e1	0.023248138
91	0xbcfe29be	-0.031025764
92	0xbd37ae80	-0.04484415
93	0xbe6d00e9	-0.23144878
94	0x3a5f8ba0	0.00085275806
95	0x3e50e32b	0.20399158
96	0x3e958fee	0.29211372
97	0x3d2cec63	0.042217623
98	0x3d39293b	0.045205336
99	0x3d98d4bd	0.074624516
100	0xbc0f0e08	-0.008731373
101	0x3d198a9f	0.037485715
102	0x3e023d58	0.12718713
103	0xbe0fa3f9	-0.14027394
104	0x3b007e22	0.001960643
105	0xbe1315f1	-0.14363839
106	0x3e40a226	0.18811855
107	0xbe0121d5	-0.12610562
108	0x3df4596e	0.1193112
109	0xbd8c3c24	-0.068474084
110	0xbc1691bf	-0.009190022
111	0x3d696d28	0.056988865
112	0xbe984f4d	-0.29748002
113	0xbdfcfb89	-0.12352664
114	0x3e9c143c	0.30484188
115	0xbe448875	-0.19192679
116	0xbe2612e8	-0.1621815
117	0x3d93873c	0.07203528
118	0xbd28d0c7	-0.04121473
119	0x3de57dd9	0.11205644
120	0xbd81b973	-0.063342
121	0xbe317257	-0.17328773
122	0x3e24afe5	0.16082723
123	0x3dfdee43	0.123989604
124	0xbe585e51	-0.21129729
125	0xbd578613	-0.052618098
126	0x3e188c81	0.14897348
127	0xbab8c30e	-0.0014096217
128	0x3d0bbfa6	0.034118317
129	0xbd9f2806	-0.07771306
130	0xbda86028	-0.08221465
131	0x3cc2d648	0.023783818
132	0xba7717ab	-0.0009425829
133	0x3e0568bd	0.13028236
134	0x3df92f0f	0.12167179
135	0x3c0bedec	0.008540612
136	0xbd9231c9	-0.07138402
137	0xbd54d912	-0.051964827
138	0xbd27d7e4	-0.040977374
139	0x3be2e7b1	0.0069245924
140	0xbe7b7642	-0.2455683
141	0xbe3f59e0	-0.18686628
142	0xbd140ee0	-0.036147
143	0xbef62f4c	-0.4808296
144	0x3c281482	0.010258796
145	0x3df28eb3	0.11843624
146	0xbe410453	-0.18849306
147	0xbd4cff7d	-0.05004834
148	0x3ad2cfdf	0.0016083679
149	0x3d67b29d	0.056566823
150	0xbe0368f4	-0.12833005
151	0x3e82dfc6	0.2556135
152	0xbe207c49	-0.15672411
153	0xbe1338f8	-0.143772
154	0xbddc2d29	-0.10750801
155	0xbdc16b79	-0.09444327
156	0x3e525026	0.20538387
157	0xbbdac95d	-0.0066768364
158	0xbc5eb94b	-0.013593982
159	0x3e528654	0.20559055
160	0x3e5baf1f	0.21453522
161	0x3d419035	0.047256667
162	0xbc2a46b3	-0.010392833
163	0xbd5ff0c4	-0.05467297
164	0x39df8a5e	0.00042636966
165	0xbd5ad5d3	-0.053426575
166	0xbccad664	-0.024760433
167	0x3cdddab9	0.027081834
168	0xbdb1ad35	-0.08675615
169	0xbeb0fb48	-0.34566712
170	0xbbd5e476	-0.006527479
171	0xbe6175cc	-0.22017592
172	0xbe60e620	-0.21962786
173	0xbe688d59	-0.2271017
174	0x3de77a7c	0.11302659
175	0x3e887fdb	0.26660046
176	0xbe4ca0c4	-0.19983202
177	0xbeba44ce	-0.3638062
178	0x3e0e144c	0.1387493
179	0x3cf2db1f	0.0296455
180	0x3d381a84	0.044947162
181	0xbe143111	-0.14471842
182	0x3d1972ea	0.037463106
183	0x3e911d76	0.2834279
184	0xbd790262	-0.060793288
185	0xbd167234	-0.036730006
186	0x3e5bd24e	0.21466944
187	0x3e8d7d66	0.27634734
188	0x3e7f2e58	0.24920022
189	0xbd11c678	-0.035589665
190	0x3d8fab13	0.07015052
191	0x3df47100	0.119356155
192	0x3c6495a4	0.013951693
193	0xbdbf1020	-0.093292475
194	0xba86fd4e	-0.0010298879
195	0x3d06af21	0.03288186
196	0x3cd43b01	0.025907042
197	0xbc538a4a	-0.012911389
198	0xbe00c500	-0.1257515
199	0xbb214f88	-0.0024614055
200	0x3daccc1f	0.084373705
201	0x3d95f121	0.07321382
202	0xbe4d93d8	-0.20075929
203	0x3e40b8b7	0.18820463
204	0xbc9bcb32	-0.01901779
205	0x3e1124c5	0.14174183
206	0x3dd83ddf	0.10558676
207	0x3ca41c19	0.02003293
208	0x3e2b9dad	0.16759367
209	0xbe241425	-0.1602331
210	0x3de5050a	0.11182602
211	0x3de89c98	0.11357993
212	0x3d803f9b	0.06262132
213	0xbe04c1cc	-0.12964553
214	0xbe3449a8	-0.17606223
215	0x3d8d02ef	0.06885325
216	0x3dedd155	0.116121925
217	0xbd663f2c	-0.05621259
218	0x3d84274b	0.06452807
219	0xbd770caa	-0.06031481
220	0xbd3e6043	-0.04647852
221	0x3d0cc7ac	0.03437011
222	0xbc0ae0b9	-0.00847643
223	0x3d5fd086	0.054642223
224	0xbd923bcb	-0.07140311
225	0x3d67b661	0.056570414
226	0xbc3abb73	-0.01139723
227	0x3b5ed8e4	0.0034003789
228	0xbcf82e74	-0.030295588
229	0xbe431310	-0.1905024
230	0xbe1c05e9	-0.1523663
231	0x3da81db7	0.08208793
232	0x3cdd561a	0.027018595
233	0x3c019a4d	0.007910323
234	0xbd8533e5	-0.06504039
235	0x3e001bd8	0.12510622
236	0x3dd15771	0.10221756
237	0x3e1eac30	0.15495372
238	0xbd1d9b98	-0.038478464
239	0xbe21a275	-0.15784629
240	0x3df50851	0.11964477
241	0xbe3224e0	-0.17396879
242	0x3c58b41c	0.013226535
243	0xbe2e43ea	-0.17018095
244	0x3e141a66	0.14463195
245	0xbe217a66	-0.15769348
246	0x3cc98b08	0.024602428
247	0x3d3f1d98	0.046659082
248	0x3e08dc73	0.13365345
249	0x3e011c78	0.12608516
250	0x3e19a950	0.15005994
251	0xbd328102	-0.043580063
252	0x3b557af6	0.003257451
253	0xbca1d1f0	-0.019753426
254	0x3e1b576e	0.1517007
255	0x3e21c57e	0.15797994

l1.bias f4 [400]
0	0xbcbb4d44	-0.022863992
1	0x3e09633f	0.13416766
2	0x3e366270	0.17810988
3	0x3ddbf62c	0.10740313
4	0x3db19a70	0.08672035
5	0x3df7aea7	0.12093859
6	0x3d1ba054	0.037994698
7	0xbb4f1c08	-0.0031602401
8	0xbe068098	-0.13134992
9	0xbe5f93b4	-0.21833688
10	0x3e95be7c	0.2924689
11	0xbe274db2	-0.16338232
12	0xbe1a8569	-0.15089954
13	0x3e2810a4	0.16412598
14	0x3e476b46	0.19474515
15	0x3e35dedf	0.177608
16	0xbe18874c	-0.14895362
17	0x3d5dabcc	0.054118916
18	0xbdc43ee4	-0.09582308
19	0xbde13d4d	-0.1099802
20	0xbe16946a	-0.14705053
21	0xbdc6e05e	-0.097107634
22	0x3e8e9473	0.27847633
23	0x3e8ab4a6	0.2709095
24	0xbdd03214	-0.10165802
25	0x3e83e5b6	0.25761193
26	0xbdef5092	-0.116852894
27	0x3e457d20	0.19286013
28	0x3d9c3660	0.07627559
29	0x3e07479a	0.13210908
30	0xbe5870cd	-0.2113678
31	0x3db3be60	0.087765455
32	0xbe0ae65d	-0.13564439
33	0xbdfa9298	-0.12234992
34	0x3e212c75	0.15739615
35	0x3e3a579f	0.18197487
36	0x3c951593	0.018198764
37	0x3dd83df8	0.105586946
38	0x3e1e6d92	0.15471485
39	0x3c849632	0.0161849
40	0x3e913c61	0.28366378
41	0xbd40adc9	-0.047040734
42	0x3e15cdd3	0.14629297
43	0x3dd9339a	0.10605545
44	0x3c6b7d94	0.014373202
45	0x3bceb8d4	0.0063086543
46	0xbda67e2a	-0.08129533
47	0x3e7c1282	0.24616435
48	0xbe0b19c2	-0.13584045
49	0xbdb94cd8	-0.0904786
50	0x3b3412ba	0.0027476982
51	0xbdbb015b	-0.09131118
52	0xbc95d2c0	-0.01828897
53	0xbe461ad3	-0.1934617
54	0x3dd5dfc4	0.104430705
55	0xbde346bf	-0.11097478
56	0x3e73d13f	0.2381029
57	0xbcc22beb	-0.023702582
58	0x3d95ece4	0.07320574
59	0xbe2e93c7	-0.1704856
60	0x3d245e0b	0.04012875
61	0x3e28e217	0.16492496
62	0xbdd32144	-0.10309079
63	0xbc106f09	-0.008815535
64	0x3d5a1d06	0.053250335
65	0xbe312475	-0.17299064
66	0x3e08cab7	0.1335858
67	0xbe020e22	-0.12700704
68	0xbd9fadbe	-0.077968106
69	0x3d0e2689	0.03470472
70	0x3e0a6913	0.13516645
71	0x3db15f03	0.086607
72	0xbd335cbf	-0.04378962
73	0xbd9c2925	-0.07625035
74	0x3c561458	0.013066374
75	0xbe27ddf8	-0.16393268
76	0xbda6afce	-0.08139001
77	0xbe134974	-0.14383489
78	0x3e31183d	0.17294402
79	0xbd5cc3eb	-0.05389778
80	0xbde0d338	-0.10977787
81	0xbb2e9612	-0.0026639742
82	0x3e49b5a1	0.19698192
83	0x3d558ca0	0.052136064
84	0x3e783dfc	0.24242395
85	0x3d27cc1a	0.04096613
86	0xbda44948	-0.0802179
87	0x3d502153	0.05081303
88	0xbc637385	-0.0138825225
89	0xbde63d85	-0.11242203
90	0x3c8b8947	0.017033232
91	0xbc9b2463	-0.018938249
92	0xbdee86c5	-0.11646799
93	0x3db374e2	0.08762528
94	0x3c4c6020	0.01247409
95	0x3cdf53ea	0.027261693
96	0x3dbf8679	0.093518205
97	0x3e4970bf	0.19671915
98	0xbe2561ac	-0.1615054
99	0xbbee3ec2	-0.007270665
100	0xbdbd6840	-0.092484
101	0xbe40db96	-0.18833765
102	0xbe4c7edc	-0.19970268
103	0xbc75625e	-0.014977066
104	0xbe29576c	-0.16537255
105	0xbd34add3	-0.044111084
106	0xbe3737b8	-0.17892349
107	0x3d3f8f0a	0.046767272
108	0x3d885f55	0.06658808
109	0x3e4a21d9	0.19739474
110	0x3e1884d7	0.14894424
111	0xbc749886	-0.014928943
112	0xbd059ef0	-0.032622278
113	0xbbeaf200	-0.007169962
114	0x3e2cb7a3	0.16866927
115	0x3e817ac5	0.25288978
116	0x3e88b3da	0.26699716
117	0x3e4a40bb	0.19751255
118	0xbd0f21da	-0.034944393
119	0x3dc48cf1	0.09597195
120	0x3e4116cf	0.18856357
121	0x3de81352	0.1133181
122	0x3c8c3daf	0.017119257
123	0xbddee4d2	-0.10883488
124	0xbe623922	-0.22092107
125	0x3e28ef1a	0.1649746
126	0xbde31730	-0.11088407
127	0xbdf50d33	-0.11965408
128	0xbd51a26a	-0.05118028
129	0x3dc34547	0.09534698
130	0x3e7a5b9e	0.24449012
131	0x3d3b6553	0.045750927
132	0xbadb356a	-0.0016724293
133	0x3d7174ef	0.058949407
134	0x3d81f2af	0.06345116
135	0xbd908984	-0.07057479
136	0x3de54846	0.11195426
137	0x3e8a2b3e	0.26986116
138	0x3c4c9b05	0.012488131
139	0xbb94cb33	-0.004540825
140	0xbe651984	-0.22373015
141	0x3d6640ce	0.056214146
142	0x3d1ea482	0.038731106
143	0x3d28fcb3	0.041256618
144	0x3e3b0ec9	0.18267359
145	0x3e1146e5	0.141872
146	0x3e33958b	0.17537515
147	0xbda3c718	-0.079969585
148	0x3e2e2584	0.17006499
149	0xbc84ac5a	-0.016195465
150	0xbe097baf	-0.13426088
151	0x3e4c5d79	0.19957532
152	0x3c285011	0.010272996
153	0xbd47fc87	-0.048824813
154	0xbcebf6f5	-0.028804282
155	0xbe1319de	-0.14365336
156	0x3c687a3c	0.014189299
157	0x3d796aca	0.060892858
158	0x3e48ef83	0.19622616
159	0xbdf79617	-0.12089174
160	0x3db15a24	0.08659771
161	0x3df79776	0.12089436
162	0xbde45824	-0.11149624
163	0x3e49ec7e	0.19719121
164	0xbc77489b	-0.015092994
165	0xbe04a153	-0.12952165
166	0xbd1a8c75	-0.037731607
167	0xbc490f52	-0.012271719
168	0xbe2c337e	-0.16816518
169	0xbba836ea	-0.0051334994
170	0xbe223b8b	-0.15843026
171	0x3e0d19f7	0.13779436
172	0xbe1f1f19	-0.15539207
173	0xbda74ba9	-0.08168728
174	0xbc6cc58b	-0.014451395
175	0xbd848617	-0.06470888
176	0x3cf98423	0.030458516
177	0x3c1e30c5	0.009655182
178	0x3d0c210d	0.034211207
179	0xbdba804c	-0.09106502
180	0x3e64a660	0.22329092
181	0x3e3284d1	0.17433478
182	0xbe04d27d	-0.1297092
183	0x3c8720a1	0.01649505
184	0xbdaf2641	-0.08552218
185	0xbd4cb860	-0.04998052
186	0xbdedfefb	-0.11620899
187	0xbce1b4bb	-0.027552
188	0x3dca6709	0.09882934
189	0xbdc4537b	-0.09586235
190	0x3e67417f	0.22583579
191	0xbda668ae	-0.08125435
192	0xbd275ebf	-0.04086184
193	0x3d693f6c	0.05694525
194	0xbd882284	-0.06647208
195	0xbd0f2a43	-0.034952413
196	0x3e543b13	0.2072566
197	0xbe2f9bb4	-0.1714924
198	0xbdd5f625	-0.10447339
199	0x3deae11c	0.114687175
200	0x3e36c378	0.17848003
201	0x3e84b145	0.25916496
202	0x3e40f775	0.18844397
203	0x3d9fc088	0.07800394
204	0xbdf8be90	-0.12145722
205	0xbd6ee9d7	-0.058328476
206	0xbe488dac	-0.19585294
207	0x3da50986	0.08058457
208	0x3e098df8	0.13433063
209	0x3e2ba9b7	0.1676396
210	0xbdebae2d	-0.11507831
211	0xbe34e208	-0.17664349
212	0xbe04498c	-0.12918681
213	0x3e6de97f	0.23233603
214	0x3df77876	0.12083523
215	0x3daf3bd2	0.08556332
216	0x3e00f053	0.12591676
217	0x3cf20713	0.029544389
218	0x3e7d2ba9	0.24723686
219	0x3e846ad7	0.25862762
220	0xbe0171b2	-0.12641028
221	0x3e00d755	0.12582143
222	0xbe17c51f	-0.1482129
223	0x3e473982	0.19455531
224	0x3ccb3db2	0.024809692
225	0x3d64fa3b	0.0559027
226	0x3e9d0ac7	0.30672285
227	0xbdf80c20	-0.12111688
228	0x3e6a620b	0.22888963
229	0x3c3d137b	0.011540289
230	0x3e5e6d64	0.21721417
231	0x3d829a95	0.063771404
232	0xbd7f6464	-0.0623516
233	0x3e25e021	0.1619878
234	0xbc06b5b4	-0.008222032
235	0xbd791566	-0.060811423
236	0x3e83efe8	0.2576897
237	0x3d8053c1	0.06265975
238	0x3d79cb69	0.060985003
239	0xbd2bfce3	-0.04198922
240	0xbe1070b2	-0.1410549
241	0x3e0f878f	0.14016555
242	0x3c300b6e	0.010744913
243	0x3cc5c378	0.024141058
244	0x3cbc5fd2	0.02299491
245	0x3e4ed141	0.20197012
246	0xbd129ffb	-0.0357971
247	0xbe05de46	-0.13073072
248	0x3e48390a	0.19553009
249	0x3d996e6d	0.07491765
250	0x3e667404	0.22505194
251	0x3e34161d	0.1758656
252	0xbdc30c70	-0.09523857
253	0xbcd103c9	-0.0255145
254	0x3e198f28	0.14996016
255	0x3e2161ac	0.15759915

l2.weight f4 [300, 400]
0	0x3dd27176	0.10275547
1	0x3e491175	0.19635566
2	0x3cfb3116	0.030663054
3	0x3d51a93b	0.05118678
4	0x3e01a2e3	0.12659793
5	0x3d249189	0.040177856
6	0x3e4992c9	0.196849
7	0x3d3a610f	0.04550272
8	0xbd7dd4eb	-0.061970633
9	0x3c7a6ae2	0.015284272
10	0x3e08b49d	0.13350148
11	0x3daed30a	0.08536346
12	0x3d0c27a8	0.034217507
13	0xbd5c35e0	-0.053762317
14	0x3de8ef3b	0.113737546
15	0xbdbc4a15	-0.091938175
16	0x3c80f342	0.015740994
17	0x3d31b7c3	0.04338814
18	0xbc23e4c2	-0.010003271
19	0x3dc34a62	0.09535672
20	0xbcab5c4e	-0.020918038
21	0xbd1d27c9	-0.03836802
22	0x3d04ed9b	0.03245316
23	0x3dd14e2f	0.102199905
24	0xbc2b9bc3	-0.010474148
25	0x3df235ee	0.118266925
26	0x3e0fb488	0.14033711
27	0x3df4d869	0.119553395
28	0x3d189ba6	0.037257813
29	0x3cca67bd	0.02470767
30	0x3bb77460	0.00559859
31	0x3db0eddf	0.0863912
32	0x3cdd1767	0.026988698
33	0xbc407f1c	-0.011749055
34	0x3c8c792d	0.017147625
35	0x3db8f738	0.09031528
36	0x3cb555a3	0.022135561
37	0x3e44a7a6	0.19204578
38	0x3d6c47b8	0.057685584
39	0xbc0c3163	-0.008556697
40	0x3df5bc74	0.11998835
41	0x3c8a719a	0.016899873
42	0x3db3e43c	0.087837666
43	0x3d548f86	0.051894687
44	0xbcc26bfc	-0.023733132
45	0xbc3aadcc	-0.0113939755
46	0x3cf6264b	0.030047556
47	0x3e1df3bf	0.15425013
48	0x3c4b7711	0.012418524
49	0x3c9a5e5e	0.018843826
50	0x3d553b7b	0.052058678
51	0x3d5c71b7	0.053819384
52	0x3db1fc60	0.08690715
53	0x3dbcfb5d	0.09227631
54	0x3dbd5bb9	0.0924601
55	0x3dcb5469	0.09928209
56	0x3d9835de	0.07432149
57	0x3d73fc5a	0.059566833
58	0x3dba1321	0.0908568
59	0x3bb99ed2	0.005664685
60	0xbcf176bb	-0.02947556
61	0x3c9e4901	0.01932192
62	0x3d206710	0.039160788
63	0xbd01d9ef	-0.03170198
64	0x3d9f05eb	0.07764801
65	0x3c9a379f	0.01882535
66	0xbca1cc09	-0.019750612
67	0xbd1e69a7	-0.038674977
68	0x3d3a8eba	0.04554627
69	0x3cf18a0d	0.029484773
70	0x3dc3fead	0.0957006
71	0x3c0d1437	0.008610777
72	0x3d6508ec	0.05591671
73	0x3d4f7f6e	0.050658636
74	0x3e1b2c60	0.15153646
75	0x3c634aa0	0.013872772
76	0x3d2dcd39	0.042432044
77	0xbc96f6a5	-0.018428156
78	0x3e14f769	0.14547504
79	0xbb99abe6	-0.0046896813
80	0x3cd8eb79	0.02647947
81	0x3dedd2d2	0.116124764
82	0xbb864a0e	-0.0040981835
83	0x3b2a5858	0.0025992598
84	0x3e1deae2	0.15421632
85	0x3cc21a74	0.023694254
86	0xbd55648a	-0.052097835
87	0x3e2c4461	0.1682296
88	0x3d33cd6e	0.043897085
89	0xbd092781	-0.03348494
90	0x3e122cd5	0.14274915
91	0x3df34d12	0.11879934
92	0x3d4bcdf1	0.049756948
93	0x3e1b834b	0.15186803
94	0x3d5ee989	0.054421935
95	0x3cea12e5	0.028573463
96	0x3d91e3c4	0.07123521
97	0x3d4357fd	0.047691334
98	0x3c43bbce	0.011946632
99	0xbd3ebea9	-0.046568546
100	0x3d5e8b22	0.054331906
101	0x3d9d8663	0.07691648
102	0xbd4f5294	-0.050615862
103	0xbd955661	-0.07291866
104	0x3c559422	0.013035806
105	0xbcc4378e	-0.023952272
106	0x39b24e80	0.00034009293
107	0x3de3659a	0.11103363
108	0x3e03ef8b	0.12884347
109	0x3ce3a183	0.027786976
110	0xbca0e586	-0.019640695
111	0x3def4084	0.11682227
112	0x3cad5748	0.021159783
113	0x3d0361b9	0.032075617
114	0x3c5b18f0	0.013372645
115	0x3ded5e98	0.11590308
116	0x3cf44fae	0.02982315
117	0x3d7df4a8	0.0620009
118	0x3e1d395a	0.15353909
119	0x3e21f8bf	0.15817545
120	0x3d9f7aa3	0.07787063
121	0x3e3b0ccd	0.18266602
122	0x3d962b7b	0.07332512
123	0x3d34f1fe	0.044176094
124	0x3c38ee07	0.011287219
125	0x3db74451	0.08948577
126	0xbdb270ff	-0.087129585
127	0xbb96fab0	-0.004607521
128	0x3d3888a7	0.045052197
129	0xbd418c48	-0.047252923
130	0x3dc9214c	0.09820804
131	0x3d61d736	0.05513688
132	0x3d7fe91a	0.062478162
133	0x3d32eed0	0.04368478
134	0x3d4c36e6	0.049857043
135	0x3d387d17	0.04504117
136	0x3da5350b	0.08066758
137	0x3daac76c	0.08338818
138	0x3c7e631c	0.015526559
139	0x3c4b0539	0.012391382
140	0x3cb696c9	0.022288697
141	0xbc9f8727	-0.019473625
142	0xbbd7b9da	-0.0065834345
143	0xbd3d86c1	-0.04627109
144	0x3e0aa257	0.1353849
145	0x3dceec13	0.10103621
146	0x3e27837f	0.16358756
147	0x3dc96a7f	0.09834766
148	0x3df9829e	0.121831164
149	0xbc8e58ad	-0.017376268
150	0xbd105873	-0.0352406
151	0xbc299495	-0.010350366
152	0x3da97757	0.082747154
153	0x3c602646	0.013681
154	0xbc71eb89	-0.014765629
155	0x3d079b7a	0.03310726
156	0x3e1f56c0	0.15560436
157	0x3db4748c	0.08811292
158	0x3dbdd96b	0.09269985
159	0xbdcef7eb	-0.1010588
160	0xbafa4b5a	-0.0019095943
161	0xbd4853c6	-0.048908018
162	0x3da7ae4c	0.08187541
163	0x3e25ba67	0.16184388
164	0x3cc47fbb	0.023986688
165	0x3d83ded2	0.06438984
166	0x3cc5293b	0.024067512
167	0x3dd7d1ca	0.10538061
168	0x3dac9df3	0.08428564
169	0x3cf819e8	0.03028579
170	0x3c3d233b	0.011544044
171	0x3d694aa8	0.056955963
172	0xbc0537b9	-0.008130961
173	0xbd6e9bb5	-0.058253963
174	0x3dbec3f1	0.093147166
175	0x3e3806ff	0.17971419
176	0xbd8e2d9f	-0.06942295
177	0x3cde2a86	0.027119886
178	0x3cf3ae02	0.02974606
179	0x3b709328	0.0036708806
180	0x3c868803	0.016422277
181	0x3e25ef49	0.16204561
182	0x3c88f0df	0.016716419
183	0x3e06ae8a	0.13152519
184	0xbd3c48eb	-0.045967977
185	0xba8e4d2b	-0.0010856738
186	0x3d993f05	0.07482723
187	0x3db9a108	0.090639174
188	0x3d165922	0.036706097
189	0xbe0fffb3	-0.14062385
190	0x3cb2e7ae	0.02183899
191	0x3d46bcc7	0.048519876
192	0x3ba034fc	0.0048891287
193	0x3debf618	0.11521548
194	0x3d103f5f	0.035216685
195	0x3db2cad3	0.08730092
196	0x3d50922d	0.050920654
197	0x3d655e99	0.05599842
198	0x3d42055d	0.047368396
199	0x3da12b99	0.07869644
200	0x3dde0c59	0.10842199
201	0x3d2d1805	0.042259235
202	0x3dcb2548	0.0991922
203	0x3dc8af99	0.097991176
204	0x3d67b4ec	0.056569025
205	0x3dd9e2c9	0.10638959
206	0x3ce413af	0.027841417
207	0xbd3da2af	-0.046297725
208	0x3d94726c	0.07248387
209	0x3d13e7e6	0.036109827
210	0x3db5f291	0.088841565
211	0xbc80c922	-0.015720908
212	0xbd4ac0bf	-0.049500223
213	0x3db649ee	0.0890082
214	0x3e2141a3	0.15747695
215	0x3dd6527d	0.10464952
216	0x3dd0f196	0.10202329
217	0x3e0347ce	0.1282036
218	0x3d7c8789	0.061652694
219	0x3d97d347	0.07413345
220	0xbc52f1e0	-0.01287505
221	0xbc26143c	-0.01013666
222	0xbe04d047	-0.12970077
223	0x3d645711	0.055747095
224	0x3dfa355d	0.122172095
225	0x3d2fe268	0.042940527
226	0x3db6ccbf	0.08925771
227	0xbc1fc972	-0.009752618
228	0xbb974bdd	-0.004617198
229	0xbdf893c9	-0.12137563
230	0x3dc17abb	0.09447237
231	0xbca3fb09	-0.020017164
232	0x3dcf212f	0.10113751
233	0x3e181ed7	0.14855514
234	0xbcfe1b57	-0.031018896
235	0x3d24f95a	0.040276863
236	0x3dc7789a	0.097398
237	0x3c87d695	0.016581813
238	0x3d12888a	0.035774745
239	0x3dabdac3	0.08391335
240	0x3d76b856	0.06023439
241	0xbc044752	-0.008073645
242	0xbd4e7223	-0.050401818
243	0x3df637d1	0.12022365
244	0x3cdda20b	0.027054807
245	0xbd28940c	-0.041156814
246	0x3d839a27	0.064258866
247	0x3d649dd4	0.05581458
248	0x3c029543	0.007970157
249	0x3e0f75aa	0.14009729
250	0x3cd7ed01	0.02635813
251	0x3dda4561	0.10657764
252	0x3ce3d509	0.027811544
253	0xbd14bd31	-0.03631324
254	0x3db627a7	0.08894282
255	0x3e156382	0.1458874

l2.bias f4 [300]
0	0x3d93dccd	0.07219849
1	0x3ca49fb1	0.020095678
2	0x3c02bdb5	0.0079798
3	0xbd31d3bf	-0.043414827
4	0x3c86f033	0.016471958
5	0x3e2ac1f7	0.16675554
6	0x3e0f95c2	0.14021972
7	0xbd2ae728	-0.041724354
8	0x3e237e67	0.15966187
9	0xbc17b4db	-0.009259428
10	0x3e38abcf	0.1803429
11	0x3e3b8aba	0.18314639
12	0x3dfe02e4	0.12402895
13	0x3dc605a6	0.09669046
14	0xbcaf862a	-0.02142628
15	0x3d8d3831	0.06895483
16	0xbd3c4959	-0.045968387
17	0x3cdc8452	0.026918564
18	0xbca03b77	-0.019559605
19	0x3dab8ded	0.083766796
20	0xbd7740c9	-0.06036452
21	0x3cc39ac2	0.023877505
22	0xbbbb949e	-0.0057245037
23	0xbca8c82f	-0.020603267
24	0x3d17cce6	0.03706064
25	0xbd0612a2	-0.032732613
26	0x3cf1ce44	0.0295173
27	0x3de1222c	0.10992846
28	0x3dd39045	0.103302516
29	0x3dfebb29	0.12438042
30	0x3b84592a	0.0040389495
31	0x3de89275	0.113560595
32	0xbd51b778	-0.05120036
33	0x3d20435c	0.03912674
34	0x3da8b22e	0.0823711
35	0x3e1200ce	0.1425812
36	0x3e5a273c	0.21304029
37	0x3b908bbb	0.0044111884
38	0x3e245ec2	0.16051772
39	0xbc54c7e6	-0.012987113
40	0x3e1b9059	0.15191783
41	0x3e26018e	0.1621153
42	0xbd05c59e	-0.032659166
43	0x3da7a360	0.08185458
44	0x3dcf3377	0.10117238
45	0x3de36f42	0.11105205
46	0x3e36569a	0.17806473
47	0xbd91b7a6	-0.07115106
48	0x3d13e0ae	0.036102943
49	0xbbb96a16	-0.0056583984
50	0xbaeb1a79	-0.0017936967
51	0xbbaa683e	-0.005200415
52	0x3e1f43aa	0.15553156
53	0x3e380b26	0.17973003
54	0x3e4523b9	0.19251908
55	0xbd06e126	-0.032929562
56	0xbd30ab5e	-0.04313218
57	0xbc9d9461	-0.019235792
58	0xbca8cff6	-0.020606976
59	0x3c263a22	0.010145696
60	0x3d94ffc7	0.07275348
61	0xbb0c523a	-0.0021411316
62	0x3dd967cf	0.10615503
63	0xbd27e94e	-0.04099398
64	0xbd4a84cb	-0.049443047
65	0xbcbe8380	-0.023256063
66	0x3cf74966	0.030186366
67	0x3e20f68c	0.1571905
68	0xbbd80dee	-0.0065934574
69	0x3d366f9d	0.044540036
70	0xbcaf693c	-0.021412484
71	0x3c4d7882	0.012540938
72	0xbc943e36	-0.01809607
73	0xbd98bad0	-0.07457507
74	0xbc2474b3	-0.010037589
75	0x3e1afa11	0.15134455
76	0x3e1c83d0	0.15284657
77	0xbd095e76	-0.03353735
78	0x3e081fe1	0.13293411
79	0x3ddb7f27	0.10717612
80	0xbc8cff17	-0.01721148
81	0x3c3e4e72	0.0116153825
82	0x3dcfe01f	0.101501696
83	0x3b548a3a	0.0032431022
84	0x3c9b6dd4	0.018973269
85	0x3e11f313	0.14252882
86	0x3e3b3d61	0.18285133
87	0x3c9b0510	0.018923312
88	0x3bf9a940	0.007619053
89	0x3e2f7377	0.1713389
90	0x3df8b7c7	0.12144428
91	0x3e35c3e5	0.17750509
92	0xbc0c68f1	-0.008569942
93	0xbd789054	-0.060684517
94	0x3c719335	0.01474457
95	0x3e2fda61	0.17173149
96	0xbbf346c6	-0.0074242083
97	0xbcfff9b0	-0.03124699
98	0x3c612226	0.013741052
99	0xbd30cab9	-0.04316208
100	0x3b036efe	0.002005517
101	0x3e16fdf7	0.14745317
102	0xbb2e775e	-0.0026621441
103	0x3c90c1a3	0.017670458
104	0xbd9c0c9b	-0.07619592
105	0x3e287f24	0.1645475
106	0xbc11a378	-0.008889072
107	0xbd0a6d44	-0.03379561
108	0x3db37b32	0.08763732
109	0xbd5e7bdd	-0.054317344
110	0x3d712bbc	0.0588796
111	0x3e2124aa	0.15736642
112	0x3e634d27	0.221974
113	0xbd00f2af	-0.03148144
114	0xbcfcfa85	-0.030881176
115	0xbe201fa7	-0.15637074
116	0x3bd87019	0.00660516
117	0x3e2c82e0	0.168468
118	0x3e1ef30f	0.15522407
119	0x3c098dc5	0.008395617
120	0x3df639fc	0.120227784
121	0xbbff7adb	-0.007796628
122	0xbc5ebc8f	-0.013594761
123	0x3bf74281	0.0075457697
124	0xbd013c74	-0.031551793
125	0x3dce0dea	0.10061248
126	0x3da28905	0.07936291
127	0x3dea13d8	0.11429566
128	0xbc415559	-0.011800134
129	0x3e3506bf	0.17678355
130	0x3bf5a77f	0.0074967737
131	0x3e24a1c7	0.16077338
132	0x3cde3d42	0.02712882
133	0xbbc05425	-0.005869406
134	0x3dbb0d79	0.09133429
135	0xbc0b3cc9	-0.008498379
136	0x3e2da9e1	0.16959335
137	0x3ce11678	0.027476534
138	0xbbb81011	-0.0056171496
139	0x3c985ca3	0.01859886
140	0xbc6f9136	-0.014622023
141	0x3cc35c80	0.023847818
142	0x3df7fefe	0.12109183
143	0xbbf1c1a8	-0.007377822
144	0x3d19a250	0.03750831
145	0x3dc20f4e	0.094755754
146	0xbcbf7703	-0.023372179
147	0xbc76b220	-0.015057117
148	0x3e0c9261	0.13727714
149	0xbcbfc918	-0.023411319
150	0x3de17660	0.11008906
151	0xbc4c8ac7	-0.012484259
152	0x3ddc99c4	0.10771516
153	0x3d0501e7	0.032472517
154	0xbd78d9bd	-0.060754526
155	0x3d6f2b0c	0.058390662
156	0x3e27d469	0.16389622
157	0xbd654566	-0.055974387
158	0x3e1ac704	0.15114981
159	0x3b98cbaf	0.004662953
160	0x3cea5ebf	0.028609632
161	0x3c16aab5	0.009195973
162	0x3e259a18	0.16172063
163	0x3d6b821b	0.057497125
164	0x3ca8e908	0.02061893
165	0x3deb4ee5	0.11489657
166	0xbc376f34	-0.0111959465
167	0xbd4dc5e2	-0.050237544
168	0xbdde0317	-0.10840433
169	0x3cf1cc8d	0.029516483
170	0x3d0a8b84	0.03382446
171	0x3d0d9565	0.0345663
172	0x3dcfb8c4	0.10142663
173	0x3b20a656	0.0024513206
174	0x3e19aeae	0.15008041
175	0xbcf800a3	-0.030273741
176	0xbd18ae5b	-0.037275653
177	0x3d51a3b5	0.051181514
178	0x3c65c759	0.014024579
179	0x3d643e94	0.05572374
180	0x3dcfd694	0.101483494
181	0x3c04290b	0.008066426
182	0x3d1d4903	0.038399708
183	0xbc9152d0	-0.017739683
184	0xbd068ce2	-0.0328492
185	0xbdb69d4e	-0.08916722
186	0x3c425a99	0.0118624205
187	0x3bd63e15	0.0065381625
188	0x3cabd82d	0.020977104
189	0xbbd15025	-0.006387728
190	0x3cf38c60	0.029730022
191	0x3cfd4966	0.030918788
192	0x3e136f8c	0.1439802
193	0xbcfa7b75	-0.030576447
194	0x3e0dd673	0.13851337
195	0x3d619a21	0.05507863
196	0x3c2d5efd	0.010581729
197	0xbb0b3050	-0.0021238513
198	0xbcb99ef9	-0.022658812
199	0xbd3425b2	-0.04398126
200	0xbd843407	-0.06455236
201	0x3e3a5bf4	0.1819914
202	0xbd1c0fcc	-0.038101003
203	0x3dc54e3c	0.09634063
204	0xbca39935	-0.019970516
205	0xbcbb4861	-0.022861661
206	0xbd04b2c7	-0.032397058
207	0x3ca49201	0.020089151
208	0x3df519c0	0.11967802
209	0x3e2fd063	0.17169337
210	0x3de47e14	0.1115686
211	0xbbd6b73f	-0.0065526064
212	0x3d119a0a	0.035547294
213	0x3df15200	0.117832184
214	0xbd8cd722	-0.06876971
215	0xbd5aacdc	-0.053387508
216	0x3e100bad	0.14066954
217	0xbd5f4d07	-0.05451682
218	0x3d98cbc3	0.074607395
219	0xbc929cdf	-0.017897068
220	0x3db4af38	0.08822483
221	0x3e26676a	0.16250387
222	0x3e32c627	0.17458402
223	0x3e3a620d	0.18201466
224	0xbb94eeb7	-0.0045450586
225	0x3c28b178	0.010296218
226	0xbc89e8d7	-0.01683466
227	0x3ce7628a	0.02824523
228	0xbd6ff8b0	-0.058586776
229	0x3cdac2f1	0.026704283
230	0x3dd63d30	0.10460889
231	0x3d622cfe	0.05521869
232	0x3cb11ff7	0.021621687
233	0x3dfb1c80	0.12261295
234	0xbd090527	-0.03345218
235	0x3e195caa	0.14976755
236	0x3d04213e	0.032258265
237	0xbd8a30b5	-0.067475714
238	0x3dd511ec	0.10403809
239	0x3c6be279	0.014397257
240	0x3d4dde63	0.050260913
241	0x3c338ac8	0.010958381
242	0xbbe9397e	-0.0071174493
243	0xbd1e79fc	-0.038690552
244	0x3c5c3889	0.013441213
245	0x3c768836	0.015047124
246	0xbd5944ec	-0.053044245
247	0x3c1b7881	0.00948918
248	0xbc5f5838	-0.013631873
249	0x3ca093e2	0.019601766
250	0xbd371769	-0.04470006
251	0x3cd95237	0.02652846
252	0x3e1753cf	0.14778064
253	0xbc7a158e	-0.015263928
254	0x3e18973e	0.14901444
255	0xbd1c8d63	-0.038220774

l3.weight f4 [1, 300]
0	0xbdcbb023	-0.09945705
1	0x3cd8a3f0	0.026445359
2	0x3c57fb02	0.0131824035
3	0xbc1f6565	-0.009728764
4	0x3d21c5ea	0.039495386
5	0xbdf85c71	-0.12127007
6	0xbdde7d0d	-0.10863695
7	0x3bda5225	0.0066626244
8	0xbdcb244f	-0.09919035
9	0x3c1db795	0.009626289
10	0xbddfcb6a	-0.1092747
11	0xbe42319a	-0.18964234
12	0xbe12e23c	-0.14344114
13	0xbde5fd0b	-0.11229905
14	0xbbfb5db3	-0.007671082
15	0xbd8717fe	-0.06596373
16	0x3cbadecb	0.022811314
17	0x3b04c143	0.0020256795
18	0x3c4650d8	0.012104236
19	0xbdefbb1a	-0.11705609
20	0x3cfcdc6f	0.03086683
21	0x3ccdd706	0.025126945
22	0x3b4ca726	0.0031227558
23	0xbc9be601	-0.019030573
24	0x3d198ed3	0.037489723
25	0xbc6510b1	-0.01398103
26	0x3c6865d0	0.01418443
27	0xbdd97303	-0.1061764
28	0xbe01298c	-0.12613505
29	0xbdc2c192	-0.09509577
30	0x3c12cff0	0.008960709
31	0xbdfe816c	-0.12427029
32	0xbccd4baa	-0.025060493
33	0x3a4250da	0.00074125605
34	0xbe2b6b12	-0.16740063
35	0xbe0d64fc	-0.13808054
36	0xbe141751	-0.1446202
37	0xbb755d44	-0.0037439624
38	0xbe159f38	-0.14611518
39	0xbd177e1d	-0.036985505
40	0xbe1134ba	-0.1418027
41	0xbe00dd8e	-0.12584516
42	0xbd0423b8	-0.032260627
43	0xbdb01eec	-0.08599648
44	0xbdf63c60	-0.12023234
45	0xbdcbecd6	-0.09957282
46	0xbdcfc4d5	-0.101449646
47	0xbc21dd67	-0.009879447
48	0xbd8b92a7	-0.06815081
49	0xbc06c29e	-0.008225111
50	0x3d3994d4	0.04530795
51	0x3c12ad02	0.008952381
52	0xbdc58938	-0.09645313
53	0xbe12d9c9	-0.14340891
54	0xbe08542a	-0.13313356
55	0xbb576168	-0.0032864455
56	0x3cac3fc6	0.021026503
57	0x3d0fc0eb	0.03509609
58	0xbca78141	-0.020447375
59	0xbc5bb723	-0.013410362
60	0xbd9fdb1b	-0.07805463
61	0x3daea1c9	0.08526952
62	0xbe154b12	-0.14579418
63	0xbd48015a	-0.048829414
64	0xbb9b3b8d	-0.0047373236
65	0xbd0ed71a	-0.034873106
66	0x3d3654bd	0.044514406
67	0xbdb83d19	-0.089960285
68	0x3cb07f5c	0.021545105
69	0xbd954eb9	-0.07290406
70	0x3b0d5dee	0.002157088
71	0x3cfc4286	0.03079344
72	0xba62d614	-0.0008653116
73	0x3ce0d7b4	0.027446605
74	0xbc0a8624	-0.008454833
75	0xbde163c3	-0.11005356
76	0xbde4127f	-0.1113634
77	0xbc714815	-0.014726658
78	0xbdb84853	-0.0899817
79	0xbdd51836	-0.104050085
80	0x3d24f059	0.040268276
81	0xbc93827d	-0.018006558
82	0xbdf89205	-0.12137226
83	0xbcdca587	-0.026934398
84	0xbbf9e25a	-0.00762586
85	0xbe1675e3	-0.14693408
86	0xbe0e1538	-0.13875282
87	0x3d07c3b5	0.033145625
88	0x3c7b4282	0.015335681
89	0xbe065516	-0.13118395
90	0xbe137f87	-0.14404117
91	0xbe08c7e8	-0.13357508
92	0x3d1ca821	0.038246278
93	0xba2a2adc	-0.0006491372
94	0xbc365a30	-0.011129901
95	0xbe0e1915	-0.13876756
96	0x3c9b25b2	0.018938873
97	0xbbf2515f	-0.007394954
98	0x3d03e5c5	0.032201547
99	0x3c9769d3	0.018483078
100	0xbd732425	-0.059360642
101	0xbe0f5d7e	-0.14000508
102	0xbbda4deb	-0.0066621206
103	0x3c518904	0.012789015
104	0x3e14ea0d	0.14542408
105	0xbe093bc8	-0.13401711
106	0xbca2c6be	-0.019870158
107	0x3cc234d1	0.023706825
108	0xbdaa900a	-0.083282545
109	0x3bfac4a3	0.0076528355
110	0xbdff978a	-0.12480076
111	0xbdc1f939	-0.094713636
112	0xbe4f3ca3	-0.20237975
113	0xbd522fb5	-0.05131503
114	0xbb88a98a	-0.0041706013
115	0x3e183249	0.14862932
116	0xbca1b050	-0.019737393
117	0xbe112e5e	-0.14177844
118	0xbe058860	-0.13040304
119	0x3c1b8850	0.009492949
120	0xbdc65259	-0.09683675
121	0x3b2ac427	0.0026056857
122	0xbba06193	-0.0048944443
123	0xbd2c8a14	-0.04212387
124	0xbb5a9f0f	-0.0033358966
125	0xbde165b5	-0.11005727
126	0xbdc79844	-0.09745839
127	0xbd8ecc2f	-0.06972539
128	0x3c27d7f5	0.010244359
129	0xbdfad813	-0.12248244
130	0x3c359afc	0.011084314
131	0xbdb446a6	-0.088025376
132	0xbd8c1888	-0.068406165
133	0xbc57f1a1	-0.013180167
134	0xbe04f1c0	-0.12982845
135	0x3d29f67b	0.041494828
136	0xbdef205d	-0.11676095
137	0x3b6176cb	0.0034403082
138	0x3d0114ae	0.031513862
139	0xbcfa3547	-0.030542983
140	0xbd2066b7	-0.039160457
141	0x3ceab891	0.028652461
142	0xbdd8969c	-0.105756015
143	0xbe409f5e	-0.18810794
144	0xbcb31440	-0.021860242
145	0xbe1294a0	-0.14314508
146	0x3cd4b0a1	0.02596313
147	0x3cfecf82	0.031104807
148	0xbdf2a12e	-0.11847149
149	0x3d23b8c1	0.039971117
150	0xbdf1c2ee	-0.11804758
151	0xbac9d4df	-0.0015398524
152	0xbe02aee3	-0.12762026
153	0xbe585cc0	-0.21129131
154	0x3cf818f5	0.030285338
155	0xbd633649	-0.055471692
156	0xbe0cbb57	-0.1374334
157	0xbb84fc85	-0.004058423
158	0xbdfa0ae1	-0.12209106
159	0xbc01a74e	-0.007913424
160	0xbcbe955c	-0.02326458
161	0x3bc6dd77	0.006068881
162	0xbe0d06ab	-0.13772075
163	0xbda22066	-0.07916336
164	0xbc500e6c	-0.012698751
165	0xbdf15d4c	-0.11785373
166	0x3d5484ce	0.051884465
167	0x3d2f9f47	0.042876508
168	0x3e689e5f	0.22716664
169	0x3cdb4cf8	0.0267701
170	0x3cfa6188	0.030564085
171	0x3c92788a	0.017879743
172	0xbe15fff7	-0.14648424
173	0x3ccd2f91	0.025047095
174	0xbe06ee0b	-0.13176744
175	0xbbfae5b1	-0.007656776
176	0x3c1b2672	0.009469615
177	0xbd0138be	-0.031548254
178	0x3c0366e1	0.008020134
179	0xbcf9c9b1	-0.030491682
180	0xbdb83732	-0.08994903
181	0xbcbc49fc	-0.022984497
182	0x3d41934c	0.047259614
183	0xbbdf43bd	-0.006813495
184	0xbb7b9eed	-0.0038394288
185	0x3e6317c0	0.22177029
186	0x3d113542	0.03545118
187	0x3b4f8f6c	0.003167118
188	0x3ce6a1ff	0.028153418
189	0x3d1be010	0.03805548
190	0xbc8231fe	-0.015892979
191	0x3d1b9abe	0.03798937
192	0xbe0c8582	-0.13722804
193	0x3bb94d69	0.00565498
194	0xbdca0c84	-0.098656684
195	0xbda9d45b	-0.08292457
196	0x3ce05849	0.027385848
197	0x3add3a20	0.0016878285
198	0x3bfed230	0.007776521
199	0x3beb4b2c	0.007180592
200	0x3c985647	0.018595828
201	0xbe16ff8f	-0.14745925
202	0x3c49d7fa	0.012319559
203	0xbdf2ef7e	-0.11862086
204	0x3d1cbaa0	0.038263917
205	0x3c33a99b	0.01096573
206	0x3bc2b05e	0.0059414348
207	0xbd2e5f39	-0.04257128
208	0xbdfeb1e9	-0.124362774
209	0xbded9acb	-0.1160179
210	0xbde814f1	-0.11332119
211	0xbb8e2a48	-0.0043385364
212	0x3b888e6b	0.004167368
213	0xbdea57df	-0.11442541
214	0x3cff5743	0.03116954
215	0x3d3afa8a	0.04564909
216	0xbdfe0613	-0.12403502
217	0xbbe0f764	-0.0068654288
218	0x3d64ab8e	0.05582767
219	0x3d3511e0	0.0442065
220	0xbda82cbd	-0.08211658
221	0xbe0ea3a0	-0.13929605
222	0xbdef4677	-0.11683362
223	0xbdc5a43d	-0.096504666
224	0x3c2ff46f	0.01073943
225	0xbd248d60	-0.04017389
226	0x3c5c597f	0.013449072
227	0x3d2c1ab9	0.042017672
228	0xbc8a0071	-0.016845914
229	0x3bf1b21c	0.0073759686
230	0xbe0b6d9b	-0.1361603
231	0xbd842b38	-0.06453556
232	0x3d1b028e	0.037844233
233	0xbdaf7442	-0.08567096
234	0xbb140e10	-0.002259139
235	0xbe160a77	-0.1465243
236	0x3ca49acf	0.02009335
237	0xbc134920	-0.008989602
238	0xbe0de607	-0.1385728
239	0x3cc7383e	0.02431881
240	0xbdba387d	-0.090928055
241	0x3bd345c1	0.0064475243
242	0x3cfcf94f	0.030880598
243	0x3cd2cb3c	0.025731675
244	0x3c6a9ef0	0.01432012
245	0x3d04eef9	0.032454465
246	0x3b890ba7	0.0041822973
247	0xbd64c8ad	-0.05585544
248	0x3ae02be6	0.0017102927
249	0x3be01001	0.0068378453
250	0xbc885aae	-0.016644802
251	0xbd2749b6	-0.04084178
252	0xbdba7cf7	-0.091058664
253	0x3d18101a	0.03712473
254	0xbe0f05a4	-0.13966995
255	0xbd1230d6	-0.035691105
