TD3/models/third_training_attempt/train_50_episodes_critic_1_goal.pth (torch, 531051 bytes, 5 tensors)

l1.weight f4 [400, 28]
0	0xbdd05dda	-0.10174151
1	0x3da3661e	0.07978462
2	0xbe82240c	-0.25418127
3	0xbec7e6a9	-0.39043167
4	0x3e82b55d	0.25528994
5	0x3dc23b18	0.094839275
6	0xbd930cf5	-0.07180206
7	0x3c10e3d5	0.008843382
8	0xbe3d3dc0	-0.18480587
9	0x3e281236	0.16413197
10	0xbe927885	-0.28607574
11	0xbdf06833	-0.117386244
12	0xbd8e518a	-0.06949146
13	0xbe70fca4	-0.23533875
14	0x3e05d944	0.13071162
15	0x3e41ec30	0.18937755
16	0x3df1cc73	0.11806574
17	0x3defa802	0.11701967
18	0x3e02bf84	0.1276837
19	0x3d5ce991	0.053933684
20	0x3d914af5	0.07094375
21	0x3de3e8fa	0.11128421
22	0xbe0bdb8d	-0.1365797
23	0x3cbf8f7f	0.023383854
24	0xbc245817	-0.010030768
25	0x3b12e63d	0.0022415065
26	0xbd2ec70c	-0.042670295
27	0xbdbf64b5	-0.0934538
28	0xbe942b0b	-0.2893909
29	0xbe137cd0	-0.14403081
30	0x3e7f47eb	0.24929778
31	0xbe07f35d	-0.1327643
32	0xbe14e12a	-0.14539018
33	0xbca96c64	-0.020681567
34	0x3c261981	0.010137917
35	0xbe0e1b04	-0.13877493
36	0xbdb125ad	-0.08649764
37	0xbe1082e9	-0.14112438
38	0x3e066564	0.13124615
39	0xbd996dbd	-0.07491634
40	0xbd8ed013	-0.06973281
41	0x3e29a4df	0.165668
42	0x3bbb01e4	0.0057070125
43	0x3dca74ba	0.09885545
44	0xbd4ece5f	-0.05048978
45	0xbdbaf43b	-0.091286145
46	0x3d2926f7	0.041296925
47	0xbd91e34e	-0.07123433
48	0xbd8d4cc5	-0.06899408
49	0x3d5e66cc	0.054297253
50	0xbd17dca7	-0.037075665
51	0x3da235cb	0.079204164
52	0x3c55dce9	0.013053157
53	0x3c830eb1	0.015998216
54	0x3c287421	0.010281594
55	0xbb1491b2	-0.002266985
56	0x3d937be2	0.07201363
57	0x3e3b9bc7	0.18321143
58	0xbe0e3ced	-0.13890429
59	0xbe15a695	-0.14614327
60	0x3e964030	0.29345846
61	0x3e32cea7	0.17461644
62	0xbe00c94a	-0.12576786
63	0x3d5aff9b	0.05346642
64	0xbe09b9f1	-0.13449837
65	0x3e92dffd	0.28686514
66	0xbe67701a	-0.22601357
67	0xbdd12ac8	-0.10213238
68	0x3dcf9758	0.101362884
69	0xbdedb442	-0.11606647
70	0xbe199031	-0.14996411
71	0x3e333b34	0.17503053
72	0x3e4ee089	0.20202841
73	0xbe189183	-0.14899258
74	0x3cf78ce2	0.030218545
75	0xbd76feb0	-0.060301483
76	0xbe10f791	-0.14156939
77	0xbd82c3e9	-0.06385023
78	0x3d9ea763	0.0774677
79	0x3cc403d1	0.023927601
80	0xbcb10b62	-0.021611873
81	0xbd6f1be7	-0.05837622
82	0x3c680564	0.0141614415
83	0xbdaf926d	-0.085728504
84	0x3df1c9e8	0.11806089
85	0x3dadc8be	0.08485554
86	0x3d912258	0.07086629
87	0xbec084a5	-0.376012
88	0xbe0c0878	-0.13675106
89	0xbddf5344	-0.109045535
90	0x3c003663	0.007825467
91	0xbc617069	-0.013759711
92	0xbd37ae50	-0.04484397
93	0xbe50eed9	-0.20403613
94	0x3a61db4c	0.00086157466
95	0x3e4f3fc6	0.20239171
96	0x3e9c0b47	0.30477354
97	0x3cf089b1	0.029362531
98	0x3c9ec6e4	0.019381948
99	0x3d47e408	0.048801452
100	0xbd0d8962	-0.034554847
101	0x3c3f12fc	0.011662241
102	0x3dcf9850	0.10136473
103	0xbe2a1554	-0.16609699
104	0xbcc37bcb	-0.02386274
105	0xbe2d875b	-0.16946165
106	0x3e2630ba	0.16229525
107	0xbe1b2439	-0.15150537
108	0x3df64fc4	0.12026933
109	0xbd87616e	-0.0661038
110	0xbc1dc9b4	-0.009630609
111	0x3d842f28	0.06454307
112	0xbe8b4162	-0.2719832
113	0xbdbd57ed	-0.09245286
114	0x3e8e6463	0.27810964
115	0xbe2cb388	-0.1686536
116	0xbe0a481d	-0.13504072
117	0x3dae6a7a	0.085164025
118	0xbd6884de	-0.056767337
119	0x3e095458	0.13411081
120	0xbd81b905	-0.06334118
121	0xbe1550c1	-0.14581586
122	0x3e24b33b	0.16083996
123	0x3df9d518	0.121988475
124	0xbe4aec46	-0.19816694
125	0xbd86a619	-0.06574649
126	0x3dfc7eff	0.1232891
127	0xbcddf441	-0.027094008
128	0x3c0a2e96	0.0084339585
129	0xbdd3c247	-0.1033979
130	0xbddcfa6d	-0.107899524
131	0xbaf91c83	-0.001900569
132	0xbcda209f	-0.026626883
133	0x3dd63724	0.10459736
134	0x3dc494f3	0.09598722
135	0xbc891bd3	-0.0167369
136	0xbd9073d6	-0.07053344
137	0xbd49c22f	-0.049257454
138	0xbd2a854e	-0.041631036
139	0x3c6a7edb	0.014312471
140	0xbe632da1	-0.22185375
141	0xbe20de6c	-0.15709847
142	0xbd7c29c4	-0.06156327
143	0xbeeade57	-0.45872757
144	0x3d1295b8	0.035787314
145	0x3e065b5b	0.13120787
146	0xbe504d91	-0.20342089
147	0xbd005093	-0.03132684
148	0x3ad3000f	0.001609804
149	0x3da81c8a	0.082085684
150	0xbe0366f7	-0.12832247
151	0x3e81a941	0.25324443
152	0xbe1365dd	-0.14394327
153	0xbe2050c4	-0.1565581
154	0xbe062b05	-0.13102348
155	0xbdf1941e	-0.11795829
156	0x3e3a3bb9	0.18186845
157	0xbcf75505	-0.030191908
158	0xbd17ffa5	-0.037109036
159	0x3e3a7241	0.18207647
160	0x3e439ae5	0.19102056
161	0x3cc264c9	0.023729699
162	0xbd0af0c6	-0.033921026
163	0xbd9fd95b	-0.07805129
164	0x3a813bd2	0.0009859747
165	0xbd4f1a88	-0.05056241
166	0xbcce493b	-0.025181403
167	0x3d0ac8a6	0.03388276
168	0xbd7dd9aa	-0.06197516
169	0xbea10fe8	-0.31457448
170	0xbd08c068	-0.033386618
171	0xbe496c7a	-0.19670287
172	0xbe450f72	-0.19244173
173	0xbe5ae26f	-0.2137544
174	0x3dc74342	0.09729625
175	0x3e911c32	0.28341824
176	0xbe4ca00a	-0.19982925
177	0xbeac43f4	-0.33645594
178	0x3e0e15b8	0.13875473
179	0x3ce119e6	0.02747817
180	0x3d6de6a5	0.058081288
181	0xbe21d9b7	-0.15805708
182	0x3c4712a4	0.01215044
183	0x3e842756	0.2581126
184	0xbdb0587d	-0.08610628
185	0xbd7e216a	-0.062043585
186	0x3e41e657	0.18935524
187	0x3e808783	0.25103387
188	0x3e65429d	0.22388692
189	0xbd797bde	-0.060909145
190	0x3d37a10d	0.044831324
191	0x3dc11ee1	0.09429718
192	0x3c724ae1	0.01478836
193	0xbdb8d50d	-0.09025011
194	0xbb067fab	-0.0020522873
195	0x3d23a31f	0.039950486
196	0x3cd43c11	0.025907548
197	0xbc538a59	-0.012911403
198	0xbe00c47d	-0.12574954
199	0xbb214e0c	-0.002461317
200	0x3daccb93	0.08437266
201	0x3d95f195	0.07321469
202	0xbe4d9490	-0.20076203
203	0x3e40b928	0.18820632
204	0xbc9bc8fe	-0.019016739
205	0x3e112575	0.14174445
206	0x3dd83d7a	0.10558601
207	0x3ca41c26	0.020032953
208	0x3e2b9e06	0.167595
209	0xbe241456	-0.16023383
210	0x3de5055a	0.11182661
211	0x3de89ce2	0.11358048
212	0x3d803fde	0.06262182
213	0xbe04c195	-0.1296447
214	0xbe344990	-0.17606187
215	0x3d8d03a4	0.0688546
216	0x3dedd1b2	0.11612262
217	0xbd663e63	-0.05621184
218	0x3d8427ac	0.06452879
219	0xbd770c01	-0.060314182
220	0xbd3e63dd	-0.046481956
221	0x3d0cc658	0.034368843
222	0xbc0ae3a3	-0.008477124
223	0x3d5fd2b3	0.054644298
224	0xbd95a5bb	-0.07307001
225	0x3d6a9fbc	0.05728124
226	0xbc41bad9	-0.011824333
227	0x3b871917	0.004122864
228	0xbcf404c7	-0.029787434
229	0xbe42a5c6	-0.1900855
230	0xbe1d1e95	-0.15343697
231	0x3da815c5	0.08207277
232	0x3ce0c57a	0.027437914
233	0x3c0da874	0.008646119
234	0xbd85346c	-0.06504139
235	0x3dfdb483	0.123879455
236	0x3dcf5666	0.10123901
237	0x3e1e5ef7	0.15465914
238	0xbd1d735e	-0.0384401
239	0xbe219874	-0.15780813
240	0x3df51c7f	0.11968326
241	0xbe321ae4	-0.1739307
242	0x3c595545	0.013264959
243	0xbe2e39f0	-0.17014289
244	0x3e14247e	0.14467046
245	0xbe217066	-0.15765533
246	0x3cc9e399	0.02464466
247	0x3d3ef1ee	0.04661744
248	0x3e0854af	0.13313554
249	0x3dfab91c	0.12242338
250	0x3e17dc2c	0.14830083
251	0xbd0a130d	-0.033709574
252	0xbcb235f1	-0.021754237
253	0xbd3cb18d	-0.046067763
254	0x3e3651e7	0.17804681
255	0x3e06cf9f	0.13165139

l1.bias f4 [400]
0	0xbcbb4ce0	-0.022863805
1	0x3ddad6f3	0.106855296
2	0x3e3663b7	0.17811476
3	0x3da43716	0.08018319
4	0x3d7417c9	0.059592996
5	0x3dc39adb	0.09551021
6	0x3c333cd0	0.010939792
7	0xbb4f13b0	-0.0031597428
8	0xbe06ae84	-0.1315251
9	0xbe44e4b4	-0.19227868
10	0x3e881915	0.26581636
11	0xbe402db1	-0.1876743
12	0xbe0e4989	-0.13895239
13	0x3e404f89	0.1878034
14	0x3e2c6a46	0.16837415
15	0x3e524ede	0.20537898
16	0xbe18874e	-0.14895365
17	0x3d0d59d4	0.034509495
18	0xbdc43f80	-0.09582424
19	0xbde13d62	-0.10998036
20	0xbe169416	-0.14704928
21	0xbdb2f1e8	-0.08737546
22	0x3e8149d2	0.25251633
23	0x3e7fc3d0	0.2497704
24	0xbdd0321a	-0.10165806
25	0x3e6cc406	0.23121652
26	0xbe128380	-0.14307976
27	0x3e2a9ca3	0.16661315
28	0x3d6936f9	0.05693719
29	0x3e0747ac	0.13210934
30	0xbe3ac6a2	-0.18239835
31	0x3d7f1f02	0.06228543
32	0xbe0ae63d	-0.13564391
33	0xbddf7696	-0.1091129
34	0x3e212c96	0.15739664
35	0x3e225012	0.15850857
36	0x3c9408f8	0.018070683
37	0x3da0a62d	0.078441955
38	0x3e135ad9	0.14390124
39	0x3c84980c	0.016185783
40	0x3e8386a6	0.25688666
41	0xbd40acf5	-0.047039945
42	0x3e013188	0.12616551
43	0x3df3f54a	0.119120196
44	0x3c6b7e62	0.014373394
45	0x3bccac81	0.00624615
46	0xbda67d87	-0.08129411
47	0x3e615309	0.22004332
48	0xbe1fa8c9	-0.1559173
49	0xbdd13ada	-0.10216303
50	0x3b343047	0.0027494596
51	0xbdbb0118	-0.09131068
52	0xbc95d01b	-0.018287709
53	0xbe461a81	-0.19346048
54	0x3d9e77cb	0.077376924
55	0xbde34826	-0.110977456
56	0x3e59f239	0.21283807
57	0xbd421b03	-0.04738904
58	0x3d95edad	0.07320724
59	0xbe2e930f	-0.17048286
60	0x3d2f31db	0.042772155
61	0x3e17f278	0.14838588
62	0xbdf11857	-0.117722206
63	0xbcf4d8d8	-0.029888555
64	0x3d081215	0.03322037
65	0xbe3123b0	-0.1729877
66	0x3e08c6c2	0.1335707
67	0xbddd7a7a	-0.10814376
68	0xbd9fad1f	-0.07796692
69	0x3ce9a405	0.028520593
70	0x3decc47e	0.115609154
71	0x3db15fa0	0.08660817
72	0xbd335c10	-0.04378897
73	0xbdcd09d5	-0.10011641
74	0x3c561f9f	0.0130690625
75	0xbe27fa88	-0.16404164
76	0xbddc492e	-0.107561454
77	0xbdf19d29	-0.11797554
78	0x3e153389	0.1457044
79	0xbd5cba4a	-0.053888597
80	0xbde01967	-0.10942345
81	0xbb2e80fd	-0.0026627176
82	0x3e324986	0.1741086
83	0x3d24fc7f	0.04027986
84	0x3e5d02cd	0.215831
85	0x3d22d393	0.039752554
86	0xbd8115e0	-0.063030005
87	0x3cc2ba62	0.023770515
88	0xbc636fb5	-0.0138816135
89	0xbde63f30	-0.11242521
90	0xbb5f96c0	-0.0034116954
91	0xbd2242ac	-0.039614365
92	0xbdee86c5	-0.11646799
93	0x3d774764	0.060370818
94	0x3c4c7524	0.0124791
95	0x3cdfb777	0.027309163
96	0x3d95e3e4	0.07318857
97	0x3e4723ea	0.19447294
98	0xbe256127	-0.16150342
99	0xbbf02981	-0.0073291664
100	0xbdbd6722	-0.09248187
101	0xbe5868eb	-0.21133773
102	0xbe4c7e71	-0.19970109
103	0x3c58169c	0.013188984
104	0xbe295737	-0.16537176
105	0xbd34ad0f	-0.044110354
106	0xbe36aff1	-0.17840554
107	0x3caa7e03	0.02081204
108	0x3d248838	0.04016897
109	0x3e306503	0.17226033
110	0x3e370b05	0.17875297
111	0xbc749376	-0.014927736
112	0xbd059e55	-0.0326217
113	0xbc7bee46	-0.015376633
114	0x3e2cbdd7	0.16869293
115	0x3e6798f2	0.22616938
116	0x3e76e640	0.24111271
117	0x3e305a14	0.17221862
118	0xbd7ccee1	-0.061720733
119	0x3d8d8859	0.06910772
120	0x3e2822c1	0.16419508
121	0x3db0a4dc	0.086251944
122	0xbb21d93b	-0.002469613
123	0xbddf13cc	-0.10892448
124	0xbe4cb326	-0.19990215
125	0x3e0f6690	0.14003968
126	0xbda8ceb3	-0.0824255
127	0xbdbe8b52	-0.09303917
128	0xbd9efe7b	-0.07763382
129	0x3dc32b51	0.09529746
130	0x3e5f64db	0.21815817
131	0x3cd655e6	0.026164006
132	0xbadb2f9a	-0.001672256
133	0x3d5fc8de	0.05463492
134	0x3d3640e3	0.044495475
135	0xbd908936	-0.07057421
136	0x3dc1aa7f	0.09456348
137	0x3e80e010	0.25170946
138	0x3c4c9b58	0.012488209
139	0xbb470b99	-0.0030371903
140	0xbe5bc8e7	-0.21463357
141	0x3d663f74	0.056212857
142	0x3d1e9256	0.038713776
143	0x3d888be2	0.066673055
144	0x3e20b24a	0.15693012
145	0x3deb1777	0.11479085
146	0x3e26513e	0.16241929
147	0xbddb6033	-0.10711708
148	0x3e12cdd0	0.14336324
149	0xbc84abb5	-0.016195158
150	0xbe097af5	-0.1342581
151	0x3e347174	0.17621404
152	0xbc764a41	-0.015032352
153	0xbd47fbcc	-0.048824117
154	0x3b7f5599	0.0038960932
155	0xbe131a3d	-0.14365478
156	0xbc57cb7c	-0.013171073
157	0x3d0ddb20	0.034632802
158	0x3e48f048	0.1962291
159	0xbdd7b1e5	-0.105319776
160	0x3dd2761f	0.10276436
161	0x3df81e42	0.12115146
162	0xbe0c1360	-0.13679266
163	0x3e2e4620	0.17018938
164	0xbc83bcf4	-0.01608131
165	0xbe04a0c5	-0.12951954
166	0xbd5748b9	-0.052559588
167	0xbd1e7a85	-0.038691062
168	0xbe2c333f	-0.16816424
169	0x3b283790	0.0025667883
170	0xbe223ae7	-0.15842782
171	0x3e0b74b5	0.13618739
172	0xbdf3546b	-0.11881336
173	0xbda74bdf	-0.08168768
174	0xbd22efea	-0.03977958
175	0xbdbbe6e7	-0.091749005
176	0x3d6f0c4f	0.058361348
177	0x3c1e2956	0.00965341
178	0x3cd02e84	0.025412805
179	0xbddf71bf	-0.10910367
180	0x3e52953f	0.20564745
181	0x3e1706cd	0.14748688
182	0xbe04d1fd	-0.12970729
183	0xbc1eef9f	-0.009700685
184	0xbd4d2cbc	-0.05009149
185	0xbd4cb841	-0.049980406
186	0xbe115b83	-0.14195065
187	0xbd5f4892	-0.054512568
188	0x3e03401d	0.12817426
189	0xbd813f11	-0.06310857
190	0x3e4c96b4	0.19979364
191	0xbddc72fc	-0.10764119
192	0xbd275de0	-0.04086101
193	0x3d69402a	0.056945957
194	0xbd88214d	-0.066469766
195	0xbd0f29a5	-0.034951825
196	0x3e3936ce	0.18087313
197	0xbe2f9b1f	-0.17149018
198	0xbdd5f536	-0.10447161
199	0x3dbb24f8	0.091379106
200	0x3e1b191e	0.151463
201	0x3e740eec	0.23833817
202	0x3e40f7a8	0.18844473
203	0x3d59657e	0.053075306
204	0xbdf8bf5b	-0.12145873
205	0xbdad3232	-0.084568396
206	0xbe488d11	-0.19585063
207	0x3d985c75	0.0743951
208	0x3dde3df0	0.108516574
209	0x3e33b16e	0.17548153
210	0xbdebae0b	-0.115078054
211	0xbe246102	-0.1605263
212	0xbe082da0	-0.13298655
213	0x3e52f255	0.20600255
214	0x3dc1585e	0.09440683
215	0x3d6efd3a	0.058346964
216	0x3e00f104	0.1259194
217	0x3cf207d3	0.029544747
218	0x3e61eab1	0.22062184
219	0x3e6dfa8a	0.23240104
220	0xbe0170ba	-0.12640658
221	0x3e1c1868	0.15243685
222	0xbdf64ea5	-0.12026719
223	0x3e473a00	0.19455719
224	0xba3a76c9	-0.0007113037
225	0x3d64f9a3	0.055902135
226	0x3e8f6fdd	0.28015032
227	0xbdf899ec	-0.12138733
228	0x3e68a92e	0.22720787
229	0x3d11a769	0.035560045
230	0x3e42e247	0.1903163
231	0x3d8ee12f	0.06976544
232	0xbda95c3d	-0.08269546
233	0x3e09948b	0.13435571
234	0xbc06b595	-0.0082220035
235	0xbdb11a81	-0.08647633
236	0x3e6dae7e	0.23211095
237	0x3d80542e	0.06266056
238	0x3d79c7bd	0.0609815
239	0xbd8b3ae0	-0.06798339
240	0xbe107036	-0.14105305
241	0x3defe540	0.11713648
242	0x3d0d548e	0.034504466
243	0x3cc5c584	0.024142034
244	0x3cc2b686	0.023768675
245	0x3e596152	0.21228531
246	0xbd129f20	-0.035796285
247	0xbe0a118e	-0.13483259
248	0x3e2f6cd0	0.17131352
249	0x3d420928	0.047372013
250	0x3e4bc905	0.19900902
251	0x3e204d1e	0.15654418
252	0xbdc30d40	-0.095240116
253	0xbcd38659	-0.025820898
254	0x3dfd67ad	0.1237329
255	0x3e21627e	0.15760228

l2.weight f4 [300, 400]
0	0x3dd2711a	0.10275479
1	0x3e2f8405	0.17140205
2	0x3cfb31eb	0.030663451
3	0x3d0504c7	0.03247526
4	0x3dd235e4	0.10264185
5	0x3d003a80	0.03130579
6	0x3e2fe0a6	0.1717554
7	0x3d3a61b7	0.045503344
8	0xbd880909	-0.06642348
9	0xbb1fc4da	-0.0024378807
10	0x3de76c57	0.11299961
11	0x3d826ba6	0.063681886
12	0x3cc488e9	0.023991065
13	0xbda3e5a7	-0.08002787
14	0x3dbe3f81	0.09289456
15	0xbdf5cd78	-0.12002081
16	0x3c80f35c	0.015741043
17	0x3d0aebc0	0.033916235
18	0xbc23e576	-0.010003438
19	0x3dc34a31	0.09535635
20	0xbcab5b9f	-0.020917712
21	0xbd26dd5a	-0.04073844
22	0x3c2c168a	0.010503421
23	0x3dbf2628	0.093334496
24	0xbc2b9baf	-0.01047413
25	0x3dcdbacb	0.100453936
26	0x3de9bdee	0.11413179
27	0x3dca3b47	0.098745875
28	0x3cb12395	0.021623412
29	0x3cca6810	0.024707824
30	0xbcf7231b	-0.030168107
31	0x3d7be8dc	0.06150137
32	0x3cdd17a9	0.026988821
33	0xbcc2e07e	-0.023788687
34	0x3c8c795c	0.017147712
35	0x3d97d837	0.074142866
36	0x3cb542e4	0.022126622
37	0x3e2a616a	0.16638723
38	0x3d290e36	0.04127332
39	0xbc0c317c	-0.00855672
40	0x3dc2c912	0.09511007
41	0x3c8a710d	0.01689961
42	0x3d8f8b81	0.0700903
43	0x3d16aba0	0.036784768
44	0xbcc26c50	-0.023733288
45	0xbc3a9082	-0.011386992
46	0x3cf625bc	0.03004729
47	0x3e0a3b59	0.13499202
48	0xbb855443	-0.0040688827
49	0x3c0d4edf	0.008624761
50	0x3d553bf1	0.052059118
51	0x3d5c7142	0.05381895
52	0x3db1fc7f	0.08690738
53	0x3dbcfc1f	0.09227776
54	0x3d90a842	0.07063343
55	0x3dcb54c8	0.0992828
56	0x3d59e5b1	0.053197566
57	0x3d1d85e1	0.038457755
58	0x3dba1397	0.09085768
59	0x3bb99f2f	0.005664728
60	0xbc85eb59	-0.016347574
61	0x3c738fd2	0.014865832
62	0x3d0366bf	0.03208041
63	0xbd3cb686	-0.046072505
64	0x3d854523	0.065073274
65	0x3c9a3756	0.018825214
66	0xbca1cbf7	-0.019750578
67	0xbd6b89a8	-0.057504326
68	0x3d3a8e40	0.045545816
69	0x3c49486d	0.012285334
70	0x3da403c5	0.080085315
71	0x3c0d140d	0.0086107375
72	0x3d650942	0.055917032
73	0x3cda210c	0.026627086
74	0x3e1b2bde	0.15153453
75	0x3c633a4e	0.013868881
76	0x3cd45ac7	0.025922192
77	0xbd0630e7	-0.03276148
78	0x3df98249	0.12183053
79	0xbb99a7ae	-0.0046891784
80	0x3cf4087d	0.029789204
81	0x3dedd27b	0.116124116
82	0xbcd8ec08	-0.026479736
83	0x3b7f08ab	0.0038915079
84	0x3e0c4b4d	0.137006
85	0x3ce3a23f	0.027787326
86	0xbd85892e	-0.065203056
87	0x3e0f337b	0.13984482
88	0x3d33ce1f	0.043897744
89	0xbd09275d	-0.033484805
90	0x3e0b1555	0.13582356
91	0x3dd7a27f	0.105290405
92	0x3d4bcdf1	0.049756948
93	0x3e030417	0.12794529
94	0x3d5eea11	0.054422442
95	0x3d0c64cc	0.034275815
96	0x3d7b8da3	0.061414372
97	0x3d6adf29	0.05734173
98	0x3c43bb79	0.011946552
99	0xbd3eaca8	-0.046551377
100	0x3d5e8ac2	0.05433155
101	0x3d5bbcbf	0.0536468
102	0xbd4f51e1	-0.050615195
103	0xbdc03ff2	-0.093871966
104	0x3c559439	0.013035827
105	0xbcc436e9	-0.023951964
106	0xb77c5afb	-1.50415535e-05
107	0x3dc4fd9e	0.09618686
108	0x3dd6fa6f	0.10496985
109	0x3bb7902c	0.0056019034
110	0xbd5fb897	-0.054619398
111	0x3def40e2	0.11682297
112	0x3cad576e	0.021159854
113	0x3c9c98db	0.019115856
114	0x3c5b1981	0.01337278
115	0x3dbdf237	0.092747144
116	0x3c106fee	0.008815749
117	0x3d223e04	0.039609924
118	0x3e05bc7a	0.1306018
119	0x3e0c5b2e	0.13706657
120	0x3d81648b	0.06318005
121	0x3e206e52	0.15667084
122	0x3d8630aa	0.06552251
123	0x3d34f00c	0.04417424
124	0xbbeec2db	-0.007286412
125	0x3d8b783d	0.06810043
126	0xbde42bed	-0.11141191
127	0xbcefeffd	-0.02928924
128	0x3ccda458	0.02510278
129	0xbd418f00	-0.047255516
130	0x3da7db4b	0.08196124
131	0x3d117f87	0.03552201
132	0x3d7fe8f4	0.06247802
133	0x3d40a49a	0.047031976
134	0x3d11f4d2	0.03563387
135	0x3d387d57	0.04504141
136	0x3d9db225	0.07699994
137	0x3d990f0f	0.07473575
138	0x3c7e6308	0.015526541
139	0x3c3bf144	0.011471096
140	0x3cee4406	0.02908517
141	0xbc9f86b6	-0.019473415
142	0xbbd7b1b5	-0.0065824636
143	0xbd90b5c9	-0.07065923
144	0x3de52721	0.11189104
145	0x3da48b2d	0.08034358
146	0x3e262d09	0.16228117
147	0x3da84f3d	0.082182385
148	0x3dcceca8	0.10006076
149	0xbc8e5845	-0.017376075
150	0xbd1057fe	-0.035240166
151	0xbcb6a776	-0.022296648
152	0x3d8758ec	0.066087574
153	0x3c60267a	0.0136810485
154	0xbd242d4d	-0.040082265
155	0x3d079b45	0.03310706
156	0x3e064cf4	0.13115293
157	0x3d84cc40	0.0648427
158	0x3dbdd938	0.09269947
159	0xbddc896f	-0.10768401
160	0xbc861297	-0.016366286
161	0xbd486a8d	-0.04892974
162	0x3d6993af	0.057025608
163	0x3e0dc502	0.13844684
164	0x3cf3f450	0.029779583
165	0x3d83df04	0.06439021
166	0x3baea5bf	0.005329817
167	0x3daae137	0.083437376
168	0x3dac9e46	0.08428626
169	0x3d00a13d	0.03140377
170	0x3c3d23f7	0.011544219
171	0x3d7efce7	0.062252905
172	0xbd158b98	-0.03651008
173	0xbd6e9b43	-0.058253538
174	0x3da6ccc6	0.08144526
175	0x3e1e729e	0.1547341
176	0xbdb97c56	-0.09056918
177	0x3cde29e2	0.02711958
178	0x3cd60be6	0.02612872
179	0xbc52d907	-0.012869126
180	0x3c2081cb	0.00979657
181	0x3e0b8de3	0.13628344
182	0x3c88f0ad	0.016716326
183	0x3dda7ebd	0.10668705
184	0xbd97da92	-0.07414736
185	0xba8e4bdb	-0.0010856347
186	0x3d47f89c	0.048821077
187	0x3d8e6169	0.06952173
188	0x3c810f9d	0.015754515
189	0xbe2c3cc8	-0.16820061
190	0x3b09d437	0.002103103
191	0x3cd37534	0.025812723
192	0x3ba035b6	0.0048892153
193	0x3debf6b2	0.11521663
194	0x3d103fc5	0.035217065
195	0x3db2cb87	0.08730226
196	0x3cf05257	0.029336138
197	0x3d655f32	0.05599899
198	0x3d4205f8	0.047368973
199	0x3d7cf8ec	0.061760828
200	0x3dc208cd	0.09474335
201	0x3cc0af76	0.023521166
202	0x3dcb2521	0.09919191
203	0x3db02beb	0.08602127
204	0x3d67b4db	0.05656896
205	0x3db7b667	0.08970337
206	0x3ce413f2	0.027841542
207	0xbd29de92	-0.041472025
208	0x3d6bb8ee	0.05754941
209	0x3d1ad391	0.03779942
210	0x3db5f357	0.08884304
211	0xbce1a346	-0.027543675
212	0xbd0abc3e	-0.033870928
213	0x3d9444dc	0.072396964
214	0x3e0de296	0.13855967
215	0x3da6fd45	0.08153776
216	0x3dd0f182	0.10202314
217	0x3e03483c	0.12820524
218	0x3d290d8f	0.041272696
219	0x3d505f8e	0.050872378
220	0xbc52f13a	-0.012874896
221	0xbd11173b	-0.035422545
222	0xbe2130b8	-0.15741241
223	0x3d645722	0.05574716
224	0x3dc537d5	0.0962979
225	0x3d2fe237	0.042940345
226	0x3d91d415	0.071205296
227	0x39dd7f0e	0.00042247068
228	0xbcbd513e	-0.023110028
229	0xbe0e6a4a	-0.13907734
230	0x3d9abbdc	0.075553626
231	0xbcd7e100	-0.026352406
232	0x3db62a51	0.0889479
233	0x3e06f017	0.13177525
234	0xbcfe1b3c	-0.031018846
235	0x3ce29aa6	0.027661633
236	0x3d9f2d88	0.07772356
237	0x3c87d6a4	0.01658184
238	0x3d128826	0.035774373
239	0x3d8da855	0.069168724
240	0x3d76b89b	0.060234647
241	0xbc8f9c89	-0.017530696
242	0xbd8cb9c8	-0.068713725
243	0x3df637b4	0.12022343
244	0x3cda1426	0.026620936
245	0xbd889dfc	-0.06670758
246	0x3d839a44	0.06425908
247	0x3d84e698	0.06489295
248	0xbc28bd6d	-0.010299069
249	0x3df56356	0.119818375
250	0x3bdc9537	0.006731655
251	0x3dc8d8fb	0.09807011
252	0x3ce3d572	0.02781174
253	0xbd14c228	-0.036317974
254	0x3d959f1e	0.0730574
255	0x3e156366	0.14588699

l2.bias f4 [300]
0	0x3d37e644	0.044897333
1	0x3ca4a02e	0.02009591
2	0x3c02bdf4	0.007979859
3	0xbd2e8174	-0.042603925
4	0x3c86f0f4	0.016472317
5	0x3e0e9759	0.13924922
6	0x3de70f39	0.112822
7	0xbd0e523e	-0.0347464
8	0x3e07895a	0.13235989
9	0xbc17b45e	-0.0092593115
10	0x3e1c92ea	0.15290418
11	0x3e1f00f3	0.15527706
12	0x3dc56cdc	0.09639904
13	0x3d8dd594	0.069255024
14	0xbcaf8607	-0.021426214
15	0x3d303306	0.04301741
16	0xbd3c4938	-0.045968264
17	0x3cdc84c9	0.026918786
18	0xbca03b77	-0.019559605
19	0x3d669675	0.05629583
20	0xbd77408c	-0.06036429
21	0x3cc39b70	0.02387783
22	0xbbbb93f8	-0.0057244264
23	0xbca87c95	-0.020567218
24	0x3d17cd5d	0.037061084
25	0xbd06124d	-0.032732297
26	0x3cf1cecb	0.029517552
27	0x3da9055f	0.082529776
28	0x3d9b3041	0.07577563
29	0x3dc6d38c	0.09708318
30	0x3b8459ac	0.00403901
31	0x3db03736	0.08604281
32	0xbd51b72a	-0.05120007
33	0x3d2043c6	0.039127134
34	0x3d5f997f	0.054589745
35	0x3deb7846	0.1149755
36	0x3e3dc81e	0.1853337
37	0x3c59d407	0.01329518
38	0x3e080ebd	0.13286872
39	0xbc54c78a	-0.012987027
40	0x3dfe87fe	0.12428282
41	0x3e09cfa0	0.13458109
42	0xbd05c4f5	-0.032658536
43	0x3d60215e	0.05471932
44	0x3d96e5d6	0.073680565
45	0x3dab8464	0.08374861
46	0x3e1a4fe7	0.15069543
47	0xbd5bf4c5	-0.053700227
48	0x3c20e5e9	0.00982044
49	0xbbb96a10	-0.0056583956
50	0xbaeb1a63	-0.0017936941
51	0x3c1f9e92	0.009742396
52	0x3e0350f6	0.12823853
53	0x3e1bbe6b	0.15209357
54	0x3e28df35	0.16491397
55	0xbd06e08d	-0.032928992
56	0xbd30ab00	-0.04313183
57	0xbc9d9446	-0.019235741
58	0xbcfc988b	-0.030834457
59	0x3c263a56	0.010145744
60	0x3d3b32bb	0.045702677
61	0x3cecad86	0.028891336
62	0x3da0c704	0.07850459
63	0xbd27e8cf	-0.040993508
64	0xbd4a8431	-0.049442474
65	0xbcbe8388	-0.023256078
66	0x3cf749eb	0.030186614
67	0x3e051e55	0.12999852
68	0xbbd80dd2	-0.0065934444
69	0x3c922023	0.01783759
70	0x3b139a91	0.0022522549
71	0x3c4d7938	0.012541108
72	0xbc943da6	-0.018095803
73	0xbd98ba16	-0.07457368
74	0xbaee0b4e	-0.0018161328
75	0x3dfdd025	0.12393216
76	0x3e006fbd	0.12542625
77	0xbd095e0d	-0.03353696
78	0x3dd87937	0.10569995
79	0x3da380e4	0.07983568
80	0xbc8cfef5	-0.017211417
81	0x3c3e4f2f	0.0116155585
82	0x3d977e24	0.07397106
83	0xbc833cf5	-0.016020278
84	0x3c9b6e45	0.018973479
85	0x3deb46da	0.11488123
86	0x3e1ef53a	0.15523234
87	0x3d46f228	0.048570782
88	0x3bf9a9bb	0.0076191104
89	0x3e13336d	0.14375086
90	0x3dc02502	0.09382059
91	0x3e19832c	0.14991444
92	0xbc0c68f5	-0.008569946
93	0xbd788fb4	-0.06068392
94	0x3ab0e860	0.0013496988
95	0x3e13987b	0.14413635
96	0xbbf34694	-0.007424185
97	0xbcfff95c	-0.031246834
98	0x3c6122d2	0.013741212
99	0xbd30ca40	-0.04316163
100	0xbcc8d09c	-0.024513535
101	0x3df57392	0.11984934
102	0xbb2e76ef	-0.0026621183
103	0x3c90c23d	0.017670745
104	0xbd8447a5	-0.064589776
105	0x3e0c4393	0.13697653
106	0xbc11a33e	-0.008889018
107	0xbd0a6d25	-0.033795495
108	0x3d780d47	0.060559537
109	0xbd5e7b22	-0.054316647
110	0x3d003e71	0.03130955
111	0x3e0539e7	0.13010369
112	0x3e46c4b8	0.1941098
113	0xbd695b89	-0.05697206
114	0xbcfcfa2c	-0.03088101
115	0xbe201f0f	-0.15636848
116	0x3bd87041	0.0066051786
117	0x3e1036f5	0.14083464
118	0x3e02baf1	0.12766625
119	0x3c098e7c	0.008395787
120	0x3dbe6794	0.092971
121	0xbbff7acc	-0.007796621
122	0xbc9db57a	-0.019251574
123	0xbc85028b	-0.016236564
124	0xbd013c05	-0.03155138
125	0x3d95e0e2	0.073182836
126	0x3d556720	0.0521003
127	0x3db33fa0	0.0875237
128	0xbc4154a1	-0.011799962
129	0x3e18d481	0.14924814
130	0x3bf5a7f3	0.0074968277
131	0x3e08d3ea	0.13362089
132	0x3ac4fdfe	0.0015029309
133	0xbbc05399	-0.0058693406
134	0x3d829159	0.06375379
135	0xbc0b3c2d	-0.008498234
136	0x3e118696	0.14211497
137	0x3ce1171a	0.027476836
138	0x3b2adc46	0.0026071235
139	0xbb80db05	-0.003932359
140	0xbc6f9093	-0.0146218715
141	0x3d0f1444	0.034931436
142	0x3dbfd309	0.09366424
143	0xbbfdb38f	-0.0077423523
144	0x3d19a2e5	0.037508864
145	0x3d898089	0.06713969
146	0xbcbf7680	-0.023371935
147	0xbc76b194	-0.015056986
148	0x3de0c664	0.1097534
149	0xbcbfc888	-0.02341105
150	0x3da92716	0.08259408
151	0xbc4c8a29	-0.012484112
152	0x3da42cae	0.080163345
153	0x3b99329e	0.0046752235
154	0xbd78d924	-0.060753956
155	0x3d065b1e	0.03280174
156	0x3e0b90fd	0.13629527
157	0xbd65456b	-0.055974405
158	0x3dfd392a	0.12364419
159	0x3b98cc0d	0.0046629966
160	0x3c251f06	0.010078197
161	0x3c16ab85	0.009196167
162	0x3e0951f0	0.13410163
163	0x3cfad6b0	0.03061995
164	0x3ca8e9d6	0.020619314
165	0x3db2fd92	0.08739771
166	0xbc376f34	-0.0111959465
167	0xbd4dc5c9	-0.05023745
168	0xbdde02d2	-0.10840382
169	0x3cf1cd3b	0.029516807
170	0x3d0a8b9c	0.033824548
171	0x3d0d95bc	0.034566626
172	0x3d971ea6	0.073788926
173	0x3b20a6fe	0.0024513598
174	0x3dfae121	0.12249971
175	0xbcf6f1f2	-0.030144665
176	0xbd18ae5e	-0.037275665
177	0x3cf5f684	0.030024774
178	0x3c65c7e2	0.014024707
179	0x3d1ccc8d	0.038281012
180	0x3d98254e	0.0742899
181	0x3c04293c	0.008066472
182	0x3d1d4945	0.038399953
183	0xbc9152c6	-0.017739665
184	0xbd068c2d	-0.032848526
185	0xbd7a10cc	-0.061051175
186	0x3c425b20	0.011862546
187	0x3bd63e89	0.0065382165
188	0x3cabd89e	0.020977315
189	0xbbd1500a	-0.006387715
190	0x3c6efa40	0.014586031
191	0x3cfd49db	0.030919006
192	0x3dee5888	0.1163798
193	0xbcfa7b1c	-0.030576281
194	0x3de3ce68	0.11123353
195	0x3ce4a8bc	0.02791249
196	0x3c2d5f3e	0.01058179
197	0xbb0b2fad	-0.0021238134
198	0xbcb99e68	-0.022658542
199	0xbd3425a0	-0.043981194
200	0xbd843365	-0.06455115
201	0x3e1e0ad9	0.15433826
202	0xbd1c0f36	-0.038100444
203	0x3d8d02c3	0.068852924
204	0xbca398e7	-0.01997037
205	0xbcbb4830	-0.02286157
206	0xbd04b2bd	-0.03239702
207	0xbb7188c3	-0.0036855198
208	0x3dbc9f62	0.09210087
209	0x3e13b104	0.14422995
210	0x3dac4271	0.0841111
211	0xbbd27728	-0.006422896
212	0x3d119aa5	0.03554787
213	0x3db8fb06	0.09032254
214	0xbd8c947e	-0.0686426
215	0xbd5aac22	-0.053386815
216	0x3de7b737	0.11314242
217	0xbd5f4c82	-0.054516323
218	0x3dd6f24a	0.10495432
219	0x3c14489a	0.009050513
220	0x3d7aafa1	0.06120265
221	0x3e0a25df	0.13491009
222	0x3e16a46d	0.14711161
223	0x3e1e7e35	0.15477832
224	0xbb94ee36	-0.0045449985
225	0xbc45c0cd	-0.012069893
226	0xbc89e855	-0.016834417
227	0x3ce762d2	0.028245363
228	0xbd6ff87b	-0.05858658
229	0x3cdac391	0.026704581
230	0x3d9dc46c	0.0770348
231	0x3cecfe36	0.028929811
232	0x3cb1202f	0.021621792
233	0x3dc39b67	0.09551125
234	0xbd0904fd	-0.033452023
235	0x3dfa1cca	0.12212522
236	0x3d04216c	0.032258436
237	0xbd8a3035	-0.06747476
238	0x3d9c8692	0.07642855
239	0x3c6be32a	0.014397422
240	0x3cb3ff76	0.0219724
241	0x3c338aef	0.010958417
242	0xbbe2a751	-0.0069169183
243	0xbd1e79f6	-0.03869053
244	0x3c5c3901	0.013441325
245	0x3c7688f3	0.0150473
246	0xbd5944c2	-0.05304409
247	0xbc7d47b6	-0.015458992
248	0xbc5f583a	-0.013631875
249	0x3ca0943e	0.019601937
250	0xbd3716c0	-0.04469943
251	0x3cd952d1	0.026528748
252	0x3df6ee78	0.12057203
253	0xbc7a158c	-0.015263926
254	0x3df8a3a5	0.12140588
255	0xbd1c8cfe	-0.038220398

l3.weight f4 [1, 300]
0	0xbda0b586	-0.07847123
1	0x3cd8a499	0.026445674
2	0x3c57fb11	0.0131824175
3	0xbb04d52c	-0.0020268662
4	0x3d21c67e	0.039495938
5	0xbdcdc1cf	-0.10046732
6	0xbdb366df	-0.087598555
7	0x3c5f7c70	0.013640508
8	0xbda0bb4d	-0.07848225
9	0x3c1db76e	0.009626253
10	0xbdb47175	-0.08810703
11	0xbe2cde33	-0.16881637
12	0xbdfb567e	-0.122723565
13	0xbdbb3ec2	-0.091428295
14	0xbbfb5e73	-0.0076711713
15	0xbd3a8094	-0.045532778
16	0x3cbadf7f	0.02281165
17	0x3b04c194	0.0020256983
18	0x3c4650d8	0.012104236
19	0xbdc577d7	-0.09641998
20	0x3cfcdd43	0.030867225
21	0x3ccdd7c0	0.025127292
22	0x3b4ca7d8	0.0031227972
23	0xbc9936f0	-0.018702954
24	0x3d198f5d	0.037490238
25	0xbc651112	-0.013981121
26	0x3c686632	0.0141845215
27	0xbdae62a4	-0.08514908
28	0xbdd7e088	-0.10540873
29	0xbd975c7f	-0.07390689
30	0x3c12d005	0.0089607285
31	0xbdd40896	-0.103532
32	0xbccd4be8	-0.025060609
33	0x3a4250f8	0.0007412578
34	0xbe160b8f	-0.14652847
35	0xbdf04fd5	-0.11733977
36	0xbdfc7548	-0.12327057
37	0x3b727568	0.003699625
38	0xbe00055d	-0.12502046
39	0xbd177e75	-0.036985833
40	0xbdf797eb	-0.12089523
41	0xbdd6d374	-0.1048955
42	0xbd0423c4	-0.03226067
43	0xbd855aa0	-0.06511426
44	0xbdcc01d6	-0.09961288
45	0xbda18990	-0.07887566
46	0xbda4a8d4	-0.08040014
47	0x3bc072b0	0.005873047
48	0xbd4e4a66	-0.05036392
49	0xbc06c215	-0.008224984
50	0x3d399507	0.04530814
51	0x3b6c5d45	0.0036066335
52	0xbd9b1ff2	-0.075744525
53	0xbdfa9002	-0.122344986
54	0xbde58b47	-0.11208206
55	0xbb5761f1	-0.0032864774
56	0x3cac4086	0.02102686
57	0x3d0fc134	0.035096362
58	0xbbaebe55	-0.005332748
59	0xbc5bb751	-0.013410405
60	0xbd69bde9	-0.057065878
61	0x3de702b2	0.11279811
62	0xbe0007d5	-0.12502988
63	0xbd480200	-0.048830032
64	0xbb9b3c45	-0.0047374093
65	0xbd0ed71a	-0.034873106
66	0x3d3654ff	0.044514652
67	0xbd8e33a1	-0.06943441
68	0x3cb08007	0.021545423
69	0xbd5517f6	-0.052024804
70	0x3ce1ba76	0.027554732
71	0x3cfc435b	0.030793836
72	0xba62d6c2	-0.0008653217
73	0x3ce0d7d2	0.027446661
74	0xb9725f8c	-0.00023114512
75	0xbdb6e433	-0.08930244
76	0xbdb9419b	-0.090457164
77	0xbc71486b	-0.014726738
78	0xbd8d6f17	-0.06905954
79	0xbdaae99f	-0.08345341
80	0x3d24f0a6	0.040268563
81	0xbc9382ed	-0.018006766
82	0xbdcdc33a	-0.10047002
83	0xbc5f52e5	-0.013630603
84	0xbbf9e1fc	-0.0076258164
85	0xbe00f554	-0.12593585
86	0xbdf10c21	-0.117698915
87	0x3d6a277a	0.057166554
88	0x3c7b431b	0.015335823
89	0xbde1869c	-0.11012003
90	0xbdfcab4c	-0.1233736
91	0xbde610c6	-0.11233668
92	0x3d1ca855	0.03824647
93	0xba2a2a27	-0.00064912665
94	0xbc9a8ecd	-0.01886692
95	0xbdf13c65	-0.117790975
96	0x3c9b2665	0.018939206
97	0xbbf25144	-0.0073949415
98	0x3d03e60c	0.03220181
99	0x3c976a25	0.01848323
100	0xbd19b9ee	-0.037530832
101	0xbdf40a73	-0.119160555
102	0xbbda4d9a	-0.006662083
103	0x3c5189d8	0.012789212
104	0x3e1d1c1f	0.15342759
105	0xbde78006	-0.113037154
106	0xbca2c786	-0.01987053
107	0x3cc235a0	0.023707211
108	0xbd801044	-0.062531024
109	0x3bfac553	0.0076529174
110	0xbdd47d15	-0.1037542
111	0xbd979ab5	-0.07402555
112	0xbe3afb13	-0.1825984
113	0xbcf101fa	-0.029419888
114	0xbb88a994	-0.004170606
115	0x3e1832ed	0.14863177
116	0xbca1b09e	-0.019737538
117	0xbdf76201	-0.1207924
118	0xbde07802	-0.1096039
119	0x3c1b880e	0.009492887
120	0xbd9bc4f3	-0.076059245
121	0x3b2ac4d6	0.0026057265
122	0xbb1b7bf7	-0.0023725012
123	0xbcccdf88	-0.025008932
124	0xbb5a9fa1	-0.0033359306
125	0xbdb71923	-0.08940341
126	0xbd9d5257	-0.07681721
127	0xbd4840a7	-0.048889782
128	0x3c27d866	0.0102444645
129	0xbdd0872d	-0.10182033
130	0x3c359b0f	0.011084332
131	0xbd8a12f5	-0.06741897
132	0xbd4cd11e	-0.050004117
133	0xbc57f1b1	-0.013180182
134	0xbddf5571	-0.109049685
135	0x3d29f696	0.04149493
136	0xbdc45598	-0.09586638
137	0x3b617732	0.0034403321
138	0x3d22c48a	0.039738216
139	0xbc8ebba8	-0.017423466
140	0xbd2066ee	-0.03916066
141	0x3d0441b0	0.032289207
142	0xbdad8ec3	-0.08474495
143	0xbe4226f8	-0.18960178
144	0xbcb314f7	-0.021860583
145	0xbdfadea0	-0.122494936
146	0x3cd4b0e1	0.025963249
147	0x3cfecfb3	0.031104898
148	0xbdc728b3	-0.0972456
149	0x3d23b8ee	0.039971285
150	0xbdc75cba	-0.09734483
151	0xbac9d469	-0.0015398386
152	0xbdda2e10	-0.10653317
153	0xbe4351e8	-0.19074214
154	0x3cf819bb	0.030285707
155	0xbd12c142	-0.035828836
156	0xbdee92be	-0.116490826
157	0xbb84fc2d	-0.004058382
158	0xbdcf84ac	-0.10132727
159	0xbc01a7d4	-0.0079135485
160	0xbc9346db	-0.017978122
161	0x3bc6ddd0	0.0060689226
162	0xbdef1e5f	-0.11675715
163	0xbd74a40b	-0.059726756
164	0xbc500ef1	-0.012698875
165	0xbdc7101b	-0.09719869
166	0x3d5484ce	0.051884465
167	0x3d2f9fce	0.04287701
168	0x3e689e72	0.22716692
169	0x3cdb4d11	0.026770147
170	0x3cfa621b	0.030564358
171	0x3c92794d	0.017880106
172	0xbe00a9d7	-0.12564789
173	0x3ccd2fc8	0.025047198
174	0xbde2899d	-0.11061404
175	0xbbf6baa3	-0.007529573
176	0x3c1b272d	0.009469789
177	0xbc979551	-0.018503817
178	0x3c03677c	0.008020278
179	0xbc8c1c29	-0.017103272
180	0xbd8dda5a	-0.06926413
181	0xbcbc4ac7	-0.022984875
182	0x3d4193e8	0.047260195
183	0xbbdf4322	-0.006813423
184	0xbb7b9e84	-0.0038394043
185	0x3e7ca0d5	0.24670728
186	0x3d1135dd	0.03545176
187	0x3b4f8f98	0.0031671282
188	0x3ce6a2a2	0.028153721
189	0x3d1be055	0.038055737
190	0xbc92b696	-0.01790933
191	0x3d1b9acd	0.037989426
192	0xbdee9fdc	-0.116515845
193	0x3bb94def	0.0056550424
194	0xbd9ed003	-0.07754519
195	0xbd7e6759	-0.06211028
196	0x3ce0587a	0.027385939
197	0x3add3ad1	0.001687849
198	0x3bfed2d3	0.007776597
199	0x3beb4b9a	0.0071806433
200	0x3c9856dd	0.018596107
201	0xbe0161a4	-0.12634903
202	0x3c49d850	0.012319639
203	0xbdc8b85b	-0.09800788
204	0x3d1cbb15	0.038264353
205	0x3c33aa2f	0.010965868
206	0x3bc2b110	0.0059415177
207	0xbce166e1	-0.027514877
208	0xbdd35187	-0.103182845
209	0xbdc30399	-0.095221706
210	0xbdbe56b6	-0.092938825
211	0xbb80dd71	-0.003932648
212	0x3b888e3d	0.0041673467
213	0xbdbef2e4	-0.093236715
214	0x3d003129	0.031296883
215	0x3d3afad7	0.045649376
216	0xbdd338e7	-0.10313588
217	0xbbe0f713	-0.006865391
218	0x3da96d5c	0.08272812
219	0x3d91cfe7	0.07119732
220	0xbd7aec94	-0.061260775
221	0xbdf2639f	-0.118354075
222	0xbdc446f6	-0.09583847
223	0xbd9b25bf	-0.07575559
224	0x3c2ff4f6	0.010739556
225	0xbcb6d11c	-0.022316508
226	0x3c5c59d1	0.013449148
227	0x3d2c1b06	0.04201796
228	0xbc8a008c	-0.016845964
229	0x3bf1b2ab	0.007376035
230	0xbdec806f	-0.11547934
231	0xbd3192a9	-0.043352757
232	0x3d1b033d	0.037844885
233	0xbd8525d6	-0.06501357
234	0xbb140dfe	-0.0022591348
235	0xbe009431	-0.1255653
236	0x3ca49b7e	0.020093676
237	0xbc13491e	-0.0089896
238	0xbdf10ef9	-0.11770434
239	0x3cc73870	0.024318904
240	0xbd8cf83d	-0.06883285
241	0x3bd3459a	0.006447506
242	0x3d0003b6	0.03125354
243	0x3cd2cbb9	0.025731908
244	0x3c6a9fba	0.014320308
245	0x3d04efac	0.03245513
246	0x3b890b3d	0.004182248
247	0xbd127bc0	-0.03576255
248	0x3ae02cba	0.0017103173
249	0x3be0109a	0.0068379166
250	0xbc885b74	-0.01664517
251	0xbd274a36	-0.040842257
252	0xbd8f651f	-0.07001709
253	0x3d18108d	0.03712516
254	0xbdf333f1	-0.118751414
255	0xbd12316d	-0.035691667
