TD3/models/third_training_attempt/train_450_episodes_actor.pth (torch, 528299 bytes, 6 tensors)

l1.weight f4 [400, 24]
000000 e5 5f 5c be 9c 62 65 3c 69 32 7f 3f f4 6d e3 be
       -0.21520956 0.014000561 0.99686295 -0.44419825
000010 a9 08 71 3f 64 30 8c 3d 3c 07 2f bf 06 96 41 be
       0.9415384 0.06845167 -0.68370414 -0.18904886
000020 83 35 e8 bf be 3e 10 bf ed 5a 59 3e 6d f2 3c be
       -1.814133 -0.56345737 0.21226092 -0.18451853
000030 4d e6 cc be a9 ea 89 3e 00 0b c0 be 5a 66 9f bd
       -0.40019456 0.26936844 -0.37508392 -0.07783194
000040 3a ef a0 be 7e 09 c1 be 99 99 bb be 1a 8d 98 be
       -0.31432515 -0.37702554 -0.36640623 -0.29795152
000050 d8 f4 a9 be 6e ee 0e be a0 a5 c8 bd a9 5d 90 bc
       -0.33194613 -0.13958141 -0.097972155 -0.017622786
000060 9b b3 85 3e 18 05 05 3f 99 5e 98 bf 44 5c 87 3e
       0.2611359 0.519609 -1.1903869 0.2643758
000070 1b 88 b7 3e 08 c2 b7 be 2f 8f 9e be ad 49 f4 be
       0.35846028 -0.35890222 -0.30968615 -0.4771246
000080 24 d8 1d 3e 25 7a 33 bf 04 f2 77 3e 9f 2f 23 bf
       0.15414482 -0.7010825 0.24213415 -0.6374454
000090 df dd 03 bf ec cf 3b 3e c5 bb 6b bd 4e a1 19 be
       -0.51510423 0.18341035 -0.057552118 -0.15002939
0000a0 5f 4c 6d bd 59 84 97 be c4 0a 24 be dc 2b 25 be
       -0.05793416 -0.2959316 -0.16019732 -0.16130012
0000b0 08 5b 56 be e3 d4 9f be 44 61 ba 3d 07 6e 03 be
       -0.20933163 -0.31217107 0.09100583 -0.12834941
0000c0 0e 28 1b 3f dd 68 98 3f 81 66 d3 bf 5c 5f 1d 3f
       0.60607994 1.1907002 -1.6515657 0.6147363
0000d0 4f 5b 51 3f f4 0d 5e bd d5 0c b6 be 9e 0e 94 bc
       0.8177995 -0.054212525 -0.35556665 -0.018073376
0000e0 05 40 77 3e e1 f4 77 3e b8 32 82 be 6c e1 dc 3e
       0.24145515 0.24214508 -0.2542932 0.43140733
0000f0 e3 40 be be 9e 10 06 3e b4 54 d7 be 66 7c 29 be
       -0.3715888 0.13092276 -0.4205681 -0.1655136
000100 74 21 ea be f2 70 fa be 44 0f 23 be ee b3 f4 be
       -0.45728648 -0.48914295 -0.15923792 -0.47793525
000110 93 40 55 be 9b d0 cd be 32 5a f6 be a8 8a ac bb
       -0.20825414 -0.40198216 -0.4811569 -0.0052655526
000120 b4 c3 40 3f 89 51 c7 3f 06 51 00 bf 62 2e 03 be
       0.7529862 1.5571758 -0.5012363 -0.12810662
000130 f9 a1 cd 3e 80 7b 9d be bf 2d 24 3f a7 26 ba 3e
       0.40162638 -0.30758286 0.64132303 0.36357614
000140 1f 8b 7e bf 49 fe e9 be 27 be 92 be 8e 7e ab be
       -0.9943103 -0.45701817 -0.286607 -0.3349499
000150 b8 e9 82 be 3b bd 83 be d9 45 81 be a4 8d 1d be
       -0.25568938 -0.2573031 -0.25248602 -0.15386063
000160 3e 66 bc be b8 2f b5 be 4d a1 91 be 8c ab 9b be
       -0.36796755 -0.3538797 -0.28443375 -0.30404317
000170 e8 5c 79 be 0d 6a aa be ed 95 ef bd 52 47 b8 be
       -0.24351847 -0.33284035 -0.11698518 -0.35991913
000180 17 90 24 3f 3d f6 9d bf 6a 8a b4 3f ef f0 8f bf
       0.64282364 -1.2340771 1.4104741 -1.1245402
000190 3a 41 b6 bc 8b fb d9 3e 8f d9 89 3d fe ed 8e bd
       -0.0222479 0.42574725 0.06730949 -0.06978987
0001a0 cd ee 85 3c 65 dd 56 3f c9 c5 05 bd 9f 72 46 be
       0.01634922 0.8393157 -0.032659326 -0.19379662
0001b0 b9 15 a2 b9 5d 3a 97 bd 4d 42 b9 be 7c 8f b2 be
       -0.00030915232 -0.07384179 -0.36183396 -0.34875095
0001c0 97 67 aa be 63 ac a9 be c1 57 21 bd a2 d4 59 be
       -0.33282158 -0.33139333 -0.03939033 -0.21272519
0001d0 56 09 d2 3b 03 49 6d be 70 0a 58 3d 9b 3f 0d be
       0.0064098043 -0.23172383 0.05274433 -0.13793795
0001e0 61 a3 0d 3f 5a fd c6 3f 73 7e b8 bf 86 4e b2 3f
       0.5532742 1.5546067 -1.4413589 1.3930213
0001f0 0e 47 3d bf 92 7b 39 be 66 5a 6b 3e 71 5c 39 be
       -0.73936546 -0.18113545 0.22983703 -0.1810167
000200 24 31 84 bf 90 38 83 3d 56 fe 60 bd e4 53 ed 3e
       -1.0327497 0.06407273 -0.054930054 0.46353066
000210 ac cc ac 3e 1f f8 a4 be c7 c7 53 3e e9 36 67 3e
       0.33749902 -0.3222055 0.20681678 0.2257954
000220 17 8b 2f 3e 33 ad f9 3d c6 7b 7d 3e c0 10 a1 bd
       0.17142902 0.12191238 0.24754247 -0.07864523
000230 f9 dc c4 bd dd 56 0a 3e 3f cb 4e 3c 9a 64 9e be
       -0.0961246 0.13509698 0.0126217 -0.30936128
000240 64 c3 10 bf a8 ae 9f 3f 01 d6 03 bf 86 32 ae 3e
       -0.5654814 1.2475176 -0.5149842 0.3402292
000250 0f ac 91 bd fd 48 32 bf e7 5a b3 3c aa 32 cc 3e
       -0.07112896 -0.6964262 0.021893932 0.39882404
000260 a7 d5 62 3e 7f 38 20 3e c7 9e 82 bd e6 41 3c be
       0.22151814 0.15646552 -0.063779406 -0.18384513
000270 aa f1 64 3e e5 08 aa 3c 1c a3 21 bf 9f 2d 1a bf
       0.22357813 0.020756194 -0.6313951 -0.6022586
000280 02 06 10 bf e5 89 fe be 78 68 11 bf c2 6f 2e bf
       -0.5625917 -0.4971458 -0.5680003 -0.6813928
000290 21 eb 15 bf 38 d2 3f bf 28 c1 45 bf cb 99 b9 be
       -0.58561903 -0.74930143 -0.7724786 -0.36250147
0002a0 02 69 40 3f dc bf 12 40 b3 e1 ae bf aa 01 83 be
       0.7516023 2.2929602 -1.3662628 -0.25587207
0002b0 e6 97 33 bf 41 91 15 3d fe 31 02 3f 85 5b 08 3f
       -0.70153654 0.036515478 0.5085753 0.5326465
0002c0 01 7a 4b 3e ec a8 76 3f 1a 32 29 3e 14 06 57 bf
       0.1987076 0.96351504 0.16523018 -0.8399365
0002d0 6a 93 25 3e 74 9e df 3e f1 9d d1 be 70 be fa be
       0.16169515 0.43675578 -0.40940812 -0.48973417
0002e0 f4 2d 8e be 7f 67 34 be 44 28 f3 be e8 f6 f1 be
       -0.27769434 -0.17617606 -0.47491658 -0.47258687
0002f0 80 e3 b1 be 5f 5c ff be a7 69 9b be 60 88 b8 be
       -0.3474388 -0.4987516 -0.30354044 -0.36041546
000300 9e 42 b7 be 47 aa 50 3f 72 7c 0c bf da ff 99 bf
       -0.35793012 0.8150982 -0.5487739 -1.2031205
000310 dd f3 08 3d 5d 1f a6 be 8b 8b 2e 3f 5c ed 09 be
       0.03343569 -0.32445803 0.68181676 -0.13469452
000320 06 5e a1 bf ff 03 3b be 7e 4f 91 3e d0 4c cc bd
       -1.2606819 -0.18263243 0.2838096 -0.09975588
000330 21 2d cc 3e 74 fe 9b be 61 62 6a 3e b6 e1 48 3e
       0.3987818 -0.3046757 0.22889091 0.19617352
000340 b9 9f 6f bc 6e e5 2b bd 40 81 fb 3d b7 d5 27 3e
       -0.014625483 -0.041966848 0.12280512 0.1639012
000350 0e 2b 52 bd 68 14 19 3e 36 28 d4 3d 4a 29 a4 be
       -0.05131059 0.1494919 0.10359232 -0.3206275
000360 82 bd dc 3e b4 4a ec bf f9 85 cd 3f 51 c7 2c be
       0.43113333 -1.8460298 1.605651 -0.16872908
000370 69 1a fa 3e 8d 99 43 be 8e d2 1f bf 3a 8d 0e bf
       0.48848274 -0.19101544 -0.62430656 -0.55684245
000380 3e 38 0a 3e ea 98 a6 3e 05 21 df 3e 2e b6 84 3f
       0.13498017 0.3253854 0.4357988 1.0368097
000390 0d a8 91 3e 2e ba 5a be ea ea 07 be dc bd d6 bd
       0.28448525 -0.21360084 -0.13273206 -0.104854316
0003a0 bf 26 47 bc 5b 5d 66 3d 86 0e 60 be 23 0e 6b be
       -0.012155234 0.056241374 -0.2188054 -0.22954611
0003b0 06 a0 17 be 3a d3 ff bd 52 51 c0 3d 8b bb c5 3b
       -0.14807138 -0.1249146 0.093905106 0.0060343198
0003c0 b4 39 e1 bd d4 d1 be bf ca d8 22 3f de 37 36 3f
       -0.10997334 -1.4907784 0.63612044 0.71178997
0003d0 f5 9f 33 bf 37 d5 72 3e d3 0d 5c 3f 34 33 a5 3e
       -0.7016595 0.23714148 0.85958594 0.32265627
0003e0 d9 e6 5a bd 37 97 3a 3f fc 58 9b be 80 13 9b 3e
       -0.05344281 0.72886986 -0.30341327 0.30288315
0003f0 a3 ad 06 be 0a 32 46 be dc 49 a5 be 4b a9 7e be
       -0.13152175 -0.19355026 -0.32282913 -0.24869268

l1.bias f4 [400]
000000 4e c1 1e be 0c 70 97 be 04 0b a2 bd 86 18 ed be
       -0.15503427 -0.29577672 -0.07912257 -0.46307772
000010 d6 0e 86 3b 4b 43 fc be 7a ea e5 be 08 01 2a bc
       0.004091124 -0.4927009 -0.44905454 -0.010376222
000020 c6 d6 6e be be 19 79 bd 3d eb 10 3e bb 99 d6 3b
       -0.23324117 -0.060815565 0.14152236 0.006549088
000030 18 cf aa 3d 03 ee 8e be cf 92 7f be 2a 24 54 be
       0.08340281 -0.27915964 -0.24958347 -0.2071692
000040 f8 7b 02 bd a5 9f 3b be b2 f2 59 be 7d de 7c 3d
       -0.031856507 -0.18322618 -0.21283987 0.06173562
000050 c6 97 7b bc 7a 18 15 3e 09 3c 85 be 57 96 98 be
       -0.01535601 0.14560118 -0.26022366 -0.298022
000060 3f d6 6d be 12 da 86 be e8 9c 99 be 9a 33 3d be
       -0.2322626 -0.2633825 -0.30002522 -0.18476716
000070 06 3e e1 3e 09 c0 bd 3d 68 b6 bd bc b9 60 bf be
       0.43992633 0.092651434 -0.023158267 -0.3737848
000080 48 0f ae 3e 15 c4 38 be 57 0c 85 bc 69 38 b1 be
       0.33996034 -0.1804355 -0.016241236 -0.3461335
000090 0e 39 da be fe ac fd 3c f5 78 0d bd 1d ec 67 be
       -0.42621654 0.030966278 -0.03453918 -0.22648664
0000a0 2c 1d 25 be 62 d1 8e be 49 b0 ad 3e b9 04 74 be
       -0.1612441 -0.2789412 0.33923557 -0.23829927
0000b0 21 d1 5b 3d 47 2b 42 bd 5d 8b 12 3e c5 3b 11 be
       0.053666238 -0.047404554 0.14310975 -0.14182957
0000c0 25 7d 98 be cc 61 3a bc 5e 19 f2 bd 72 7e fe be
       -0.29782978 -0.011375856 -0.11821245 -0.49705845
0000d0 4e 77 4c 3d ef b3 df be c0 b6 35 bd 14 95 28 be
       0.049918465 -0.43691966 -0.044363737 -0.16463119
0000e0 77 29 43 be db e3 e1 be 7d 40 07 3d ec b2 57 be
       -0.19058786 -0.44119152 0.033020485 -0.21064347
0000f0 6b 30 2d be 79 16 64 be 8d e0 a9 3e f1 eb 4c be
       -0.16913001 -0.22274198 0.3317913 -0.2001188
000100 70 e5 93 3d 8a e7 84 bb cb b4 55 3d 9f fe 46 be
       0.07221496 -0.004055922 0.05217437 -0.19433068
000110 84 34 36 be ef 42 86 3c 9d 43 4c 3d 3f 80 bc be
       -0.1779347 0.016389338 0.04986917 -0.36816594
000120 7b 24 d8 bd 00 06 e5 be 4d 69 d1 be af a7 01 3f
       -0.10553833 -0.4473114 -0.4090065 0.5064649
000130 3f 27 60 3d bf 6e 63 be df b2 97 be 3e 33 bd be
       0.054724928 -0.22210215 -0.29628655 -0.36953157
000140 03 38 00 3d fa 32 45 be 78 26 d3 bd 4a 60 45 be
       0.031303417 -0.19257727 -0.10310072 -0.19275013
000150 f9 9c 27 bf bb 46 0b bf 98 b6 dd bd 56 b3 6d bd
       -0.65473896 -0.544048 -0.108258426 -0.058032356
000160 d2 47 87 3d 27 96 f3 bd 6a 82 8a be 7d 6e b1 be
       0.066054955 -0.11893874 -0.27052623 -0.34654608
000170 92 4d 53 be b3 31 a3 be 8e 8d d6 3e 3f fb a7 bd
       -0.2063506 -0.31873855 0.41904873 -0.08202218
000180 9b 9e ed be 06 fc 83 be 58 84 a2 be a9 4e ba bd
       -0.4641007 -0.25778216 -0.31741595 -0.090970345
000190 97 9a 01 bd 57 50 06 bf 88 90 c9 3c 02 6c 48 bd
       -0.03164157 -0.5246634 0.02460505 -0.04893113
0001a0 2f 60 70 be e5 47 c5 be 12 76 18 3e 60 55 b9 be
       -0.23474191 -0.38531414 0.1488879 -0.36197948
0001b0 24 d7 2a be 2d 92 9d be 51 0e 96 bd 29 bf 7c bd
       -0.16683632 -0.30775586 -0.073269494 -0.061705742
0001c0 41 78 aa bd 4c e7 ae bd a0 13 b8 bd c6 53 1e be
       -0.08323718 -0.0854021 -0.08988118 -0.15461645
0001d0 1d 60 13 be 0b 4e de bd 6e 6d 97 be ff 64 87 be
       -0.14392133 -0.10854729 -0.29575676 -0.2644424
0001e0 bf 7a 1b 3e 17 34 8c be 5e 3b 74 3c df 98 0f bf
       0.15183543 -0.2738349 0.014906732 -0.5609264
0001f0 59 e0 84 3e 2e 81 b2 3d 16 27 51 be d8 9f 50 be
       0.25952414 0.08716045 -0.20425066 -0.20373476
000200 e0 5e b3 3d f9 d2 6f be 6c 59 53 be d8 2f 25 be
       0.0875833 -0.23420323 -0.2063958 -0.16131532
000210 e4 1c ff be 65 80 e2 3d 8f 91 5d 3e 38 cd 73 be
       -0.4982673 0.110596456 0.21637557 -0.23808753
000220 7b 82 ad 3d 41 ce 92 3d 5b 8d 52 3d 7a f1 98 be
       0.08472153 0.07168246 0.05140434 -0.29871732
000230 ba c4 6b bd c6 7b 4f 3e f8 ea 4d be 3f e2 5d be
       -0.05756066 0.2026206 -0.20109165 -0.21668337
000240 6d 71 94 3e b7 e6 d1 bc 3d ab 1a 3e a8 37 a4 bd
       0.28992787 -0.025622709 0.15104385 -0.08018428
000250 41 3b a3 be 29 3e cb be 06 ce 2a 3e 81 b8 f2 be
       -0.31881145 -0.39695862 0.16680154 -0.4740639
000260 66 dc cb 3c 9c 85 09 bd a0 be dc bc 20 15 f3 3d
       0.024885368 -0.033574685 -0.026946366 0.11869264
000270 23 15 b0 3c 8f 78 96 be 6a 21 61 be df c1 d2 3c
       0.021494454 -0.29388854 -0.21985403 0.02572721
000280 e9 3a 2b bb 66 bb 04 bf 61 52 dd be 7e 9c 9c bd
       -0.0026127642 -0.5184845 -0.43226913 -0.07647036
000290 33 b0 25 be 38 2a 10 bf 30 14 af be 15 3b d8 3e
       -0.16180496 -0.5631442 -0.3419509 0.42232576
0002a0 38 91 70 3e 4e fd d9 3d 31 c8 8d be 45 cb 09 be
       0.23492897 0.10644017 -0.27691796 -0.13456447
0002b0 48 93 52 be 39 25 ae be b5 7d 06 bd cd eb 08 bf
       -0.20563996 -0.34012774 -0.032834727 -0.53484803
0002c0 e4 db 03 bd 09 32 b1 3e 60 0b 8e be 40 59 be bd
       -0.032192126 0.34608486 -0.27743053 -0.09294367
0002d0 88 9b 6e 3d bd 18 1f be 73 85 3b bd 6e 73 65 3e
       0.058253795 -0.1553678 -0.045781564 0.22407314
0002e0 58 33 8e 3e 44 91 1a bf 48 6e f1 be 17 4e ab be
       0.27773547 -0.6037791 -0.4715445 -0.33458015
0002f0 dd e1 5a be d6 8b e8 be ba da 79 bc 0c df a1 be
       -0.21375223 -0.45419186 -0.015249902 -0.31615484
000300 b2 85 eb 3d 5f 4b e8 3c 5d 79 a4 bd 8e 2e 9e be
       0.1150011 0.028356252 -0.08030961 -0.30894893
000310 1c 2c b7 be 5f b9 32 be 64 81 0a bf 11 df 8d be
       -0.3577584 -0.17453526 -0.54103684 -0.2770925
000320 f9 fd 90 be d2 57 03 3e 85 0f ff 3d c2 42 2a be
       -0.28318766 0.1282647 0.12454132 -0.16627029
000330 ab d4 eb bd 83 a3 0d be 80 0a b1 be 7a 0d dd 3d
       -0.115151726 -0.13831906 -0.34578323 0.10793586
000340 da 71 ff bc 31 a8 b4 3d fc db 17 bd 6b 14 3d be
       -0.031182218 0.088211425 -0.037075028 -0.1846482
000350 cc 9c 9e 3d 58 6b ee be 7a 78 1d bd 7f ba ba be
       0.077447504 -0.46566272 -0.038444974 -0.3647041
000360 ca 13 2e bf 53 f5 e3 be d6 75 56 be 18 71 91 be
       -0.67998946 -0.44523105 -0.20943388 -0.28406596
000370 05 b0 2e 3c fc 6e 38 be 97 1c 55 be 06 9d 21 be
       0.0106620835 -0.18011087 -0.20811687 -0.15782556
000380 fd 87 ad 3e f8 0d 43 be 9c 32 1e be 20 3a df bd
       0.33892813 -0.19048297 -0.15448993 -0.10899758
000390 02 b4 07 be 47 bf 17 be b4 7c 23 be 94 d8 2f bd
       -0.13252261 -0.1481906 -0.15965539 -0.042931154
0003a0 5c 39 52 3e b9 ee 3a 3e 41 35 1d bf 9f 41 d8 bc
       0.20529693 0.18255128 -0.61409384 -0.026398478
0003b0 15 81 31 be 31 bc 91 be 79 11 d5 be 86 d9 90 3e
       -0.17334397 -0.2846389 -0.41614893 0.28290957
0003c0 e9 93 f8 bd 37 f7 57 3d 45 e2 90 3d 22 cf 7a bd
       -0.121375866 0.052725997 0.070744075 -0.061232693
0003d0 cc 77 d3 3d 40 f1 c8 3d 8e b4 92 be bc 2a 9d bd
       0.10325584 0.0981164 -0.28653377 -0.076741666
0003e0 64 28 44 be 06 97 15 bf f7 a7 af be 68 61 f9 be
       -0.19156033 -0.5843357 -0.34307835 -0.48707128
0003f0 ad 53 46 3e 51 4e 23 3f d9 3d d8 be 9c 8c bc be
       0.19367857 0.63791376 -0.42234686 -0.36826026

l2.weight f4 [300, 400]
000000 87 73 2f bc 0a e6 17 bd f1 72 e6 bc 2c 4f 0d bd
       -0.010708696 -0.037084617 -0.02813098 -0.034499332
000010 28 ab 5b bc 7d 1a 6e bd df 25 95 bc d2 46 3d bd
       -0.013407506 -0.05813073 -0.018206535 -0.046210118
000020 8a aa 03 3d 8f 9f 4f bd a5 f8 01 bd 8e 0b 39 bd
       0.03214506 -0.050689276 -0.031731267 -0.045177035
000030 01 11 28 bd f2 9f db ba 69 30 00 bd 5c f7 02 bc
       -0.04103184 -0.0016756041 -0.031296168 -0.007993545
000040 d5 6c 12 bd d9 4d 47 bd 06 53 1d bc c5 87 c3 bc
       -0.03574832 -0.048658226 -0.009602314 -0.02386845
000050 16 56 cb bc 5e 33 12 3d 14 5b 62 3c 6f 6a e6 3c
       -0.024821322 0.03569352 0.01381566 0.028126923
000060 ea d4 96 3c cd 8c 27 bd f5 3f 08 3d df fb 81 b8
       0.018412072 -0.040905762 0.03326412 -6.198114e-05
000070 c6 5d e7 3c f7 08 c5 bc f4 c3 7e 3a 6d 9f fe bb
       0.028242957 -0.024052126 0.00097185303 -0.00777047
000080 91 7b eb bc 09 98 d6 bc 07 71 2e 3d e6 91 70 bc
       -0.028745444 -0.026195543 0.04258826 -0.014683222
000090 ab 5b 78 bd 54 dc 79 bc cd d3 bc 3c a8 28 34 bd
       -0.060634296 -0.015250284 0.023050213 -0.043984085
0000a0 61 8b e0 3c 6c f9 19 bc ee 4e d1 bc 9b ce 11 bd
       0.027410211 -0.009397846 -0.025550332 -0.035597425
0000b0 e0 49 0f bc 73 46 36 bd c3 6f d4 3c b1 19 b8 bc
       -0.0087456405 -0.04450078 0.025932198 -0.022473188
0000c0 8d a5 c7 bc 82 a2 e0 bb 33 d5 eb 3c da 34 87 3c
       -0.024370933 -0.00685531 0.028788185 0.016504694
0000d0 f4 d2 97 bd 2a ba 4e bd 4f 0d f1 3c 18 fc 43 bc
       -0.07413283 -0.05047051 0.029425291 -0.011961959
0000e0 91 5d 09 3d b0 aa ab bb 14 4f 93 3b da fe fc ba
       0.033536498 -0.0052388534 0.004495511 -0.0019302026
0000f0 52 8f 44 bd 1d e2 99 bd af dc 36 3c 94 98 d7 3a
       -0.047988243 -0.07513831 0.0111610135 0.001644867
000100 bc 6a 33 3c cc 71 8a 3c fd e0 86 3c 38 dd 7f 3c
       0.01095074 0.016899966 0.016464705 0.0156167075
000110 10 1a 36 bd 6f 3e c9 bc a6 05 7b 3c 24 18 9d bd
       -0.04445845 -0.024565903 0.015321171 -0.0767062
000120 17 71 2e 3c 9d 47 21 bd 40 03 17 3a 5a ad 25 bd
       0.01064708 -0.039374936 0.0005760677 -0.040448524
000130 a3 a1 d9 bb 68 6b 7e bc 54 32 30 bd 16 cf 93 bd
       -0.006641583 -0.015528537 -0.043016747 -0.07217233
000140 f9 5d 1f 3c 87 54 c4 3c b9 fd da 3b 73 2d 36 bd
       0.009726995 0.023966087 0.006683078 -0.044476938
000150 4c 93 d9 bb b1 0f d9 3b 49 60 2f 3d 68 64 03 3d
       -0.0066398736 0.006624185 0.042816434 0.032078177
000160 92 6a 46 bd 49 7e 64 3b 12 79 8e 3c 72 64 ea 3c
       -0.048441477 0.003486531 0.017391715 0.02861235
000170 e8 8b c8 b9 ad be b9 bb 22 62 e1 3c c0 c0 e0 bc
       -0.0003825121 -0.0056684823 0.027512614 -0.02743566
000180 8c 4f 1d bb 44 8a 37 bc 3b b4 cd bc 22 1b 35 bd
       -0.0024003712 -0.011202399 -0.025110355 -0.04421533
000190 48 db 2b bb 7a c7 f1 3c b0 c7 67 bd ea 84 3f bd
       -0.002622323 0.029514063 -0.05658692 -0.046757616
0001a0 ab f2 4a bd a0 33 67 3b e8 96 3d bc 83 d7 2a bd
       -0.049547832 0.0035278574 -0.011571623 -0.041709434
0001b0 64 64 95 3b 50 a8 b6 3b 7b dc 5e bd aa 50 6e 3c
       0.0045590866 0.0055742636 -0.054409485 0.014545599
0001c0 f9 6a c1 3b 68 e2 7d bc da fb f9 bc a6 9d 1a 3d
       0.0059026447 -0.015495874 -0.0305156 0.037748
0001d0 e8 01 11 bc 4b 0a ef 3c 30 ce 1d bb 56 7c 0b bd
       -0.008850552 0.029179713 -0.0024079196 -0.034054123
0001e0 f8 12 3c bd 1f da b3 3c a1 1f 82 bc 9a 86 1a bd
       -0.045916528 0.021954594 -0.015884222 -0.037726022
0001f0 75 9f 13 3c c9 9e 03 bd cb d7 cb bc d3 f0 9e 3c
       0.0090101855 -0.03213385 -0.024883172 0.019401943
000200 1c ef 3b bd f4 ca 30 bd 05 50 9d bc 32 f2 aa 3c
       -0.04588233 -0.0431623 -0.019203195 0.02086744
000210 d6 bf 0b bd cf 09 10 3d 14 cc 5d bc 60 fc 48 bd
       -0.034118496 0.035165604 -0.013537426 -0.04906881
000220 f8 dc e7 bc d8 2c 59 bc 4b 3a 58 3a d7 2e ea bc
       -0.028303608 -0.0132553205 0.00082484324 -0.028586788
000230 60 44 f1 ba dc 1b e0 bc 5a 49 9f bc 36 1c 58 bc
       -0.0018407218 -0.027357034 -0.019444156 -0.01319032
000240 98 e2 d7 bc b0 e5 b2 bc b9 b1 ed bc 39 04 cf 3c
       -0.026353166 -0.02183804 -0.029015409 0.025270568
000250 d7 c5 41 bd 6c 45 b8 bc 6b 4a cf bc 22 c8 98 bd
       -0.047307815 -0.02249404 -0.02530404 -0.07460047
000260 0c d7 2a bd d2 e2 83 bc ca 6d ee 3a 37 77 a2 bc
       -0.04170899 -0.016099367 0.0018190679 -0.019832237
000270 a9 7a 39 3d bb 60 dc 3c cf 90 db bc 25 44 24 3d
       0.045282993 0.026901593 -0.026802449 0.04010405
000280 7d 4b 22 bd 60 d4 45 bc a8 3f a0 bb 26 e1 88 3b
       -0.039622772 -0.01207456 -0.004890401 0.0041772304
000290 0e 2d 97 3a 6b 27 fb bc 77 46 00 bd 29 23 a4 ba
       0.0011533813 -0.030658444 -0.0313172 -0.0012522686
0002a0 b8 fb 47 bc f9 7a 48 bd c0 58 de 3a bb 46 2d 3c
       -0.0122060105 -0.0489454 0.0016963705 0.0105759455
0002b0 20 06 d3 bc 80 44 82 bb ae 01 41 bc f7 7d 90 bc
       -0.025759757 -0.003975451 -0.011780186 -0.01763819
0002c0 10 24 ff bb 53 5e 1f 3b 47 62 ea bb 39 9f 83 bd
       -0.0077862814 0.0024317696 -0.007152829 -0.06426854
0002d0 8e b2 1b 3c 6a de 83 bb 35 65 41 bd 19 72 c8 bc
       0.00950302 -0.0040243166 -0.04721566 -0.024468469
0002e0 00 b6 6f 3a 83 e8 3e bd 31 af 65 bc 21 aa 08 3d
       0.00091442466 -0.04660846 -0.01401882 0.033365373
0002f0 82 ea 98 3c 25 c9 d3 3c 9e ed bd 3c d0 5b 62 3c
       0.01866651 0.02585275 0.023184594 0.013815835
000300 ff e5 80 3c 0c c6 fa bc 62 a7 07 bc df 1a 08 bc
       0.01573467 -0.030612014 -0.008279653 -0.008307188
000310 06 d3 a9 bc ea 90 1c bd 87 1f 01 bc 8b 97 25 bd
       -0.020730507 -0.03822414 -0.007881052 -0.040427726
000320 57 5b be bc ea ed 9f bd 45 ec fd bc 76 b3 e5 3c
       -0.023236914 -0.078090504 -0.030996451 0.028039675
000330 79 7b 79 bd e3 bf c9 3c 26 9c 42 bc dd 2b 4f 3c
       -0.06090877 0.024627632 -0.011878049 0.012644735
000340 16 f6 23 3d ae 1a bc bc a9 a3 db bc 93 5e 47 bd
       0.040029608 -0.02296194 -0.026811438 -0.048674177
000350 08 56 2d 3d e7 1f 94 3b a3 68 92 bd 27 2c 80 3c
       0.042318374 0.0045204046 -0.07148864 0.015646053
000360 97 6e 68 bc a2 61 2a bd 73 98 65 bd f6 de 46 bd
       -0.014186523 -0.041597016 -0.05605359 -0.048552476
000370 82 e1 35 bd f4 df 75 bc 9d df fe bc 63 b7 53 bc
       -0.044404514 -0.015007008 -0.031112486 -0.012922141
000380 87 20 09 bd 82 6b 9f 3c 17 26 4f 3c 12 60 52 bd
       -0.033478286 0.019460443 0.012643359 -0.05136115
000390 fe d8 1f 3c e6 bd 8e 3c 55 0d ab bb a2 4c aa 3c
       0.009756325 0.017424535 -0.005220095 0.020788494
0003a0 e2 d0 ed 3c 96 46 e1 bb e3 f9 59 bd 9c 3d 1d 3d
       0.029030267 -0.0068748696 -0.053216826 0.038388833
0003b0 ad dc 3a 3d 96 ad 27 bc 2c 05 e5 3c 82 75 0e 3d
       0.04562061 -0.010234257 0.027956568 0.034780033
0003c0 ae b6 7d 3c 16 9e ba bd 06 df 52 3c 5b bc 84 bd
       0.015485449 -0.09112184 0.012870556 -0.064812385
0003d0 80 28 8f bd 0a 7b 2b 3c 6e 53 06 bd 19 dc c6 bc
       -0.06990147 0.0104663465 -0.03279441 -0.024274873
0003e0 ea 52 39 bd 82 0e cc 3c 69 f9 f3 bc 9c 23 b4 3b
       -0.04524509 0.024909262 -0.029782014 0.005497409
0003f0 05 38 51 bd 6c fd 86 bd 8a f0 3a bd cb 28 32 bd
       -0.051078815 -0.06591305 -0.045639552 -0.043495934

l2.bias f4 [300]
000000 8a 10 89 bd 32 59 a5 3e 51 63 57 bf 91 d7 d9 bd
       -0.06692608 0.32294613 -0.8413592 -0.10636819
000010 41 fa b0 3d 19 2a 2e bd 8a 4c 92 bd e0 97 7d be
       0.08641482 -0.042520616 -0.07143505 -0.24764967
000020 94 1f 2f bd c4 0f 90 bd ea 47 df bd 40 1b 30 be
       -0.042754725 -0.07034257 -0.109023884 -0.17197895
000030 96 c3 18 bf 4c 68 2d be 81 bd 16 be a7 1b bb bd
       -0.5967344 -0.16934317 -0.14720728 -0.09136134
000040 00 76 0d bd 66 99 ac 3d 05 f5 c2 be 06 26 b3 bd
       -0.03453636 0.08427696 -0.3807756 -0.08747487
000050 a0 5e cd 3d ed 80 db be 26 c1 10 bf 20 1a ca be
       0.10027814 -0.428718 -0.5654472 -0.39473057
000060 bd 0e c0 bd f7 eb 84 bc c9 4c 40 3e f7 d1 35 3e
       -0.09377811 -0.016225798 0.18779291 0.17755876
000070 5c 5c a9 bc dd 80 e6 bd 29 9e d0 bd 5f 10 f9 bc
       -0.020673923 -0.112550475 -0.10186417 -0.030403314
000080 21 a3 b3 bd e0 a2 ce be e0 2d 9b bd 69 af 10 be
       -0.08771349 -0.4035864 -0.07577109 -0.14129414
000090 50 b2 78 bd f5 80 1c be 02 d9 4c be 0f 35 c8 be
       -0.060716927 -0.15283568 -0.20004657 -0.3910298
0000a0 75 ed 3e ba 9e a3 10 3e c1 98 23 3e e6 51 1f 3d
       -0.00072833087 0.14124915 0.1597624 0.038896464
0000b0 95 a2 bc 3d c4 7d 85 bd ca 25 a3 be ea 8c 8f bd
       0.092106976 -0.065181285 -0.31864768 -0.07009299
0000c0 8b 0f e1 bd f2 b0 9a bd 90 86 11 be f8 ef 6e 3e
       -0.10989293 -0.07553281 -0.14211488 0.23333728
0000d0 e0 f0 64 bd 25 a9 93 bd d8 2a 90 3d 36 a2 c3 3d
       -0.05589378 -0.07209996 0.07039422 0.09552424
0000e0 ce b5 a9 bd 03 de 51 bd fc 4f e7 bc 8d dc cd bd
       -0.082866296 -0.051237117 -0.028236382 -0.10051832
0000f0 e3 e9 c2 3e c0 db 66 be 6e 30 c2 bb 59 3a 34 be
       0.38069066 -0.22544765 -0.0059261834 -0.17600383
000100 4d c5 40 bd c4 20 15 be e4 41 e1 bd c0 b3 08 bf
       -0.04706316 -0.1456328 -0.10998896 -0.53399277
000110 d6 78 01 be 71 eb c0 bd 01 3e d1 bd 17 42 3b 3e
       -0.12643752 -0.09419907 -0.102169044 0.1828693
000120 32 46 0e bf 7b 7a c9 bc 01 0e 1f be 86 c7 4f be
       -0.5557586 -0.024594536 -0.15532686 -0.20290956
000130 0f db 0d bd 3c 15 59 be 87 fb c4 bd 64 ef bd bd
       -0.03463274 -0.21199507 -0.096182875 -0.09274176
000140 8d 73 8b bd 72 75 99 3e 2a 67 3d bd c5 11 2e bd
       -0.06809149 0.29972416 -0.046240963 -0.042497415
000150 96 2b ab 3c 61 f0 7e bd 8d 81 e0 be 88 78 9e bd
       0.020894807 -0.062240962 -0.4384884 -0.07737833
000160 fb 1b a0 bd 13 e0 35 bd ed d0 82 bd 5b e8 53 3e
       -0.07817837 -0.044403147 -0.06387506 0.20694105
000170 9f 5d e0 3d c1 c5 86 bd 7d f9 bb bd 3b 15 b7 bd
       0.10955357 -0.06580687 -0.091784455 -0.08939596
000180 07 0b 90 3d cc 21 39 bd 02 32 0e bf 9c 00 9e bd
       0.07033353 -0.045198247 -0.55545056 -0.0771496
000190 11 2f 21 3c 86 37 a8 be 29 42 3a bd a7 85 eb be
       0.009837882 -0.3285486 -0.04547325 -0.46000406
0001a0 c1 06 07 bd b2 50 01 be bd 2c 4d bd 0a 31 47 bd
       -0.032965425 -0.12628439 -0.050091494 -0.04863075
0001b0 7f 75 0a be bd 2d 9a bd 9e d3 f0 be 75 86 75 3e
       -0.13521384 -0.07528255 -0.4703645 0.23977073
0001c0 68 5d 96 bd 1f 48 10 bd 09 e1 63 be 64 fd ea be
       -0.073420346 -0.03522503 -0.22253813 -0.45896447
0001d0 36 de d9 3d 68 e4 dd be 20 65 6d bd 43 86 89 be
       0.106380865 -0.43338323 -0.05795777 -0.26860246
0001e0 1a 8f 5a bf 55 e0 cb be dc 5c 40 be aa 25 74 3d
       -0.85374606 -0.3981959 -0.18785423 0.05960623
0001f0 b7 5b a0 be 20 a1 11 bd b1 12 df bd 8a d7 c9 3e
       -0.31319973 -0.03555405 -0.10892237 0.39422256
000200 ac 79 0e be fb 8b a8 3e 13 f9 e7 bd 0b 78 bf bd
       -0.13913602 0.32919297 -0.11326804 -0.09349068
000210 22 55 1f bd c7 b0 95 bd f0 08 85 be 2c da 91 bd
       -0.03889955 -0.07309108 -0.2598338 -0.07121691
000220 84 2b 60 bd a9 fe a1 bd 0f be 9a 3a fc c8 9d bd
       -0.054729 -0.07909901 0.001180591 -0.0770435
000230 8b 72 85 bd cc a5 99 3d 8a 90 41 3a b2 0a ee be
       -0.06515988 0.07502326 0.0007383904 -0.46492535
000240 fc ea b1 bc 42 89 55 bf ae 7e ee 3e 26 04 44 be
       -0.021718495 -0.83412564 0.46581024 -0.19142208
000250 bd a2 5f bd aa 54 aa bd d1 c8 ad bc 84 ee 34 3e
       -0.05459856 -0.0831693 -0.02121392 0.17669111
000260 9e ba cb bd 45 60 b5 bd c2 00 43 be 88 74 a2 bd
       -0.09947704 -0.088562526 -0.19043258 -0.07932383
000270 10 81 cc bd 64 c5 0a be 97 c9 1c be bc 0f 28 3e
       -0.09985554 -0.13551861 -0.15311275 0.16412252
000280 a0 d7 01 bd ab 48 b1 3d 09 f0 a3 bd 39 d8 ca bd
       -0.031699777 0.086564384 -0.080047674 -0.099045224
000290 38 bb cb bd 26 ff 6c be de 7a 08 be 55 c7 ce bc
       -0.099478185 -0.23144206 -0.1332812 -0.025241533
0002a0 35 5e 0d bd ae a5 23 be e8 aa 36 be 93 63 9c bc
       -0.03451367 -0.1598117 -0.17838633 -0.01909045
0002b0 b6 b7 da be 5d fa bd bc e1 e3 ac 3b a4 08 08 bd
       -0.42718285 -0.023190672 0.0052761887 -0.033211365
0002c0 57 49 57 bd e9 19 e8 bd 45 bc 8b bd e7 a3 a5 bd
       -0.052560177 -0.11333067 -0.06823019 -0.080879025
0002d0 a4 9d 98 bd fd af 82 bd d0 f8 24 be ef c1 0f bf
       -0.074519426 -0.06381223 -0.1611054 -0.56155294
0002e0 0b 9e ee 3d 99 f4 90 bd ea 75 07 bf be dd c6 be
       0.11651238 -0.07077903 -0.529143 -0.3884105
0002f0 56 6c 60 bd 0f c8 63 bd ab a1 29 bd 1e e8 8a bd
       -0.054790817 -0.055610713 -0.041413944 -0.06782554
000300 68 99 f3 bd a8 cb 8a bd e1 35 11 be ab 75 9b bd
       -0.11894494 -0.067771256 -0.1418071 -0.07590803
000310 7d be 93 bd 2c 5a 0e bd 3c 7d b6 be 74 5a b3 bd
       -0.07214067 -0.034753963 -0.3564242 -0.08757487
000320 82 d0 e4 3d 18 b8 10 3a 72 f8 53 bd a7 0d c0 3c
       0.11172582 0.0005520596 -0.051750608 0.02344401
000330 69 0f 6b bc 94 0d 7f bd 65 5f b5 be b5 2e 8d bd
       -0.014346936 -0.06226881 -0.35424343 -0.06893674
000340 cd 07 a7 bd 99 28 37 be 6e eb 89 bd 85 e0 80 bd
       -0.08155785 -0.1788658 -0.06734358 -0.06292824
000350 fe fe af 3d 6b 79 5d bd c4 04 4e bc d6 f3 3d be
       0.08593558 -0.05407087 -0.012574378 -0.18550047
000360 48 8c 52 be 9c b0 84 bd bc 26 c2 be f0 71 1b bd
       -0.20561326 -0.06478998 -0.37920177 -0.037950456
000370 5e fb c0 bd ed 4f 02 bd fe 4d b4 bd 39 97 d2 bd
       -0.094229445 -0.031814504 -0.08803938 -0.1028275
000380 95 ab 92 bd c2 b7 87 bd fb b3 c2 bd 8e 7c cc bd
       -0.07161633 -0.06626846 -0.09506985 -0.099846944
000390 a0 84 cd bd b4 e0 73 3e 1a 5f d4 bd ad 33 c7 bd
       -0.10035062 0.23816186 -0.10369702 -0.09726653
0003a0 cf b9 cd 3b 44 54 83 bd 3c cd ae bc 0f 3f 48 3d
       0.0062782536 -0.06412557 -0.021338098 0.048888262
0003b0 cf 02 81 3e c4 c0 c8 bc 41 0c 6a 3e 9e e6 eb bc
       0.25197455 -0.02450598 0.22856237 -0.02879649
0003c0 cd e5 84 bd f9 32 0e bd 44 3b 63 be 34 c3 ba bd
       -0.064891435 -0.03471658 -0.22190577 -0.09119263
0003d0 ce 65 9f bd d0 a8 b4 bd ae 25 a8 be 0f f9 d2 bd
       -0.077830896 -0.08821261 -0.32841247 -0.103014104
0003e0 f7 9f e5 bc 89 c2 02 bd 0a 9e 32 bb 27 d7 31 be
       -0.028030379 -0.031923804 -0.0027254843 -0.1736723
0003f0 de cd e7 bd d7 85 dc bd 5b 82 ff 3d 91 1e dc bd
       -0.11318563 -0.107677154 0.12476035 -0.107480176

l3.weight f4 [4, 300]
000000 0b f9 8b bd 9a 80 7d be 65 c4 fd 3e de bd 03 bd
       -0.068346106 -0.24756089 0.495639 -0.032163493
000010 ef ec 37 3e 2d de 02 3c a7 49 0b 3d c3 89 43 bd
       0.17961477 0.007987541 0.034005787 -0.0477388
000020 32 34 66 bd 6b f3 ba 3c 6c 40 c6 bb 48 0e 44 3f
       -0.05620212 0.022821149 -0.00605016 0.7658429
000030 12 e0 d0 3c b7 7e 2f bf 7f 2b ae 3e 37 e0 67 3c
       0.02549747 -0.68552727 0.3401756 0.014152578
000040 12 f0 34 3d be 82 47 bf bd 63 b9 bf 11 74 1e 3b
       0.04417426 -0.7793387 -1.4483563 0.0024178068
000050 cb 36 b7 3f 5b e2 33 bf 67 f3 3d 3f 4c 76 7e bf
       1.4313596 -0.70267266 0.7419953 -0.99399257
000060 86 59 df be 03 1d ea bc 9b b3 86 be d7 ef 24 be
       -0.43622988 -0.028578287 -0.26308903 -0.16107117
000070 7e 26 c5 3c 93 6b d4 3e b9 5d 99 bc 2a 1c a0 3c
       0.024066206 0.41488323 -0.018721448 0.01954468
000080 67 1c 6c bd ee 8f 9c 3e 4f 32 a2 3f 1b bb d4 3b
       -0.057644274 0.3057856 1.2671603 0.0064920313
000090 23 55 e4 3c 50 8a 86 bf c6 12 1f 3c 08 12 9f be
       0.027872628 -1.051096 0.009709066 -0.31068444
0000a0 6c f8 4a 3c 59 ac 2e 3e 49 16 2b be 16 b8 44 3e
       0.01238833 0.17057933 -0.1670772 0.19210848
0000b0 55 58 13 be 09 31 44 3e e4 5b 1a be de 32 d4 bc
       -0.14389165 0.1915933 -0.15074116 -0.025903162
0000c0 d5 e6 9c be 37 80 90 3c 88 51 90 be 8a 3e 0d 3e
       -0.3064486 0.017639263 -0.28187203 0.13793388
0000d0 5e 1a c7 3c db 12 4e bc 9d 5f 2d 3e a6 4e c1 3e
       0.024304565 -0.012577738 0.16931005 0.37755316
0000e0 2a e9 e4 3c ab ee 10 bd b5 e5 ae 3b 5c 69 22 3d
       0.027943213 -0.03538386 0.005337442 0.03965126
0000f0 06 22 11 bc 68 0b c2 3d 44 db 1c bb f7 9a a0 3b
       -0.0088582095 0.09474832 -0.0023934403 0.0049012857
000100 e5 3d 97 3a 4b 45 77 3e 76 94 ca bc fa cd ac be
       0.0011538832 0.24147527 -0.024728995 -0.33750898
000110 23 4e 41 bf 63 e9 2a ba 02 b0 cb 3c 79 b2 9b 3e
       -0.7550985 -0.00065197627 0.0248642 0.304096
000120 f4 64 a3 be 74 7b 24 3b 40 c9 eb be 5a 94 d2 3e
       -0.3191296 0.0025097998 -0.4605198 0.41128808
000130 03 63 3d 39 b5 03 85 3e 49 37 f1 3b 8e 4d 86 bb
       0.0001806133 0.2597939 0.007361327 -0.0040986007
000140 01 fe 0e bc aa 75 44 3e 4d 66 27 3f 10 05 90 bc
       -0.008727551 0.1918551 0.65390474 -0.017580539
000150 0c c3 07 bf 98 d6 88 bc 68 4a 70 bf 4a 8c 25 ba
       -0.5303199 -0.016703889 -0.93863535 -0.0006315155
000160 7d c1 07 bc 75 38 8e 3c a5 4a 84 3c 2a 59 72 3e
       -0.008285877 0.017360905 0.016148875 0.23666826
000170 4b 81 8d 3f f4 d9 4d 3d 08 02 25 3d 6f 4b 9e 3c
       1.1055082 0.050256684 0.04028514 0.019323079
000180 0b 0b c2 bf e5 30 84 bc c1 19 67 3e 8f 0c a6 bb
       -1.515962 -0.016136596 0.22568418 -0.005067415
000190 34 63 10 bb ba d7 cd be f5 f4 b6 bc 02 3d 3d be
       -0.0022031786 -0.4020365 -0.022333601 -0.18480304
0001a0 24 76 5a 3d 4d c5 14 bd 41 c4 cd 3c ff 84 81 3c
       0.053335324 -0.036320973 0.025117995 0.015810488
0001b0 0c b8 58 be 46 12 c3 b9 e4 a5 64 3f b4 7f 90 3e
       -0.21163958 -0.00037206913 0.8931563 0.2822243
0001c0 ca 6c eb 3b 74 5a 33 3c e2 db 8c 3d 7a 6a 6b bf
       0.0071845995 0.010946859 0.06877877 -0.91959345
0001d0 8b a8 f4 3d 19 73 e9 be 8a 0d fd 3b ca 32 73 3f
       0.119462095 -0.45595625 0.0077225612 0.9499937
0001e0 44 aa 46 3e ab a3 39 bc 9a 5f 10 3f 53 56 a9 3e
       0.19400889 -0.011330525 0.56395876 0.33073673
0001f0 ae 8c e8 be 4e 70 0e 3c 85 8d 9b bb 0d 6e 21 be
       -0.4541983 0.008693768 -0.004747095 -0.15764637
000200 66 1b 05 bf 3f fa 2b be 0a 1f 09 bc 73 3f db 3b
       -0.5199493 -0.1679468 -0.008369217 0.0066909133
000210 67 86 0b bd 8a da a0 3d 13 4e 69 3f 6c dd d4 3c
       -0.034063723 0.07854183 0.91134757 0.025984488
000220 bb fb 25 bd 56 44 84 bc 9d e4 78 3d 67 10 01 3d
       -0.040523272 -0.016145866 0.060764898 0.031509783
000230 f6 5f 6c bc ed 95 9f 3e de f9 e2 39 e2 44 8c 3e
       -0.014427176 0.31169072 0.00043292245 0.27396303
000240 75 0f 43 3b c9 29 6d be bd 39 25 bf 09 77 90 3d
       0.0029763852 -0.23160471 -0.64541227 0.07053954
000250 5c 12 c2 bb 8b 9a 3c 3d 83 a2 e3 3d be 39 de bd
       -0.0059225988 0.04604582 0.11114981 -0.10850857
000260 49 4d d3 bc 36 6a e6 bc 5d ca c4 3e 0b 36 80 bb
       -0.025793688 -0.028126817 0.3843564 -0.0039126924
000270 83 7e 3e bd d3 65 09 3e 65 7c ff be 1a 56 fb be
       -0.04650737 0.13417749 -0.49899593 -0.49089128
000280 d1 e5 f2 bc 29 50 c5 bc a4 54 ba bc d8 78 4d 3d
       -0.0296506 -0.024086075 -0.022745438 0.050164074
000290 ce 34 8e 3c cb 9e dd be cd fd 2f 3e 4d 5c cb 3d
       0.017359164 -0.43285212 0.17186661 0.09929714
0002a0 65 58 23 3f 3a f1 30 bd 93 75 d8 bd 28 04 da 3d
       0.63806754 -0.0431988 -0.105693005 0.10645324
0002b0 c9 6d 97 bf 58 20 16 bb 72 ac 9d 3e 45 fc 74 bc
       -1.1830379 -0.0022907462 0.30795628 -0.014952724
0002c0 3c e4 00 3d 2c 2a 8b be 3d dc 88 bd 24 c6 da bb
       0.03146766 -0.27180612 -0.06682632 -0.0066764522
0002d0 e3 89 89 3c b1 af e8 be 6b d2 55 3e 2c 19 fa 3d
       0.016789382 -0.45446542 0.2088105 0.122118324
0002e0 46 f0 3a bd 99 84 27 bc 14 40 8e be e8 3d 50 bf
       -0.0456393 -0.010224485 -0.27783263 -0.8134446
0002f0 cc 13 b6 bc 33 53 94 bd 70 cb 72 3b c5 0e 61 bc
       -0.022226237 -0.072424315 0.0037047528 -0.0137364315
000300 ab 6f cd bc 74 84 10 3d 6d 90 1a bd e2 c5 1a 3f
       -0.025077661 0.035282567 -0.03773539 0.60458195
000310 f0 64 b4 3c 6f 1c 3b 3d c1 0a 13 3f 9a af 8f 3d
       0.022020787 0.045681413 0.57438284 0.07015915
000320 70 28 81 3f 0b e6 bf 3c a1 51 84 39 34 ba 7b 3e
       1.0090466 0.023425123 0.0002523782 0.2458275
000330 ec 66 b3 3c 34 b1 3c 3f 1f f3 0b bf 59 5a 68 3d
       0.021899663 0.7370789 -0.5466785 0.056726787
000340 30 a7 53 3c 1e a3 11 bf b3 cb 24 bd 7a af ed 3d
       0.012918279 -0.5688952 -0.040233325 0.11605735
000350 7d 4f c4 be 90 fe a8 3c c0 db a5 bd 14 d3 3c be
       -0.38341895 0.020629197 -0.080985546 -0.18439895
000360 a5 26 52 bd e1 25 80 3c d6 ae 8b be 8a 4c a6 bc
       -0.051306386 0.015643062 -0.27281827 -0.020300169
000370 e2 e0 10 bf 38 6b 1b be 8d eb db 3c 21 3c 4c bb
       -0.56593144 -0.1517762 0.026845718 -0.003116377
000380 26 4b da 3c 12 e2 53 3d 4d f4 33 be 07 a0 86 3d
       0.026647162 0.05172927 -0.17573662 0.065734915
000390 8e 8c af bd 63 1c b5 3c b9 f1 04 3d df 99 3f 3c
       -0.085717306 0.022108262 0.032457087 0.011694401
0003a0 0b 75 f8 3e 3f 0b b2 ba 2e 02 cf 3b 67 f4 1d 3f
       0.48526797 -0.0013583674 0.0063173985 0.61701053
0003b0 95 59 67 3e 71 86 15 3d 86 ad 54 be 38 6b 66 3d
       0.22592767 0.036505166 -0.20769319 0.056254596
0003c0 a9 b8 17 3d 82 7b c1 bc 87 f0 1b 3e 52 67 a0 3d
       0.03704134 -0.023618463 0.15228473 0.07832207
0003d0 10 80 46 bd 50 73 81 bd 7b 69 81 3e 8d f0 db 3c
       -0.048461974 -0.06320822 0.25275788 0.026848102
0003e0 5b e2 4f bf 26 fe 38 3c e8 b6 d2 bb f6 38 b2 bd
       -0.81204766 0.011291062 -0.0064304955 -0.08702271
0003f0 c6 78 31 be 84 95 0d bd ba 57 9e 3e 33 ac 65 bc
       -0.17331228 -0.034566417 0.30926305 -0.014018106

l3.bias f4 [4]
000000 3d f4 50 be d6 f3 8c be 4b 25 86 3e 85 bf 96 3d
       -0.2040567 -0.27529782 0.26200327 0.07360748
