TD3/models/third_training_attempt/train_50_episodes_critic_2_goal.pth (torch, 531051 bytes, 5 tensors)

l1.weight f4 [400, 28]
-0.014870722 0.058515053 -0.09970003 0.23248665 0.1487182 0.073560394 0.11578883 0.16340181
0.11002506 -0.20770897 0.17806159 0.06834201 -0.08101099 -0.09826655 -0.18098223 -0.12097147
-0.15269682 0.12234535 -0.23563975 -0.101591006 -0.050604764 -0.07574491 -0.22414796 -0.040273782
0.011917495 -0.12767774 -0.0508253 -0.01013699 0.1511441 -0.077002876 -0.051663496 -0.20084548
-0.018726438 -0.021152778 -0.1840608 0.0771784 -0.14755592 0.06779743 -0.065460116 0.08329384
0.2857062 0.0377294 0.010828917 -0.1338975 -0.1644151 0.053341314 0.023980195 -0.09937037
0.14906092 0.06533531 -0.1755135 0.058315307 -0.04640752 0.048341993 -0.09873373 0.13101935
0.2536627 -0.0786631 -0.22012763 -0.23963623 -0.091693684 -0.0661426 -0.081709206 -0.030061074
0.018270047 -0.042090125 0.08487784 0.18005835 0.04662087 -0.08975201 -0.24993597 -0.042216517
-0.08638655 0.09048743 -0.08138422 -0.26058707 0.07239741 -0.06441625 -0.15655924 0.01300279
0.07367461 -0.03212782 -0.042893127 -0.019561745 -0.3070878 -0.16724366 0.07380347 -0.33083478
-0.13335703 0.055189386 0.077740714 -0.03136282 -0.25426474 -0.060120855 -0.22162549 0.07538959
-0.05877225 -0.10653034 -0.10347256 -0.08991515 0.11502345 0.08003572 0.009961332 -0.13330841
0.14578198 -0.015557715 0.04563908 -0.011758608 -0.048391014 -0.08240054 0.039423402 0.026238246
0.026503418 0.12360599 0.08228205 0.054087166 -0.1555638 0.10330464 -0.1485811 0.09463066
-0.123175025 0.043739047 -0.044338822 0.13944668 -0.016422026 0.08429222 0.086212985 0.09362035
-0.115468465 0.09858543 0.010208888 0.12065109 -0.11639979 -0.118027 -0.1452522 -0.15479192
-0.10948117 0.008739445 0.0057945545 -0.051708195 -0.31078076 -0.100037135 0.005027647 -0.040397715
-0.011671073 -0.1744959 -0.10521021 -0.2515523 -0.03728386 -0.048350763 -0.21871139 0.20790678
0.03489229 -0.04716314 -0.024223778 0.049226616 -0.05458164 -0.22183582 -0.08915793 -0.09310951
-0.22155248 0.08200593 -0.032182887 -0.12629928 0.08505642 0.09088895 0.072443455 0.21585043
-0.20440987 0.038955767 -0.12467291 -0.008042258 0.16131268 0.096920975 -0.16917454 0.034229115
0.017208062 -0.09126001 -0.13962251 -0.0462268 -0.10861094 0.06066231 0.07012568 0.07557206
-0.17208622 0.043004423 -0.12441512 -0.116073444 -0.12146767 -0.0997358 0.054500677 0.12099531
0.08878046 0.07328026 0.12514977 0.017554889 0.26715264 0.17019266 -0.3419909 -0.22980769
0.052575484 -0.05293947 0.006334308 0.11532432 -0.26248813 0.24722995 0.14834866 -0.07489193
0.15962516 0.033672214 -0.13824657 -0.111910805 0.050305475 -0.10362062 0.05799955 -0.03422995
-0.12801184 -0.073467195 -0.1520228 0.08174844 -0.093899794 0.091213055 -0.025635073 -0.090775035
-0.075887956 -0.098442376 0.06692044 0.16160177 -0.02367592 0.13518496 -2.517684e-05 0.001513645
-0.008991703 -0.086238325 -0.009239753 0.06491473 -0.10587508 -0.09258194 -0.20569137 0.0030291993
0.14381869 -0.1813935 -0.20728877 -0.10591383 -0.005910598 -0.14962718 -0.11981067 -0.120761365
0.035321373 -0.121192 0.030866852 0.008115273 -0.21382277 -0.15119039 -0.015286344 0.018022927
00000000: 54a4 73bc 7bad 6f3d 882f ccbd fb10 6e3e
00000010: 9549 183e d5a6 963d b222 ed3d ce52 273e
00000020: d254 e13d a9b1 54be c755 363e e5f6 8b3d
00000030: 17e9 a5bd f93f c9bd 6853 39be e4bf f7bd
00000040: 8e5c 1cbe 3390 fa3d 8c4b 71be f20e d0bd
00000050: f146 4fbd 2620 9bbd 0b87 65be 1ff6 24bd
00000060: 9941 433c f4bd 02be 312e 50bd 9e15 26bc
00000070: 85c5 1a3e afb3 9dbd 1a9d 53bd 70aa 4dbe
00000080: 3068 99bc 9748 adbc 6f7a 3cbe b50f 9e3d
00000090: e618 17be 61d9 8a3d f40f 86bd f695 aa3d
000000a0: 1548 923e 258a 1a3d c56b 313c 6d1c 09be
000000b0: 6f5c 28be 6c7c 5a3d 1d72 c43c b182 cbbd
000000c0: 6da3 183e 85ce 853d d0b9 33be 08dc 6e3d
000000d0: d015 3ebd 4102 463d e934 cabd f029 063e
000000e0: 14e0 813e 1f1a a1bd 2369 61be 3363 75be
000000f0: e6c9 bbbd c575 87bd 2857 a7bd a442 f6bc
00000100: 11ab 953c b266 2cbd 6fd4 ad3d 3761 383e
00000110: 86f5 3e3d e7cf b7bd 37ef 7fbe 3aeb 2cbd
00000120: 6eeb b0bd 7951 b93d c5ac a6bd ab6b 85be
00000130: 1845 943d abec 83bd 1151 20be a709 553c
00000140: b7e2 963d 7698 03bd b4b0 2fbd f43f a0bc
00000150: 9d3a 9dbe ec41 2bbe 4626 973d 2d63 a9be
00000160: bf8e 08be 440e 623d 8636 9f3d 4d76 00bd
00000170: fd2e 82be 4941 76bd cbf1 62be db65 9a3d
00000180: 2cbb 70bd 942c dabd 6ce9 d3bd 6f25 b8bd
00000190: 6a91 eb3d c4e9 a33d db34 233c 0082 08be
000001a0: df47 153e c9e5 7ebc 0bf0 3a3d 2da7 40bc
000001b0: a835 46bd 9dc1 a8bd 6f7a 213d 97f1 d63c
000001c0: b21d d93c 2325 fd3d 7e83 a83d 818a 5d3d
000001d0: 1e4c 1fbe 6291 d33d a525 18be b8cd c13d
000001e0: 3043 fcbd b727 333d a09c 35bd 1ccb 0e3e
000001f0: 7c87 86bc 66a1 ac3d 6f90 b03d 07bc bf3d
00000200: bb7a ecbd 28e7 c93d 2e43 273c eb17 f73d
00000210: 0363 eebd 24b8 f1bd febc 14be c681 1ebe
00000220: aa37 e0bd e42f 0f3c 3fe0 bd3b f9cb 53bd
00000230: a81e 9fbe 45e0 ccbd f6be a43b 1378 25bd
00000240: 0738 3fbc 0eaf 32be 7378 d7bd 77cb 80be
00000250: f6b6 18bd 730b 46bd e1f5 5fbe 84e5 543e
00000260: 38eb 0e3d 232e 41bd f270 c6bc d9a1 493d
00000270: ff90 5fbd ee28 63be 6f98 b6bd 33b0 bebd
00000280: a7de 62be baf2 a73d 34d2 03bd 9954 01be
00000290: 0f32 ae3d fc23 ba3d 3c5d 943d e507 5d3e
000002a0: d250 51be 1590 1f3d 8354 ffbd adc3 03bc
000002b0: 272f 253e 817e c63d 173c 2dbe d433 0c3d
000002c0: ecf7 8c3c 87e6 babd 34f9 0ebe 5058 3dbd
000002d0: 6a6f debd 0b79 783d 0d9e 8f3d 86c5 9a3d
000002e0: 5f37 30be 6825 303d 5bcd febd eab7 edbd
000002f0: 0bc4 f8bd 4842 ccbd 1a3c 5f3d 64cc f73d
00000300: 88d2 b53d f613 963d 4327 003e 45cf 8f3c
00000310: 3bc8 883e fc46 2e3e 6e19 afbe b552 6bbe
00000320: 6459 573d 0fd7 58bd 0790 cf3b 282f ec3d
00000330: d864 86be d929 7d3e b6e8 173e f160 99bd
00000340: c774 233e e0eb 093d 8290 0dbe 7e31 e5bd
00000350: 1d0d 4e3d 0c37 d4bd f090 6d3d b434 0cbd
00000360: 8915 03be f875 96bd ddab 1bbe ba6b a73d
00000370: 894e c0bd e9cd ba3d a500 d2bc 43e8 b9bd
00000380: 256b 9bbd 289c c9bd 950d 893d ef7a 253e
00000390: 01f4 c1bc ed6d 0a3e da32 d3b7 8065 c63a
000003a0: f051 13bc b89d b0bd 5562 17bc 04f2 843d
000003b0: 09d5 d8bd 9a9b bdbd c2a0 52be 8885 463b
000003c0: 3545 133e 38bf 39be 8243 54be 5ae9 d8bd
000003d0: b1ad c1bb de37 19be 4c5f f5bd bc51 f7bd
000003e0: 25ad 103d 8333 f8bd 7bdc fc3c ecf5 043c
000003f0: 5bf4 5abe a7d1 1abe 9373 7abc d1a4 933c

l1.bias f4 [400]
-0.006065477 -0.095730096 0.037622176 0.25654855 -0.17347503 0.12637359 -0.18088983 0.044228163
-0.16035007 -0.027938703 0.03234419 -0.0439797 -0.08937426 -0.0652291 0.1150812 -0.022124127
0.11632592 -0.040984582 0.27575168 0.10630266 -0.13118549 0.039408065 -0.0049371817 -0.22787921
-0.07099926 0.091185324 0.17185077 0.10785799 0.08893083 0.13027962 0.17362474 0.048700996
0.11418451 -0.014104617 -0.08442319 -0.10464611 -0.049231376 0.050123915 0.030069267 0.02988527
0.040729664 0.25518614 0.19714552 -0.06478569 -0.083361365 -0.0071347966 0.25411075 0.16201954
0.133643 -0.18968154 0.048043948 -0.056177843 -0.17657647 0.003219493 -0.12148234 -0.06809446
0.05082251 0.053004764 0.16755135 0.013716827 -0.083818324 0.20250963 -0.05618668 -0.022184847
0.03608639 0.20606446 -0.14682278 0.21257655 0.0378559 0.14097762 0.10496314 -0.19911468
-0.1414375 0.16220728 -0.16625899 0.24375276 0.09443385 -0.09585673 0.07435044 -0.21161905
-0.10490208 0.22072008 0.13367562 -0.025239628 -0.03442523 0.118662894 -0.18575807 -0.15862879
0.2833347 0.07348589 0.062518805 0.22862881 0.058928028 -0.058831625 -0.17686018 0.10587506
-0.15627013 0.014877822 0.1608711 0.09981 -0.16270742 -0.07523827 -0.058434244 -0.039470635
-0.037799142 -0.11546522 -0.044100907 0.058781557 0.030980086 0.24581045 0.13918686 0.19374803
-0.013386434 -0.10932522 0.016264062 0.05462035 0.05699876 0.09690643 -0.18234059 0.25080207
-0.024555732 0.25081125 0.19206458 0.24621548 0.06375814 0.04775269 0.1483861 -0.059883725
-0.12517443 -0.039163344 0.09596307 -0.0039615277 0.13606365 -0.018514106 0.111319184 0.055457857
-0.11171594 0.006842702 -0.14265631 0.027841736 -0.0070619285 0.0056931744 0.048725355 0.101865195
-0.13181728 -0.049782723 0.088904046 -0.11934352 0.24783987 -0.041307975 -0.049596652 0.16160595
0.008931777 0.18226968 -0.03128779 -0.0007678179 -0.083447956 -0.174437 -0.13969405 -0.050476417
0.042687718 0.24545887 0.028385874 0.035215206 0.15725587 -0.006598664 0.008895239 -0.17841625
-0.08888709 0.025004856 0.1586692 -0.020283956 -0.17902614 -0.057839274 0.01707975 0.09371734
-0.20033553 0.09995769 0.222357 -0.13377531 -0.11451611 0.021138959 0.062442448 0.18651175
-0.06894727 -0.00048630586 -0.18797272 0.11384731 0.2321276 -0.0014230191 -0.04582596 0.08020159
0.1803429 0.0709981 -0.021528661 0.20591351 -0.045677964 -0.015043069 0.16689251 0.072622225
-0.027574688 0.22133741 -0.06987326 0.21919419 -0.16270973 0.22151643 -0.00034928997 -0.11295879
0.08271227 -0.19673993 -0.12268868 -0.022231638 0.26315394 0.12085156 -0.19551408 0.15032768
0.031165248 0.068514176 -0.13972658 -0.086475775 -0.11368404 0.034321405 -0.032384366 0.20355934
0.10940091 0.013746056 -0.010362381 -0.088825785 0.24660581 -0.10912056 -0.13157926 0.15773728
0.18350685 -0.19437838 -0.016651595 0.04512989 -0.040481593 0.15854144 0.3086376 -0.060466558
0.007856377 0.14720951 0.08981535 0.23746529 0.1358686 0.15142256 -0.10447514 -0.06187694
0.2399946 -0.029586114 -0.0213914 0.20020664 0.023145404 0.12113164 0.032297026 -0.02602618
00000000: e9c0 c6bb 240e c4bd b619 1a3d 555a 833e
00000010: 70a3 31be 1468 013e 2f3b 39be 9728 353d
00000020: cf32 24be b5df e4bc 577b 043d 0f24 34bd
00000030: da09 b7bd d696 85bd b1af eb3d a83d b5bc
00000040: 493c ee3d 73df 27bd 532f 8d3e 36b5 d93d
00000050: 7d55 06be 5a6a 213d 15c8 a1bb 2b59 69be
00000060: 0f68 91bd 5fbf ba3d a6f9 2f3e a6e4 dc3d
00000070: 5e21 b63d 0568 053e afca 313e b27a 473d
00000080: 92d9 e93d 0d17 67bc 11e6 acbd b350 d6bd
00000090: d7a6 49bd bc4e 4d3d d353 f63c f4d1 f43c
000000a0: 26d4 263d c2a7 823e 84e0 493e 5cae 84bd
000000b0: 5db9 aabd 03cb e9bb ce1a 823e 73e8 253e
000000c0: b6d9 083e e13b 42be bbc9 443d bd1a 66bd
000000d0: 76d0 34be 21fe 523b bccb f8bd 1c75 8bbd
000000e0: 442b 503d 861b 593d 9592 2b3e 8bbc 603c
000000f0: f1a8 abbd af5e 4f3e 0124 66bd ffbc b5bc
00000100: 53cf 133d 9002 533e b658 16be abad 593e
00000110: ca0e 1b3d 705c 103e eaf6 d63d b8e4 4bbe
00000120: fed4 10be aa19 263e cc3f 2abe 539a 793e
00000130: 8966 c13d 8950 c4bd 0b45 983d aab2 58be
00000140: e7d6 d6bd 7204 623e 43e2 083e 56c3 cebc
00000150: 7801 0dbd 8805 f33d 5d37 3ebe 966f 22be
00000160: 3f11 913e c57f 963d dc09 803d ac1d 6a3e
00000170: 845e 713d 6ef9 70bd d61a 35be 06d5 d83d
00000180: 4705 20be 1cc2 733c 65bb 243e 2f69 cc3d
00000190: c69c 26be 8616 9abd bf58 6fbd f6ab 21bd
000001a0: 46d3 1abd 0779 ecbd 27a3 34bd eec4 703d
000001b0: f3c9 fd3c bcb5 7b3e 0087 0e3e e265 463e
000001c0: c652 5bbc e7e5 dfbd 363c 853c 97b9 5f3d
000001d0: 8877 693d e176 c63d 7eb7 3abe 2169 803e
000001e0: 1a29 c9bc 556a 803e 94ac 443e e91f 7c3e
000001f0: a193 823d 5398 433d 87f2 173e a348 75bd
00000200: ba2d 00be be69 20bd 4988 c43d b4cf 81bb
00000210: 4554 0b3e e5aa 97bc 50fb e33d c727 633d
00000220: 54cb e4bd bf38 e03b 7f14 12be 5a14 e43c
00000230: c067 e7bb cf8d ba3b 3d94 473d b39e d03d
00000240: 1cfb 06be f8e8 4bbd 5313 b63d 606a f4bd
00000250: bcc9 7d3e 8d32 29bd dc25 4bbd 087c 253e
00000260: 9756 123c e7a4 3a3e a027 00bd 6347 49ba
00000270: c3e6 aabd 9d9f 32be f50b 0fbe 5cc0 4ebd
00000280: 51d9 2e3d 9259 7b3e 7e89 e83c d23d 103d
00000290: af07 213e 9b39 d8bb 56bd 113c c0b2 36be
000002a0: 6f0a b6bd fcd6 cc3c 2e7a 223e 8a2a a6bc
000002b0: a152 37be e0e8 6cbd d5ea 8b3c e0ee bf3d
000002c0: c224 4dbe 9eb6 cc3d 8eb1 633e 65fc 08be
000002d0: 6c87 eabd 9c2b ad3c a7c3 7f3d f0fc 3e3e
000002e0: 3a34 8dbd def6 feb9 ec7b 40be c728 e93d
000002f0: dcb2 6d3e 9984 baba 00b4 3bbd bb40 a43d
00000300: cfab 383e 7467 913d e05c b0bc feda 523e
00000310: d118 3bbd 3477 76bc dfe5 2a3e f6ba 943d
00000320: 50e4 e1bc 46a6 623e b619 8fbd 7174 603e
00000330: 619d 26be 34d5 623e e820 b7b9 f056 e7bd
00000340: 0d65 a93d 3176 49be 3444 fbbd 201f b6bc
00000350: 1dbc 863e 0681 f73d d834 48be 80ef 193e
00000360: 434e ff3c 2951 8c3d 7c14 0fbe 361a b1bd
00000370: 2ed3 e8bd 9a94 0c3d 78a5 04bd dc71 503e
00000380: 960d e03d 2337 613c fac6 29bc 4bea b5bd
00000390: 3c86 7c3e 9a7a dfbd b7bc 06be e285 213e
000003a0: 38e9 3b3e 200b 47be ed68 88bc 1fda 383d
000003b0: 07d0 25bd b058 223e bf05 9e3e c8ab 77bd
000003c0: 09b8 003c 17be 163e 1cf1 b73d 1a2a 733e
000003d0: 2321 0b3e 840e 1b3e 10f7 d5bd ad72 7dbd
000003e0: 25c1 753e 945e f2bc 043d afbc f802 4d3e
000003f0: 6e9b bd3c de13 f83d e349 043d db34 d5bc

l2.weight f4 [300, 400]
-0.0099043455 0.07694358 0.1054206 0.13385752 -0.013272012 -0.0008000935 0.0008372588 0.025930682
0.026811125 0.04483191 -0.0072974735 0.09916657 -0.03242835 0.11068253 0.0028671655 0.083393574
0.094724365 0.121622644 0.18004175 -0.09776588 0.061968397 0.03104745 -0.04404117 0.0054685916
0.017493047 0.018353483 0.076388635 0.03038205 0.029764088 0.10082012 0.13276127 0.014962476
0.03472766 0.08138649 0.060696844 0.033778246 -0.06655781 0.013843012 0.11560555 0.122297965
0.11797161 0.10039149 0.14477955 0.013870834 0.08665108 0.06241331 0.0719914 0.043951724
0.044115465 0.0037771452 0.060204025 -0.11061931 0.018062545 0.072937526 0.1570442 0.03987342
-0.012298724 -0.10371489 0.059310697 0.11987176 0.017086642 0.047123723 0.040038526 -0.08086317
0.09404642 0.13502699 0.11652942 0.12183762 0.10613851 0.016026532 0.012111023 -0.018864758
0.0114332065 0.11800959 -0.09330279 0.07587387 0.11432576 0.09927535 0.12643403 0.063129574
-0.0035471686 0.13321652 0.06964447 0.032598928 0.05451622 0.06460264 -0.02055559 -0.0134656355
0.15169115 0.05001319 -0.035747707 0.11997778 0.113950685 0.13248001 0.11461327 -0.032269858
-0.010095953 0.050917972 0.15308635 0.032519903 0.04539308 -0.012327836 0.069107205 0.102790736
0.005694228 0.03577715 0.09084608 0.04918453 -0.09116372 0.15528367 0.029454727 0.0818678
0.027504776 -0.0908888 0.057786383 0.09982449 0.022661086 0.05865289 0.07707827 0.15343058
0.021470612 0.046446845 5.5176846e-05 0.09682189 0.016072968 0.11303473 0.09334622 0.07698916
0.0747659 0.1074181 0.07668224 -0.05202191 0.11877928 -0.035722815 -0.114857875 0.057876576
-0.053783175 0.09392136 -0.14036089 0.08033417 -0.032230876 -0.046632156 0.13885957 0.09986912
0.066011466 0.04342485 0.07349452 0.09192013 0.09287109 0.14099689 0.107556425 0.040852703
0.16776946 0.04142379 0.05689971 0.11242254 0.0897833 -0.04364686 0.029934786 0.04356762
0.085976414 0.13868584 0.059185892 0.082699694 0.08291913 0.0790932 0.039275296 0.12777013
-0.07831805 0.0849881 0.04407358 0.04213929 0.015766338 0.12336303 0.06438903 0.105378434
0.027164562 0.062212866 0.05266146 0.08699383 0.009927589 0.06286689 0.077147335 0.047995303
0.04206894 0.03981023 0.03639053 0.0018152366 -0.03029992 0.042567067 0.11977788 -0.07997698
0.10954709 0.10462093 0.0028138775 0.11141975 -0.035428274 0.07335178 0.09247123 -0.007853723
0.054586373 0.07065733 0.01470028 0.048992224 -0.010453528 0.17573872 0.034663484 -0.026324414
0.061493605 0.038540233 0.052036297 0.002566749 0.03801059 0.05203112 0.022376513 0.041779853
0.18500851 -0.015983285 0.093808 0.043499883 0.058117975 0.010479236 -0.011351995 0.16743484
0.067434244 -0.01841872 -0.08167662 0.05935343 0.14711905 0.08612209 -0.04924448 -0.10631531
0.18691526 -0.028427158 0.08679413 0.06250834 -0.011330151 0.12251563 0.13241756 0.0998863
-0.014693994 0.02292219 0.11115916 0.072329186 0.08548859 0.10145954 0.006838148 0.050564613
0.11123595 -0.048304465 0.14261076 0.08513737 0.06639293 0.138472 0.11332293 -0.004824981
00000000: d645 22bc 9894 9d3d c1e6 d73d f211 093e
00000010: da72 59bc 5ebd 51ba 7d7b 5b3a 956c d43c
00000020: 01a3 db3c aaa1 373d a51f efbb d817 cb3d
00000030: 97d3 04bd 86ad e23d 0ee7 3b3b 40ca aa3d
00000040: d9fe c13d 4b15 f93d dd5c 383e 7a39 c8bd
00000050: 93d2 7d3d 3957 fe3c 8464 34bd df31 b33b
00000060: 944d 8f3c 0b5a 963c a571 9c3d c7e3 f83c
00000070: d1d3 f33c c77a ce3d 92f2 073e 2c25 753c
00000080: 973e 0e3d f6ad a63d 419d 783d 0f5b 0a3d
00000090: 764f 88bd cdcd 623c 9ac2 ec3d 5b77 fa3d
000000a0: 199b f13d 0e9a cd3d 1741 143e 7f42 633c
000000b0: 1f76 b13d 19a5 7f3d 3a70 933d b906 343d
000000c0: 6bb2 343d fb89 773b 7f98 763d 608c e2bd
000000d0: e7f7 933c 4560 953d 32d0 203e 5052 233d
000000e0: 9680 49bc 7968 d4bd c6ef 723d 537f f53d
000000f0: 49f9 8b3c ce04 413d 70ff 233d 979b a5bd
00000100: 699b c03d 8444 0a3e faa6 ee3d 0186 f93d
00000110: 265f d93d 134a 833c 506d 463c 448a 9abc
00000120: 5852 3b3c 03af f13d 8815 bfbd c263 9b3d
00000130: a023 ea3d e050 cb3d ec77 013e 144a 813d
00000140: 9d77 68bb e969 083e c3a1 8e3d 7486 053d
00000150: 664c 5f3d 644e 843d 3264 a8bc f89e 5cbc
00000160: ed54 1b3e a1da 4c3d 306c 12bd e9b6 f53d
00000170: fa5e e93d d7a8 073e 5dba ea3d 662d 04bd
00000180: 7f69 25bc 5d8f 503d abc2 1c3e 9733 053d
00000190: 18ee 393d b1fa 49bc 1488 8d3d f383 d23d
000001a0: a696 ba3b 108b 123d 820d ba3d b875 493d
000001b0: 0bb4 babd af02 1f3e 0a4b f13c 4eaa a73d
000001c0: b251 e13c e823 babd 6ab1 6c3d c870 cc3d
000001d0: bea3 b93c 033e 703d 36db 9d3d e81c 1d3e
000001e0: 23e3 af3c 0c3f 3e3d b06d 6738 8e4a c63d
000001f0: 75ab 833c c17e e73d 4e2c bf3d 7eac 9d3d
00000200: dd1e 993d 05fe db3d 940b 9d3d ed14 55bd
00000210: 8d42 f33d 1652 12bd 9b3a ebbd fd0f 6d3d
00000220: bf4b 5cbd d859 c03d c4ba 0fbe 3e86 a43d
00000230: 8604 04bd 5c01 3fbd 3431 0e3e 2e88 cc3d
00000240: 0531 873d 41de 313d 4b84 963d 9f40 bc3d
00000250: 3333 be3d 7d61 103e 8b46 dc3d 2a55 273d
00000260: c2cb 2b3e feab 293d ac0f 693d ca3d e63d
00000270: 4fe0 b73d 0dc7 32bd cc39 f53c f673 323d
00000280: 6714 b03d a903 0e3e e86c 723d 755e a93d
00000290: 81d1 a93d 9efb a13d 22df 203d 2cd6 023e
000002a0: 3765 a0bd 3e0e ae3d 8086 343d 409a 2c3d
000002b0: 6828 813c c2a5 fc3d 65de 833d a6d0 d73d
000002c0: 3788 de3c ebd2 7e3d 8bb3 573d d229 b23d
000002d0: 54a7 223c 5bc0 803d 6cff 9d3d b996 443d
000002e0: 7b50 2c3d 0d10 233d 3d0e 153d 3ced ed3a
000002f0: 8a37 f8bc ce5a 2e3d 1b4e f53d f9ca a3bd
00000300: 3a5a e03d 8043 d63d 0869 383b 0a30 e43d
00000310: 3d1d 11bd 7539 963d 8e61 bd3d e7ac 00bc
00000320: f695 5f3d cab4 903d 71d9 703c 12ac 483d
00000330: 4645 2bbc daf4 333e 4cfb 0d3d 4ca6 d7bc
00000340: b8e0 7b3d 5ddc 1d3d 0324 553d e736 283b
00000350: feb0 1b3d 951e 553d f34e b73c 5a21 2b3d
00000360: df72 3d3e 61ef 82bc 691e c03d ef2c 323d
00000370: 1d0d 6e3d 1ab1 2b3c b8fd 39bc 0a74 2b3e
00000380: f71a 8a3d dbe2 96bc 1246 a7bd 951c 733d
00000390: 60a6 163e c760 b03d 94b4 49bd d7bb d9bd
000003a0: b766 3f3e 12e0 e8bc 1fc1 b13d 5f04 803d
000003b0: 19a2 39bc 7ae9 fa3d 7898 073e 3091 cc3d
000003c0: 14bf 70bc 51c7 bb3c 6aa7 e33d 5321 943d
000003d0: a414 af3d 05ca cf3d 8b12 e03b d71c 4f3d
000003e0: accf e33d e7da 45bd 8e08 123e 805c ae3d
000003f0: 04f9 873d 9bcb 0d3e da15 e83d e01a 9ebb

l2.bias f4 [300]
0.064296156 -0.025318401 -0.017915498 -0.05750997 -0.007415617 0.10093893 0.030203005 0.062752105
0.056054823 -0.035915934 -0.033061672 0.10522186 -0.020392818 0.10078762 0.06857654 0.06989072
0.047518738 -0.0035199604 -0.14901736 -0.020128695 0.081168704 0.019150803 -0.037521895 0.107172355
0.14940399 0.15561332 -0.049104962 0.03421943 0.0038502072 0.114862494 -0.014462057 -0.035345964
-0.011521682 0.096045524 -0.02494436 0.13759144 0.03016769 0.016402213 -0.047691587 -0.00036994208
0.014005708 0.1112136 0.012005784 -0.053234823 -0.023098871 0.0067378855 -0.031245595 -0.05096165
-0.008960916 0.01589527 -0.05883096 0.0014716657 -0.0023531627 -0.003738868 -0.048277948 -0.0005542714
0.005245912 -0.03743287 0.12551284 0.03252293 0.007136033 -0.056837928 -0.05294276 -0.04889709
-0.036774985 -0.036664717 0.11947081 0.13595985 0.030212691 0.007620973 0.0072732167 -0.038856678
0.11742838 0.087338775 -0.04583245 0.10447817 0.02254082 0.0104596 -0.06116225 -0.06277456
0.010885415 -0.056964587 0.035975922 0.06651895 0.08620659 0.094528556 -0.029601745 0.15573049
0.00087600865 -0.06537817 0.008548897 0.10831609 -0.048314456 -0.0060349414 -0.024208637 0.10884118
0.16371788 0.068009004 0.15564376 -0.037441067 0.07062564 -0.038825773 0.007984406 0.15369228
-0.012397871 -0.019857494 -0.049739007 0.09162437 -0.04582894 0.050419513 0.06573637 -0.039092865
0.14054467 0.02455248 0.11996878 -0.06606362 -0.015671102 -0.020864697 0.03328145 -0.17193481
0.11960567 0.015435289 0.034501806 -0.027763685 0.011341377 -0.042149838 -0.037893318 -0.02605154
-0.011140525 -0.043374717 0.15122698 0.020867418 -0.051550247 -0.013581397 0.11297706 -0.01624843
0.095141225 -0.05551986 -0.05594833 -0.050475124 -0.0046701683 0.017899122 0.06807789 0.029315908
-0.034130026 -0.010371498 0.06973226 0.028533328 0.09738192 -0.052398123 0.06864745 0.056163758
-0.0055239126 0.08333878 -0.02250804 -0.040951785 -0.01917949 0.029883003 0.07942335 -0.004334519
-0.07912599 0.15165539 9.522418e-05 0.107985005 -0.012782526 0.11729076 0.13089865 0.08639799
-0.059222337 -0.012871349 0.122213595 0.030443659 -0.013812925 0.15733016 -0.016522497 0.039031018
0.1552376 -0.03336932 0.06492783 -0.03824871 0.09120441 0.076701224 0.078293964 0.01796318
-0.021143464 -0.047640923 -0.0057489797 -0.05396945 0.06569809 0.11448127 -0.04307595 0.1107113
-0.0077686813 0.03496866 0.13701376 0.15192656 0.01973344 0.09162846 0.11967116 0.09060984
-0.032936156 -0.026715387 0.11161903 -0.053222902 -0.04720581 0.019446218 0.026578758 0.00037890516
-0.02317077 0.16268913 -0.047041897 0.033433393 0.09328639 0.009285201 0.014563756 -0.043566197
0.09014241 0.09053733 0.14144816 0.16237843 -0.0041543082 0.052596517 0.11230171 0.029185254
-0.026103145 0.15604967 -0.037116967 -0.0019341144 0.10553354 -0.01818223 -0.009221872 0.13516882
0.097114645 0.015236358 0.03685123 -0.05777074 0.110470034 -0.048911247 -0.00047355762 -0.021572992
8.848082e-05 0.022502244 -0.04650992 0.1392469 -0.051118113 0.072980255 0.028165638 -0.048283163
-0.014487897 -0.006974635 0.011854909 -0.031050138 -0.016130337 -0.038252436 0.019550528 0.077303775
00000000: b4ad 833d 8968 cfbc 86c3 92bc 938f 6bbd
00000010: b4fe f2bb 12b9 ce3d 4b6c f73c 2d84 803d
00000020: be99 653d 961c 13bd ad6b 07bd 8f7e d73d
00000030: d70e a7bc bd69 ce3d db71 8c3d de22 8f3d
00000040: 02a3 423d 23af 66bb 0298 18be efe4 a4bc
00000050: c73b a63d 25e2 9c3c 8fb0 19bd 2e7d db3d
00000060: 5cfd 183e 1959 1f3e 4922 49bd ac29 0c3d
00000070: c253 7c3b 073d eb3d 43f2 6cbc eec6 10bd
00000080: 70c5 3cbc 84b3 c43d 1d58 ccbc c5e4 0c3e
00000090: 3b22 f73c ef5d 863c 4158 43bd c9f4 c1b9
000000a0: 3278 653c f5c3 e33d e8b3 443c c20c 5abd
000000b0: d839 bdbc 7bc9 dc3b c3f6 ffbc 2abd 50bd
000000c0: ced0 12bc cc36 823c bcf8 70bd e8e4 c03a
000000d0: 8537 1abb cc07 75bb 19bf 45bd 864c 11ba
000000e0: e6e5 ab3b 3653 19bd 7086 003e c436 053d
000000f0: 62d5 e93b e3ce 68bd 82da 58bd 5148 48bd
00000100: 5ea1 16bd be2d 16bd 1dad f43d 0f39 0b3e
00000110: 9b80 f73c 5bb9 f93b 2a54 ee3b 2e28 1fbd
00000120: 4a7e f03d acde b23d cfba 3bbd a7f8 d53d
00000130: 87a7 b83c be5e 2b3c 4485 7abd f38f 80bd
00000140: bd58 323c b353 69bd 7d5b 133d 163b 883d
00000150: 158d b03d 3098 c13d 5c7f f2bc d077 1f3e
00000160: f2a3 653a fde4 85bd ac10 0c3c d4d4 dd3d
00000170: 61e5 45bd c2c0 c5bb 3151 c6bc 20e8 de3d
00000180: a9a5 273e 4e48 8b3d 1461 1f3e ce5b 19bd
00000190: 2da4 903d c607 1fbd 07d1 023c 8261 1d3e
000001a0: 7120 4bbc 2fac a2bc 21bb 4bbd 8fa5 bb3d
000001b0: 20b7 3bbd b184 4e3d caa0 863d d71f 20bd
000001c0: f1ea 0f3e 4822 c93c 31b2 f53d 5d4c 87bd
000001d0: af60 80bc 71ec aabc 2152 083d ae0f 30be
000001e0: d1f3 f43d 4be4 7c3c c451 0d3d ab70 e3bc
000001f0: 2fd1 393c 4fa5 2cbd 0636 1bbd 0a6a d5bc
00000200: c086 36bc b0a9 31bd 3fdb 1a3e 26f2 aa3c
00000210: 5a26 53bd 8284 5ebc 8460 e73d 6d1b 85bc
00000220: 67d9 c23d cb68 63bd 132a 65bd 01bf 4ebd
00000230: 3608 99bb 2ea1 923c 6c6c 8b3d ea27 f03c
00000240: edcb 0bbd 37ed 29bc cacf 8e3d babe e93c
00000250: 2c70 c73d 6a9f 56bd 0997 8c3d f80b 663d
00000260: f001 b5bb 86ad aa3d c862 b8bc 0fbd 27bd
00000270: 4e1e 9dbc 33cd f43c b6a8 a23d 9508 8ebb
00000280: cf0c a2bd 8d4b 1b3e 18b3 c738 3e27 dd3d
00000290: cd6d 51bc 2336 f03d 4c0a 063e 6ef1 b03d
000002a0: 1f93 72bd 5ae2 52bc 1f4b fa3d fb64 f93c
000002b0: 9b4f 62bc 281b 213e 305a 87bc fdde 1f3d
000002c0: 9bf6 1e3e 45ae 08bd e2f8 843d aeaa 1cbd
000002d0: 61c9 ba3d 8815 9d3d 9658 a03d 8527 933c
000002e0: 0f35 adbc 2123 43bd f061 bcbb 120f 5dbd
000002f0: b88c 863d 2875 ea3d 6870 30bd 9bbc e23d
00000300: 6c90 febb 4c3b 0f3d 564d 0c3e a392 1b3e
00000310: 06a8 a13c b4a7 bb3d 2716 f53d a791 b93d
00000320: 10e8 06bd 3ada dabc 8598 e43d 4200 5abd
00000330: e15a 41bd ad4d 9f3c b2bb d93c caa7 c639
00000340: a0d0 bdbc fb97 263e 01af 40bd 74f1 083d
00000350: ef0c bf3d f520 183c d29c 6e3c 7872 32bd
00000360: 959c b83d a36b b93d c9d7 103e 8846 263e
00000370: dd20 88bb 726f 573d 70fe e53d ea15 ef3c
00000380: 43d6 d5bc 7ccb 1f3e f607 18bd 1c82 fdba
00000390: f821 d83d e6f2 94bc 5617 17bc b269 0a3e
000003a0: 0be4 c63d eba1 793c 51f1 163d 03a1 6cbd
000003b0: 1d3e e23d 2957 48bd d447 f8b9 d8b9 b0bc
000003c0: c78e b938 a056 b83c 3081 3ebd bd96 0e3e
000003d0: 3a61 51bd ac76 953d a0bb e63c 91c4 45bd
000003e0: a55e 6dbc 7b8b e4bb 183b 423c dc5c febc
000003f0: c523 84bc 96ae 1cbd 6e28 a03c 7151 9e3d

l3.weight f4 [1, 300]
-0.07834664 -0.012412772 0.04782346 0.0034542554 0.037709285 -0.096664354 0.009475005 -0.0924097
-0.0976276 0.00092097995 -0.021733709 -0.109775 -0.04340824 -0.11762265 -0.12302093 -0.07126969
-0.04222085 0.0021568285 0.1245726 0.047370464 -0.079820216 0.03758933 -0.023450702 -0.09298293
-0.12138083 -0.08644062 0.030893674 -0.032537088 -0.028332783 -0.10510113 -0.021942167 0.046199974
-0.0035174456 -0.07123424 -0.037805248 -0.11324001 0.059624046 -0.060283337 0.022120608 -0.02204573
0.042634867 -0.093100004 -0.0033787251 0.007358527 -0.019501725 0.07103589 0.04527139 0.005694251
0.04708585 0.0059504583 0.010285256 -0.023415519 -0.008198963 0.0313802 0.0014418168 0.018524209
0.015964562 0.009552118 -0.08222513 -0.0027042609 -0.0010717087 0.014321612 -0.0069196867 -0.0014707576
0.023836479 0.028248344 -0.08252235 -0.08640656 0.039530955 -0.0011241424 0.008582425 -0.003393533
-0.1011638 -0.022656651 -0.003925971 -0.12547694 -0.00535823 0.014191041 0.0132979015 -0.00068571605
0.082102045 0.023451284 -0.040500935 -0.07652381 -0.09636687 -0.11304993 -0.047515005 -0.07707699
0.037921626 0.018944794 0.018891523 -0.123667754 0.04465994 0.030502481 0.011287919 -0.13186629
-0.12907663 -0.079054125 -0.12138064 -0.000682631 -0.1037633 -0.010235866 0.06980121 -0.093897074
0.007127744 0.039530955 -0.012274936 -0.11707669 -0.013395504 -0.014210398 -0.06926068 -0.0018898066
-0.09828687 -0.021148305 -0.112305716 -0.0073751975 0.0007396047 -0.015123838 0.023063637 0.2045515
-0.069806874 0.0052413484 -0.0013112453 -0.0004139005 0.03500472 0.0070427144 0.009482455 -0.023807421
0.027779883 -0.0015767888 -0.12998833 0.0005144456 0.035290826 0.0060766526 -0.10068688 -0.0033291322
-0.054670714 0.06400877 0.031916454 0.036619265 0.02294427 -0.039368927 -0.11241347 0.034585625
-0.0052143405 0.010213545 -0.07622816 0.0044020405 -0.07190258 0.024148285 -0.1296795 -0.06378581
0.00590799 -0.10376546 -0.01023571 0.011319398 0.0029261017 0.003636003 -0.1261878 0.0011891486
0.001308521 -0.11973769 0.041420422 -0.09587128 0.21278897 -0.083426565 -0.08786584 -0.12459935
0.01069361 -0.0011623516 -0.10878823 0.0048101456 0.007601136 -0.10332124 -0.055963423 0.03539439
-0.10883033 0.00077979127 -0.12167155 0.0082762055 -0.09872328 -0.091777906 -0.10089696 0.036162544
0.005808431 -0.04468527 -0.030023105 0.027175086 -0.095457405 -0.12404197 -0.0062426142 -0.09253283
0.010691873 -0.06346018 -0.096459456 -0.10714154 0.02462624 -0.07446338 -0.09321712 -0.12447208
-0.009988764 -0.0021261883 -0.11520271 0.01380417 -0.012244016 0.004759389 -0.021976978 -0.0045299446
0.002802329 -0.08757765 0.02588539 -0.016790085 -0.06792785 -0.031093722 0.027096855 0.029517924
-0.0880722 -0.10814596 -0.079238154 -0.08571685 -0.0014827718 -0.021053847 -0.11867168 0.026508631
0.014394455 -0.10393772 0.0316758 0.024515599 -0.12547703 0.005350779 0.04359376 -0.093837135
-0.09094127 0.010432219 -0.03261705 -0.009784577 -0.08951248 0.032908127 0.0024128028 -0.0055166483
-0.026758598 0.00011635909 -0.0045733107 -0.11044914 -0.005691271 -0.0833517 0.0009633367 -0.02859405
-0.040483937 0.028483037 0.030139303 0.049456626 0.007681975 0.011200375 0.0018409588 -0.10374217
00000000: 3474 a0bd f05e 4bbc 88e2 433d ca60 623b
00000010: 0d75 1a3d f6f7 c5bd 0d3d 1b3c 4c41 bdbd
00000020: fbf0 c7bd eb6d 713a e40a b2bc b7d1 e0bd
00000030: d7cc 31bd 25e4 f0bd 66f2 fbbd d8f5 91bd
00000040: c5ef 2cbd 9459 0d3b eb1f ff3d 8807 423d
00000050: c878 a3bd 45f7 193d b01b c0bc d66d bebd
00000060: 8396 f8bd c807 b1bd bb14 fd3c 9c45 05bd
00000070: 271a e8bc 433f d7bd 0fc0 b3bc 2f3c 3d3d
00000080: f284 66bb 42e3 91bd add9 1abd 61ea e7bd
00000090: 5838 743d a9eb 76bd 4736 b53c 3f99 b4bc
000000a0: e6a1 2e3d 37ab bebd 9a6d 5dbb cc1f f13b
000000b0: 15c2 9fbc 447b 913d 7e6e 393d d796 ba3b
000000c0: 18dd 403d 10fc c23b 7e83 283c e7d1 bfbc
000000d0: f154 06bc 8688 003d 58fb bc3a 15c0 973c
000000e0: 1dc8 823c 7d80 1c3c a665 a8bd f839 31bb
000000f0: 9478 8cba 32a5 6a3c 8abe e2bb 70c6 c0ba
00000100: b844 c33c 1269 e73c 7a01 a9bd ecf5 b0bd
00000110: 36eb 213d f657 93ba 4d9d 0c3c 0966 5ebb
00000120: f72e cfbd 719a b9bc 6fa5 80bb 077d 00be
00000130: 1794 afbb 8a81 683c 71df 593c a0c1 33ba
00000140: 1e25 a83d e81c c03c 4fe4 25bd 84b8 9cbd
00000150: fe5b c5bd b986 e7bd 189f 42bd 8ada 9dbd
00000160: b553 1b3d 1d32 9b3c 65c2 9a3c 8545 fdbd
00000170: 57ed 363d 57e0 f93c f7f0 383c f507 07be
00000180: aa2c 04be 21e7 a1bd 6a96 f8bd 97f2 32ba
00000190: da81 d4bd 55b4 27bc f0f3 8e3d 1c4d c0bd
000001a0: da8f e93b 36eb 213d d01c 49bc e7c5 efbd
000001b0: d178 5bbc bbd2 68bc 8bd8 8dbd 63b3 f7ba
000001c0: a04a c9bd 363f adbc 8a00 e6bd a4ab f1bb
000001d0: 08e2 413a f9c9 77bc f4ef bc3c f375 513e
000001e0: e8f6 8ebd 9ebf ab3b 17de abba c900 d9b9
000001f0: 1c61 0f3d 92c6 e63b 4d5c 1b3c c807 c3bc
00000200: a392 e33c 41ac ceba a91b 05be dcdb 063a
00000210: 1d8d 103d a81e c73b ec34 cebd 922d 5abb
00000220: 66ee 5fbd 0817 833d d4ba 023d 15fe 153d
00000230: 9ff5 bb3c 5041 21bd 0939 e6bd a8a9 0d3d
00000240: 0fdd aabb b656 273c 821d 9cbd fe3e 903b
00000250: a941 93bd a0d2 c53c b4ca 04be 22a2 82bd
00000260: d097 c13b fc82 d4bd aeb3 27bc ff74 393c
00000270: d7c3 3f3b 024a 6e3b 6037 01be 35dd 9b3a
00000280: ae82 ab3a 0939 f5bd 76a8 293d 2958 c4bd
00000290: 5ae5 593e 8cdb aabd 01f3 b3bd f22d ffbd
000002a0: 4034 2f3c 0c5a 98ba 5dcc debd 6d9e 9d3b
000002b0: f312 f93b 169a d3bd e739 65bd b5f9 103d
000002c0: 70e2 debd e86a 4c3a ef2e f9bd ec98 073c
000002d0: 6e2f cabd 0ef6 bbbd 11a3 cebd 2d1f 143d
000002e0: a754 be3b e707 37bd 04f3 f5bc 499e de3c
000002f0: 2c7f c3bd b709 febd d88e ccbb da81 bdbd
00000300: f72c 2f3c 69f7 81bd 898c c5bd 066d dbbd
00000310: f8bc c93c 4280 98bd 9ee8 bebd 38eb febd
00000320: eaa7 23bc 8557 0bbb 66ef ebbd e32a 623c
00000330: 209b 48bc a6f4 9b3b 1009 b4bc ee6f 94bb
00000340: 47a7 373b e95b b3bd 990d d43c 5c8b 89bc
00000350: c21d 8bbd 43b8 febc 39fa dd3c 93cf f13c
00000360: 335f b4bd a17b ddbd 9d47 a2bd 518c afbd
00000370: 9159 c2ba 1e79 acbc 230a f3bd a128 d93c
00000380: b8d6 6b3c 4ddd d4bd 7cbe 013d f0d4 c83c
00000390: 0d7d 00be 9655 af3b 5f8f 323d af2d c0bd
000003a0: 6b3f babd e6eb 2a3c 7599 05bd 7e4f 20bc
000003b0: 5252 b7bd acca 063d 1d20 1e3b 00c5 b4bb
000003c0: d934 dbbc d005 f438 b6db 95bb 2933 e2bd
000003d0: d77d babb 4cb4 aabd 6e88 7c3a 123e eabc
000003e0: 7cd2 25bd 4255 e93c b3e6 f63c 0893 4a3d
000003f0: 14b9 fb3b c781 373c 544c f13a c676 d4bd
