TD3/models/third_training_attempt/train_450_episodes_critic_2_goal.pth (torch, 531051 bytes, 5 tensors)

l1.weight f4 [400, 28]
0	0xbdfb0243	-0.12256291
1	0x3da51a0f	0.08061611
2	0xbe1bf6fe	-0.15230939
3	0x3e2cdb37	0.16880499
4	0xbd8dd5cc	-0.06925544
5	0xbc65c1a3	-0.014023217
6	0x3e30d917	0.17270313
7	0xbe045f24	-0.12926918
8	0xbe71f12c	-0.23627156
9	0x3d073a64	0.03301467
10	0x3de7927b	0.11307236
11	0x3e60a762	0.21938851
12	0xbb85d174	-0.0040838066
13	0xbe4b71b2	-0.1986759
14	0xbe94990e	-0.2902302
15	0xbef669b4	-0.4812752
16	0xbf082a3d	-0.5318945
17	0xbf011cc5	-0.50434524
18	0xbe98d7c6	-0.29852122
19	0xbe6f5c3b	-0.23375027
20	0xbf001f73	-0.5004799
21	0xbea124c7	-0.3147337
22	0xbf06d27d	-0.5266493
23	0xbf000097	-0.500009
24	0x3e25e5f6	0.16201004
25	0xbd40b3b0	-0.047046363
26	0x3dffa1db	0.12482043
27	0xbdefdf7a	-0.11712547
28	0xbdd28d40	-0.102808475
29	0xbff51089	-1.9145671
30	0xc0045ed5	-2.068288
31	0x400ce115	2.201238
32	0x3f882cf9	1.0638725
33	0x3d8131f2	0.063083544
34	0xbe953826	-0.291444
35	0x3d98ce1e	0.07461189
36	0xbe4b7a26	-0.19870815
37	0x3f137779	0.57604176
38	0xbd9b29b9	-0.07576317
39	0xbe162241	-0.14661504
40	0xbd9653da	-0.07340212
41	0x3dbfd91d	0.09367583
42	0x3e36d03a	0.1785287
43	0x3dd954b7	0.10611861
44	0xbd1e095a	-0.038583137
45	0xbce65139	-0.028114902
46	0x3c635052	0.01387413
47	0x3e5630d8	0.2091707
48	0x3dd92866	0.106034085
49	0x3d5f80c1	0.05456615
50	0xbeb1336d	-0.34609547
51	0xbd26ea2d	-0.04075067
52	0x3b223700	0.002475202
53	0xbd7e07c9	-0.062019143
54	0x3c8fe3ed	0.017564738
55	0xbcae8c8c	-0.021307252
56	0x3ec731f2	0.38905293
57	0x3f83a7e2	1.0285609
58	0xc000d1e1	-2.01281
59	0xc061f3d8	-3.530508
60	0xbf56794f	-0.8377885
61	0x3e3d587a	0.18490782
62	0xbca96cf9	-0.020681845
63	0xbaf6e88a	-0.0018837613
64	0x3d4c51e9	0.049882803
65	0x3ee574f0	0.4481578
66	0xbf255acf	-0.6459169
67	0xbe310687	-0.17287646
68	0x3ee0a4b3	0.43875656
69	0xbe8d861c	-0.2764138
70	0xbef745df	-0.48295495
71	0xbf1e0abc	-0.6173513
72	0xbeade3e3	-0.33962926
73	0xbe97cc6a	-0.29648143
74	0xbe971282	-0.29506308
75	0xbe80929d	-0.25111857
76	0xbec3b38f	-0.3822293
77	0xbee63147	-0.4495947
78	0xbe7e3b68	-0.24827349
79	0xbe22f3c4	-0.15913302
80	0x3c427f25	0.011871134
81	0x3edad97e	0.42744058
82	0x3e55a24e	0.20862696
83	0x3da87dca	0.08227117
84	0x3d2cd760	0.042197585
85	0x3e814e4f	0.25255057
86	0x3f230b2f	0.6368894
87	0xbe2f4802	-0.17117313
88	0x3e29c2ba	0.16578189
89	0xbe8b9e43	-0.27269182
90	0x3ea854f1	0.32877305
91	0x3e1ec3b2	0.1550434
92	0xbeb196f0	-0.3468547
93	0x3e89a7f2	0.26885945
94	0xbd77291c	-0.06034194
95	0x3cfa956c	0.030588828
96	0x3e147d69	0.14500965
97	0xbe21f307	-0.15815364
98	0xbecd8d13	-0.40146694
99	0xbecde7b3	-0.40215835
100	0xbe977630	-0.29582357
101	0xbf0df304	-0.5544894
102	0xbec4aec3	-0.38414583
103	0xbeafd861	-0.34344772
104	0xbf25fe7e	-0.6484145
105	0xbf218c36	-0.6310457
106	0xbf05c544	-0.5225413
107	0xbea85cc1	-0.32883266
108	0x3e9a6b77	0.30160114
109	0x3e2cfd19	0.16893424
110	0x3e8b4935	0.2720429
111	0xbe5ca69c	-0.21547931
112	0xbda59326	-0.08084707
113	0x3e650f83	0.22369199
114	0x3f245dc6	0.64205587
115	0xbe0c1ebc	-0.13683599
116	0xbd93edf5	-0.07223121
117	0xbee65933	-0.4498993
118	0x3e44cdb0	0.19219089
119	0x3bfc6813	0.0077028363
120	0xbe90d5c5	-0.28288093
121	0xbdc04c91	-0.09389604
122	0x3e3632a0	0.1779275
123	0xbd022fc5	-0.031783838
124	0x3e0406dc	0.12893242
125	0xbe14bf55	-0.14526112
126	0xbf4075f9	-0.7518001
127	0xbf1187e6	-0.5684799
128	0xbf484851	-0.78235346
129	0xbf030c15	-0.5119031
130	0xbef03e04	-0.46922314
131	0xbf348fe0	-0.70532036
132	0xbee74393	-0.45168743
133	0xbf02ea7d	-0.5113905
134	0xbf4376b9	-0.7635303
135	0xbf1e152e	-0.6175107
136	0x3ed92a31	0.42415002
137	0x3e4c0238	0.19922721
138	0x3e2c572f	0.16830133
139	0xbdd8774a	-0.105696276
140	0xbeb545ac	-0.35404718
141	0x3f64d02f	0.8938016
142	0x3e5e60f0	0.21716666
143	0xbfc8cb94	-1.5687127
144	0xbcb05301	-0.021523954
145	0xbe57a7ac	-0.21060055
146	0xbed2a6dc	-0.4114293
147	0xbde30106	-0.110841796
148	0xbecbd24b	-0.39808878
149	0x3f69110d	0.9104164
150	0x3f5c6ee6	0.8610672
151	0xbf67d7b7	-0.9056353
152	0x3ef01d4b	0.4689735
153	0xbe4879b6	-0.19577679
154	0xbe8520a0	-0.26001453
155	0xbe53f3f6	-0.20698532
156	0xbecd0ec1	-0.4005032
157	0xbe9126df	-0.2834997
158	0xbee247b7	-0.4419534
159	0xbe948f33	-0.29015502
160	0xbe936f24	-0.2879573
161	0xbeb47485	-0.35245147
162	0xbe9fb3ca	-0.31191856
163	0xbe785d3e	-0.24254319
164	0x3eaaeafd	0.33382407
165	0xbe505932	-0.20346525
166	0x3ed57fae	0.41698974
167	0x3e0c02df	0.1367297
168	0x3e98fed5	0.2988192
169	0xbf368188	-0.712914
170	0xbf60749b	-0.87677926
171	0xbd275f4f	-0.040862378
172	0x3f41fd60	0.75777245
173	0xbf99251e	-1.1964452
174	0x3ecf6f91	0.40514806
175	0xbf178325	-0.59184486
176	0xbf82b3cd	-1.0211121
177	0xbe95403e	-0.29150575
178	0x3f42d439	0.76105076
179	0xbf2323b7	-0.6372637
180	0x3e65f6c2	0.22457412
181	0xbfb4ea80	-1.4134064
182	0xbee05f83	-0.4382287
183	0xbe04fcf5	-0.1298712
184	0xbe09e085	-0.13464554
185	0xbef27e94	-0.47362196
186	0xbeaffbff	-0.34371945
187	0xbeea50d3	-0.4576479
188	0xbe4ab631	-0.19796063
189	0xbe874875	-0.26422468
190	0xbeaf3fb7	-0.34228298
191	0xbec9c591	-0.39408544
192	0xbec2dcd1	-0.38059095
193	0x3e635acb	0.22202604
194	0x3eb3a7d8	0.35088992
195	0xbdd53e49	-0.104122706
196	0x3d5f3f39	0.054503653
197	0x3d8b264c	0.06794414
198	0x3b5c545a	0.0033619613
199	0xbd9fed0d	-0.07808886
200	0x3b779b2c	0.0037781699
201	0xbd8cd334	-0.06876221
202	0x3dd27e61	0.10278011
203	0x3d9ecd8d	0.077540495
204	0x3d83c2e4	0.06433657
205	0x3dd7f409	0.10544593
206	0xbd2a51ff	-0.041582104
207	0x3d7beca3	0.06150497
208	0x3dfb3cdc	0.122674674
209	0x3da40006	0.08007817
210	0xbea8e397	-0.32986137
211	0xbdc75879	-0.09733672
212	0xbe1daf9e	-0.15399024
213	0xbe40fac9	-0.18845667
214	0xbde523d3	-0.111884736
215	0xbec6e281	-0.38844684
216	0xbd2ab217	-0.041673746
217	0xbe60f32b	-0.21967761
218	0xbe3728b8	-0.17886627
219	0xbeb934f0	-0.361732
220	0x3dae0b1e	0.08498214
221	0xbdaefe17	-0.085445575
222	0x3e013a74	0.12619954
223	0xbd3eacf0	-0.046551645
224	0xbdf44b83	-0.11928465
225	0x3e4c43d9	0.19947757
226	0xbe30bf50	-0.1726048
227	0xbba9a61e	-0.0051772734
228	0x3d77adec	0.0604686
229	0xbdfb6193	-0.1227447
230	0x3e0edabc	0.13950628
231	0x3e2b604e	0.16735956
232	0xbdce3e18	-0.10070437
233	0xbe198dce	-0.149955
234	0x3e0c41e4	0.1369701
235	0x3de6522a	0.1124614
236	0x3d34fa1f	0.044183847
237	0x3c8b7f5c	0.017028503
238	0xbee1dcc3	-0.4411374
239	0xbebd5850	-0.3698144
240	0xbebf8490	-0.37405825
241	0xbf101a46	-0.5629009
242	0xbeaca09f	-0.33716294
243	0xbefd0e7c	-0.49425113
244	0xbe8c6cdd	-0.27426806
245	0xbf031aed	-0.5121296
246	0xbec05911	-0.37567952
247	0xbe847b45	-0.25875297
248	0x3d23ec7f	0.040020462
249	0x3cb05fff	0.02153015
250	0x3db89bcf	0.09014093
251	0x3cf2507b	0.029579392
252	0xbf10b567	-0.565268
253	0xc05258f5	-3.2866795
254	0x3fee9b93	1.8641227
255	0xc01a61dc	-2.4122229

l1.bias f4 [400]
0	0xbe1ff98e	-0.15622541
1	0xbeb6b385	-0.35683838
2	0x3ed5cce2	0.41757876
3	0xbe6107c7	-0.21975623
4	0xbddd530a	-0.10806854
5	0x3cbd13cd	0.02308073
6	0xbf0d9cc5	-0.55317336
7	0xbc4e5971	-0.012594567
8	0xbe8b138d	-0.27163354
9	0xbe7caf2e	-0.24676201
10	0x3e16b70b	0.14718263
11	0xbea9c947	-0.33161375
12	0xbdeef837	-0.11668437
13	0xbe7d989a	-0.24765244
14	0xbecc075d	-0.39849368
15	0xbe5f127f	-0.217844
16	0x3d62f21a	0.055406667
17	0xbe15fe16	-0.14647707
18	0xbed2b1f2	-0.41151386
19	0xbd90f5ee	-0.07078157
20	0x3e13f0c7	0.14447318
21	0xbf562e2f	-0.8366422
22	0xbd6998e7	-0.057030585
23	0xbec8a30b	-0.39186892
24	0x3e462f56	0.19353995
25	0xbd149846	-0.03627803
26	0xbf05c42d	-0.52252465
27	0xbea82a6e	-0.3284487
28	0xbe909b80	-0.28243637
29	0xbf01aa29	-0.5065027
30	0xbf0c6444	-0.54840493
31	0xbeca0f01	-0.39464572
32	0x3eb91cbe	0.3615474
33	0xbea34a05	-0.3189241
34	0xbf06d024	-0.5266135
35	0xbf02face	-0.5116395
36	0xbea9ea17	-0.3318641
37	0xbe5d850a	-0.21632782
38	0x3db7c6c5	0.08973459
39	0x3e2d22a7	0.1690775
40	0xbec505f1	-0.38481095
41	0x3f121166	0.570578
42	0xbedda12a	-0.4328702
43	0xbf22c786	-0.635857
44	0xbeb24078	-0.3481481
45	0xbe33cd58	-0.17558801
46	0xbe2e96b4	-0.17049676
47	0xbe907e46	-0.2822134
48	0xbe32d7ca	-0.1746513
49	0x3c9322c3	0.017960912
50	0xbf18174e	-0.5941056
51	0x3e5f38f9	0.21799077
52	0xbf0564dd	-0.5210703
53	0xbeedf730	-0.46477652
54	0xbe826c71	-0.2547336
55	0xbe473b91	-0.19456317
56	0xbd2cce20	-0.042188764
57	0x3e53c2df	0.20679806
58	0x3f0a8d2c	0.5412166
59	0x3eb8c4d3	0.36087665
60	0x3e1fcb50	0.15604901
61	0xbe72a7fb	-0.23696892
62	0xbe62d4b7	-0.22151457
63	0xbe61220b	-0.21985643
64	0xbe82097d	-0.25397864
65	0xbee1d74b	-0.44109568
66	0xbd9ca216	-0.07648103
67	0x3eb87588	0.3602717
68	0xbdeb1523	-0.11478641
69	0xbf11d6cd	-0.56968385
70	0xbe8c8a8d	-0.27449456
71	0x3eef62cc	0.46755064
72	0x3f7feb38	0.9996829
73	0xbf07e89d	-0.53089315
74	0xbea6791f	-0.32514283
75	0xbf1c6939	-0.6109806
76	0xbdc283fb	-0.094978295
77	0x3eda7cd5	0.42673364
78	0x3d4603d5	0.0483435
79	0xbe8d51c5	-0.27601448
80	0xbf03d98a	-0.51503813
81	0x3f357352	0.7087909
82	0xbed3dbc2	-0.413786
83	0xbf110ae6	-0.56657255
84	0xbf0613dc	-0.52374053
85	0x3db9254f	0.09040319
86	0xbec07b3d	-0.37594023
87	0xbe8c3cd1	-0.2739015
88	0x3d047af4	0.03234382
89	0x3e3ccae7	0.18436776
90	0xbf0f1acc	-0.55900264
91	0xbf215ddc	-0.63033843
92	0xbd82f6fd	-0.063947655
93	0x3f11e3ed	0.5698841
94	0xbe178e52	-0.14800385
95	0xbd287633	-0.04112835
96	0xbee8abbb	-0.4544352
97	0xbe801b88	-0.25021005
98	0xbea0b264	-0.313861
99	0x3e8d4026	0.27588004
100	0xbe677902	-0.22604755
101	0xbebb6088	-0.36597085
102	0x3e80f1f1	0.25184587
103	0xbee2f1e7	-0.44325182
104	0xbdee1b22	-0.11626269
105	0xbe9aa89e	-0.3020677
106	0xbe06d757	-0.13168083
107	0xbec2ca10	-0.38044786
108	0xbe14b549	-0.1452228
109	0xbf1e7095	-0.61890537
110	0x3f82fa7a	1.0232689
111	0xbeaaea57	-0.33381912
112	0x3e244bce	0.16044542
113	0xbe39a0c0	-0.18127728
114	0xbefba079	-0.49145868
115	0x3e7ef00a	0.24896255
116	0x3e24cc75	0.16093619
117	0xbf17267d	-0.59043103
118	0xbc7ba653	-0.015359479
119	0xbd133fbd	-0.035949457
120	0xbd8d44f4	-0.068979174
121	0xbea97356	-0.33095807
122	0xbc2a7c92	-0.010405676
123	0xbf08947c	-0.5335157
124	0x3dce7018	0.10079974
125	0xbdab87b9	-0.083754964
126	0x3f99143b	1.1959299
127	0xbee8d90a	-0.45478088
128	0xbe36a3e8	-0.17835963
129	0xbe79b365	-0.2438484
130	0xbe98e126	-0.29859275
131	0xbe3f1280	-0.18659401
132	0xbed8c77b	-0.42339692
133	0xbea33245	-0.3187429
134	0xbd84342d	-0.06455264
135	0xbe6b47b3	-0.2297657
136	0xbf1db835	-0.616092
137	0xbe26910f	-0.16266273
138	0xbf282bfc	-0.65692115
139	0xbf0a5ec9	-0.5405088
140	0xbdb1d0bf	-0.08682393
141	0xbefb5b53	-0.49093112
142	0x3cc33552	0.023829136
143	0xbe394558	-0.18092859
144	0x3f13d727	0.5775017
145	0xbe1e73b6	-0.15473828
146	0xbebc9370	-0.36831236
147	0x3f27fa98	0.6561675
148	0x3f872894	1.0559258
149	0x3d1d8d3d	0.038464773
150	0x3dc6405e	0.09680246
151	0xbf021534	-0.50813603
152	0xbf15aa7e	-0.58463275
153	0xbe3ae9a8	-0.18253195
154	0xbe0b00d4	-0.13574535
155	0xbe7f79df	-0.24948834
156	0xbe653f2b	-0.22387378
157	0xbeeddc89	-0.46457317
158	0xbd05eb93	-0.032695364
159	0xbe83fc1b	-0.2577828
160	0x3c4f6b4e	0.012659861
161	0x3f04d4f5	0.51887447
162	0xbf2b7a43	-0.6698343
163	0xbedf0fb3	-0.43566665
164	0xbf4439d9	-0.7665077
165	0xbe96e7ad	-0.2947363
166	0x3e8e7cc3	0.2782956
167	0xbeb871a0	-0.3602419
168	0xbf0f05b5	-0.55868083
169	0xbe982be5	-0.2972099
170	0xbdeb3b40	-0.114859104
171	0x3d443eb9	0.04791138
172	0xbf1370f6	-0.5759424
173	0xbe086b15	-0.13322099
174	0xbe30f98c	-0.17282695
175	0xbe468d59	-0.19389857
176	0xbbf4b758	-0.0074681453
177	0xbf1da31d	-0.61577016
178	0xbee74dce	-0.45176548
179	0xbf4b6530	-0.79451275
180	0xbef94770	-0.48687315
181	0x3dddceea	0.10830481
182	0xbe4f053f	-0.20216845
183	0xbebf83c8	-0.3740523
184	0xbf1ff1be	-0.62478244
185	0xbef47743	-0.4774724
186	0xbe5fb4c5	-0.21846302
187	0xbe9d1e4e	-0.30687183
188	0xbefa6154	-0.4890238
189	0xbdf2778c	-0.11839208
190	0xbf550159	-0.8320518
191	0xbe5f777a	-0.2182292
192	0xbf04cc84	-0.51874566
193	0xbf283177	-0.6570048
194	0xbed22619	-0.4104469
195	0x3ee6c8c3	0.45075044
196	0x3ebcbb47	0.3686163
197	0x3ef7ae83	0.4837533
198	0xbf13f505	-0.57795745
199	0xbf5c095a	-0.8595177
200	0xbf16164e	-0.58627784
201	0xbf1f3d46	-0.6220287
202	0x3e8bd615	0.2731177
203	0xbdb6308d	-0.08895979
204	0xbf2eb0be	-0.6823844
205	0xbebae8eb	-0.36505827
206	0xbe39b629	-0.18135895
207	0xbe7ccf9a	-0.24688569
208	0xbf4a7559	-0.7908531
209	0x3e0e9084	0.13922316
210	0xbecd3cd5	-0.40085474
211	0xbe930e86	-0.28722018
212	0xbe6e86f3	-0.23293667
213	0xbf21a357	-0.6313986
214	0xbf12d489	-0.5735555
215	0xbe537ab9	-0.20652284
216	0xbf652f9b	-0.89525765
217	0xbf267d86	-0.65035284
218	0xbe410811	-0.18850733
219	0x3ed26499	0.41092375
220	0xbf389717	-0.72105545
221	0xbefed783	-0.49773797
222	0xbe7d4aa4	-0.24735504
223	0xbe8dc565	-0.27689663
224	0xbec9bcf8	-0.39401984
225	0xbef1625c	-0.47145355
226	0x3d8f0b06	0.069845244
227	0xbeac7532	-0.33683163
228	0x3cd6d6e2	0.026225511
229	0x3f404701	0.75108343
230	0xbe3bd65f	-0.18343495
231	0xbf597d02	-0.8495637
232	0xbee01fb9	-0.43774202
233	0xbef5e280	-0.48024368
234	0x3ecdc626	0.40190238
235	0xbe17e95b	-0.14835112
236	0xbe2da350	-0.1695683
237	0x3ea832d0	0.32851267
238	0x3d4f9f45	0.050689
239	0x3f5c990a	0.8617102
240	0x3f6d5972	0.9271461
241	0xbe517c92	-0.20457676
242	0xbebac5b7	-0.3647897
243	0x3d4752c9	0.048662934
244	0xbefd90f4	-0.49524653
245	0x3eb28618	0.3486793
246	0xbe9dd776	-0.30828446
247	0xbf4fc8a1	-0.8116551
248	0x3edfc599	0.43705443
249	0xbe2b3415	-0.16719086
250	0x3e49b780	0.19698906
251	0xbd6ada53	-0.057337116
252	0x3f8270a2	1.0190623
253	0xbdcdcc70	-0.10048759
254	0xbe2650ff	-0.16241835
255	0xbf3004e1	-0.68757445

l2.weight f4 [300, 400]
0	0xbd0b1775	-0.033957917
1	0xbbda957a	-0.006670651
2	0xbc972ade	-0.018453058
3	0xbb46cc20	-0.003033407
4	0xbbfde234	-0.007747913
5	0x3bec39e2	0.0072090486
6	0xbd085d2a	-0.033291973
7	0xbcbff128	-0.023430422
8	0xbd5c19c2	-0.053735502
9	0xbc09d7ed	-0.008413297
10	0x3cc0e5b0	0.023547024
11	0x3d02e504	0.031956688
12	0xbcfbe88a	-0.030750532
13	0xbd160b7e	-0.036632054
14	0x3d453533	0.048146438
15	0x3cde2c39	0.027120696
16	0x3ca7b08e	0.02046993
17	0xbc1f842c	-0.009736102
18	0x3c9411e5	0.018074939
19	0x3bb7201f	0.005588546
20	0x3be096fa	0.0068539353
21	0xbc085a78	-0.008322351
22	0xbcdcf932	-0.026974294
23	0x3d07e0cc	0.033173367
24	0x3c63499a	0.013872528
25	0xbceb103c	-0.028694265
26	0xbd38114b	-0.044938367
27	0x3c478371	0.012177334
28	0x3d34f07f	0.044174667
29	0x3ca5f7ee	0.020259824
30	0x3b0ace04	0.0021179924
31	0x3becbaca	0.0072244154
32	0x3d2366e6	0.039893053
33	0x3ce5586a	0.02799626
34	0x3c593841	0.013258041
35	0x3d1fb609	0.03899196
36	0x3d235d87	0.039884117
37	0xbc8229da	-0.015889097
38	0xbc8fe45d	-0.017564947
39	0x3be9353a	0.007116941
40	0xbd28675e	-0.041114204
41	0xbc401f74	-0.011726249
42	0x3cb3417f	0.021881817
43	0x3c9ea966	0.019367885
44	0x3d3e09d3	0.046396088
45	0xbd03131d	-0.03200065
46	0x3cd07de1	0.025450649
47	0xbc2dbaa7	-0.010603583
48	0xbcba3cea	-0.022734124
49	0xbccc39b1	-0.024929853
50	0x3d0f1acc	0.034937665
51	0xbc35ad08	-0.011088617
52	0xbd1b7936	-0.037957393
53	0xbd185d1e	-0.03719818
54	0x3c885854	0.01664368
55	0x3baf7bb0	0.005355321
56	0x3c87a56c	0.016558371
57	0xbd2e50fb	-0.042557698
58	0x3d0fbbbc	0.035091147
59	0xbd68ca33	-0.056833457
60	0xbcc59d81	-0.024122955
61	0x3cca3610	0.024683982
62	0xbbe35840	-0.0069380105
63	0xbd09eeee	-0.033675127
64	0xbce171bb	-0.027520051
65	0xbd33de93	-0.043913435
66	0x3b1cbb15	0.002391522
67	0x3d165539	0.03670237
68	0xbcc44fba	-0.023963798
69	0xbd20f04b	-0.03929166
70	0xb8713e44	-5.7516867e-05
71	0xbd041a65	-0.032251734
72	0x3c08f0ac	0.008358162
73	0xbca4e297	-0.020127578
74	0xbce690ab	-0.028145155
75	0x3c42e6f8	0.011895888
76	0x3d1fed0d	0.03904443
77	0x3ce985b2	0.028506134
78	0x3d2e8c06	0.042614006
79	0xbd3bdf55	-0.045867283
80	0x3b95a2ac	0.004566511
81	0xbcb3ff58	-0.021972343
82	0xbab6c500	-0.0013944209
83	0x3cde9cb9	0.02717434
84	0xbd207f27	-0.039183762
85	0xbd050015	-0.03247078
86	0xbcae8d97	-0.02130775
87	0xbcc14cd1	-0.0235962
88	0xbc07092d	-0.008241934
89	0x3cf435a3	0.029810732
90	0x3cfe18e3	0.031017726
91	0xbc061d48	-0.008185692
92	0xbd3be7f3	-0.0458755
93	0xbc48ff21	-0.012267859
94	0x3cb46232	0.02201948
95	0x3d07e173	0.03317399
96	0x3d21141b	0.039325815
97	0xbcd5e8bd	-0.026111955
98	0xbc6d79e0	-0.014494389
99	0xbce19b23	-0.027539795
100	0x3bf2c41b	0.0074086315
101	0xbc3be470	-0.011468038
102	0xbbe7765b	-0.0070636696
103	0xbd4777e7	-0.048698332
104	0x3c8dbebe	0.017302867
105	0xbc3b1108	-0.011417635
106	0xbbbb0758	-0.0057076626
107	0xbc85ca6d	-0.016331876
108	0xbafe1a74	-0.0019386546
109	0xbd129c1e	-0.035793416
110	0xbd3d621f	-0.046236154
111	0x3d370c71	0.0446896
112	0x3b4a7878	0.003089456
113	0xbd2a9b6f	-0.04165214
114	0x3cde1bb6	0.027112823
115	0x3d233cb6	0.03985282
116	0xbd2d8510	-0.042363226
117	0xbd34fb65	-0.04418506
118	0xbd40d24a	-0.047075547
119	0x3d0b84d4	0.03406222
120	0xbd1fdc80	-0.039028645
121	0x3d19c3b5	0.037540156
122	0xbc1c3d88	-0.009536155
123	0xbd6c8fd3	-0.05775435
124	0xbbf05628	-0.0073344894
125	0xbccdb570	-0.02511093
126	0x3d14ebdd	0.03635775
127	0xbce04daa	-0.027380783
128	0x3d4bb3e3	0.0497321
129	0xbd418831	-0.047249023
130	0x3b27d3b6	0.0025608367
131	0x3d15ca86	0.036570095
132	0x3be25ef0	0.00690829
133	0xbce19033	-0.02753458
134	0xbd686e03	-0.05674554
135	0x3c2301a8	0.009949125
136	0xbc463061	-0.012096495
137	0xbc8ad5d5	-0.016947666
138	0xbaef5aab	-0.0018261274
139	0x3b9efec5	0.0048521482
140	0xbd05792d	-0.032586265
141	0xbc7fa8e4	-0.0156042315
142	0x3ca9615e	0.020676311
143	0xbcaeb9f0	-0.021328896
144	0xbcd42b4a	-0.025899548
145	0xbc702e18	-0.014659427
146	0xbca366c3	-0.019946462
147	0xbbd95462	-0.0066323737
148	0xbc925496	-0.0178626
149	0xbcb376a0	-0.02190715
150	0xbcd43f9a	-0.025909234
151	0x3d168489	0.03674749
152	0xbd3dbe25	-0.046323914
153	0x3cf5edde	0.03002065
154	0xbb9d3530	-0.0047976
155	0x3cecef06	0.028922569
156	0x3d3b7bbf	0.04577231
157	0x3ca011c6	0.019539725
158	0x3c0108a8	0.007875599
159	0xbd38d87f	-0.04512834
160	0xbceea157	-0.029129667
161	0x3c7d966b	0.015477757
162	0x3cea3642	0.028590325
163	0x3cf68782	0.030093912
164	0xbcd4f12a	-0.025993902
165	0xbd24f3c7	-0.040271547
166	0xbc939f0e	-0.01802018
167	0xbc2f371f	-0.010694294
168	0xbcc08e90	-0.02350548
169	0xbce8912b	-0.028389534
170	0xbd31b32d	-0.043383766
171	0x3d3b806f	0.04577678
172	0x3c884b0c	0.016637348
173	0x3c570984	0.013124827
174	0x3b4704e0	0.0030367896
175	0x3d428ee1	0.04749954
176	0xbd353968	-0.0442442
177	0x3b7a5ca3	0.0038202188
178	0x3d144479	0.036198113
179	0xbcace23f	-0.021103976
180	0x3d27e1c6	0.0409868
181	0xbc0cbee5	-0.008590435
182	0x3c944e46	0.01810373
183	0xbd0f69b5	-0.03501292
184	0x3d473f25	0.048644204
185	0xbcc017e7	-0.023448898
186	0xbd1ee9ae	-0.038797073
187	0xbc0b67ac	-0.008508604
188	0x3c8b40dd	0.016998703
189	0x3d25c077	0.040466752
190	0xbcea646a	-0.028612334
191	0x3c38686c	0.011255365
192	0xbc2d7e7f	-0.010589241
193	0x3ce23b4a	0.027616162
194	0xbae1b1cb	-0.0017219124
195	0x3cb48e4f	0.022040514
196	0x3cbc9437	0.023019893
197	0xbd671fa3	-0.056426656
198	0xbd06fc82	-0.032955654
199	0x3cf1fb3e	0.029538747
200	0xbd4e1191	-0.05030972
201	0x3c42e8c0	0.011896312
202	0x3c381e07	0.011237628
203	0x3d0d5994	0.034509256
204	0xbd3c7110	-0.046006262
205	0xbd3b02a8	-0.04565683
206	0x3c830ed2	0.015998278
207	0x3c5f0c8c	0.013613831
208	0x3ae27f42	0.0017280357
209	0x3c9f48fd	0.019443983
210	0xbca26727	-0.019824577
211	0xbc835636	-0.01603232
212	0xbcfcaa7c	-0.030843012
213	0xbcbce708	-0.023059383
214	0xbc9d6c6e	-0.019216742
215	0xbcf51dac	-0.029921375
216	0xbd4deda1	-0.05027545
217	0xbd237145	-0.039902944
218	0xbd52f202	-0.051500328
219	0x3c2be340	0.010491192
220	0xbb628dd0	-0.003456939
221	0x3c115ced	0.008872253
222	0xbd378e48	-0.044813424
223	0xbd3a7540	-0.045521975
224	0xbc098f45	-0.0083959745
225	0xbceff7b3	-0.029292917
226	0xbd3546b0	-0.044256866
227	0x3d0b5914	0.0340205
228	0xbcdcaefa	-0.026938904
229	0xbb08384d	-0.002078551
230	0xbcb0337a	-0.021508921
231	0xbd214597	-0.039373007
232	0xbcdbc562	-0.026827518
233	0xbd2e4d87	-0.042554405
234	0xbd039c9d	-0.03213178
235	0xbb77b8e0	-0.0037799403
236	0xbcbfc7c0	-0.023410678
237	0x3d170ebd	0.03687929
238	0xbc3892e8	-0.011265494
239	0x393b7197	0.00017876025
240	0xbc7cffa4	-0.015441809
241	0x3c0016f8	0.007817976
242	0xbd00c2e0	-0.031435847
243	0x3b2fa92e	0.002680372
244	0x3cca7a6a	0.024716575
245	0xbc99e2f6	-0.018784981
246	0xbd5d16e2	-0.0539769
247	0x3c999b5e	0.018750843
248	0x3bf61570	0.00750988
249	0xbd366ec8	-0.044539243
250	0xbd54b272	-0.05192799
251	0x3a9258c0	0.0011165366
252	0xbd52db5a	-0.05147872
253	0xbd1eb60d	-0.038747836
254	0x3c443674	0.011975873
255	0xbd13632d	-0.035983253

l2.bias f4 [300]
0	0xbd200c4f	-0.03907424
1	0xbc9de19e	-0.019272622
2	0x3ccf87c8	0.0253333
3	0xbc62b84b	-0.013837884
4	0xbd54bbd2	-0.051936932
5	0xbd67891b	-0.05652724
6	0xbdd2c89a	-0.10292168
7	0x3d8b84d4	0.06812444
8	0xbd0c5bad	-0.034267116
9	0x3c71a883	0.014749649
10	0xbd8ef7a5	-0.06980828
11	0x3d11dab5	0.035608966
12	0xbe36a63f	-0.17836855
13	0xbcf65adc	-0.030072622
14	0x3d6befaa	0.05760161
15	0xbdacd10f	-0.08438312
16	0xbc6e7d93	-0.014556306
17	0x3d9bb23e	0.076023564
18	0xbda9903e	-0.08279465
19	0xbc8a10f5	-0.016853789
20	0x3e0c3c6c	0.13694924
21	0x3dbe763f	0.092998974
22	0x3e84ee7c	0.259632
23	0xbd20ae07	-0.039228465
24	0xbd177386	-0.036975406
25	0x3f5c2e92	0.8600856
26	0x3e0eab14	0.13932449
27	0xbb9b9875	-0.004748399
28	0xbc2f727f	-0.01070845
29	0xbd959ba5	-0.073050775
30	0x3c282046	0.010261601
31	0x3cdb7359	0.0267884
32	0x3d59bea1	0.053160314
33	0x3cc50e88	0.02405478
34	0xbd809697	-0.06278723
35	0xbd8d1e34	-0.068905264
36	0x3c9c0f35	0.01905022
37	0xbd06c535	-0.032902915
38	0x3d1d0165	0.038331408
39	0xbd973cd6	-0.073846504
40	0xbc3399c7	-0.010961956
41	0x3d2afdde	0.041746013
42	0x3d8cec34	0.0688099
43	0x3dbda34f	0.09259664
44	0x3f533a07	0.8251042
45	0x3f4ae273	0.79251784
46	0x3cd29f31	0.025710674
47	0xbda51c67	-0.08062058
48	0x3d1ec8dd	0.038765777
49	0xbd79749c	-0.060902223
50	0xbc22d33f	-0.00993806
51	0xbf976e0a	-1.1830456
52	0xbdacfccf	-0.08446657
53	0xbd0ce145	-0.03439452
54	0x3cd04989	0.02542569
55	0x3d3dd22f	0.046343025
56	0x3d72ecbb	0.059307795
57	0x3d6b83da	0.05749879
58	0xbd3f6550	-0.04672748
59	0x3cbfbfef	0.02340695
60	0xbc4dccd1	-0.012561039
61	0xbd3da738	-0.04630205
62	0x3d88b3bc	0.066749066
63	0x3d56f7b2	0.052482314
64	0x3aaf78be	0.0013387424
65	0xbcd8e572	-0.026476596
66	0xbc432e11	-0.011912839
67	0x3b7c0d74	0.0038460167
68	0x3d81dc2c	0.063408226
69	0x3c2080b7	0.009796313
70	0xbd4f00a1	-0.05053771
71	0xbdd34662	-0.10316159
72	0x3d5a6829	0.05332199
73	0x3f7b143c	0.9807775
74	0xbd176f9e	-0.03697168
75	0x3c5701d9	0.013122999
76	0x3f603f71	0.87596804
77	0xbca3260f	-0.019915609
78	0x3f5cafac	0.86205554
79	0xbef5545c	-0.47915924
80	0xbd2982f7	-0.041384663
81	0x3cdeb29a	0.027184773
82	0x3e97afae	0.2962622
83	0x3d3a8417	0.045536127
84	0xbd87f905	-0.066392936
85	0xbdbaf560	-0.09128833
86	0xbd0f10a5	-0.034927983
87	0xbd302310	-0.04300219
88	0xbc8db5c5	-0.017298589
89	0xbb6a3003	-0.0035734184
90	0xbc423989	-0.011854538
91	0xbd979136	-0.07400744
92	0x3db3aee0	0.08773589
93	0x3c6b5cca	0.014365384
94	0x3c7d9733	0.015477943
95	0x3d436bc8	0.04771021
96	0xbdbaae48	-0.09115273
97	0x3bd935e9	0.006628741
98	0x3cd234f1	0.02566001
99	0xbd6621bc	-0.056184515
100	0xbb1602c6	-0.0022889837
101	0xbd1f61fe	-0.038911812
102	0x3ba161b6	0.004924978
103	0xbd408a49	-0.04700688
104	0x3f34094f	0.70326704
105	0xbc72c4e4	-0.01481745
106	0x3d8a053c	0.0673928
107	0xbc17cb06	-0.009264713
108	0xbd53d622	-0.051717885
109	0x3d041bf4	0.03225322
110	0xbdb27ca0	-0.087151766
111	0x3d71c56b	0.059026163
112	0x3d573b18	0.05254659
113	0xbc8bc995	-0.017063895
114	0x3c393cbf	0.011305987
115	0xbd9d3e56	-0.07677905
116	0xbf86c5fd	-1.0529171
117	0x3d3adc60	0.045620322
118	0xbfd31075	-1.6489397
119	0xbe1cb1b6	-0.15302166
120	0x3d6463a3	0.055759083
121	0xbdd8aba2	-0.10579611
122	0xbd54363a	-0.051809527
123	0xbdc42109	-0.095766135
124	0xbd8c13cd	-0.06839714
125	0xbb2524ff	-0.0025199053
126	0xbfb60c9e	-1.42226
127	0x3cf5e28c	0.030015253
128	0xbd431831	-0.047630493
129	0xbd9ee755	-0.07758967
130	0xbada28e2	-0.0016644264
131	0xbe0a2abd	-0.13492866
132	0x3d7a220b	0.061067622
133	0x3e201676	0.15633568
134	0xbd510121	-0.051026467
135	0xbc0787bc	-0.008272108
136	0xbc015375	-0.007893433
137	0xbd50dd32	-0.0509922
138	0xbd70b1a3	-0.058763158
139	0xbc0cd26c	-0.00859509
140	0xbcbbd1b0	-0.022927135
141	0xbd6c12d3	-0.05763514
142	0xbc9dee1e	-0.019278582
143	0xbc9dbce6	-0.019255113
144	0x3d38e607	0.045141246
145	0x3dd9a349	0.10626847
146	0xbd97efbe	-0.07418774
147	0x3d7e4313	0.062075686
148	0xbc27720f	-0.010220065
149	0xbd36ea38	-0.044656962
150	0xbd73c204	-0.0595112
151	0xbd5f1c12	-0.05447013
152	0x3e0fc904	0.14041525
153	0xbe5a97d2	-0.21346977
154	0xba6b6243	-0.0008979181
155	0x3cbd3397	0.023095889
156	0xbda6014f	-0.08105718
157	0xbdeda2d3	-0.11603322
158	0x3dedf4da	0.11618967
159	0x3d86f8c4	0.06590417
160	0x3f4463d7	0.76714844
161	0xbd28f58f	-0.041249808
162	0x3b5f03d9	0.0034029393
163	0x3c9b1c3e	0.018934365
164	0xbc7b3764	-0.01533303
165	0xbdbdbea8	-0.092648804
166	0xbd37fba7	-0.04491773
167	0x3c2d657e	0.01058328
168	0xbd4ed0f8	-0.050492257
169	0x3de8782a	0.113510445
170	0x3c7eb073	0.015544998
171	0xbcba9ac0	-0.022778869
172	0xbb357270	-0.0027686618
173	0xbc37fba8	-0.011229433
174	0x3d4523a0	0.048129678
175	0xbd7cd18c	-0.061723277
176	0xbd21fa0f	-0.039545115
177	0x3fcade34	1.5849061
178	0x3cfc4743	0.030795699
179	0xbdad495f	-0.0846126
180	0xb9b05a87	-0.00033636784
181	0xbd4092e1	-0.047015075
182	0x3d397b3f	0.045283552
183	0xbcb3ebd0	-0.02196303
184	0xbd9ce096	-0.07660024
185	0x3d84086c	0.06446919
186	0xbcff13ac	-0.03113731
187	0xbd3ab168	-0.045579344
188	0x3adb2e99	0.0016722261
189	0x3b2fc486	0.0026820018
190	0xbd0b6ef5	-0.034041364
191	0xbb99e7a6	-0.004696804
192	0xbd0b264d	-0.033972073
193	0x3f4bf8a1	0.7967625
194	0xbe715a64	-0.23569638
195	0x3df67d3b	0.120356046
196	0xbdba6f00	-0.09103203
197	0x3faf0000	1.3671875
198	0xbbb7c5c0	-0.0056082904
199	0xbd878ba4	-0.06618431
200	0xbcef4723	-0.029208725
201	0x3d0bd86c	0.034141943
202	0x3dea933a	0.114538625
203	0x3e51c471	0.20485093
204	0x3f0c6a84	0.5485003
205	0xbcf09fac	-0.029373012
206	0xbb72fd23	-0.003707715
207	0xbdbc14e0	-0.09183669
208	0x3bdd42a1	0.0067523276
209	0xbc73bafc	-0.0148761235
210	0xbddd6692	-0.10810579
211	0xbccdf959	-0.025143312
212	0xbcbaf0b0	-0.022819847
213	0xbd46e281	-0.048555855
214	0xbd98e8f6	-0.07466309
215	0x3cf30cc3	0.029669171
216	0xbd2ea43f	-0.042637106
217	0xbca73cee	-0.020414796
218	0xbd17d20e	-0.037065558
219	0xbe00a924	-0.12564522
220	0x3e74861c	0.23879284
221	0xbda1708e	-0.07882796
222	0xbb770914	-0.003769462
223	0x3fca9cd1	1.5829107
224	0xbd0d1ca5	-0.034451146
225	0xbd9e4e36	-0.07729761
226	0x3b313097	0.0027037018
227	0xbcb74668	-0.02237244
228	0xbdb8ff08	-0.09033018
229	0xbc6f9c4b	-0.0146246655
230	0x3c2dce2e	0.010608239
231	0xbda2f8bf	-0.07957601
232	0xbc5a123a	-0.01331001
233	0x3d24cb26	0.0402328
234	0x3f39b097	0.7253508
235	0x3c4f3818	0.012647651
236	0xbd82899d	-0.06373904
237	0xbd24a287	-0.04019406
238	0xbdb2d1c8	-0.08731419
239	0xbd0fe395	-0.03512915
240	0x3d60b3e2	0.05485905
241	0xbd89d97d	-0.06730936
242	0xbdaad927	-0.083422
243	0x3ca5074e	0.020145085
244	0xbdc8b101	-0.09799386
245	0xbd174955	-0.03693517
246	0xbc2a5db6	-0.010398319
247	0x3fc2d2c3	1.5220569
248	0xbc9bf24e	-0.019036438
249	0xbf966adf	-1.1751364
250	0x3d2b3dee	0.041807108
251	0x3d3960af	0.04525822
252	0xbd8021cb	-0.062564455
253	0xbcce1000	-0.025154114
254	0x3d52d5e1	0.051473502
255	0x3b403a98	0.00293318

l3.weight f4 [1, 300]
0	0xbcc91690	-0.024546891
1	0x3d89b8ad	0.06724677
2	0x3d126755	0.035743076
3	0xbe1370f5	-0.14398558
4	0x3bb92618	0.005650293
5	0x3c694be2	0.014239283
6	0x3d947f45	0.07250837
7	0xbe2233de	-0.15840098
8	0x3cd13192	0.025536332
9	0xbd0766ec	-0.03305714
10	0x3f0e257d	0.5552595
11	0xbe210586	-0.15724763
12	0xbeafb28f	-0.34315917
13	0x3da574ae	0.080788955
14	0xbe25d4c6	-0.16194448
15	0x3c09adbd	0.008403239
16	0x3ca12d5e	0.019674953
17	0x3e2a96be	0.16659066
18	0x3f2acb17	0.6671614
19	0x3ce831db	0.028344085
20	0xbeca3d18	-0.39499736
21	0xbe52de79	-0.20592679
22	0xbeede44e	-0.46463245
23	0x3b070545	0.0020602506
24	0xbc0eb154	-0.0087092705
25	0xbef642b3	-0.48097762
26	0xbf0e6eec	-0.55638003
27	0x3e415249	0.18879046
28	0x3d0c53dd	0.034259666
29	0x3d8941ec	0.06702027
30	0x3d167665	0.036734004
31	0x3c2779df	0.010221927
32	0xbe2e435e	-0.17017886
33	0xbdf1a883	-0.11799719
34	0x3a8ddcd5	0.0010823259
35	0x3d81304c	0.0630804
36	0xbb234486	-0.002491267
37	0x3e2b5df7	0.16735063
38	0x3e162396	0.14662012
39	0x3c248efe	0.010043858
40	0x3e0d929c	0.13825458
41	0xbe22ec3f	-0.15910433
42	0xbe2455f6	-0.16048416
43	0xbe4ba9f0	-0.19889045
44	0xbe81dd4e	-0.25364155
45	0xbe81bddb	-0.2534016
46	0xbeb6ebc7	-0.3572676
47	0x3c7c53c3	0.01540083
48	0x3e389400	0.18025208
49	0x3caf0cef	0.021368472
50	0xbc213467	-0.009839154
51	0x3fa18d67	1.2621278
52	0x3ce2bf52	0.02767912
53	0x3cfd326c	0.030907832
54	0x3e5838c9	0.21115412
55	0xbfa5f1ae	-1.296438
56	0xbe69c432	-0.22828749
57	0xbda3cece	-0.07998429
58	0x3d16727d	0.03673028
59	0xbe37a747	-0.17934905
60	0xbd23904e	-0.03993254
61	0xbe176f9d	-0.14788671
62	0xbd8253b4	-0.06363621
63	0x3e71710b	0.23578279
64	0xbe18a115	-0.14905198
65	0x3def4ef2	0.116849795
66	0x3e1cc53d	0.15309615
67	0xbfe41bc2	-1.7820971
68	0xbe3ac107	-0.18237697
69	0x3da1f23e	0.07907532
70	0x3d00523b	0.03132842
71	0x3b9e5795	0.004832218
72	0xbe106c4d	-0.14103813
73	0xbfde46ca	-1.7365353
74	0x3ce5a00b	0.028030416
75	0xbe36261f	-0.1778798
76	0xbe879ed6	-0.2648837
77	0xbdfed84b	-0.12443598
78	0xbe8cc7a1	-0.27496055
79	0x3fd628aa	1.673116
80	0x3ca5db06	0.02024604
81	0x3e4c84b1	0.19972493
82	0xbf27c287	-0.655312
83	0xbe40b928	-0.18820632
84	0xbd005f83	-0.031341087
85	0x3c84e584	0.016222723
86	0xbbf4dd9c	-0.007472707
87	0xbcd39c52	-0.025831375
88	0xbd27e036	-0.04098531
89	0x3be06113	0.0068475096
90	0x3c4c00a8	0.012451328
91	0xbcc90881	-0.024540188
92	0xbe94ee36	-0.2908799
93	0x3e2effa7	0.17089711
94	0xbde1c872	-0.1102456
95	0x3ec3c349	0.38234928
96	0x3c54e151	0.012993173
97	0xbe0ea4d4	-0.13930064
98	0xbe4dba10	-0.20090508
99	0x3d46a018	0.04849252
100	0x3be5abc3	0.007009001
101	0x3c0556cd	0.008138371
102	0xbc8fadad	-0.01753887
103	0xbd0b7d05	-0.034054775
104	0xbf3c8506	-0.7364048
105	0xbdd60649	-0.104504175
106	0xbe034904	-0.12820822
107	0x3e07fe7c	0.13280672
108	0xbc032dac	-0.0080064945
109	0xbee1fc02	-0.4413758
110	0x3cea49cb	0.02859964
111	0xbde65b8a	-0.112479284
112	0x3e5b6252	0.21424225
113	0x3b4940c1	0.0030708762
114	0xbe143c15	-0.14476044
115	0x3ca19c4e	0.019727852
116	0x3fa079af	1.2537135
117	0x3e59313a	0.21210185
118	0x3f72bb1d	0.9481676
119	0xbf74046c	-0.9531925
120	0x3e1aea3e	0.15128419
121	0xbc2d9b66	-0.010596132
122	0x3b89bb05	0.0042032027
123	0x3e17ec9d	0.14836355
124	0x3c710f64	0.014713142
125	0x3e3a59e7	0.18198358
126	0x3f339e87	0.7016377
127	0x3e0961f4	0.13416272
128	0xbc2715df	-0.010198086
129	0x3dbd6ef8	0.09249681
130	0xbad00fba	-0.0015873828
131	0x3cef6e33	0.029227352
132	0xbe3c7bff	-0.18406676
133	0xbebd232f	-0.36940905
134	0x3d9db385	0.07700256
135	0x3e072de5	0.13201101
136	0x3d21b6de	0.039481036
137	0xbcab19fe	-0.020886417
138	0xbed1b40a	-0.4095767
139	0x3d938ea5	0.07204942
140	0x3cd794ba	0.026316036
141	0x3d053e94	0.032530382
142	0x3cc393a1	0.023874106
143	0xbdf1aec3	-0.11800911
144	0xbe7c5a03	-0.24643712
145	0xbe9aabbd	-0.3020915
146	0xbf4c8c80	-0.79901886
147	0xbdf74f63	-0.12075689
148	0x3ca15e96	0.019698422
149	0xbb4ee3b9	-0.0031568839
150	0xbc3b3ed0	-0.01142855
151	0x3c15241d	0.009102848
152	0xbea978ce	-0.3309998
153	0x3d9a912e	0.07547222
154	0xbcae949f	-0.021311102
155	0xbdc76750	-0.09736502
156	0x3d0f5c6c	0.03500025
157	0x3bc2df28	0.0059470125
158	0xbf6bc642	-0.9209939
159	0xbe567dd1	-0.20946433
160	0xbe6bc78f	-0.23025344
161	0x3cd2ca29	0.025731163
162	0xbe1c0a85	-0.15238388
163	0x3e3ed978	0.18637645
164	0xbc5e1a42	-0.013556065
165	0x3b4d5de1	0.0031336474
166	0x3d82e1e4	0.063907415
167	0xbc4846c0	-0.012223899
168	0x3da3cd3e	0.07998131
169	0xbed604b9	-0.41800478
170	0x3e486859	0.19571055
171	0x3c842eb5	0.016135553
172	0x3b877a74	0.0041344706
173	0xbc881b64	-0.016614623
174	0xbe3cebb7	-0.18449293
175	0x3bc93698	0.0061405413
176	0x3d3ba5ef	0.045812543
177	0xbfa74b37	-1.3069829
178	0x3e85472d	0.26030865
179	0xbb981c46	-0.0046420423
180	0x3e2c8227	0.16846524
181	0x3c587361	0.013211102
182	0xbe4d2fc8	-0.20037758
183	0xbdec909a	-0.11551018
184	0xbcd5ced2	-0.026099596
185	0xbe83df04	-0.25756085
186	0x3bc372d0	0.0059646145
187	0x3ca87a1e	0.020566043
188	0xbc1ec365	-0.00969014
189	0x3aaa8d5e	0.0013012101
190	0x3ce1a6da	0.027545381
191	0xbe1fdca5	-0.15611513
192	0xbcf3b264	-0.02974815
193	0xbe7d4061	-0.2473159
194	0xbf23d05f	-0.63989824
195	0xbe69d242	-0.22834113
196	0xbcdf5902	-0.027264122
197	0xbf2e8f19	-0.681871
198	0x3d8f70bd	0.07003925
199	0xbe873cbd	-0.26413527
200	0xbcdff862	-0.027340118
201	0xbe3ffb4f	-0.1874821
202	0xbec087f0	-0.37603712
203	0x3bbde99f	0.005795672
204	0xbffe5ffb	-1.9873041
205	0x3d0b7214	0.03404434
206	0x3e27ccaf	0.16386674
207	0x3d3bef60	0.045882583
208	0xbc4c2ec0	-0.012462318
209	0x3967c6d3	0.00022103945
210	0x3b8c04f4	0.0042730514
211	0x3da10717	0.078626804
212	0xbb3740ef	-0.0027962287
213	0xbc92e1fe	-0.017930027
214	0x3baa7076	0.0052013947
215	0xbe246e2e	-0.16057655
216	0xbd06ba45	-0.032892484
217	0x3e0bfded	0.13671084
218	0xbb9f250d	-0.0048567117
219	0xbece3581	-0.40275195
220	0xbef2539c	-0.47329414
221	0xbf8d9365	-1.1060606
222	0xbb047ff5	-0.002021787
223	0xbfaf0bcf	-1.3675479
224	0x3cd03e99	0.025420474
225	0x3cd30eea	0.025763948
226	0x3dae4e4e	0.08511029
227	0xbdcc6890	-0.09980881
228	0x3cb14bf0	0.021642655
229	0x3c7e71f3	0.015530097
230	0xbe492f90	-0.1964705
231	0xbc7b2c74	-0.015330423
232	0xbc81b38d	-0.015832687
233	0xbe510441	-0.20411779
234	0xbefadb19	-0.48995283
235	0x3e051b6d	0.12998743
236	0x3cdaa069	0.026687818
237	0xbc17cb06	-0.009264713
238	0xbd259c87	-0.04043248
239	0x3b0519dd	0.0020309605
240	0xbe59e679	-0.21279325
241	0x3cfbfdd4	0.030760683
242	0xbccc00a9	-0.024902659
243	0x3e22d7ee	0.15902683
244	0x3bbe0a6f	0.0057995836
245	0x3e0ecf05	0.13946159
246	0x3e2cec66	0.16887054
247	0xbfa51374	-1.2896562
248	0x3d68a3ea	0.056796946
249	0x3f99bb50	1.2010288
250	0xbe0e176c	-0.13876122
251	0xbe4b69e0	-0.19864607
252	0xbcdfcd6a	-0.027319629
253	0x3dea483b	0.11439558
254	0xbd7d4dc3	-0.061841737
255	0x3c969415	0.018381158
