TD3/models/third_training_attempt/train_610_episodes_critic_2.pth (torch, 531051 bytes, 5 tensors)

l1.weight f4 [400, 28]
0	0xbdce1b6e	-0.100638255
1	0x3dd1fbf3	0.102531336
2	0xbe3269ae	-0.17423126
3	0x3e434dca	0.19072643
4	0xbd41df32	-0.047331996
5	0xbd133d68	-0.035947233
6	0x3e1a65ba	0.15077868
7	0xbddbd7e0	-0.10734534
8	0xbe71f12f	-0.2362716
9	0x3c35b792	0.01109113
10	0x3dcf111e	0.10110687
11	0x3e4a3410	0.19746423
12	0xbcc88f42	-0.024482373
13	0xbe4b726c	-0.19867867
14	0xbe9fcfa6	-0.3121311
15	0xbf00d06c	-0.50318027
16	0xbf0dc5c7	-0.5537991
17	0xbf06b8c3	-0.52625674
18	0xbea40f48	-0.3204291
19	0xbe82e572	-0.25565678
20	0xbf05bb9f	-0.5223941
21	0xbeac5cc3	-0.33664522
22	0xbf0c6f56	-0.54857385
23	0xbf059d77	-0.521934
24	0x3e1105f0	0.14162421
25	0xbcf76f4a	-0.030204434
26	0x3e257649	0.16158403
27	0xbe1a32c4	-0.15058428
28	0xbe381f89	-0.1798078
29	0xc049ab4e	-3.1510806
30	0xc0528be5	-3.2897885
31	0x400d52ab	2.2081707
32	0x3f9dcbc0	1.2327805
33	0x3d85ed60	0.06539416
34	0xbecbc2cc	-0.39797056
35	0xbd1fc9a3	-0.039010655
36	0xbf22788b	-0.63465184
37	0x3f857dff	1.0429076
38	0xbd9d4875	-0.07679836
39	0xbe72f6d1	-0.23726965
40	0xbdd0de55	-0.101986565
41	0xbea1a5f1	-0.31571916
42	0x3e75a28f	0.23987792
43	0x3e2bcc0f	0.16777061
44	0x3cc2d030	0.023780912
45	0x3d0ce9d8	0.0344027
46	0x3d9e7510	0.07737172
47	0x3e8c4e6e	0.27403587
48	0x3e337b9c	0.17527622
49	0x3e03358e	0.12813398
50	0xbed9601b	-0.42456135
51	0xbda9321d	-0.082615115
52	0xbcaaad85	-0.020834694
53	0xbd82124d	-0.06351147
54	0xbd7d164d	-0.061788846
55	0x3cedb434	0.029016592
56	0x3f0145da	0.5049721
57	0x406c2ae6	3.6901183
58	0xc0390664	-2.891015
59	0xc08c3941	-4.381989
60	0xbe91a3fd	-0.28445426
61	0x3eac6d1e	0.33677
62	0xbe8d0a7e	-0.27547067
63	0x3e446c1d	0.19181867
64	0xbde91785	-0.11381439
65	0x3f579221	0.8420735
66	0xbf9bbc10	-1.2166767
67	0xbebb1d9e	-0.36546034
68	0x3e71ef87	0.23626529
69	0xbec1769e	-0.3778581
70	0xbf2d3f6b	-0.67674893
71	0xbf4fe825	-0.812136
72	0xbf082c50	-0.53192616
73	0xbef785cf	-0.48344275
74	0xbef48aac	-0.47762048
75	0xbeda2631	-0.42607263
76	0xbf0bd282	-0.54618084
77	0xbf1cba8d	-0.61222154
78	0xbee99314	-0.45620024
79	0xbebf27f6	-0.37335175
80	0x3e6040c9	0.21899714
81	0x3ee0dcec	0.4391855
82	0x3ecfce57	0.40587112
83	0x3e6a2731	0.22866513
84	0x3deb209a	0.11480828
85	0x3ea5a8a9	0.3235524
86	0x3f11092c	0.5665462
87	0xbdca5950	-0.09880316
88	0x3e0315b3	0.12801246
89	0xbeb06a6a	-0.34456187
90	0x3e6d0438	0.2314614
91	0x3e114c2e	0.14189216
92	0xbeb19794	-0.34685957
93	0x3e4ac3ae	0.19801208
94	0xbd772985	-0.06034233
95	0x3dcdb614	0.10044494
96	0x3df0b6a3	0.11753585
97	0xbe21f344	-0.15815455
98	0xbeeb57b8	-0.45965362
99	0xbeebb5ea	-0.46037227
100	0xbeb544bf	-0.35404012
101	0xbf1cdaa9	-0.6127115
102	0xbee27d9c	-0.44236457
103	0xbecd9e4d	-0.40159836
104	0xbf34db16	-0.706468
105	0xbf307803	-0.68933123
106	0xbf14f276	-0.58182466
107	0xbec7acbe	-0.3899898
108	0x3e6ac7f7	0.22927843
109	0x3dd2657d	0.102732636
110	0x3e4e3898	0.20138776
111	0xbe116f96	-0.14202723
112	0xbda0a4df	-0.07843947
113	0x3e64a62f	0.22329019
114	0x3f21c15e	0.6318568
115	0xbdf0477f	-0.11732387
116	0xbd5ab282	-0.053392895
117	0xbed571ce	-0.4168839
118	0x3e317c0f	0.17332481
119	0x3d5d49b0	0.054025352
120	0xbea118c1	-0.31464198
121	0xbd9b0a89	-0.07570369
122	0x3e3527cc	0.17690963
123	0x3ca8d8b8	0.020611152
124	0x3d95a5a7	0.07306986
125	0xbe14beaa	-0.14525858
126	0xbf5512f8	-0.8323207
127	0xbf25eb90	-0.64812565
128	0xbf5c9a97	-0.86173385
129	0xbf17526c	-0.5911014
130	0xbf0c5a4e	-0.54825294
131	0xbf48e4c9	-0.784741
132	0xbf0822e8	-0.5317826
133	0xbf17098d	-0.5899895
134	0xbf563851	-0.8367968
135	0xbf2e2d26	-0.6803764
136	0x3ed9472f	0.4243712
137	0x3e47c60e	0.19509146
138	0x3e3a596d	0.18198176
139	0xbcf082a5	-0.029359171
140	0x3e6a43b6	0.22877392
141	0x3fddba77	1.732253
142	0xbf3cee45	-0.7380107
143	0xc053d482	-3.3098454
144	0xbda0d232	-0.078525916
145	0xbf05068f	-0.5196313
146	0xbe418382	-0.18897822
147	0xbf252ec7	-0.645245
148	0x3eee7038	0.4656999
149	0x3ed180c2	0.40918547
150	0x3f89429a	1.072345
151	0xbf9df69b	-1.2340883
152	0x3eee5be2	0.46554476
153	0x3e5d0845	0.21585186
154	0xbeb0db8e	-0.34542507
155	0xbe90b326	-0.2826168
156	0xbef0c3a4	-0.47024262
157	0xbeaffcd6	-0.34372586
158	0xbefc5d31	-0.4928985
159	0xbeae6c74	-0.34067118
160	0xbeaf4044	-0.34228718
161	0xbed6b071	-0.4193149
162	0xbeb9d680	-0.36296463
163	0xbe95bcde	-0.29245657
164	0xbda74df8	-0.08169168
165	0xbe4dc1c0	-0.20093441
166	0x3e948d3b	0.29014
167	0x3e354244	0.1770106
168	0x3f28c524	0.6592581
169	0xbf63952b	-0.8889949
170	0xbfec69de	-1.8469808
171	0xbe1f2727	-0.15542279
172	0x3fa4a972	1.2864211
173	0xbfa0f9ea	-1.2576268
174	0x3ef8af2f	0.48571154
175	0xbf147b78	-0.580009
176	0xbfa9a7fd	-1.3254391
177	0x3e5ed28b	0.21760003
178	0x3f8e69fc	1.1126094
179	0xbf1f9515	-0.62336856
180	0x3ed1a49b	0.40945897
181	0xbff69307	-1.9263619
182	0xbf1bd5e7	-0.60873264
183	0xbe998c48	-0.2998984
184	0xbe9bd5a8	-0.30436444
185	0xbf24aa26	-0.64322126
186	0xbf03615e	-0.51320446
187	0xbf2089a0	-0.6271
188	0xbebbd8d9	-0.3668888
189	0xbeddf087	-0.4334757
190	0xbee98576	-0.45609635
191	0xbee5b38b	-0.44863543
192	0xbe308b13	-0.17240553
193	0xbdafcdc5	-0.08584169
194	0x3f1a4fc8	0.60277987
195	0xbe605725	-0.21908243
196	0x3d5f3f21	0.054503564
197	0x3d8b2631	0.06794394
198	0x3b5c5515	0.0033620049
199	0xbd9fec46	-0.078087375
200	0x3b779b83	0.0037781901
201	0xbd8cd277	-0.068760805
202	0x3dd27dba	0.10277887
203	0x3d9ecd06	0.07753949
204	0x3d83c23b	0.06433531
205	0x3dd7f339	0.10544438
206	0xbd2a51fd	-0.041582096
207	0x3d7bec3c	0.061504588
208	0x3dfb3d73	0.1226758
209	0x3da3ff8b	0.08007725
210	0xbea8e3ad	-0.32986203
211	0xbdc758bb	-0.09733721
212	0xbe1dafef	-0.15399145
213	0xbe40fb1b	-0.18845789
214	0xbde523f4	-0.11188498
215	0xbec6e29a	-0.38844758
216	0xbd2ab243	-0.04167391
217	0xbe60f367	-0.2196785
218	0xbe37292d	-0.17886801
219	0xbeb934f4	-0.36173213
220	0x3dae0ae1	0.08498169
221	0xbdaefe8e	-0.08544646
222	0x3e013a24	0.12619835
223	0xbd3eada6	-0.046552323
224	0xbdf44b6b	-0.11928447
225	0x3e4c440e	0.19947836
226	0xbe30bfef	-0.17260717
227	0xbba9a5e7	-0.005177248
228	0x3d77ae23	0.060468804
229	0xbdfb60ca	-0.122743204
230	0x3e0eda75	0.13950522
231	0x3e2b5fea	0.16735807
232	0xbdce3da1	-0.100703485
233	0xbe198e4d	-0.1499569
234	0x3e0c41c4	0.13696963
235	0x3de65198	0.112460315
236	0x3d34fa08	0.04418376
237	0x3c8b7ea8	0.017028168
238	0xbee1dd3a	-0.44114095
239	0xbebd5907	-0.36981985
240	0xbebf8512	-0.37406212
241	0xbf101ab4	-0.56290746
242	0xbeaca118	-0.33716655
243	0xbefd0f35	-0.49425665
244	0xbe8c6d2b	-0.2742704
245	0xbf031b2d	-0.5121334
246	0xbec05983	-0.37568292
247	0xbe847bfb	-0.2587584
248	0x3d23ed3a	0.04002116
249	0x3cb05fc8	0.021530047
250	0x3db89b6a	0.09014018
251	0x3cf24fcd	0.029579068
252	0x3f17b0e2	0.59254277
253	0xc055b80b	-3.339358
254	0x3fdfbc66	1.747937
255	0xc09ac6ba	-4.8367586

l1.bias f4 [400]
0	0xbe366cfb	-0.1781501
1	0xbecb5e62	-0.39720446
2	0x3e4a09b4	0.19730264
3	0xbe94d8da	-0.29071695
4	0xbe03394d	-0.12814827
5	0xbcfd3460	-0.030908763
6	0xbefb66de	-0.4910192
7	0xbc4e596f	-0.012594565
8	0xbe8b1402	-0.27163702
9	0xbeafcc85	-0.34335724
10	0x3dd1b1a8	0.10238963
11	0xbea9c9d1	-0.33161786
12	0xbea1d34a	-0.31606513
13	0xbea9663c	-0.3308581
14	0xbef8796d	-0.4853014
15	0xbec2615f	-0.37964913
16	0x3d649372	0.055804677
17	0xbe113781	-0.1418133
18	0xbee61697	-0.4493911
19	0xbdd1f56d	-0.102518894
20	0x3e472b04	0.19450003
21	0xbf817b82	-1.0115817
22	0x3ceb4ef2	0.028724167
23	0xbf3769a5	-0.71645576
24	0x3dc59944	0.09648374
25	0x3cc44582	0.023958925
26	0xbf558ff6	-0.8342279
27	0xbea48234	-0.32130587
28	0xbe89b5fa	-0.2689665
29	0xbf443cbe	-0.76655185
30	0xbf31120d	-0.6916817
31	0xbf06d2d0	-0.52665424
32	0x3ee40729	0.44536713
33	0xbe9e6c14	-0.30941832
34	0xbf3b369e	-0.73130214
35	0xbf0c3c8a	-0.54779875
36	0xbe7f4d17	-0.24931751
37	0xbe5d8502	-0.2163277
38	0x3e0b1b0a	0.13584533
39	0xbcdcca93	-0.026952064
40	0xbf30757f	-0.68929285
41	0x3f118ae3	0.5685255
42	0xbedda161	-0.43287185
43	0xbf38d856	-0.722051
44	0xbf2cf9c9	-0.6756864
45	0xbe33cd6e	-0.17558834
46	0xbe4242e4	-0.18970829
47	0xbe907e81	-0.28221515
48	0xbe0abd04	-0.13548666
49	0x3d75c139	0.059998725
50	0xbf539b69	-0.8265901
51	0x3ddfaa54	0.109211594
52	0xbf4092e0	-0.75224113
53	0xbf1dd8bd	-0.6165884
54	0xbec923a5	-0.39285007
55	0xbe7e981e	-0.24862716
56	0xbdbd3469	-0.09238512
57	0x3ec16f25	0.3778011
58	0x3f0d6233	0.55227965
59	0x3f077a0b	0.529206
60	0x3e0f4db3	0.13994484
61	0xbeedd56a	-0.46451885
62	0xbe896e25	-0.26841846
63	0xbe6113cd	-0.2198021
64	0xbedf5349	-0.4361823
65	0xbf0ba6c8	-0.54551363
66	0xbd6b4d04	-0.057446495
67	0x3ed8616d	0.4226183
68	0xbe1e2d15	-0.15446885
69	0xbf537852	-0.8260547
70	0xbe867bf7	-0.26266453
71	0x3f5dfd1d	0.86714345
72	0x3f921148	1.1411524
73	0xbf3404aa	-0.70319617
74	0xbe9f77aa	-0.31145984
75	0xbf0dbad7	-0.5536322
76	0xbeac398c	-0.33637655
77	0x3f000e39	0.500217
78	0xbe85c191	-0.26124242
79	0xbe8d5251	-0.27601865
80	0xbf7a37b8	-0.9774127
81	0x3f5ced0d	0.8629921
82	0xbefb443f	-0.49075505
83	0xbf5ba315	-0.8579572
84	0xbf0a19a0	-0.5394535
85	0x3d97fe87	0.07421594
86	0xbec7b845	-0.39007774
87	0xbf58125a	-0.84403
88	0x3d53e54a	0.05173234
89	0xbc55d60c	-0.013051521
90	0xbf5ef997	-0.87099594
91	0xbf534a39	-0.8253513
92	0xbd82f797	-0.0639488
93	0x3f2bdef1	0.67137057
94	0xbe276e46	-0.1635066
95	0xbdbc0cd1	-0.09182132
96	0xbf12968f	-0.57260984
97	0xbee135a2	-0.4398623
98	0xbec269ed	-0.3797144
99	0xbd89bd0a	-0.067255095
100	0xbe7046ca	-0.23464504
101	0xbf1b09b0	-0.60561657
102	0x3e7556d0	0.23958898
103	0xbf1ecdbb	-0.6203267
104	0xbe8833ce	-0.26602024
105	0xbe9aa8ed	-0.30207005
106	0x3d7872d5	0.060656387
107	0xbf17c8bb	-0.59290665
108	0xbdf3f300	-0.11911583
109	0xbf32eb68	-0.6989045
110	0x3fb8d46d	1.4439827
111	0xbeb501ae	-0.35352844
112	0xbca9979f	-0.020702181
113	0xbeb387c9	-0.35064533
114	0xbf2f3d7c	-0.6845319
115	0x3e738061	0.23779441
116	0x3e0b44fd	0.13600536
117	0xbf6ac475	-0.9170602
118	0xbe1601e7	-0.14649163
119	0xbe5a2cb6	-0.21306118
120	0xbdb42bd8	-0.08797425
121	0xbee06bc1	-0.4383221
122	0xbcd6d94e	-0.026226666
123	0xbf6366a4	-0.8882849
124	0x3da61b1f	0.08110642
125	0xbdb55415	-0.08853928
126	0x3fc47207	1.5347298
127	0xbf291eb6	-0.66062486
128	0xbe632f57	-0.22186027
129	0xbe895e99	-0.26829985
130	0xbe98e136	-0.29859322
131	0xbe3f12ae	-0.1865947
132	0xbf36d7e1	-0.71423155
133	0xbefe4fab	-0.49670157
134	0xbec4d516	-0.38443822
135	0xbe6b4842	-0.22976783
136	0xbf3b5ea8	-0.7319131
137	0xbe8f3260	-0.2796812
138	0xbf70884a	-0.9395796
139	0xbf3f01b2	-0.7461196
140	0xbe898dc2	-0.26865965
141	0xbf2c0b3c	-0.6720464
142	0xbc6d25f9	-0.014474385
143	0xbe39455c	-0.18092865
144	0x3f563554	0.8367512
145	0xbe1e743d	-0.15474029
146	0xbee16675	-0.4402348
147	0x3f780ed0	0.968976
148	0x3f99e507	1.2023019
149	0x3d351cad	0.0442168
150	0xbd7be21e	-0.06149494
151	0xbf2542e3	-0.64555186
152	0xbf20927e	-0.6272353
153	0xbe3ae9a7	-0.18253194
154	0xbe241872	-0.1602495
155	0xbe76c4dd	-0.24098535
156	0xbea8412d	-0.32862225
157	0xbf264988	-0.6495595
158	0xbe2962f8	-0.1654166
159	0xbee75f50	-0.45189905
160	0xbe00fd70	-0.12596679
161	0x3f42de5e	0.76120555
162	0xbf6eafe2	-0.93237126
163	0xbed6c576	-0.41947526
164	0xbf6ec708	-0.9327245
165	0xbee59565	-0.4484054
166	0x3b92143b	0.004457978
167	0xbeb871eb	-0.36024413
168	0xbf2a77c2	-0.66588986
169	0xbeb26a09	-0.34846523
170	0xbdd329cc	-0.103107065
171	0xbb9e9ac8	-0.0048402287
172	0xbf13714f	-0.5759477
173	0xbe086b79	-0.13322248
174	0xbee084a6	-0.43851203
175	0xbef623ae	-0.48074096
176	0xbe39009b	-0.18066637
177	0xbf451bc1	-0.76995474
178	0xbede2305	-0.43386093
179	0xbf5b3a0b	-0.8563544
180	0xbf2c4e3b	-0.6730687
181	0xbc65ab4e	-0.014017893
182	0xbe43305d	-0.19061418
183	0xbebf844a	-0.37405616
184	0xbf1fa3de	-0.62359416
185	0xbf2eb68a	-0.6824728
186	0xbed686dd	-0.41899768
187	0xbe9d1e5f	-0.30687234
188	0xbf3f9165	-0.7483123
189	0xbdffd7a0	-0.12492299
190	0xbf905134	-1.1274781
191	0xbe5f779f	-0.21822976
192	0xbf16f556	-0.589681
193	0xbf470ec3	-0.777569
194	0xbf45dcab	-0.7728984
195	0x3ed8b1d3	0.4232317
196	0x3ebb3813	0.3656622
197	0x3f2a26e5	0.664656
198	0xbf0d8d0d	-0.5529335
199	0xbf8885de	-1.0665853
200	0xbf5ca591	-0.86190134
201	0xbf517167	-0.81813663
202	0x3cc43df2	0.02395532
203	0xbdbc8cc6	-0.09206538
204	0xbf67183c	-0.90271354
205	0xbf088de8	-0.5334153
206	0xbe5741dc	-0.21021217
207	0xbeb6a3f1	-0.35671952
208	0xbf5fd728	-0.8743768
209	0xbd1e7798	-0.038688272
210	0xbf095d83	-0.5365831
211	0xbe97db13	-0.29659328
212	0xbeb532bb	-0.35390267
213	0xbf386369	-0.7202669
214	0xbf56952b	-0.8382136
215	0xbedd3111	-0.43201497
216	0xbf8e65ac	-1.1124778
217	0xbf80d11f	-1.0063819
218	0xbe99665d	-0.2996091
219	0x3ec9b30f	0.39394423
220	0xbf88502e	-1.0649469
221	0xbf56d37d	-0.83916456
222	0xbe2bc954	-0.1677602
223	0xbe8dc60d	-0.27690163
224	0xbf0f2ed2	-0.5593082
225	0xbf352b95	-0.70769626
226	0x3d422874	0.04740186
227	0xbf104c1a	-0.5636612
228	0x3e35d7b7	0.1775807
229	0x3f79930d	0.97490007
230	0xbe65be5a	-0.22435895
231	0xbf81b079	-1.013198
232	0xbf1a23e2	-0.60211
233	0xbf4f6356	-0.8101095
234	0x3edd668a	0.43242294
235	0xbe0bedc1	-0.13664915
236	0xbf1426ac	-0.5787151
237	0x3e48541d	0.19563337
238	0xbdf68e14	-0.12038818
239	0x3f88e4f3	1.069487
240	0x3ef65ed6	0.4811923
241	0xbe517cd1	-0.2045777
242	0xbf1b8e94	-0.6076443
243	0x3d0c5fab	0.034270924
244	0xbf3ba367	-0.7329621
245	0x3efa4980	0.488842
246	0xbe9dd826	-0.3082897
247	0xbf81b374	-1.013289
248	0x3ed40dd6	0.41416806
249	0x3d8e1b7e	0.069388375
250	0x3e49b6d1	0.19698645
251	0xbd6adad6	-0.057337604
252	0x3f959dfe	1.168884
253	0xbe041322	-0.12897924
254	0xbe265172	-0.16242006
255	0xbf5e0181	-0.86721045

l2.weight f4 [300, 400]
0	0xbd0b1772	-0.033957906
1	0xbbda95bc	-0.0066706818
2	0xbc972b12	-0.018453155
3	0xbb46cc20	-0.003033407
4	0xbbfde283	-0.0077479496
5	0x3bec3921	0.0072089587
6	0xbd085d2a	-0.033291973
7	0xbcbff1a9	-0.023430662
8	0xbd5c1a41	-0.053735975
9	0xbc09d82f	-0.008413359
10	0x3cc0e505	0.023546705
11	0x3d02e48f	0.03195625
12	0xbcfbe88a	-0.030750532
13	0xbd160b7e	-0.036632054
14	0x3d453533	0.048146438
15	0x3cde2bd8	0.027120516
16	0x3ca7afee	0.020469632
17	0xbc1f842c	-0.009736102
18	0x3c94119e	0.018074807
19	0x3bb71ff4	0.005588526
20	0x3be09682	0.0068538794
21	0xbc085a78	-0.008322351
22	0xbcdcf986	-0.02697445
23	0x3d07e09f	0.0331732
24	0x3c63497f	0.013872503
25	0xbceb10f4	-0.028694607
26	0xbd38114b	-0.044938367
27	0x3c478368	0.012177326
28	0x3d34f07f	0.044174667
29	0x3ca5f751	0.020259531
30	0x3b0acdef	0.0021179875
31	0x3becba6b	0.007224371
32	0x3d236628	0.039892346
33	0x3ce5586a	0.02799626
34	0x3c5937a6	0.0132578965
35	0x3d1fb609	0.03899196
36	0x3d235e35	0.039884765
37	0xbc8229da	-0.015889097
38	0xbc8fe4b8	-0.017565116
39	0x3be9351f	0.007116928
40	0xbd28670e	-0.041113906
41	0xbc401f74	-0.011726249
42	0x3cb34125	0.02188165
43	0x3c9ea966	0.019367885
44	0x3d3e09d3	0.046396088
45	0xbd0313d4	-0.03200133
46	0x3cd07d65	0.025450418
47	0xbc2dbb2c	-0.010603707
48	0xbcba3cea	-0.022734124
49	0xbccc39c4	-0.024929889
50	0x3d0f1a70	0.034937322
51	0xbc35ad8b	-0.011088739
52	0xbd1b79b0	-0.037957847
53	0xbd185d95	-0.03719862
54	0x3c8857b0	0.016643375
55	0x3baf7bb0	0.005355321
56	0x3c87a4a3	0.016557997
57	0xbd2e50fb	-0.042557698
58	0x3d0fbba3	0.035091054
59	0xbd68ca72	-0.056833692
60	0xbcc59d79	-0.02412294
61	0x3cca359a	0.024683762
62	0xbbe35840	-0.0069380105
63	0xbd09eeee	-0.033675127
64	0xbce17267	-0.027520372
65	0xbd33de93	-0.043913435
66	0x3b1cba92	0.0023914916
67	0x3d165539	0.03670237
68	0xbcc44fba	-0.023963798
69	0xbd20f04b	-0.03929166
70	0xb8713e98	-5.7517173e-05
71	0xbd041afa	-0.03225229
72	0x3c08f001	0.008358003
73	0xbca4e2c5	-0.020127663
74	0xbce690c6	-0.028145205
75	0x3c42e648	0.011895724
76	0x3d1fec8b	0.039043944
77	0x3ce984f4	0.02850578
78	0x3d2e8b6f	0.042613443
79	0xbd3bdf55	-0.045867283
80	0x3b95a1dc	0.0045664143
81	0xbcb3ffba	-0.021972526
82	0xbab6c500	-0.0013944209
83	0x3cde9ca8	0.027174309
84	0xbd207fca	-0.03918437
85	0xbd05002a	-0.03247086
86	0xbcae8ddb	-0.021307876
87	0xbcc14cdf	-0.023596225
88	0xbc07095e	-0.008241979
89	0x3cf4355f	0.029810606
90	0x3cfe18b9	0.031017648
91	0xbc061d48	-0.008185692
92	0xbd3be7f3	-0.0458755
93	0xbc48ff73	-0.012267935
94	0x3cb46232	0.02201948
95	0x3d07e173	0.03317399
96	0x3d21141b	0.039325815
97	0xbcd5e8bd	-0.026111955
98	0xbc6d79e0	-0.014494389
99	0xbce19bcb	-0.027540108
100	0x3bf2c3f9	0.0074086157
101	0xbc3be4ff	-0.011468171
102	0xbbe776ac	-0.0070637073
103	0xbd4777e7	-0.048698332
104	0x3c8dbebe	0.017302867
105	0xbc3b1108	-0.011417635
106	0xbbbb0811	-0.0057077487
107	0xbc85ca8e	-0.016331937
108	0xbafe1aa8	-0.0019386606
109	0xbd129c1e	-0.035793416
110	0xbd3d621f	-0.046236154
111	0x3d370c71	0.0446896
112	0x3b4a77b5	0.0030894105
113	0xbd2a9bad	-0.04165237
114	0x3cde1bb6	0.027112823
115	0x3d233c9e	0.03985273
116	0xbd2d8510	-0.042363226
117	0xbd34fb65	-0.04418506
118	0xbd40d24a	-0.047075547
119	0x3d0b8484	0.034061924
120	0xbd1fdc80	-0.039028645
121	0x3d19c302	0.03753949
122	0xbc1c3d88	-0.009536155
123	0xbd6c903e	-0.057754748
124	0xbbf05628	-0.0073344894
125	0xbccdb570	-0.02511093
126	0x3d14eb9b	0.036357503
127	0xbce04daa	-0.027380783
128	0x3d4bb3e3	0.0497321
129	0xbd41882d	-0.047249008
130	0x3b27d31e	0.0025608013
131	0x3d15ca7d	0.03657006
132	0x3be25ef0	0.00690829
133	0xbce190cf	-0.02753487
134	0xbd686e4b	-0.05674581
135	0x3c2301a8	0.009949125
136	0xbc463102	-0.012096645
137	0xbc8ad652	-0.016947899
138	0xbaef5b12	-0.0018261394
139	0x3b9efeb9	0.0048521427
140	0xbd05794f	-0.032586392
141	0xbc7fa8ef	-0.015604242
142	0x3ca960da	0.020676065
143	0xbcaeb9f0	-0.021328896
144	0xbcd42bc6	-0.025899779
145	0xbc702e18	-0.014659427
146	0xbca366c3	-0.019946462
147	0xbbd95511	-0.006632455
148	0xbc925495	-0.017862597
149	0xbcb376de	-0.021907266
150	0xbcd43ff9	-0.02590941
151	0x3d168489	0.03674749
152	0xbd3dbe25	-0.046323914
153	0x3cf5edde	0.03002065
154	0xbb9d3530	-0.0047976
155	0x3cecef06	0.028922569
156	0x3d3b7b8c	0.04577212
157	0x3ca01176	0.019539576
158	0x3c0108a8	0.007875599
159	0xbd38d87f	-0.04512834
160	0xbceea157	-0.029129667
161	0x3c7d95b5	0.0154775875
162	0x3cea35a5	0.028590033
163	0x3cf68782	0.030093912
164	0xbcd4f12a	-0.025993902
165	0xbd24f45a	-0.040272094
166	0xbc939fa5	-0.01802046
167	0xbc2f3738	-0.0106943175
168	0xbcc08e90	-0.02350548
169	0xbce891d5	-0.02838985
170	0xbd31b32d	-0.043383766
171	0x3d3b804f	0.04577666
172	0x3c884a9c	0.016637139
173	0x3c570984	0.013124827
174	0x3b470477	0.0030367651
175	0x3d428ee1	0.04749954
176	0xbd3539cf	-0.044244584
177	0x3b7a5c91	0.0038202147
178	0x3d144479	0.036198113
179	0xbcace29d	-0.021104151
180	0x3d27e117	0.040986147
181	0xbc0cbf04	-0.008590464
182	0x3c944e46	0.01810373
183	0xbd0f6a6f	-0.035013612
184	0x3d473f25	0.048644204
185	0xbcc017e7	-0.023448898
186	0xbd1eea12	-0.038797446
187	0xbc0b67ac	-0.008508604
188	0x3c8b40e2	0.016998712
189	0x3d25c071	0.04046673
190	0xbcea646a	-0.028612334
191	0x3c38686c	0.011255365
192	0xbc2d7edc	-0.010589328
193	0x3ce23aaa	0.027615864
194	0xbae1b263	-0.0017219301
195	0x3cb48e17	0.02204041
196	0x3cbc9429	0.023019867
197	0xbd672031	-0.056427184
198	0xbd06fc82	-0.032955654
199	0x3cf1fb3e	0.029538747
200	0xbd4e11eb	-0.050310057
201	0x3c42e8c0	0.011896312
202	0x3c381d62	0.011237474
203	0x3d0d5982	0.03450919
204	0xbd3c71a4	-0.046006814
205	0xbd3b02d0	-0.04565698
206	0x3c830ed2	0.015998278
207	0x3c5f0c8c	0.013613831
208	0x3ae27f21	0.0017280319
209	0x3c9f48a3	0.019443816
210	0xbca26727	-0.019824577
211	0xbc835636	-0.01603232
212	0xbcfcaa79	-0.030843006
213	0xbcbce712	-0.023059402
214	0xbc9d6cfd	-0.019217009
215	0xbcf51dfc	-0.029921524
216	0xbd4dee5a	-0.050276138
217	0xbd237145	-0.039902944
218	0xbd52f2bb	-0.051501017
219	0x3c2be340	0.010491192
220	0xbb628dd0	-0.003456939
221	0x3c115c80	0.008872151
222	0xbd378e4f	-0.04481345
223	0xbd3a756b	-0.045522135
224	0xbc098fdf	-0.008396118
225	0xbceff80b	-0.02929308
226	0xbd3546d1	-0.04425699
227	0x3d0b58ba	0.034020163
228	0xbcdcaefe	-0.026938912
229	0xbb08385f	-0.0020785553
230	0xbcb0337a	-0.021508921
231	0xbd21464c	-0.03937368
232	0xbcdbc610	-0.026827842
233	0xbd2e4e18	-0.042554945
234	0xbd039d08	-0.03213218
235	0xbb77b8e0	-0.0037799403
236	0xbcbfc7ef	-0.023410765
237	0x3d170e4d	0.036878873
238	0xbc3892e8	-0.011265494
239	0x393b70c9	0.00017875725
240	0xbc7cffa9	-0.0154418135
241	0x3c0016f8	0.007817976
242	0xbd00c2e0	-0.031435847
243	0x3b2fa8a4	0.0026803399
244	0x3cca7a6a	0.024716575
245	0xbc99e37b	-0.018785229
246	0xbd5d175a	-0.053977348
247	0x3c999b5e	0.018750843
248	0x3bf61570	0.00750988
249	0xbd366ef5	-0.04453941
250	0xbd54b2b0	-0.051928222
251	0x3a9258c0	0.0011165366
252	0xbd52db9a	-0.05147896
253	0xbd1eb60d	-0.038747836
254	0x3c443674	0.011975873
255	0xbd13632d	-0.035983253

l2.bias f4 [300]
0	0xbd200c7e	-0.039074413
1	0x3d3be291	0.045870367
2	0x3ccf87ac	0.025333248
3	0xbc62b86f	-0.013837918
4	0xbd54bbee	-0.051937036
5	0xbdb4c1e7	-0.088260464
6	0xbe87b73d	-0.26506987
7	0x3d8b8407	0.068122916
8	0xbd0c5c5e	-0.034267776
9	0xbd353df0	-0.04424852
10	0x3ea38496	0.31937093
11	0x3d11da27	0.035608437
12	0xbefa1add	-0.4884862
13	0xbe8782bf	-0.2646694
14	0x3d6beee0	0.057600856
15	0xbdacd1c8	-0.0843845
16	0xbc6e7db6	-0.014556339
17	0xbe1492eb	-0.1450917
18	0x3e561415	0.20906098
19	0xbc8a1156	-0.01685397
20	0x3e0c3c59	0.13694896
21	0x3dbe7583	0.09299757
22	0x3e42af9f	0.19012307
23	0xbd20ae19	-0.039228532
24	0xbd177437	-0.036976065
25	0x3f805b74	1.0027909
26	0x3e0eaa6f	0.13932203
27	0x3ced34bc	0.02895581
28	0xbc2f72e8	-0.010708548
29	0xbe9a49d7	-0.3013446
30	0xbcb0071f	-0.02148777
31	0x3cdb72b9	0.026788102
32	0x3d59be4f	0.053160008
33	0xbbfc9cda	-0.007709128
34	0xbd8096df	-0.062787764
35	0xbdb6e20a	-0.08929832
36	0x3c9c0f1b	0.019050172
37	0xbd3ce624	-0.046117917
38	0x3e7b1f66	0.24523696
39	0xbd973d2b	-0.07384714
40	0x3d966795	0.073439755
41	0x3d2afd44	0.04174544
42	0x3d8cebdf	0.06880926
43	0x3dbda2f2	0.09259595
44	0x3f5e3724	0.8680289
45	0x3f50d856	0.815801
46	0xbb70888c	-0.0036702482
47	0xbda51c9c	-0.080620974
48	0x3dbbb998	0.091662586
49	0xbd797544	-0.06090285
50	0xbc22d3a8	-0.009938158
51	0xbff768f1	-1.93289
52	0xbdacfd28	-0.08446723
53	0xbd0ce16a	-0.03439466
54	0x3e0a33aa	0.13496271
55	0xbd5ea655	-0.054357845
56	0x3d72ec02	0.059307106
57	0x3d6b835e	0.05749833
58	0xbd3f65f6	-0.046728097
59	0x3cbfbf50	0.023406655
60	0xbc4dcd26	-0.012561118
61	0xbd3da79c	-0.046302423
62	0xbc50a610	-0.012734905
63	0x3e5f7df5	0.21825393
64	0x3aaf7817	0.001338723
65	0xbebe23b5	-0.37136617
66	0x3d5565c5	0.052099008
67	0x3d1cc951	0.038277928
68	0x3d81dc0d	0.063407995
69	0xbded021a	-0.115726665
70	0xbd4f00f0	-0.050538003
71	0xbe127577	-0.14302622
72	0x3d5a67ce	0.053321652
73	0x3f9ce6e9	1.2257968
74	0xbd177034	-0.03697224
75	0x3c570138	0.013122849
76	0x3f6e912b	0.9319026
77	0xbca32620	-0.01991564
78	0x3f6dd6fc	0.92906165
79	0xbf078157	-0.5293173
80	0xbd298315	-0.041384775
81	0x3e51ee67	0.205011
82	0x3ea952c8	0.3307097
83	0x3d3a83b3	0.045535754
84	0xbd87f9bf	-0.06639432
85	0xbdbaf5a9	-0.09128887
86	0xbd0f10cc	-0.034928128
87	0xbd3023a5	-0.043002743
88	0xbd931ea1	-0.071835764
89	0xbb6a2ff6	-0.0035734153
90	0xbc423a09	-0.011854657
91	0xbd9791b7	-0.0740084
92	0xbc8e3484	-0.017359026
93	0x3e5873b1	0.21137883
94	0xbd571db4	-0.05251856
95	0x3e98c7fc	0.29840076
96	0xbdfb530b	-0.122716986
97	0x3bd935cf	0.006628729
98	0x3cd23496	0.02565984
99	0xbd662274	-0.0561852
100	0xbd7db38f	-0.06193882
101	0xbd1f62aa	-0.038912453
102	0x3ba160f1	0.0049248864
103	0xbd408a40	-0.047006845
104	0x3f5ade20	0.85495186
105	0xbc72c584	-0.014817599
106	0x3d8a0482	0.06739141
107	0xbd53e266	-0.051729582
108	0xbd53d64c	-0.05171804
109	0x3d041b3a	0.032252528
110	0xbdb27ca8	-0.087151825
111	0x3d71c511	0.059025828
112	0xbe2a51fd	-0.16632839
113	0xbd13acc8	-0.03605345
114	0x3c393cae	0.011305971
115	0xbdde47e8	-0.10853559
116	0xbfc0a7d9	-1.5051223
117	0x3e27c82e	0.16384956
118	0xc00f47ba	-2.2387528
119	0xbeb95a6b	-0.36201796
120	0x3e80a492	0.25125557
121	0xbdd8ac38	-0.10579723
122	0xbd543661	-0.051809672
123	0x3e1695e6	0.14705619
124	0xbd8c13f1	-0.06839741
125	0x3df65028	0.12027007
126	0xc01b809b	-2.4297245
127	0xbd33b72a	-0.04387585
128	0xbda25350	-0.07926047
129	0xbf290787	-0.6602711
130	0xbada2987	-0.0016644456
131	0xbe0a2b55	-0.13493092
132	0x3d7a21a1	0.061067227
133	0x3e223caf	0.15843461
134	0xbe8af7dc	-0.27142227
135	0x3dfec5c9	0.12440068
136	0xbc015371	-0.007893429
137	0xbd50dd42	-0.050992258
138	0xbe14e696	-0.14541087
139	0xbe5e18e7	-0.21689187
140	0xbcbbd220	-0.022927344
141	0xbdb71593	-0.08939662
142	0xbc9dee42	-0.01927865
143	0xbc9dbd7d	-0.019255394
144	0xbc609f85	-0.013709907
145	0x3dd9a281	0.10626698
146	0x3e7a2e8a	0.24431816
147	0x3d7e42a9	0.06207529
148	0xbc277222	-0.0102200825
149	0xbd36ea99	-0.044657324
150	0xbd73c2bc	-0.059511885
151	0xbd5f1c43	-0.05447031
152	0x3e0fc8f7	0.14041506
153	0xbe848f57	-0.2589061
154	0xba6b629a	-0.00089792314
155	0x3cbd32d3	0.023095524
156	0xbda60166	-0.081057355
157	0xbdeda389	-0.116034575
158	0x3e513cdd	0.20433374
159	0x3d0bd584	0.03413917
160	0x3f3f89d3	0.7481968
161	0xbdb0da5f	-0.08635401
162	0x3b5f03c3	0.0034029342
163	0x3da4f5d8	0.080547035
164	0xbc7b3803	-0.015333178
165	0xbdbdbf03	-0.09264948
166	0xbd6294bb	-0.05531762
167	0x3c2d64db	0.010583128
168	0x3d87a554	0.06623331
169	0x3db4c3a2	0.088263765
170	0x3de8b2b9	0.11362214
171	0xbcba9b77	-0.02277921
172	0xbd7716b3	-0.060324382
173	0xbc37fbac	-0.011229437
174	0x3c861026	0.016365122
175	0xbd7cd1a6	-0.061723374
176	0xbd8c5528	-0.0685218
177	0x4014446b	2.316676
178	0x3e935811	0.28778127
179	0xbdad496a	-0.08461268
180	0x3d608148	0.054810792
181	0xbda126ad	-0.07868705
182	0x3d397acd	0.045283128
183	0xbcb3ec88	-0.021963373
184	0xbdf27a36	-0.11839716
185	0x3c618553	0.013764697
186	0xbcff144c	-0.031137608
187	0xbd9042ce	-0.07043992
188	0x3adb2e3e	0.0016722155
189	0xbceab2e6	-0.028649759
190	0xbd0b6fb2	-0.034042068
191	0xbb99e7e8	-0.004696835
192	0xbd0b2654	-0.0339721
193	0x3f50290e	0.81312644
194	0xbea931a7	-0.33045694
195	0x3df67d08	0.120355666
196	0xbdba6fa1	-0.09103323
197	0x3ff84cc3	1.9398426
198	0xbf07f0a4	-0.53101563
199	0xbe107d7c	-0.14110368
200	0xbcef476e	-0.029208865
201	0x3d0bd7ab	0.034141224
202	0x3dea92e9	0.11453802
203	0x3e314e64	0.1731506
204	0x3f2bf8d8	0.6717658
205	0xbefa31ac	-0.48866022
206	0xbe856372	-0.26052433
207	0xbdbc1522	-0.09183718
208	0x3bdd420c	0.006752258
209	0xbc73bb4a	-0.014876196
210	0xbddd673d	-0.10810707
211	0x3e3954be	0.18098733
212	0xbcbaf0c3	-0.022819882
213	0xbd8cf092	-0.06881823
214	0xbd98e93c	-0.07466361
215	0x3cf30c0f	0.029668836
216	0xbd2ea4c5	-0.042637605
217	0x3d95ae30	0.07308614
218	0xbd17d24a	-0.03706578
219	0xbd832828	-0.064041436
220	0x3f4216f1	0.75816256
221	0x3e806ba8	0.25082135
222	0xbb770946	-0.0037694736
223	0x40146c2c	2.3191023
224	0xbd0d1d20	-0.034451604
225	0xbd9e4ee8	-0.07729894
226	0xbe013614	-0.12618285
227	0xbcb746fa	-0.022372711
228	0xbdb8ff8b	-0.09033116
229	0xbc6f9cc6	-0.01462478
230	0x3c2dcd79	0.0106080705
231	0xbda2f929	-0.0795768
232	0xbc5a12b8	-0.013310127
233	0x3d24cac6	0.040232442
234	0x3f4fafcc	0.8112762
235	0xbf0a9651	-0.54135615
236	0xbd8289be	-0.063739285
237	0xbd24a2c3	-0.040194284
238	0xbdb2d21b	-0.08731481
239	0xbd0fe44f	-0.03512984
240	0x3cbd2fc1	0.02309406
241	0xbd89d9bd	-0.067309834
242	0xbdaad9df	-0.08342337
243	0xbe120959	-0.14261378
244	0xbdfd0276	-0.12353985
245	0x3dad601a	0.084655955
246	0x3d9c2bcb	0.0762554
247	0x400c684e	2.1938663
248	0xbc9bf29a	-0.01903658
249	0xbfe3480b	-1.7756361
250	0x3d2b3da9	0.04180685
251	0x3d396052	0.045257874
252	0xbd802208	-0.06256491
253	0xbe163113	-0.14667158
254	0x3d52d5bf	0.051473375
255	0xbc9071de	-0.017632421

l3.weight f4 [1, 300]
0	0xbcc9166f	-0.02454683
1	0x3e0b5a36	0.13608631
2	0x3d12669c	0.035742387
3	0xbe13708b	-0.143984
4	0x3bb92638	0.005650308
5	0xbc8f5d1c	-0.017500453
6	0x3ebea9a2	0.37238795
7	0xbe223352	-0.1583989
8	0x3cd131a2	0.025536362
9	0xbcf9792e	-0.03045329
10	0x3f74fb32	0.95695794
11	0xbe2104e1	-0.15724517
12	0xbf007a99	-0.5018707
13	0xbe1ce7d7	-0.15322815
14	0xbe25d40d	-0.16194172
15	0x3c09adc2	0.0084032435
16	0x3ca12ce8	0.019674733
17	0xbe7e52e5	-0.24836309
18	0x3f05ea14	0.523103
19	0x3ce83231	0.028344246
20	0xbeca3c47	-0.39499113
21	0xbe52de28	-0.20592558
22	0xbf20bfd8	-0.6279273
23	0x3b07059a	0.0020602704
24	0xbc0eb0d9	-0.008709156
25	0xbef5ecaa	-0.48032123
26	0xbf0e6ecb	-0.55637807
27	0x3c85403d	0.016265983
28	0x3d0c53f4	0.03425975
29	0xbe952d12	-0.29135948
30	0x3ba8d97c	0.0051528793
31	0x3c2779d7	0.01022192
32	0xbe2e4326	-0.17017803
33	0xbdb09a33	-0.08623161
34	0x3a8ddd91	0.0010823478
35	0x3e70697b	0.23477738
36	0xbb23441d	-0.0024912425
37	0x3ca79a2f	0.020459263
38	0x3e118020	0.14209032
39	0x3c248ed7	0.010043821
40	0x3ce773ea	0.028253514
41	0xbe22ecf1	-0.15910698
42	0xbe2455d4	-0.16048366
43	0xbe4ba96e	-0.19888851
44	0xbe37eac2	-0.17960647
45	0xbe0f8791	-0.14016558
46	0xbe35165c	-0.1768431
47	0x3c7c5392	0.015400784
48	0x3db78c4a	0.08962305
49	0x3caf0d21	0.021368565
50	0xbc21346d	-0.009839159
51	0x3faac407	1.3341073
52	0x3ce2be82	0.027678732
53	0x3cfd3268	0.030907825
54	0x3e2fa28d	0.17151852
55	0xbf631719	-0.8870712
56	0xbe69c3b3	-0.2282856
57	0xbda3ce3e	-0.07998322
58	0x3d167215	0.03672989
59	0xbe37a712	-0.17934826
60	0xbd238f8e	-0.039931826
61	0xbe176f37	-0.14788519
62	0xbc000de4	-0.007815812
63	0x3e30d0d9	0.17267169
64	0xbe18a103	-0.14905171
65	0x3c6fbbd8	0.014632188
66	0x3d8f9a61	0.07011867
67	0xbfa55180	-1.2915497
68	0xbe3ac051	-0.18237425
69	0x3e939607	0.288254
70	0x3d0052a5	0.031328816
71	0xbcc9292a	-0.024555761
72	0xbe106b93	-0.14103536
73	0xbfae8183	-1.3633274
74	0x3ce5a014	0.028030433
75	0xbe3625bd	-0.17787834
76	0xbe4a337d	-0.19746204
77	0xbdfed7c6	-0.12443499
78	0xbe639008	-0.22222912
79	0x3faab3a4	1.3336072
80	0x3ca5da7e	0.020245787
81	0x3e45dbcb	0.19322126
82	0xbeefaf23	-0.46813306
83	0xbe40b86c	-0.18820351
84	0xbd00600a	-0.03134159
85	0x3c84e571	0.016222687
86	0xbbf4de4b	-0.0074727884
87	0xbcd39d06	-0.02583171
88	0x3ca82cbe	0.020529147
89	0x3be061b4	0.0068475846
90	0x3c4c0009	0.01245118
91	0xbcc90933	-0.02454052
92	0xbf027a4b	-0.50967854
93	0x3e215c06	0.1575776
94	0xbdb28805	-0.0871735
95	0x3ea9a0e8	0.33130574
96	0xbc977f3f	-0.018493293
97	0xbe0ea4ba	-0.13930026
98	0xbe4db97d	-0.2009029
99	0x3d469f9f	0.04849207
100	0xbca3f0fe	-0.020012375
101	0x3c055701	0.008138419
102	0xbc8fade7	-0.017538978
103	0xbd0b7d10	-0.034054816
104	0xbe9eb4dd	-0.30997363
105	0xbdd6059b	-0.10450288
106	0xbe0348d8	-0.12820756
107	0xbe11a81e	-0.14224288
108	0xbc032d75	-0.008006443
109	0xbee1fbdb	-0.44137463
110	0x3cea4a57	0.028599901
111	0xbde65b42	-0.11247875
112	0x3d791014	0.06080635
113	0xbc37d104	-0.011219267
114	0xbe143b95	-0.14475854
115	0xbc4096c8	-0.011754699
116	0x3f88e4ba	1.0694802
117	0x3d94f4ac	0.0727323
118	0x3f6e44f6	0.93073976
119	0xbf5e1fe8	-0.86767435
120	0x3d7d0585	0.061772842
121	0xbc2d9acd	-0.010595989
122	0x3b89bb4c	0.0042032357
123	0x3e92384e	0.28558582
124	0x3c710f8c	0.014713179
125	0x3d5e853c	0.05432628
126	0x3f20e016	0.6284193
127	0xbe6d6fd7	-0.23187195
128	0x3cb0666e	0.021533217
129	0x3ec4a5dc	0.3840779
130	0xbad0101c	-0.0015873942
131	0x3cef6e68	0.02922745
132	0xbe3c7bb7	-0.18406568
133	0xbebd2935	-0.369455
134	0x3e2d8794	0.1694625
135	0x3db252f6	0.0870723
136	0x3d21b612	0.039480276
137	0xbcab199e	-0.020886239
138	0xbe886c78	-0.26645255
139	0xbe698d89	-0.22807898
140	0x3cd794e8	0.026316121
141	0x3a4aabaf	0.00077312713
142	0x3cc393b3	0.02387414
143	0xbdf1ae2c	-0.11800799
144	0xbe80c2b0	-0.25148535
145	0xbe9aab51	-0.3020883
146	0xbeef11aa	-0.46693164
147	0xbdf74f0e	-0.12075625
148	0x3ca15de7	0.019698096
149	0xbb4ee43d	-0.0031569146
150	0xbc3b3f51	-0.01142867
151	0x3c1523ae	0.009102745
152	0xbea97814	-0.33099425
153	0x3e6c523a	0.23078242
154	0xbcae9557	-0.021311445
155	0xbdc76711	-0.09736455
156	0x3d0f5c32	0.035000034
157	0x3bc2defb	0.0059469915
158	0xc0365586	-2.84897
159	0xbe35f6c1	-0.1776991
160	0xbdeb65dc	-0.114940375
161	0xbce7e0ca	-0.02830543
162	0xbe1c09e6	-0.15238151
163	0x3da0b3ce	0.07846795
164	0xbc5e1a92	-0.01355614
165	0x3b4d5e76	0.003133682
166	0xbe92942f	-0.2862868
167	0xbc48467c	-0.012223836
168	0x3e1c9b3e	0.15293595
169	0xbece8dc0	-0.40342522
170	0x3e4a916a	0.19782034
171	0x3c842f2a	0.01613577
172	0xbcfcde21	-0.030867638
173	0xbc881b26	-0.016614508
174	0xbe1c71ae	-0.1527774
175	0x3bc9363a	0.0061404975
176	0x3da60ec7	0.08108287
177	0xbfac7eb4	-1.3476167
178	0x3e8c44de	0.27396291
179	0xbb981c96	-0.0046420796
180	0x3c5c671b	0.013452317
181	0xbc97a6da	-0.018512178
182	0xbe4d2fa4	-0.20037705
183	0xbdec9045	-0.11550955
184	0x3b9311fe	0.004488229
185	0xbe581b72	-0.2110422
186	0x3bc371ff	0.005964517
187	0xbc011c72	-0.007880317
188	0xbc1ec2b3	-0.009689975
189	0xbcf8da6d	-0.030377591
190	0x3ce1a68f	0.027545242
191	0xbe1fdc43	-0.15611367
192	0xbcf3b307	-0.029748453
193	0xbe0c42e7	-0.13697396
194	0xbefb8bf6	-0.4913022
195	0xbe69d19a	-0.22833863
196	0xbcdf597a	-0.027264345
197	0xbf244d1e	-0.6418017
198	0x3f9713fe	1.1802976
199	0xbebeaa3e	-0.3723926
200	0xbcdff8f0	-0.027340382
201	0xbe3ffb2e	-0.18748161
202	0xbec087a6	-0.37603492
203	0xbcd4b9de	-0.025967535
204	0xbf99f2eb	-1.2027258
205	0xbfbde6b9	-1.4836036
206	0xbeab9e09	-0.3351901
207	0x3d3bf009	0.045883212
208	0xbc4c2e1e	-0.012462167
209	0x3967c6cb	0.00022103933
210	0x3b8c048a	0.004273002
211	0x3e95eb9d	0.2928132
212	0xbb3740cb	-0.0027962204
213	0xbbfb3499	-0.0076661822
214	0x3baa7037	0.0052013653
215	0xbe246ddf	-0.16057537
216	0xbd06bacd	-0.03289299
217	0x3d910c75	0.07082454
218	0xbb9f24b8	-0.004856672
219	0xbf467a88	-0.7753072
220	0xbeb08f9f	-0.34484574
221	0xbfb39860	-1.4030876
222	0xbb048083	-0.00202182
223	0xbfb5f4f3	-1.4215378
224	0x3cd03e8a	0.025420446
225	0x3cd30f93	0.025764262
226	0x3d03c61b	0.03217135
227	0xbdcc6817	-0.09980791
228	0x3cb14c39	0.021642791
229	0x3c7e7183	0.015529993
230	0xbe492edd	-0.19646783
231	0xbc7b2ca8	-0.015330471
232	0xbc81b3ea	-0.01583286
233	0xbe51040f	-0.20411704
234	0xbe8dfea6	-0.27733344
235	0xbf047ec0	-0.51755905
236	0x3cdaa007	0.026687635
237	0xbc17cb66	-0.009264803
238	0xbd259cd0	-0.04043275
239	0x3b051a75	0.002030996
240	0xbe3967ec	-0.1810605
241	0x3cfbfddb	0.030760696
242	0xbccc00f4	-0.024902798
243	0x3e0f4054	0.13989383
244	0xbbcb4dd4	-0.006204346
245	0x3e0ce263	0.13758235
246	0x3d1aeeb0	0.037825286
247	0xbfa9c059	-1.3261825
248	0x3d68a341	0.056796316
249	0x3fa2dfb1	1.2724515
250	0xbe0e16a3	-0.13875823
251	0xbe4b6998	-0.198645
252	0xbcdfcdb3	-0.027319765
253	0xbddc1647	-0.107464366
254	0xbd7d4d4e	-0.0618413
255	0xbb7568f9	-0.0037446602
