TD3/models/third_training_attempt/train_150_episodes_critic_2_goal.pth (torch, 531051 bytes, 5 tensors)

l1.weight f4 [400, 28]
-0.18273702 -0.009284898 -0.20221606 0.06709243 -0.185995 -0.02478687 0.19171575 0.053799376
-0.19837488 0.27270147 0.20540117 0.2872222 0.15947436 -0.082885556 -0.07333497 -0.26475823
-0.31575847 -0.28867558 -0.08297278 -0.018708026 -0.28673548 -0.101722784 -0.31365484 -0.2620952
0.3489235 -0.024553506 0.16566098 -0.01590999 0.2018413 -0.08840468 -0.034827918 0.14998306
0.21942943 0.32725513 0.06732079 0.13897659 -0.2867896 0.29722857 -0.13156909 0.0268132
-0.03235029 0.0640056 0.3291989 0.2546717 0.10567171 0.11176836 0.14877233 0.33186686
0.21537939 0.14500014 0.05631756 0.31210876 0.2938638 0.032895137 -0.13476057 0.09521493
-0.047579344 0.20151265 -0.07092882 -0.11818878 -0.14961779 -0.40396675 0.0659468 0.2666908
0.31819078 -0.09547274 -0.33736467 0.06646261 0.037668984 0.009162134 -0.29497284 -0.43444607
-0.16000548 -0.12335022 -0.13057868 -0.085103095 -0.20101517 -0.2264859 -0.10081298 -0.3055202
-0.12525271 0.064973325 0.2319792 0.30253154 0.003069429 0.2589306 0.6036017 -0.18809691
0.04329458 -0.107082725 0.19026813 0.17324042 -0.283328 0.19472177 0.072536744 -0.113271296
0.32730532 -0.12638731 -0.21148808 -0.21220122 -0.1058302 -0.36441907 -0.19394141 -0.15308572
-0.4583384 -0.44218564 -0.33413413 -0.17729607 0.29813418 0.20693707 0.12844792 -0.063773096
-0.16766854 0.040464867 0.7739889 -0.16328317 -0.05303372 -0.25342402 0.26318395 0.28967646
-0.28044906 -0.12212268 0.28098422 -0.09807767 0.20071398 -0.19524562 -0.40060842 -0.21728046
-0.43115276 -0.16071144 -0.1180262 -0.35412845 -0.10048484 -0.16019079 -0.4124703 -0.270623
0.10527369 0.21868686 0.23210898 -0.17023152 -0.2369789 -0.18356076 -0.16091172 -0.44893268
-0.10632939 -0.076261155 0.022987483 -0.07948971 -0.03990912 0.12060108 0.56049913 -0.021379804
0.5518852 -0.21982469 -0.12542762 -0.078119956 -0.2739836 -0.15512694 -0.30756488 -0.14452904
-0.1273663 -0.18027422 -0.17908706 0.08132519 -0.18586616 -0.079320386 0.40827096 0.16597785
-0.052234188 -0.21915805 -0.28894895 -0.050893534 0.31921366 -0.26409492 0.0059547164 -0.060369626
-0.2261626 0.31804588 0.4926454 -0.0855928 -0.09646074 -0.12551187 -0.30247492 0.005746181
0.0007568177 -0.3385458 -0.20907587 -0.32363704 -0.06450354 -0.13064536 -0.27541453 -0.071047895
-0.17959557 -0.03811144 0.24562745 0.15411666 0.07112108 0.024102347 0.012732634 -0.14700456
-0.04045481 -0.13120037 0.15340908 0.100962214 0.07697723 0.15641019 0.05275939 0.1441495
0.079793565 0.09097987 -0.29022425 -0.057702277 -0.11435655 -0.14882252 -0.0722503 -0.34885144
-0.0018138539 -0.17986166 -0.1388566 -0.31789872 0.13279183 -0.07003184 0.18217432 -0.0050936113
-0.12596795 0.09037916 -0.12753324 -0.06956078 -0.10185978 -0.14800593 0.10580932 0.21082033
-0.105280526 -0.0068744733 0.18943857 0.14441301 0.04639369 0.14356239 -0.28523335 -0.21394828
-0.21821895 -0.40711907 -0.18145376 -0.33866936 -0.1189711 -0.35731336 -0.22110662 -0.105414346
-0.042840056 0.010976001 0.18239103 0.085530765 -0.20554568 -0.017163232 -0.01711337 -0.16533527
00000000: 6a1f 3bbe af1f 18bc ba11 4fbe c267 893d
00000010: 7975 3ebe d60d cbbc 2251 443e bc5c 5c3d
00000020: c922 4bbe 879f 8b3e af54 523e ca0e 933e
00000030: 3f4d 233e e7bf a9bd a530 96bd 648e 87be
00000040: 18ab a1be 49cd 93be a2ed a9bd 9341 99bc
00000050: fece 92be 0954 d0bd 5e97 a0be 5831 86be
00000060: 1aa6 b23e 6f24 c9bc 08a3 293e ab55 82bc
00000070: 7caf 4e3e 830d b5bd b8a7 0ebd 2995 193e
00000080: 1cb2 603e fc8d a73e 7bdf 893d e14f 0e3e
00000090: 16d6 92be 582e 983e 0cba 06be 5ba7 db3c
000000a0: bd81 04bd 5e15 833d c28c a83e 5464 823e
000000b0: 696a d83d cfe6 e43d c657 183e 74ea a93e
000000c0: 6a8c 5c3e eb7a 143e 3ead 663d b8cc 9f3e
000000d0: 5175 963e 0dbd 063d adfe 09be 0c00 c33d
000000e0: 8fe2 42bd 5559 4e3e 2143 91bd f60c f2bd
000000f0: 6835 19be bbd4 cebe 1e0f 873d b28b 883e
00000100: e7e9 a23e 3687 c3bd 10bb acbe 8d1d 883d
00000110: cb4a 1a3d c61c 163c ae06 97be b76f debe
00000120: 7ad8 23be 0a9f fcbd 6bb6 05be 884a aebd
00000130: ecd6 4dbe ebeb 67be 0977 cebd 256d 9cbe
00000140: 3f42 00be bc10 853d f58b 6d3e 6ae5 9a3e
00000150: 7928 493b 8d92 843e a485 1a3f 7a9c 40be
00000160: a855 313d 304e dbbd a6d5 423e f065 313e
00000170: 5e10 91be 2565 473e 258e 943d c8fa e7bd
00000180: 9094 a73e ad6b 01be 5590 58be 474b 59be
00000190: 81bd d8bd 2395 babe 9498 46be 81c2 1cbe
000001a0: 55ab eabe 2866 e2be a113 abbe 1a8d 35be
000001b0: 0ba5 983e 50e7 533e da87 033e 789b 82bd
000001c0: 4db1 2bbe 7dbe 253d 2324 463f b433 27be
000001d0: e339 59bd cbc0 81be 0cc0 863e 7950 943e
000001e0: 0597 8fbe 751b fabd 2add 8f3e f2dc c8bd
000001f0: f787 4d3e 78ee 47be 8c1c cdbe c57e 5ebe
00000200: 0ec0 dcbe 8a91 24be b8b7 f1bd 5350 b5be
00000210: ffca cdbd 0e09 24be 4f2f d3be 198f 8abe
00000220: bb99 d73d 73ef 5f3e faad 6d3e 2c51 2ebe
00000230: 99aa 72be 5af7 3bbe 0bc6 24be 81da e5be
00000240: 39c3 d9bd cf2e 9cbd 3f50 bc3c 80cb a2bd
00000250: bf77 23bd b3fd f63d df7c 0f3f b324 afbc
00000260: 5948 0d3f b919 61be 1970 00be 5bfd 9fbd
00000270: 9447 8cbe 99d9 1ebe 2579 9dbe 6cff 13be
00000280: 506c 02be ce99 38be 9962 37be d28d a63d
00000290: b353 3ebe ba72 a2bd e408 d13e 19f6 293e
000002a0: 84f3 55bd f86a 60be 1ef1 93be bd75 50bd
000002b0: f96f a33e 7337 87be c81f c33b 2446 77bd
000002c0: 2b97 67be e9d6 a23e 053c fc3e 474b afbd
000002d0: 358d c5bd 2f86 00be fedd 9abe 764a bc3b
000002e0: 2d65 463a e055 adbe fc17 56be c1b3 a5be
000002f0: 6f1a 84bd e6c7 05be 2203 8dbe 8f81 91bd
00000300: e7e7 37be be1a 1cbd c385 7b3e c2d0 1d3e
00000310: eea7 913d 4972 c53c 8a9c 503c 5d88 16be
00000320: f1b3 25bd 6459 06be 4517 1d3e 47c5 ce3d
00000330: 3da6 9d3d fe29 203e 3b1a 583d ed9b 133e
00000340: cf6a a33d a753 ba3d 4698 94be 3959 6cbd
00000350: c433 eabd ee64 18be f7f7 93bd a89c b2be
00000360: d6be edba a82d 38be 6d30 0ebe 9fc3 a2be
00000370: 95fa 073e da6c 8fbd e88b 3a3e 4fe8 a6bb
00000380: befd 00be b618 b93d 1398 02be e275 8ebd
00000390: dc9b d0bd de8e 17be 8fb2 d83d 49e1 573e
000003a0: 519d d7bd 4343 e1bb 2ffc 413e 01e1 133e
000003b0: 4f07 3e3d 0502 133e 1b0a 92be 4215 5bbe
000003c0: ca74 5fbe e971 d0be 04cf 39be 1266 adbe
000003d0: 1fa7 f3bd c7f1 b6be c669 62be 7ae3 d7bd
000003e0: 0e79 2fbd afd4 333c b7c4 3a3e c12a af3d
000003f0: 917a 52be e899 8cbc 5731 8cbc a64d 29be

l1.bias f4 [400]
0.0028792385 -0.068574026 0.12201034 -0.09028121 0.05697752 0.25381956 -0.19163062 0.033898726
-0.15869734 0.22015104 0.2871695 -0.24455957 -0.11007206 0.044796713 0.031043306 0.19117615
0.120347664 -0.044825345 -0.10599567 -0.0049548754 0.1477993 -0.16779546 0.22583358 -0.0045270603
0.24892561 -0.14020148 0.09476863 0.005885798 -0.1836809 0.12862901 -0.15570588 0.04917276
-0.08815098 -0.20065337 -0.04297993 -0.23280479 -0.16237015 -0.21632782 0.15205333 0.16796428
0.17939727 0.37696266 -0.06528722 -0.20240708 0.1848866 0.17238723 -0.082679845 0.04729281
0.009525805 0.14850858 0.11172205 0.27944058 -0.010786682 -0.10729645 0.05352384 -0.063904874
-0.019316338 0.15427716 0.17544793 0.25716293 0.23232009 0.11227142 -0.17751175 -0.15401621
-0.059716262 0.11012937 -0.048080698 0.0642995 -0.059685186 -0.0061509167 -0.08909838 0.09634202
0.29107255 -0.16007914 -0.0036123423 -0.03675076 0.16139433 0.10977479 0.17430907 -0.2525839
-0.038902696 0.47413445 -0.16945103 -0.16876327 0.07658682 0.1580986 0.08866914 -0.06318277
0.110570416 0.22542886 -0.17114526 -0.11551466 -0.017727744 0.42767623 -0.057371356 -0.017749375
-0.04352146 0.2501122 -0.22999191 0.31168285 -0.14095634 -0.050732594 0.35661498 0.21842505
-0.09633935 -0.19199799 0.063983224 0.20419091 0.06469291 -0.21268596 0.45069617 -0.2674314
0.04894262 0.04605631 -0.14094041 0.2633648 0.18826754 -0.14792109 0.17443298 0.045601692
-0.046518825 0.02905779 0.015825897 0.14076395 0.21139362 0.062828265 0.35378885 -0.13945562
-0.1241335 -0.119098626 -0.104362205 -0.15744852 -0.20930015 0.19671646 -0.024738373 -0.2297657
-0.27497625 -0.114371486 -0.21853553 0.043730512 -0.04543694 -0.08837129 -0.084148474 -0.18004644
0.090577826 -0.10520305 0.012532502 0.3425519 0.42704096 0.13271588 0.109703265 -0.050773434
-0.32234052 -0.123719245 -0.09829034 -0.16855276 0.030449599 -0.029901017 -0.034136564 0.014299965
0.0829299 0.19375138 -0.12167111 -0.011714369 -0.049348194 -0.07437753 0.11631902 -0.19072403
-0.05630829 0.134996 -0.0667132 -0.021758487 -0.047091477 -0.11980874 0.18100049 0.21901003
0.06138136 -0.08560743 -0.33790797 -0.22062646 0.019509565 0.28230786 -0.17401253 -0.13389751
-0.20245473 0.00047124864 0.08446379 -0.1776682 -0.05195737 -0.09287828 -0.13795428 -0.15023996
0.021079822 0.09713704 -0.12853593 0.2837003 0.0405118 0.27113837 -0.118445724 -0.07699138
-0.06845923 -0.17983553 -0.02802709 0.15978207 -0.25956497 0.12600954 -0.01180873 0.22989525
0.007929915 0.120910466 -0.047600467 -0.08224928 -0.079062775 -0.21140191 0.19098379 -0.055373177
-0.25328192 -0.20630777 0.078684695 0.17777827 0.26065984 0.25483695 -0.13081233 -0.050899252
0.037990812 -0.20619157 0.08030471 0.071581475 0.31567544 0.4083946 -0.090384476 -0.019074436
-0.0111981165 -0.1789548 0.284045 -0.015362624 0.33553746 0.3944019 0.054267824 0.20733243
0.2812997 0.021166598 -0.12006855 0.06995892 -0.12798367 0.28348494 -0.027935503 -0.24869388
0.41428682 0.11163513 0.30206248 0.05893013 0.44972438 -0.0659305 -0.14340445 -0.17814486
00000000: 9bb1 3c3b 8a70 8cbd 8fe0 f93d 5be5 b8bd
00000010: 4361 693d a3f4 813e d13a 44be 64d9 0a3d
00000020: 8e81 22be 466f 613e e107 933e d36d 7abe
00000030: 766d e1bd c27c 373d 884e fe3c aec3 433e
00000040: d678 f63d c89a 37bd 4214 d9bd 825c a2bb
00000050: b358 173e 93d2 2bbe eb40 673e bc57 94bb
00000060: 5be6 7e3e fa90 0fbe 0e16 c23d a7dd c03b
00000070: d916 3cbe 53b7 033e 5d71 1fbe 6069 493d
00000080: 8088 b4bd 1478 4dbe b90b 30bd 6164 6ebe
00000090: 5c44 26be 0a85 5dbe deb3 1b3e d4fe 2b3e
000000a0: ebb3 373e 4001 c13e 4eb5 85bd cd43 4fbe
000000b0: ea52 3d3e 4786 303e 0d54 a9bd 1bb6 413d
000000c0: 1f12 1c3c a212 183e 88ce e43d d612 8f3e
000000d0: a0ba 30bc 3ebe dbbd d03b 5b3d 8fe0 82bd
000000e0: 4c3d 9ebc d5fa 1d3e 9fa8 333e dcaa 833e
000000f0: 51e5 6d3e 8fee e53d a4c5 35be 6db6 1dbe
00000100: 0a99 74bd 828b e13d 44f0 44bd 75af 833d
00000110: 7478 74bd a18d c9bb 3679 b6bd f74e c53d
00000120: 7607 953e c9eb 23be 0cbd 6cbb f787 16bd
00000130: 8e44 253e 9bd1 e03d 147e 323e ad52 81be
00000140: 6f58 1fbd c0c1 f23e 9284 2dbe 47d0 2cbe
00000150: 8dd9 9c3d 99e4 213e 2b98 b53d f865 81bd
00000160: be72 e23d d3d6 663e b440 2fbe f392 ecbd
00000170: c639 91bc 61f8 da3e 3afe 6abd 2367 91bc
00000180: 8f43 32bd b50e 803e 0083 6bbe e594 9f3e
00000190: dc56 10be fbcc 4fbd 3d96 b63e d1aa 5f3e
000001a0: 914d c5bd 1f9b 44be a309 833d 6c17 513e
000001b0: b77d 843d 59ca 59be a6c1 e63e c5ec 88be
000001c0: 0f78 483d 8ba5 3c3d af52 10be c0d7 863e
000001d0: 35c9 403e a078 17be 8f9e 323e d7c8 3a3d
000001e0: 868a 3ebd 9a0a ee3c 50a5 813c 6d24 103e
000001f0: 9277 583e 1bac 803d d023 b53e 74cd 0ebe
00000200: b439 febd fbe9 f3bd dabb d5bd 2f3a 21be
00000210: c752 56be 0a70 493e 21a8 cabc b347 6bbe
00000220: b0c9 8cbe 993b eabd c7c7 5fbe c41e 333d
00000230: 161c 3abd 02fc b4bd 0956 acbd 185e 38be
00000240: de80 b93d b274 d7bd 2055 4d3c f662 af3e
00000250: 1da5 da3e ace6 073e 1bac e03d cef7 4fbd
00000260: d109 a5be 8460 fdbd 724c c9bd 1899 2cbe
00000270: 7071 f93c faf2 f4bc c8d2 0bbd 674a 6a3c
00000280: 27d7 a93d c366 463e b42e f9bd a0ed 3fbc
00000290: 5521 4abd 3f53 98bd ab38 ee3d 294d 43be
000002a0: 86a3 66bd 643c 0a3e eea0 88bd db3e b2bc
000002b0: fee2 40bd 495e f5bd 3158 393e 2a44 603e
000002c0: 056b 7b3d f352 afbd 4602 adbe e7eb 61be
000002d0: 86d2 9f3c a88a 903e 5730 32be 6e1c 09be
000002e0: 4b50 4fbe ec11 f739 5afb ac3d a7ee 35be
000002f0: 40d1 54bd f836 bebd e343 0dbe 81d8 19be
00000300: 97af ac3c c9ef c63d ec9e 03be 2a41 913e
00000310: b4ef 253d a6d2 8a3e ac93 f2bd a8ad 9dbd
00000320: 5a34 8cbd ce26 38be 1199 e5bc e99d 233e
00000330: b3e5 84be a508 013e 6779 41bc a969 6b3e
00000340: 79ec 013c e89f f73d b5f8 42bd 4f72 a8bd
00000350: aaeb a1bd be79 58be 4191 433e fcce 62bd
00000360: 2bae 81be 5842 53be 7125 a13d 820b 363e
00000370: 3575 853e fd79 823e abf3 05be bc7b 50bd
00000380: 419c 1b3d e223 53be cc76 a43d 4f99 923d
00000390: 36a0 a13e 1919 d13e 7f1b b9bd fe41 9cbc
000003a0: 4e78 37bc ed3f 37be 596e 913e 84b3 7bbc
000003b0: 91cb ab3e 0cef c93e f047 5e3d f44e 543e
000003c0: 8406 903e 9365 ad3c 80e6 f5bd 9f46 8f3d
000003d0: 270e 03be f024 913e ffd8 e4bc 9ca9 7ebe
000003e0: 671d d43e f6a0 e43d efa7 9a3e b860 713d
000003f0: 4642 e63e 9206 87bd 9ed8 12be 9b6b 36be

l2.weight f4 [300, 400]
-0.033957917 -0.006670651 -0.018453058 -0.003033407 -0.007747913 0.0072090486 -0.033291973 -0.023430422
-0.053735502 -0.008413297 0.023547024 0.031956688 -0.030750532 -0.036632054 0.048146438 0.027120696
0.02046993 -0.009736102 0.018074939 0.005588546 0.0068539353 -0.008322351 -0.026974294 0.033173367
0.013872528 -0.028694265 -0.044938367 0.012177334 0.044174667 0.020259824 0.0021179924 0.0072244154
0.039893053 0.02799626 0.013258041 0.03899196 0.039884117 -0.015889097 -0.017564947 0.007116941
-0.041114204 -0.011726249 0.021881817 0.019367885 0.046396088 -0.03200065 0.025450649 -0.010603583
-0.022734124 -0.024929853 0.034937665 -0.011088617 -0.037957393 -0.03719818 0.01664368 0.005355321
0.016558371 -0.042557698 0.035091147 -0.056833457 -0.024122955 0.024683982 -0.0069380105 -0.033675127
-0.027520051 -0.043913435 0.002391522 0.03670237 -0.023963798 -0.03929166 -5.7516867e-05 -0.032251734
0.008358162 -0.020127578 -0.028145155 0.011895888 0.03904443 0.028506134 0.042614006 -0.045867283
0.004566511 -0.021972343 -0.0013944209 0.02717434 -0.039183762 -0.03247078 -0.02130775 -0.0235962
-0.008241934 0.029810732 0.031017726 -0.008185692 -0.0458755 -0.012267859 0.02201948 0.03317399
0.039325815 -0.026111955 -0.014494389 -0.027539795 0.0074086315 -0.011468038 -0.0070636696 -0.048698332
0.017302867 -0.011417635 -0.0057076626 -0.016331876 -0.0019386546 -0.035793416 -0.046236154 0.0446896
0.003089456 -0.04165214 0.027112823 0.03985282 -0.042363226 -0.04418506 -0.047075547 0.03406222
-0.039028645 0.037540156 -0.009536155 -0.05775435 -0.0073344894 -0.02511093 0.03635775 -0.027380783
0.0497321 -0.047249023 0.0025608367 0.036570095 0.00690829 -0.02753458 -0.05674554 0.009949125
-0.012096495 -0.016947666 -0.0018261274 0.0048521482 -0.032586265 -0.0156042315 0.020676311 -0.021328896
-0.025899548 -0.014659427 -0.019946462 -0.0066323737 -0.0178626 -0.02190715 -0.025909234 0.03674749
-0.046323914 0.03002065 -0.0047976 0.028922569 0.04577231 0.019539725 0.007875599 -0.04512834
-0.029129667 0.015477757 0.028590325 0.030093912 -0.025993902 -0.040271547 -0.01802018 -0.010694294
-0.02350548 -0.028389534 -0.043383766 0.04577678 0.016637348 0.013124827 0.0030367896 0.04749954
-0.0442442 0.0038202188 0.036198113 -0.021103976 0.0409868 -0.008590435 0.01810373 -0.03501292
0.048644204 -0.023448898 -0.038797073 -0.008508604 0.016998703 0.040466752 -0.028612334 0.011255365
-0.010589241 0.027616162 -0.0017219124 0.022040514 0.023019893 -0.056426656 -0.032955654 0.029538747
-0.05030972 0.011896312 0.011237628 0.034509256 -0.046006262 -0.04565683 0.015998278 0.013613831
0.0017280357 0.019443983 -0.019824577 -0.01603232 -0.030843012 -0.023059383 -0.019216742 -0.029921375
-0.05027545 -0.039902944 -0.051500328 0.010491192 -0.003456939 0.008872253 -0.044813424 -0.045521975
-0.0083959745 -0.029292917 -0.044256866 0.0340205 -0.026938904 -0.002078551 -0.021508921 -0.039373007
-0.026827518 -0.042554405 -0.03213178 -0.0037799403 -0.023410678 0.03687929 -0.011265494 0.00017876025
-0.015441809 0.007817976 -0.031435847 0.002680372 0.024716575 -0.018784981 -0.0539769 0.018750843
0.00750988 -0.044539243 -0.05192799 0.0011165366 -0.05147872 -0.038747836 0.011975873 -0.035983253
00000000: 7517 0bbd 7a95 dabb de2a 97bc 20cc 46bb
00000010: 34e2 fdbb e239 ec3b 2a5d 08bd 28f1 bfbc
00000020: c219 5cbd edd7 09bc b0e5 c03c 04e5 023d
00000030: 8ae8 fbbc 7e0b 16bd 3335 453d 392c de3c
00000040: 8eb0 a73c 2c84 1fbc e511 943c 1f20 b73b
00000050: fa96 e03b 785a 08bc 32f9 dcbc cce0 073d
00000060: 9a49 633c 3c10 ebbc 4b11 38bd 7183 473c
00000070: 7ff0 343d eef7 a53c 04ce 0a3b caba ec3b
00000080: e666 233d 6a58 e53c 4138 593c 09b6 1f3d
00000090: 875d 233d da29 82bc 5de4 8fbc 3a35 e93b
000000a0: 5e67 28bd 741f 40bc 7f41 b33c 66a9 9e3c
000000b0: d309 3e3d 1d13 03bd e17d d03c a7ba 2dbc
000000c0: ea3c babc b139 ccbc cc1a 0f3d 08ad 35bc
000000d0: 3679 1bbd 1e5d 18bd 5458 883c b07b af3b
000000e0: 6ca5 873c fb50 2ebd bcbb 0f3d 33ca 68bd
000000f0: 819d c5bc 1036 ca3c 4058 e3bb eeee 09bd
00000100: bb71 e1bc 93de 33bd 15bb 1c3b 3955 163d
00000110: ba4f c4bc 4bf0 20bd 443e 71b8 651a 04bd
00000120: acf0 083c 97e2 a4bc ab90 e6bc f8e6 423c
00000130: 0ded 1f3d b285 e93c 068c 2e3d 55df 3bbd
00000140: aca2 953b 58ff b3bc 00c5 b6ba b99c de3c
00000150: 277f 20bd 1500 05bd 978d aebc d14c c1bc
00000160: 2d09 07bc a335 f43c e318 fe3c 481d 06bc
00000170: f3e7 3bbd 21ff 48bc 3262 b43c 73e1 073d
00000180: 1b14 213d bde8 d5bc e079 6dbc 239b e1bc
00000190: 1bc4 f23b 70e4 3bbc 5b76 e7bb e777 47bd
000001a0: bebe 8d3c 0811 3bbc 5807 bbbb 6dca 85bc
000001b0: 741a feba 1e9c 12bd 1f62 3dbd 710c 373d
000001c0: 7878 4a3b 6f9b 2abd b61b de3c b63c 233d
000001d0: 1085 2dbd 65fb 34bd 4ad2 40bd d484 0b3d
000001e0: 80dc 1fbd b5c3 193d 883d 1cbc d38f 6cbd
000001f0: 2856 f0bb 70b5 cdbc ddeb 143d aa4d e0bc
00000200: e3b3 4b3d 3188 41bd b6d3 273b 86ca 153d
00000210: f05e e23b 3390 e1bc 036e 68bd a801 233c
00000220: 6130 46bc d5d5 8abc ab5a efba c5fe 9e3b
00000230: 2d79 05bd e4a8 7fbc 5e61 a93c f0b9 aebc
00000240: 4a2b d4bc 182e 70bc c366 a3bc 6254 d9bb
00000250: 9654 92bc a076 b3bc 9a3f d4bc 8984 163d
00000260: 25be 3dbd deed f53c 3035 9dbb 06ef ec3c
00000270: bf7b 3b3d c611 a03c a808 013c 7fd8 38bd
00000280: 57a1 eebc 6b96 7d3c 4236 ea3c 8287 f63c
00000290: 2af1 d4bc c7f3 24bd 0e9f 93bc 1f37 2fbc
000002a0: 908e c0bc 2b91 e8bc 2db3 31bd 6f80 3b3d
000002b0: 0c4b 883c 8409 573c e004 473b e18e 423d
000002c0: 6839 35bd a35c 7a3b 7944 143d 3fe2 acbc
000002d0: c6e1 273d e5be 0cbc 464e 943c b569 0fbd
000002e0: 253f 473d e717 c0bc aee9 1ebd ac67 0bbc
000002f0: dd40 8b3c 77c0 253d 6a64 eabc 6c68 383c
00000300: 7f7e 2dbc 4a3b e23c cbb1 e1ba 4f8e b43c
00000310: 3794 bc3c a31f 67bd 82fc 06bd 3efb f13c
00000320: 9111 4ebd c0e8 423c 071e 383c 9459 0d3d
00000330: 1071 3cbd a802 3bbd d20e 833c 8c0c 5f3c
00000340: 427f e23a fd48 9f3c 2767 a2bc 3656 83bc
00000350: 7caa fcbc 08e7 bcbc 6e6c 9dbc ac1d f5bc
00000360: a1ed 4dbd 4571 23bd 02f2 52bd 40e3 2b3c
00000370: d08d 62bb ed5c 113c 488e 37bd 4075 3abd
00000380: 458f 09bc b3f7 efbc b046 35bd 1459 0b3d
00000390: faae dcbc 4d38 08bb 7a33 b0bc 9745 21bd
000003a0: 62c5 dbbc 874d 2ebd 9d9c 03bd e0b8 77bb
000003b0: c0c7 bfbc bd0e 173d e892 38bc 9771 3b39
000003c0: a4ff 7cbc f816 003c e0c2 00bd 2ea9 2f3b
000003d0: 6a7a ca3c f6e2 99bc e216 5dbd 5e9b 993c
000003e0: 7015 f63b c86e 36bd 72b2 54bd c058 923a
000003f0: 5adb 52bd 0db6 1ebd 7436 443c 2d63 13bd

l2.bias f4 [300]
-0.03907424 -0.0675391 0.0253333 0.042012 -0.051936932 -0.05652724 -0.14221103 0.07551543
-0.0025378333 0.014749649 -0.09136221 0.06721398 -0.11896917 -0.06811609 0.068002254 -0.06251752
0.017199121 -0.032129213 -0.08386157 0.014883946 0.10975982 0.12670738 0.071130015 -0.005621981
-0.019651486 0.39003274 0.105907865 -0.078693084 -0.01070845 -0.09710165 0.010261601 0.035577886
0.04323423 0.03561661 -0.06278723 -0.11262833 0.01905022 -0.1078093 -0.0398556 -0.042085763
-0.10138575 0.02537369 0.108342834 0.09190523 0.39495316 0.35626626 0.014300161 -0.08062058
-0.036966156 -0.02915061 0.012320757 -0.031772595 -0.052708067 0.021211263 -0.06212449 0.03756799
0.03950823 0.07796071 -0.04672748 0.067775756 -0.012561039 0.030167373 0.12855057 -0.041468862
0.009714454 -0.0858822 -0.072974436 0.0014187897 0.08690142 -0.06643947 -0.0046358956 -0.07148616
0.08573763 0.30220816 -0.0054507107 0.038383193 0.44236562 0.020840969 0.42748165 -0.08752003
-0.041384663 -0.07085911 0.03763329 0.04884594 -0.02436957 -0.070520565 -0.0032557906 -0.024109172
-0.017298589 0.028133232 0.007007138 -0.07400744 0.065999255 -0.0617859 0.058003936 -0.112963274
-0.07820361 0.0071903863 0.022054626 -0.056184515 -0.0022889837 -0.038911812 0.036684085 -0.014952678
0.048938196 0.010499882 0.08835726 -0.0785631 -0.019955842 0.037124623 -0.05573077 0.045992527
-0.07314579 -0.0008216776 0.083860084 -0.0589308 -0.003124394 -0.045738827 -0.06218701 0.04147955
-0.039643567 -0.064577974 -0.051809527 -0.117099084 -0.0366441 -0.07126228 -0.046508238 -0.07944308
-0.019883571 -0.10998737 0.030085659 -0.056554805 0.07622472 0.07328919 -0.12168178 -0.09751437
-0.007893433 -0.019271504 -0.1347861 -0.10183516 0.024353549 -0.05763514 -0.019278582 0.015286183
0.055533327 0.09001278 -0.12891644 0.07192127 -0.010220065 0.026629703 -0.02776145 -0.05447013
0.118750274 -0.10246306 0.03068245 0.027045429 -0.049537096 -0.08431309 -0.031649057 0.08354418
0.34022406 -0.041249808 0.018860476 -0.04138946 0.016424533 -0.06546459 -0.10686488 0.023619212
-0.10407214 0.090303354 -0.04789469 0.008973767 0.02048036 -0.011229433 0.06861469 -0.033148788
-0.039545115 0.40511888 -0.033278525 -0.0528541 -0.121968925 0.0011822801 0.06990066 0.045276236
-0.07660024 0.08311503 -0.006937755 -0.045579344 0.0016722261 0.0026820018 -0.034041364 0.0031694307
-0.004513706 0.3642069 -0.13706905 0.11659832 -0.059280977 0.27870226 -0.0722276 -0.062689684
-0.029208725 0.03801787 0.12237515 0.29542089 0.27776706 -0.06254541 -0.093917735 -0.025373908
0.0067523276 -0.0148761235 -0.048841212 -0.061997924 0.008917701 -0.016807223 -0.04293811 0.1826908
-0.012813428 -0.0844515 -0.010475433 -0.051755983 0.042188197 -0.03822654 0.02798869 0.37826413
-0.034451146 -0.04561138 -0.06078933 0.0328182 -0.05859478 0.014257165 0.035823576 -0.051758118
-0.01331001 0.04256437 0.2326591 -0.0874061 -0.045579936 -0.00983917 -0.05908726 -0.03512915
0.07426373 -0.03592115 -0.059872553 -0.050240714 -0.09799386 -0.11901631 -0.12268533 0.35460305
-0.019036438 -0.027737448 0.085654035 0.06632438 -0.062564455 -0.059264716 0.056647934 0.03152083
00000000: 4f0c 20bd f151 8abd c887 cf3c c614 2c3d
00000010: d2bb 54bd 1b89 67bd c59f 11be d5a7 9a3d
00000020: c751 26bb 83a8 713c 1c1c bbbd 7ca7 893d
00000030: 1ca6 f3bd 7380 8bbd c444 8b3d 2f09 80bd
00000040: 2ce5 8c3c ec99 03bd 9dbf abbd cbdb 733c
00000050: c2c9 e03d 94bf 013e 9dac 913d 9838 b8bb
00000060: 27fc a0bc 5fb2 c73e 39e6 d83d d729 a1bd
00000070: 7f72 2fbc 3bdd c6bd 4620 283c 1eba 113d
00000080: 6016 313d b9e2 113d 9796 80bd afa9 e6bd
00000090: 350f 9c3c 1fcb dcbd a03f 23bd 1f62 2cbd
000000a0: 55a3 cfbd 7cdc cf3c d9e2 dd3d cf38 bc3d
000000b0: 4d37 ca3e 8868 b63e 394b 6a3c 671c a5bd
000000c0: d369 17bd 43cd eebc 00dd 493c fb23 02bd
000000d0: 6ae4 57bd 3ec3 ad3c 4076 7ebd e5e0 193d
000000e0: 62d3 213d dda9 9f3d 5065 3fbd 04ce 8a3d
000000f0: d1cc 4dbc 9121 f73c c3a2 033e 41db 29bd
00000100: 6029 1f3c 02e3 afbd 9f73 95bd aff6 b93a
00000110: 5ff9 b13d 6b11 88bd b6e8 97bb 5667 92bd
00000120: 3697 af3d 07bb 9a3e e09b b2bb b237 1d3d
00000130: bf7d e23e aeba aa3c e0de da3e b43d b3bd
00000140: f782 29bd 951e 91bd 5d25 1a3d ae12 483d
00000150: b1a2 c7bc 166d 90bd 1a5f 55bb 9980 c5bc
00000160: c5b5 8dbc aa77 e63c 229c e53b 3691 97bd
00000170: 9e2a 873d 3613 7dbd 8995 6d3d 4a59 e7bd
00000180: 3729 a0bd 559d eb3b e7ab b43c bc21 66bd
00000190: c602 16bb fe61 1fbd 0d42 163d 14fc 74bc
000001a0: 6b73 483d b207 2c3c a7f4 b43d b1e5 a0bd
000001b0: 6f7a a3bc fd0f 183d f345 64bd a962 3c3d
000001c0: 76cd 95bd da65 57ba d6be ab3d 6c61 71bd
000001d0: a2c2 4cbb a358 3bbd ceb7 7ebd 76e6 293d
000001e0: 4b61 22bd 7541 84bd 3a36 54bd a5d1 efbd
000001f0: 2018 16bd f5f1 91bd 6c7f 3ebd 0eb3 a2bd
00000200: dfe2 a2bc 0f41 e1bd 3376 f63c 03a6 67bd
00000210: b51b 9c3d a518 963d 4c34 f9bd 9db5 c7bd
00000220: 7553 01bc 46df 9dbc 5e05 0abe f48e d0bd
00000230: 1881 c73c d312 6cbd 1eee 9dbc e672 7a3c
00000240: ea76 633d 9f58 b83d ac02 04be 754b 933d
00000250: 0f72 27bc 8926 da3c fb6b e3bc 121c 5fbd
00000260: 5833 f33d 27d8 d1bd c359 fb3c 608e dd3c
00000270: 69e7 4abd 57ac acbd 71a2 01bd 3619 ab3d
00000280: d931 ae3e 8ff5 28bd 4981 9a3c ff87 29bd
00000290: be8c 863c 4d12 86bd f9db dabd 147d c13c
000002a0: c623 d5bd f7f0 b83d 392d 44bd b506 133c
000002b0: 6ec6 a73c a8fb 37bc dc85 8c3d 06c7 07bd
000002c0: 0ffa 21bd be6b cf3e 104f 08bd 8a7d 58bd
000002d0: d8ca f9bd bdf6 9a3a 1428 8f3d 9373 393d
000002e0: 96e0 9cbd 3638 aa3d 1b56 e3bb 68b1 3abd
000002f0: 992e db3a 86c4 2f3b f56e 0bbd 39b6 4f3b
00000300: b6e7 93bb 5479 ba3e d45b 0cbe 1acb ee3d
00000310: 9cd0 72bd 10b2 8e3e 10ec 93bd 7363 80bd
00000320: 2347 efbc a0b8 1b3d d39f fa3d 6841 973e
00000330: 7c37 8e3e cf17 80bd f157 c0bd f1dc cfbc
00000340: a142 dd3b fcba 73bc b90d 48bd 89f1 7dbd
00000350: 8d1b 123c 4daf 89bc dfdf 2fbd 4c13 3b3e
00000360: 6aef 51bc e8f4 acbd 27a1 2bbc 15fe 53bd
00000370: 88cd 2c3d 6f93 1cbd 8a48 e53c d6ab c13e
00000380: a51c 0dbd 00d3 3abd 3cfe 78bd 606c 063d
00000390: 1401 70bd e296 693c bebb 123d 5200 54bd
000003a0: 3a12 5abc fa57 2e3d 303e 6e3e f801 b3bd
000003b0: 07b2 3abd 7834 21bc 7c05 72bd 95e3 0fbd
000003c0: 9517 983d 0e22 13bd ec3c 75bd 35c9 4dbd
000003d0: 01b1 c8bd d3be f3bd 7242 fbbd 888e b53e
000003e0: 4ef2 9bbc a539 e3bc 626b af3d 14d5 873d
000003f0: cb21 80bd 8fbf 72bd aa07 683d fc1b 013d

l3.weight f4 [1, 300]
-0.024546891 0.16850175 0.035743076 -0.19348729 0.005650293 0.014239283 0.21843468 -0.1771109
-0.006187294 -0.03305714 0.17502181 -0.19095707 0.20950317 0.19401264 -0.21926633 -0.027083071
0.051348332 0.18614721 0.20708655 -0.00337188 -0.2070116 -0.21802355 -0.15546246 -0.034799084
-0.031143641 -0.49625412 -0.21604468 0.23681858 0.034259666 0.19396116 0.036734004 -0.19889045
-0.22414497 -0.19945967 0.0010823259 0.2179953 -0.002491267 0.23420624 0.1972396 0.041793697
0.22402577 -0.12576145 -0.189762 -0.17703639 -0.35758224 -0.40148038 -0.36734077 0.01540083
0.22024192 -0.010386399 0.0048139645 0.46356213 0.059400182 -0.0032589103 0.22058955 -0.20702352
-0.21511187 -0.22265783 0.03673028 -0.20959248 -0.03993254 -0.18283592 -0.08251936 0.23291312
-0.14270408 0.20684744 0.22962524 -0.021438878 -0.20143259 0.17922688 0.03312494 0.036538053
-0.19190776 -0.40824258 -0.0036777733 -0.21175875 -0.37113252 -0.17549561 -0.365479 0.43880072
0.02024604 0.23974113 -0.2188491 -0.22096208 -0.028958758 0.023752661 0.023746327 -0.006613654
-0.04098531 -0.024612084 0.037581135 -0.024540188 0.122440726 0.19134204 -0.11427469 0.21700887
0.022196606 -0.16733572 -0.1888411 0.04849252 0.007009001 0.008138371 0.014220098 0.0029085928
-0.20305085 -0.14174445 -0.14829798 0.21215251 -0.039761923 -0.21219422 -0.0028390698 -0.15985236
0.19960582 -0.024304748 -0.19700396 0.035533715 0.1229305 0.22739561 0.587097 -0.14323346
0.12989803 0.022486804 0.0042032027 0.20417584 -0.016821265 0.21984152 0.02477069 0.19405629
-0.008286823 0.17460802 0.03009609 -0.016428359 -0.21915308 -0.2059715 0.18592942 0.15541479
0.039481036 -0.051770035 0.20721008 0.18823911 0.04692939 0.032530382 0.023874106 -0.22820106
-0.2535137 -0.21051337 0.18257461 -0.17175838 0.019698422 0.0050114053 0.01976436 0.009102848
-0.25868148 0.18210725 0.008945082 -0.17189251 0.064040035 0.037616152 -0.42720178 -0.2145188
-0.36360356 0.025731163 -0.18915999 0.20787723 0.018207766 -0.0026583462 0.18809904 -0.052616484
0.17773573 -0.1853274 0.18304195 -0.015595291 0.032215223 -0.016614623 -0.19549894 0.015768766
0.045812543 -0.48355126 0.2442228 0.027113246 0.22368886 0.01012749 -0.19199121 -0.13530117
-0.026099596 -0.2838942 0.018965283 0.020566043 -0.00969014 0.0013012101 0.027545381 -0.17697977
-0.002493735 -0.3858571 0.1635313 -0.22781028 0.00449005 -0.19123827 0.2143125 0.17785151
-0.027340118 -0.21906963 -0.23728184 -0.2638286 -0.21551505 0.20352474 0.23100965 0.0019438699
-0.012462318 0.00022103945 0.044205453 0.18549131 -0.03397654 0.01376524 0.036716122 -0.24718112
0.0067503722 0.25246882 -0.026157336 0.17621525 -0.2038287 0.18037441 0.029704934 -0.5163242
0.025420474 -0.005905848 0.21196179 -0.17874704 -0.010083719 0.042382292 -0.22116175 3.5889057e-05
-0.015832687 -0.19916463 -0.16942523 0.22486618 0.052902114 0.008367282 0.0022324058 0.0020309605
-0.22549203 -0.0009853287 0.001733391 0.21034944 0.0057995836 0.1941035 0.21985343 -0.53866744
0.056796946 0.38976187 -0.1727836 -0.21875075 -0.027319629 0.18464 -0.21909943 0.0432488
00000000: 9016 c9bc b98b 2c3e 5567 123d 8821 46be
00000010: 1826 b93b e24b 693c 57ad 5f3e 8f5c 35be
00000020: c9be cabb ec66 07bd eb38 333e 408a 43be
00000030: 0088 563e 40ab 463e 5a87 60be 51dd ddbc
00000040: a152 523d 609d 3e3e 7f0e 543e c2fa 5cbb
00000050: d9fa 53be 9141 5fbe 8d31 1fbe 7c89 0ebd
00000060: f320 ffbc 0515 febe d13a 5dbe 9280 723e
00000070: dd53 0c3d c19d 463e 6576 163d f0a9 4bbe
00000080: 4286 65be 283f 4cbe d5dc 8d3a 293a 5f3e
00000090: 8644 23bb c3d3 6f3e 2df9 493e de2f 2b3d
000000a0: 0367 653e 9cc7 00be f850 42be 0749 35be
000000b0: 0515 b7be d68e cdbe 1714 bcbe c353 7c3c
000000c0: 1987 613e b72b 2abc 76be 9d3b 0458 ed3e
000000d0: 9b4d 733d 7193 55bb 3ae2 613e f9fd 53be
000000e0: 4946 5cbe 6a00 64be 7d72 163d 699f 56be
000000f0: 4e90 23bd 5739 3bbe e9ff a8bd c780 6e3e
00000100: 0521 12be d1cf 533e e122 6b3e 96a0 afbc
00000110: 5844 4ebe 4087 373e 04ae 073d eda8 153d
00000120: 7883 44be 2c05 d1be cc06 71bb 49d7 58be
00000130: 1505 bebe 1fb5 33be 1020 bbbe 7daa e03e
00000140: 06db a53c b37e 753e fa19 60be e243 62be
00000150: eb3a edbc f194 c23c a887 c23c 5ab7 d8bb
00000160: 36e0 27bd 489f c9bc adee 193d 8108 c9bc
00000170: 34c2 fa3d 2bef 433e d908 eabd 9337 5e3e
00000180: a8d5 b53c 0e5a 2bbe 905f 41be 18a0 463d
00000190: c3ab e53b cd56 053c 6afb 683c 179e 3e3b
000001a0: 90ec 4fbe 7525 11be 6ddb 17be 823e 593e
000001b0: 66dd 22bd 7149 59be b00f 3abb 56b0 23be
000001c0: 7865 4c3e c01a c7bc 68bb 49be cd8b 113d
000001d0: fcc2 fb3d 65da 683e fd4b 163f cbab 12be
000001e0: fd03 053e 3f36 b83c 05bb 893b 7913 513e
000001f0: c0cc 89bc 231e 613e e7eb ca3c b1b6 463e
00000200: 74c5 07bc 72cc 323e 138c f63c c494 86bc
00000210: aa69 60be 31ea 52be 4864 3e3e 0e25 1f3e
00000220: deb6 213d d10c 54bd e12e 543e c1c1 403e
00000230: 0839 403d 943e 053d a193 c33c 8aad 69be
00000240: 8ccc 81be d190 57be d7f4 3a3e 6ee1 2fbe
00000250: 965e a13c b736 a43b dee8 a13c 1d24 153c
00000260: e671 84be 537a 3a3e 658e 123c 9704 30be
00000270: 6c27 833d 6513 1a3d 31ba dabe d1aa 5bbe
00000280: 3f2a babe 29ca d23c 28b3 41be c5dd 543e
00000290: 7428 953c a637 2ebb 099d 403e 6284 57bd
000002a0: 5b00 363e 77c6 3dbe 596f 3b3e 6483 7fbc
000002b0: 1cf4 033d 641b 88bc e030 48be 802d 813c
000002c0: efa5 3b3d 0894 f7be 8b15 7a3e 991c de3c
000002d0: b10e 653e c6ed 253c 5899 44be 648c 0abe
000002e0: d2ce d5bc 955a 91be 155d 9b3c 1e7a a83c
000002f0: 65c3 1ebc 5e8d aa3a daa6 e13c 2f3a 35be
00000300: ee6d 23bb 108f c5be c074 273e 1947 69be
00000310: 4521 933b f7d3 43be bc74 5b3e b51e 363e
00000320: 62f8 dfbc ca53 60be 03fa 72be 8b14 87be
00000330: faaf 5cbe ca68 503e cb8d 6c3e 73c9 fe3a
00000340: c02e 4cbc d3c6 6739 c710 353d 6ff1 3d3e
00000350: fc2a 0bbd 9a87 613c a563 163d 0c1d 7dbe
00000360: 3a32 dd3b 9843 813e e947 d6bc c571 343e
00000370: 79b8 50be 12b4 383e c357 f33c d32d 04bf
00000380: 993e d03c d885 c1bb 830c 593e 7709 37be
00000390: 2f36 25bc 0e99 2d3d 3a78 62be 9587 1638
000003a0: 8db3 81bc d0f1 4bbe cf7d 2dbe 5243 663e
000003b0: e3af 583d ed16 093c 8e4d 123b dd19 053b
000003c0: 62e7 66be 2526 81ba f332 e33a d865 573e
000003d0: 6f0a be3b 11c3 463e 4221 613e 1ce6 09bf
000003e0: eaa3 683d de8e c73e 2fee 30be 3200 60be
000003f0: 6acd dfbc 4512 3d3e 9a5b 60be a725 313d
