TD3/models/third_training_attempt/train_250_episodes_critic_1_goal.pth (torch, 531051 bytes, 5 tensors)

l1.weight f4 [400, 28]
0	0x3ef5a33b	0.47976097
1	0x3ee8e736	0.454889
2	0xbdf85e31	-0.121273406
3	0xbf20437e	-0.62602985
4	0x3e2574a1	0.16157772
5	0x3e3d8b93	0.18510275
6	0xbd550e8e	-0.052015834
7	0x3ce8602b	0.028366169
8	0xbedf5e6d	-0.4362673
9	0x3e396865	0.1810623
10	0xbdc76652	-0.09736313
11	0xbe3e5378	-0.18586528
12	0x3e5bbf7d	0.21459766
13	0x3e586de9	0.21135677
14	0xbe8df734	-0.27727664
15	0xbe975136	-0.29554147
16	0xbe3f1814	-0.18661529
17	0xbf036848	-0.51330996
18	0xbe9969c9	-0.2996352
19	0xbe6cf81d	-0.23141523
20	0xbe8c3638	-0.27385116
21	0xbe838f6d	-0.25695363
22	0xbefbe82a	-0.49200565
23	0x3d4c70df	0.04991233
24	0xbda4e6b3	-0.08051815
25	0xbebd1974	-0.36933482
26	0xbb7d5e18	-0.003866082
27	0x3e81d59a	0.25358278
28	0x3e6c05a9	0.23049034
29	0x3f7cf237	0.9880709
30	0xbecf495b	-0.40485653
31	0x3e6eab57	0.23307548
32	0xbcad543d	-0.021158332
33	0x3e51801e	0.20459029
34	0x3dbd513d	0.092440106
35	0x3d8dc9de	0.06923269
36	0xbe6921d3	-0.22766809
37	0x3e35249f	0.17689751
38	0xbd767f5d	-0.060180057
39	0x3aae5813	0.0013301395
40	0xbe1c1b72	-0.15244845
41	0xbd11d925	-0.035607476
42	0x3e883c1d	0.26608363
43	0x3e68a312	0.22718456
44	0x3c356a24	0.011072669
45	0x3df1f574	0.118143946
46	0x3d965946	0.07341246
47	0x3e264ebe	0.16240975
48	0x3e23695b	0.15958159
49	0x3e485f63	0.19567637
50	0x3db2c8b0	0.08729684
51	0x3e505910	0.20346475
52	0x3e5160d1	0.20447089
53	0xbc31578b	-0.0108240945
54	0xbe06136e	-0.1309335
55	0x3d16da25	0.036829133
56	0x3f612af1	0.8795615
57	0x3f854238	1.0410833
58	0x3d0a0375	0.033694703
59	0xbf2e55cc	-0.68099666
60	0x3e8de44a	0.27713233
61	0xbd226d84	-0.039655223
62	0x3e3bc362	0.18336251
63	0xbd9d0025	-0.07666043
64	0xbe499ebe	-0.19689462
65	0x3de700e4	0.11279467
66	0x3cc8e8af	0.024525015
67	0xbdd584d2	-0.10425724
68	0xba7455ae	-0.00093206286
69	0x3d425fd0	0.047454655
70	0xbe9753b4	-0.29556048
71	0xbec58a03	-0.38581857
72	0xbe0901ab	-0.13379543
73	0xbdd1cef4	-0.10244551
74	0xbe1598e5	-0.14609106
75	0xbea386f9	-0.31938913
76	0xbed3ca70	-0.41365385
77	0xbe467619	-0.19380988
78	0xbeabe174	-0.33570445
79	0x3e378e22	0.17925313
80	0x3cb81f2a	0.022475798
81	0xbdf919bb	-0.12163111
82	0x3d974cdf	0.07387709
83	0x3d7933ee	0.06084054
84	0xbe6d6fd5	-0.23187192
85	0x3e2b7022	0.16741994
86	0xbaa5b80c	-0.0012643351
87	0xbe980a0c	-0.29695165
88	0xbe3a0f85	-0.18169983
89	0xbed88baa	-0.42294055
90	0xbda7a4cd	-0.0818573
91	0x3e18699d	0.14884038
92	0x3e770c33	0.24125747
93	0xbf09aee2	-0.53782475
94	0xbcf9e1ce	-0.03050318
95	0xbd20a699	-0.03922138
96	0x3eb5d3c6	0.35513133
97	0x3d3a40e7	0.045472052
98	0xbee9357b	-0.45548615
99	0xbec38387	-0.38186285
100	0xbecdc47b	-0.40188965
101	0xbec41271	-0.3829532
102	0xbe931d9e	-0.28733534
103	0xbe83d84c	-0.2575096
104	0xbeb95218	-0.36195445
105	0xbec1eae5	-0.37874523
106	0xbe86e329	-0.26345184
107	0xbea99f58	-0.33129382
108	0xbd575ae4	-0.052576914
109	0xbe53e2d6	-0.20692
110	0x3e031721	0.12801792
111	0xbd563c71	-0.052303735
112	0x3d248e83	0.040174972
113	0x3e95f325	0.29287067
114	0x3f5a7448	0.8533368
115	0xbeb9e8c3	-0.36310396
116	0xbe73d1fb	-0.2381057
117	0x3e9eb40e	0.30996746
118	0xbe8a749b	-0.27042088
119	0xbee5c7e2	-0.4487906
120	0xbf279087	-0.65454906
121	0xbe4950da	-0.19659749
122	0x3eab8706	0.33501452
123	0xbeb26a00	-0.34846497
124	0xbed2af99	-0.41149595
125	0xbedfa0e1	-0.43677428
126	0xbe9ddc7a	-0.30832273
127	0xbee36227	-0.44410822
128	0xbf0d7b7d	-0.55266553
129	0xbf1906f6	-0.59776247
130	0xbeec814f	-0.46192405
131	0xbf25a4a7	-0.64704365
132	0xbeb91154	-0.36146033
133	0xbf18ed2e	-0.5973691
134	0xbeaedcd3	-0.3415285
135	0x3cee2ade	0.029073175
136	0x3e2c3732	0.1681793
137	0x3cad2578	0.02113603
138	0x3e125c66	0.1429306
139	0x3cfdc4fd	0.03097772
140	0x3e0bdcbb	0.1365842
141	0x3f02c722	0.510851
142	0x3e6ddbaa	0.23228326
143	0xbf0719a9	-0.5277353
144	0x3e4b5585	0.19856842
145	0x3d044944	0.032296434
146	0x3e8f477c	0.27984226
147	0x3f13c5ca	0.5772368
148	0xbf26a306	-0.65092504
149	0xbe192323	-0.1495481
150	0xbdab68e7	-0.08369618
151	0x3e1b9ac2	0.15195754
152	0x3eb4dda2	0.35325342
153	0xbe833965	-0.25629726
154	0xbedeb6e3	-0.43498906
155	0xbe5e93c4	-0.21736056
156	0xbe334ac6	-0.17508993
157	0xbe22eeaa	-0.15911356
158	0xbe45889a	-0.1929039
159	0xbebf66ec	-0.3738321
160	0xbebd4e49	-0.3697379
161	0xbeaa1cf8	-0.33225226
162	0xbe09bae6	-0.13450202
163	0xbc8a844f	-0.016908793
164	0x3eade18f	0.3396115
165	0x3e322cbc	0.17399877
166	0x3e862389	0.26198986
167	0xbd196e0f	-0.037458476
168	0x3e8081a1	0.250989
169	0xbf202fbf	-0.62572855
170	0x3e56e668	0.2098633
171	0xbe490466	-0.19630584
172	0xbe594be9	-0.21220364
173	0x3e565f07	0.20934688
174	0x3e0039cd	0.12522049
175	0xbe4d3217	-0.20038639
176	0xbe6e7066	-0.23285064
177	0x3d179965	0.037011523
178	0x3ced1e5a	0.028945137
179	0x3da87ef9	0.08227343
180	0xbe220abe	-0.1582441
181	0x3d8d6614	0.069042355
182	0x3dfec05e	0.12439035
183	0x3db3e705	0.08784298
184	0x3b0ae977	0.0021196285
185	0x3e8ce06d	0.27514973
186	0x3e7720d6	0.2413362
187	0x3e67b7cd	0.22628708
188	0x3e582ba1	0.21110393
189	0x3ce93ac3	0.028470403
190	0x3db2aaea	0.087240055
191	0xbba94e27	-0.005166787
192	0x3e3210a3	0.17389159
193	0xbe7d4883	-0.24734692
194	0x3c1e1bfa	0.009650225
195	0xbdc04d2b	-0.093897186
196	0xbde57a4b	-0.11204966
197	0xbfa4bb5a	-1.2869675
198	0x3fba7525	1.4567
199	0xbd8b7f4d	-0.0681139
200	0xba266f99	-0.0006349027
201	0xbd0034e3	-0.031300437
202	0xbd431439	-0.047626708
203	0xbcce87bb	-0.025211206
204	0xbd40124b	-0.046892446
205	0xbdabd4af	-0.083901756
206	0x3e72cbbc	0.23710531
207	0xbe15286f	-0.14566205
208	0xbe991ec5	-0.29906288
209	0x3e044427	0.12916623
210	0x3ca216d0	0.019786268
211	0xbe74aab9	-0.2389325
212	0xbd9a8be6	-0.07546215
213	0x3d5d0bb0	0.053966224
214	0xbe78483d	-0.24246307
215	0xbe2af330	-0.16694331
216	0xbe8358eb	-0.25653777
217	0x3dd0c6bb	0.10194155
218	0x3d8775ed	0.066142894
219	0xbdeb8994	-0.1150085
220	0x3e1939f6	0.14963517
221	0x3e8f710d	0.28015938
222	0xbe0dc750	-0.13845563
223	0xbe345d58	-0.17613733
224	0x3e05a8a3	0.13052611
225	0xbedcf513	-0.43155727
226	0x3f696b6b	0.9117953
227	0xbe67e61d	-0.22646375
228	0xbeb2dd07	-0.34934255
229	0x3e0d8f5d	0.1382422
230	0xbd8bec15	-0.068321384
231	0x3d594e48	0.05305317
232	0xbdf5b56b	-0.11997493
233	0x3e8a47f5	0.27008024
234	0xbefaf349	-0.49013737
235	0x3e9de3c7	0.30837843
236	0x3ef7fd2b	0.4843534
237	0xbf0213a4	-0.5081122
238	0xbe63023d	-0.22168823
239	0xbd9fa81a	-0.07795735
240	0xbeb10842	-0.34576613
241	0xbe0999d3	-0.13437586
242	0xbe8f68f0	-0.28009748
243	0xbedb8ce3	-0.42880926
244	0xbe1ac758	-0.15115106
245	0xbeb71042	-0.3575459
246	0xbd7683f3	-0.06018443
247	0x3cb3f520	0.02196747
248	0x3ead2525	0.33817402
249	0xbdb3bdd3	-0.087764405
250	0x3dda2dbc	0.106532544
251	0x3e469610	0.19393182
252	0x3e6b5753	0.2298253
253	0x3e2fd4ee	0.1717107
254	0x3f11f92d	0.5702084
255	0xbe652d33	-0.22380523

l1.bias f4 [400]
0	0x3d7db7a9	0.06194273
1	0xbe93d76f	-0.288753
2	0x3e3c91cc	0.18414992
3	0x3e5a307f	0.21307562
4	0x3d00a024	0.031402722
5	0x3e27ce09	0.1638719
6	0x3e1743c3	0.14771943
7	0x3e72d1b1	0.23712803
8	0x3dbee20e	0.0932046
9	0xbe795943	-0.24350457
10	0x3d2815a6	0.04103627
11	0x3d4ada86	0.049524806
12	0x3e7b33a4	0.24531418
13	0xbe755394	-0.23957664
14	0xbe70f1d7	-0.23529755
15	0x3e85dd2d	0.26145306
16	0xbd611cd7	-0.054959144
17	0xbd06a663	-0.032873522
18	0xbd755bdb	-0.059902053
19	0x3eb2fe22	0.34959513
20	0xbe0e2d37	-0.13884436
21	0xbe70bf4c	-0.23510474
22	0x3c069fbb	0.008216794
23	0xbe23c580	-0.15993309
24	0xbd9dcc25	-0.07704953
25	0xbd085081	-0.0332799
26	0xbe780f42	-0.2422457
27	0x3e7704e9	0.24122967
28	0xbe69547b	-0.22786133
29	0x3ce43b98	0.027860448
30	0x3e06dced	0.13170214
31	0xbe6327e2	-0.22183183
32	0xbdcfb614	-0.101421505
33	0x3d8b3874	0.06797877
34	0xbe8649c7	-0.26228163
35	0xbe00d309	-0.12580504
36	0x3df3f99f	0.11912846
37	0xbeb6740c	-0.35635412
38	0x3e97a576	0.29618424
39	0x3e59d1f4	0.21271497
40	0x3eba1d98	0.36350703
41	0x3ea1b8d6	0.3158633
42	0xbdd7a78b	-0.10530003
43	0xbe8b19cd	-0.27168122
44	0x3dd36b21	0.103231676
45	0xbe19dd19	-0.15025748
46	0xbeab37af	-0.3344092
47	0x3c52af36	0.012859156
48	0x3db59926	0.08867101
49	0xbd21c95d	-0.039498676
50	0xbc909788	-0.01765038
51	0x3e23091d	0.15921445
52	0x3eeedc9e	0.46652693
53	0x3e390db1	0.18071629
54	0xbea71c0d	-0.3263859
55	0xbe2d57c1	-0.16928007
56	0xbe2f47ee	-0.17117283
57	0xbdabf5a0	-0.083964586
58	0xbd862005	-0.06549076
59	0x3e81d473	0.25357398
60	0x3d93f401	0.072242744
61	0x3e996217	0.2995765
62	0x3eedb316	0.46425694
63	0x3e7d5b0f	0.24741767
64	0xbddf74ed	-0.10910974
65	0x3e293421	0.16523792
66	0xbe7e685a	-0.24844494
67	0xbea8438c	-0.32864034
68	0xbe1fe6b7	-0.15615354
69	0x3e73bda6	0.23802814
70	0xbeab4dd0	-0.33457804
71	0xbe229f01	-0.15880968
72	0x3d6be8d9	0.057595108
73	0x3e968dd7	0.2940509
74	0xbe2edd81	-0.17076685
75	0x3e1c395b	0.15256254
76	0xbe9689b5	-0.29401937
77	0xbe1402c5	-0.14454181
78	0xbd9e6e3e	-0.07735871
79	0xbe63b0d5	-0.22235425
80	0xbc3233ec	-0.010876637
81	0xbe506cb2	-0.20353964
82	0x3ea5e40e	0.32400554
83	0xbd5844c9	-0.052799974
84	0x3e7e98e1	0.24863006
85	0x3eb7c442	0.3589192
86	0x3c08b926	0.008344924
87	0xbe5c7462	-0.21528772
88	0xbe5349e3	-0.20633654
89	0x3d52546c	0.051350042
90	0xbd35f7f0	-0.044425905
91	0x3e9ea5b9	0.3098581
92	0x3eaa8ef1	0.3331218
93	0x3eb47019	0.35241774
94	0x3e13d819	0.14437903
95	0xbe886bee	-0.26644844
96	0xbd722129	-0.059113655
97	0xbe12ea96	-0.143473
98	0x3ea71e23	0.3264018
99	0x3dc188ee	0.094499454
100	0x3eb6faae	0.35738128
101	0xbe7b9daf	-0.2457187
102	0xbdea9e2a	-0.11455949
103	0xbcd43ffd	-0.025909418
104	0xbde05827	-0.10954314
105	0x3d7ec013	0.062194895
106	0x3e49de1b	0.19713633
107	0x3e00b306	0.12568292
108	0xbe4552b8	-0.19269836
109	0xbde90628	-0.11378127
110	0x3e557797	0.20846401
111	0xbdf36189	-0.11883838
112	0x3ccfd840	0.02537167
113	0x3ed9db83	0.42550287
114	0xbd543304	-0.051806465
115	0x3db0b81e	0.086288676
116	0x3e88d192	0.2672239
117	0xbda0edae	-0.07857834
118	0x3dbccb79	0.09218497
119	0x3eb0467c	0.34428775
120	0xbe34a103	-0.17639546
121	0xbe101ef6	-0.1407431
122	0x3d393e79	0.045225594
123	0x3d0d3c0a	0.034481086
124	0xbe357222	-0.1771932
125	0x3dd81f01	0.105527885
126	0x3bbe583a	0.0058088573
127	0x3df3f8b4	0.11912671
128	0x3eabad00	0.33530426
129	0x3e45309f	0.19256829
130	0xbe4abcb5	-0.19798549
131	0xbdc34596	-0.09534757
132	0x3d585ae1	0.052821044
133	0x3e142a92	0.14469364
134	0x3e043d3b	0.12913983
135	0xbda2ebd3	-0.07955136
136	0xbe06c855	-0.13162358
137	0x3e843de3	0.25828466
138	0xbdd28470	-0.10279167
139	0xbea06069	-0.31323555
140	0xbe82dec0	-0.2556057
141	0x3ea1b50b	0.31583437
142	0xbe7fa7df	-0.24966381
143	0xbe273e2a	-0.16332307
144	0xbe7c18ae	-0.2461879
145	0xbe1f3d08	-0.15550625
146	0xbda61217	-0.08108919
147	0xbeac6540	-0.33670998
148	0x3ee73bbe	0.45162767
149	0xbe4c44da	-0.1994814
150	0x3e4fe391	0.20301653
151	0x3ed512d7	0.41615936
152	0x3e45f8cf	0.19333194
153	0x3e290b14	0.16508132
154	0xb9ea8897	-0.00044733725
155	0xbecae654	-0.3962885
156	0xbdaacace	-0.08339463
157	0xbe5c9cb2	-0.2154415
158	0xbd2ff0f1	-0.04295439
159	0x3de3cce4	0.11123064
160	0xbd88f945	-0.066881694
161	0xbe56911e	-0.20953795
162	0xbe5f4290	-0.21802735
163	0xbe36f9d8	-0.17868745
164	0x3e14853a	0.14503947
165	0x3eadf507	0.33976004
166	0x3e39c932	0.18143156
167	0x3c29eb91	0.010371105
168	0x3e046387	0.12928592
169	0xbdf608eb	-0.1201342
170	0x3de134a6	0.1099637
171	0xbe935229	-0.2877362
172	0xbdd3d21b	-0.10342809
173	0x3ddbd832	0.10734595
174	0x3ea24101	0.3169022
175	0x3e854893	0.26031932
176	0xbba3b44d	-0.0049958588
177	0x3dce5502	0.10074808
178	0x3ddfc9ef	0.10927188
179	0x3e07c2ea	0.13257948
180	0xbdf8640c	-0.121284574
181	0x3e8e5d4e	0.2780556
182	0xbe7f1ab4	-0.2491253
183	0x3ecfa032	0.40551907
184	0xbd075459	-0.033039425
185	0x3daeb1bf	0.08529996
186	0xbd5c76b8	-0.053824157
187	0xbe59ed82	-0.21282008
188	0xbe2b4102	-0.16724017
189	0x3e1b3ac7	0.1515914
190	0x3e65977b	0.22421066
191	0x3e5a841a	0.21339455
192	0xbe76ca09	-0.24100508
193	0xbe9ada61	-0.30244735
194	0xbe6739e7	-0.22580682
195	0xbe32f8c6	-0.17477712
196	0xbdf2f8b9	-0.11863846
197	0xbd05ba6e	-0.032648496
198	0x3eb2b647	0.34904692
199	0xbe3ea4ad	-0.18617506
200	0x3c5bdb49	0.013418981
201	0xbd816aa9	-0.06319172
202	0xbd039442	-0.03212381
203	0x3ee62e90	0.449574
204	0xbe89b474	-0.26895487
205	0x3d95422c	0.07288012
206	0x3e0464a7	0.12929021
207	0xbead6bdc	-0.33871353
208	0xbd98e075	-0.07464687
209	0x3e5a48cb	0.21316831
210	0xbdca6b38	-0.098837316
211	0x3e6a66aa	0.22890726
212	0x3e27dbc8	0.16392434
213	0xbe25a3a4	-0.16175705
214	0xbd4b0a46	-0.049570344
215	0x3e9c1074	0.30481303
216	0x3c506a0a	0.012720594
217	0x3e643120	0.22284365
218	0xbe1c09be	-0.15238091
219	0xbe4948ee	-0.19656727
220	0xbda30c26	-0.079613015
221	0x3ed6acab	0.4192861
222	0xbe55cdee	-0.20879337
223	0x3e07067e	0.1318607
224	0x3ba6d784	0.0050916094
225	0x3ebecc77	0.3726537
226	0xbe460526	-0.19337901
227	0xbe49ad59	-0.19695033
228	0x393eda4b	0.00018201132
229	0xbe006177	-0.1253718
230	0x3cd62109	0.0261388
231	0xbd95e21d	-0.07318518
232	0x3e68a9e5	0.2272106
233	0xbe68f783	-0.22750668
234	0x3bb3877c	0.0054787975
235	0xbed710c6	-0.42004985
236	0x3dde397b	0.10850807
237	0xbc9d9f8c	-0.019241117
238	0xbe8c8581	-0.27445605
239	0x3d38b6aa	0.045096077
240	0xbe3d0db3	-0.18462257
241	0x3e2b68c8	0.1673919
242	0xbd95ab1f	-0.073080294
243	0x3e6d82b6	0.23194394
244	0x3c7efc50	0.015563086
245	0x3d663aa2	0.05620826
246	0x3d66c2a3	0.056337964
247	0x3e082dd3	0.1329873
248	0xbe8644f8	-0.26224494
249	0xbe511bff	-0.20420836
250	0x3dd72439	0.10504956
251	0xbc40a29b	-0.011757518
252	0x3d70bfab	0.05877654
253	0xbe935a4e	-0.28779835
254	0xbe1bb2c6	-0.15204915
255	0xbcdaf5d6	-0.026728552

l2.weight f4 [300, 400]
0	0xbd2951bf	-0.041337725
1	0x3cfe5124	0.03104455
2	0xbd32ffe0	-0.043701053
3	0x3c4a21c0	0.012337148
4	0x3bda4501	0.006661058
5	0xbd4c5441	-0.04988504
6	0xba64a3b3	-0.0008721903
7	0x3c350510	0.01104857
8	0x3cc50f50	0.024055153
9	0x3c4424f0	0.011971697
10	0xbc783cc0	-0.015151203
11	0xbd62a8ab	-0.055336636
12	0x3d16dd85	0.03683235
13	0xbbfadd28	-0.0076557584
14	0xbd44b899	-0.04802761
15	0x3d5a5ae2	0.05330933
16	0xbd45d819	-0.04830179
17	0xbc89e5fd	-0.0168333
18	0x3c52f139	0.012874895
19	0xbb4dc371	-0.003139701
20	0x3c809f22	0.01570088
21	0xbbbf7b70	-0.0058435723
22	0xbd5c3452	-0.053760834
23	0xbd018a25	-0.031625886
24	0xbd821b75	-0.06352893
25	0xbd2c4dcf	-0.04206639
26	0x3c752a2b	0.014963667
27	0xbd34eb48	-0.044169694
28	0x3d40ec11	0.04710013
29	0xbd47d259	-0.048784588
30	0x3bc032c8	0.0058654286
31	0xbb3457e0	-0.0027518198
32	0x3c82cfed	0.015968287
33	0x3d1a1bfd	0.037624348
34	0xbd163016	-0.036666952
35	0xbd2c2e8f	-0.04203659
36	0x3bfd4913	0.0077296584
37	0x3c93ead5	0.018056313
38	0xbd170946	-0.03687408
39	0xbce7a947	-0.02827896
40	0xbcaecfff	-0.021339415
41	0x3c262f66	0.010143137
42	0xbbea97eb	-0.0071592233
43	0x3d21c99f	0.03949892
44	0x3d2367ae	0.0398938
45	0xbd58b75a	-0.052909233
46	0xbd46cef9	-0.04853723
47	0xbc43ba28	-0.011946239
48	0xbc587a6a	-0.01321278
49	0x3ce97b8a	0.02850129
50	0x3c5b99a1	0.013403327
51	0x3cdf3381	0.027246239
52	0xbd32dfd8	-0.043670505
53	0xbd815375	-0.06314746
54	0xbd53f882	-0.051750667
55	0x3d397fd1	0.04528791
56	0x3c95b635	0.01827536
57	0xbd4d0e31	-0.050062362
58	0x3cecaa62	0.028889839
59	0xbd167986	-0.036736988
60	0xbc367058	-0.011135183
61	0x3cd36281	0.025803806
62	0xbc308260	-0.010773271
63	0xbd57851a	-0.05261717
64	0xbb848635	-0.004044319
65	0xbc1dc4b6	-0.009629419
66	0x3cf46c54	0.029836811
67	0xbc908eae	-0.01764616
68	0xbd08dded	-0.03341477
69	0x3c89d7ec	0.016826592
70	0x3d8780b5	0.06616346
71	0xbc7e0174	-0.015503276
72	0xbc4a04d9	-0.012330257
73	0xbd10359e	-0.035207383
74	0xbc80cb85	-0.015722046
75	0xbd1e9486	-0.03871586
76	0xbd4ac121	-0.04950059
77	0xbcaad21f	-0.020852147
78	0xbd4b57e9	-0.049644385
79	0x3c9e0fb5	0.0192946
80	0xbc2003b7	-0.009766511
81	0x3b5ca850	0.0033669658
82	0xbcecf243	-0.028924113
83	0xbd6aa6c3	-0.057287943
84	0x3ca19d16	0.019728225
85	0xbd4f9a89	-0.050684486
86	0xbd39c190	-0.04535061
87	0xbd44a703	-0.048010837
88	0xbcc5c7b1	-0.024143072
89	0xbc2b7c6f	-0.010466679
90	0x3c90372d	0.017604435
91	0x3bd7db09	0.0065873903
92	0x3ac502d0	0.0015030745
93	0x3d097af4	0.033564523
94	0x3c914005	0.017730722
95	0x3bb5beb0	0.0055464134
96	0xbd2ac0ef	-0.041687902
97	0xbbd2a572	-0.006428414
98	0xbd37f0b8	-0.0449073
99	0xbb8aa7bd	-0.0042314217
100	0x3c59bd11	0.013289706
101	0xbc61bbf3	-0.013777721
102	0x3cb27a47	0.021786822
103	0x3d0654b4	0.032795623
104	0xbd8cda3d	-0.06877563
105	0xbce35f7b	-0.02775549
106	0xbd2bbf9f	-0.04193079
107	0xbd29ad27	-0.041424897
108	0x3a119dc5	0.00055548205
109	0xbcc38019	-0.023864793
110	0xbd4e6461	-0.050388698
111	0xbd244e27	-0.040113594
112	0x3c476768	0.01217065
113	0xbd3d20d8	-0.0461739
114	0xbd68ca33	-0.056833457
115	0x3bb8ee90	0.0056436732
116	0xbd2bf19f	-0.041978475
117	0x3c3eb7df	0.011640518
118	0xbd820d65	-0.06350211
119	0x3b37da0f	0.0028053557
120	0xbc4ef101	-0.012630702
121	0xbd1986c6	-0.037482046
122	0xbd82e505	-0.06391338
123	0x3cd93071	0.026512356
124	0xbd294157	-0.04132208
125	0xbbd9b6d2	-0.0066441083
126	0x3d19189d	0.03737699
127	0xbd879055	-0.06619326
128	0xbd29a6e7	-0.041418936
129	0xbd7dbb24	-0.06194605
130	0xbd348298	-0.044069856
131	0xbc06f7fd	-0.008237836
132	0x3d850975	0.064959444
133	0xbc2d2957	-0.010568938
134	0xbd1977ee	-0.03746789
135	0x3cd32bd1	0.02577773
136	0xbd226837	-0.03965017
137	0x3c1be055	0.009513934
138	0xbcb5b8c0	-0.022182822
139	0x3cd90259	0.026490377
140	0x3c266b8e	0.010157479
141	0x3cb34887	0.02188517
142	0xbd07e0cd	-0.03317337
143	0x3c023dd4	0.007949311
144	0x3a0ca9cc	0.0005365878
145	0x3cdd97c9	0.027049916
146	0x3c159f8d	0.009132278
147	0xbd38e860	-0.045143485
148	0xbcec9de3	-0.02888388
149	0xbc5d4112	-0.0135042835
150	0xbccacda1	-0.024756255
151	0xbd73a38c	-0.059482142
152	0xbc06b340	-0.0082214475
153	0xbd2038d7	-0.039116707
154	0xbd4a3481	-0.049366478
155	0x3c175cdd	0.009238449
156	0x3bda3881	0.006659568
157	0x3cff8fe3	0.03119654
158	0xbcc8a869	-0.024494367
159	0xbd212a3f	-0.03934693
160	0xbd246c9f	-0.04014265
161	0xbc94ec5c	-0.018179111
162	0xbd71279c	-0.058875665
163	0xbd8c4055	-0.06848208
164	0xbbf5d47c	-0.0075021368
165	0xbd799ae4	-0.06093873
166	0xbd781da4	-0.060575143
167	0xbd4bd14a	-0.04976014
168	0xbd49bb69	-0.049250994
169	0xbd687da3	-0.05676044
170	0xbd803e4f	-0.062618844
171	0x3c9ec9a5	0.019383261
172	0x3ccb2f66	0.024802875
173	0x3cb06aef	0.021535365
174	0xbd3591b0	-0.04432839
175	0xbbb9f840	-0.0056753457
176	0xbcc084d1	-0.023500832
177	0xbd24c5af	-0.04022759
178	0xbd28436f	-0.041079935
179	0x3d2b393f	0.04180264
180	0xbd770b6c	-0.060313627
181	0xbc04f205	-0.008114343
182	0xbc9616d6	-0.018321436
183	0x3c7c0e3b	0.015384252
184	0xbd45f5c9	-0.048330102
185	0xbd0f88f5	-0.03504272
186	0xbd236acf	-0.039896782
187	0x3c4f1108	0.012638338
188	0xbaf60424	-0.0018769545
189	0xbc821d04	-0.015882976
190	0xbd2a6c8f	-0.041607436
191	0x3cec8beb	0.028875312
192	0x3c2f8156	0.010711988
193	0xbbac7287	-0.005262676
194	0x39e9803a	0.0004453676
195	0xbc2bfc8f	-0.010497226
196	0xbbef73ab	-0.00730749
197	0xbd1e6e3e	-0.038679354
198	0xbbd9151a	-0.00662483
199	0xbd492ba9	-0.049113903
200	0xbbf73664	-0.0075443257
201	0xbca5556f	-0.02018234
202	0xbc0440ad	-0.0080720605
203	0xbc919916	-0.017773192
204	0x3c23cae6	0.009997105
205	0xbca25aef	-0.019818751
206	0x3c88df7c	0.016708128
207	0x3cdbe889	0.02684428
208	0x3d188f1d	0.03724586
209	0x3d540052	0.051758118
210	0x3d05d40d	0.03267293
211	0xbd72714c	-0.05919008
212	0xbd34ea80	-0.04416895
213	0x3c3660b7	0.011131457
214	0xbca4f817	-0.02013783
215	0x3bb007b7	0.0053720134
216	0xbcece20d	-0.028916383
217	0xbd4c4249	-0.049867902
218	0xbd3aee58	-0.04563746
219	0x3ce7cea2	0.028296772
220	0xbd124a6e	-0.035715513
221	0x3c44bbb8	0.012007646
222	0x3cd0d3d1	0.025491627
223	0x3bfa9d7b	0.0076481677
224	0x3c383577	0.011243216
225	0x3b94544e	0.0045266515
226	0xbc3c2de0	-0.011485547
227	0xbd14017e	-0.036134236
228	0xbd05427d	-0.03253411
229	0xbd0285b5	-0.031865794
230	0xbaaa0a1f	-0.0012972987
231	0x3cef3dc2	0.029204253
232	0x3d29679e	0.041358583
233	0xbcbe2870	-0.023212641
234	0x3cf84643	0.03030694
235	0x3d4ab7c1	0.049491648
236	0x3cbb5257	0.022866411
237	0xbc6f113b	-0.01459151
238	0xbccb0771	-0.024783822
239	0xbc89469d	-0.016757304
240	0xbc87cd45	-0.016577372
241	0x3cbb13d7	0.022836609
242	0xbd8c7aed	-0.06859384
243	0x3bc94bb1	0.0061430563
244	0xbc5c19c2	-0.0134338755
245	0x3d15593d	0.036462057
246	0x3a3897e7	0.0007041678
247	0xbc294797	-0.01033201
248	0xbd279c7d	-0.040920723
249	0xbd729924	-0.059228078
250	0x3cd70fe9	0.026252704
251	0xbcfa06b4	-0.030520774
252	0xbd52d5e2	-0.051473506
253	0xbd67797b	-0.056512337
254	0xbd60587b	-0.05477188
255	0xbd28feef	-0.04125875

l2.bias f4 [300]
0	0xbd6a17cb	-0.057151597
1	0xbd3c0ea0	-0.045912385
2	0x3d31cb47	0.04340675
3	0xbcce1a29	-0.025158959
4	0xbd91a1ae	-0.07110916
5	0xbdd1a082	-0.102356926
6	0xbcfbb144	-0.030724175
7	0xbcaee12e	-0.021347608
8	0xbce41bc3	-0.02784527
9	0xbcbf80a8	-0.023376778
10	0xbd62896b	-0.055306833
11	0x3cb055d7	0.021525307
12	0x3cf1c6fc	0.029513828
13	0x3e013b3c	0.12620252
14	0x3b34815c	0.0027542925
15	0xbc956816	-0.018238109
16	0xbd404651	-0.04694206
17	0x3d2d1826	0.042259358
18	0xbd6489eb	-0.05579559
19	0x3d35eb87	0.04441407
20	0xbd3b05c8	-0.04565981
21	0xbd0f81ed	-0.035036016
22	0x3d507931	0.050896827
23	0xbd16c486	-0.036808513
24	0xbcd96fba	-0.026542533
25	0xbd576f3a	-0.05259631
26	0xbbea1bb3	-0.0071444153
27	0xbd4108d9	-0.04712758
28	0x3eb38a4d	0.35066453
29	0x3cba1c2f	0.022718517
30	0x3d5e1339	0.05421755
31	0x3e0e3334	0.1388672
32	0xbd31b248	-0.043382913
33	0xbd294e76	-0.04133459
34	0xbdb2c2f0	-0.087285876
35	0x3cfef853	0.03112427
36	0x3e147c25	0.14500482
37	0x3db01ccf	0.08599245
38	0xbcb70bd0	-0.0223445
39	0x3daab536	0.083353445
40	0x3ab10bdf	0.0013507566
41	0xbd38e3b0	-0.045139015
42	0x3ca285e6	0.019839238
43	0x3da8aa8e	0.08235656
44	0xbd702374	-0.05862756
45	0x3d975e6d	0.07391057
46	0x3dbe3ba7	0.092887215
47	0xbcd21b2a	-0.025647718
48	0xbcb3b138	-0.02193509
49	0xbcda77ca	-0.026668448
50	0xbd126e5e	-0.035749786
51	0x3d4d6100	0.050141335
52	0xbd3f7747	-0.04674461
53	0xbd0f7c75	-0.0350308
54	0xbcdaef52	-0.026725445
55	0x3cd47fa9	0.02593978
56	0x3d59d549	0.05318192
57	0xbcb4b880	-0.022060633
58	0x3d8c1175	0.06839267
59	0xbd398ec8	-0.045302182
60	0x3e84118f	0.25794646
61	0xbcf6d584	-0.030131109
62	0xbd7f1d0c	-0.06228356
63	0x3eb37dd1	0.35056928
64	0xbbd1a3a2	-0.0063976804
65	0xbc45cb99	-0.012072467
66	0xbc8e3905	-0.017361173
67	0x3d487f00	0.04894924
68	0xbdc7f3f1	-0.09763325
69	0xbcfc2830	-0.030780882
70	0x3c84f394	0.016229428
71	0x3ca367ae	0.0199469
72	0xbd0d492d	-0.034493614
73	0xbe8011fb	-0.25013718
74	0xbd697e70	-0.057005346
75	0xbd4c8fa1	-0.049941663
76	0x3d07bb4c	0.033137605
77	0x3c49a3f8	0.01230716
78	0xbda2437f	-0.0792303
79	0xbd82786d	-0.06370626
80	0xbc1e04c6	-0.009644693
81	0xbd7f9d2c	-0.06240575
82	0xbda97f0f	-0.08276188
83	0xbda2adbf	-0.07943296
84	0xbd45bfe1	-0.048278693
85	0xbcf70b6c	-0.030156814
86	0xbd6d4a8b	-0.057932418
87	0xbc3465b0	-0.011010572
88	0xbe044963	-0.1291862
89	0x3d9383b5	0.072028555
90	0xbd99d5ae	-0.07511459
91	0xbc44b320	-0.012005597
92	0xbddd711a	-0.10812588
93	0xbd449251	-0.0479911
94	0xbdab30a7	-0.08358889
95	0x3c15ece5	0.009150718
96	0xbe07cd45	-0.13261898
97	0x3dbbd727	0.091718964
98	0x3dfdb0fb	0.12387272
99	0xbdb958e0	-0.09050155
100	0xbc6e8243	-0.014557424
101	0xbc1b227e	-0.009468673
102	0xbd47c9c1	-0.048776392
103	0x3d35be37	0.044370856
104	0xbc42f1e8	-0.011898495
105	0xbd743be4	-0.05962743
106	0x3de37ad2	0.111074105
107	0x3e0942b4	0.13404351
108	0x3da93a4e	0.08263074
109	0xbd74f5d4	-0.059804752
110	0x3e9f8512	0.31156212
111	0x3eadd882	0.33954245
112	0xbce6d313	-0.02817682
113	0xbd8ec34d	-0.069708444
114	0xbcd9cfd2	-0.026588354
115	0x3b242e1e	0.0025051902
116	0x3d67e612	0.056615897
117	0xbe6e902c	-0.23297185
118	0xbd8c281d	-0.068435885
119	0x3e14d2dd	0.14533563
120	0xbd30a1a0	-0.043122888
121	0x3d84ad44	0.0647836
122	0xbc58c56a	-0.013230661
123	0xbbbbd278	-0.005731877
124	0xbd683f23	-0.056700837
125	0x3d3c6a07	0.045999553
126	0x3d0b827c	0.034059986
127	0xbdad7907	-0.0847035
128	0x3dbf67a7	0.09345942
129	0xbc0d67a5	-0.008630668
130	0xbd45de59	-0.04830775
131	0x3ca40d4e	0.020025875
132	0x3c5d9ed2	0.013526635
133	0x3c1f043d	0.0097056
134	0xbd009eca	-0.031401433
135	0xbd7d46bc	-0.061835036
136	0x3ea0b711	0.3138967
137	0xbd821f5d	-0.06353638
138	0xbd2d9c2f	-0.042385276
139	0x3bccdcf8	0.0062519275
140	0xbd518dc2	-0.05116058
141	0xbd52b44a	-0.05144147
142	0xbd204a07	-0.039133098
143	0xbc4c2f89	-0.012462505
144	0x3d25074e	0.04029017
145	0xbdb09390	-0.08621895
146	0x3d287d3e	0.041135065
147	0x3c7fa9ab	0.015604417
148	0xbb51997a	-0.0031982348
149	0xbd0daad5	-0.034586746
150	0xbd3660b8	-0.044525832
151	0x3ea143cc	0.31497037
152	0xbd53828a	-0.051638164
153	0xbc993372	-0.018701289
154	0x3cbb5257	0.022866411
155	0x3da5acee	0.08089624
156	0xbd15df9e	-0.03659021
157	0xbc936926	-0.017994475
158	0x3e1a2175	0.15051825
159	0xbd05b2fd	-0.0326414
160	0xbdaa295f	-0.08308672
161	0xbcb980b8	-0.022644386
162	0xb9e58643	-0.00043778316
163	0xbd2fdbf7	-0.042934384
164	0xbdb15870	-0.08659446
165	0xbd93734e	-0.07199727
166	0x3e0204cc	0.12697142
167	0xbd6c1aa3	-0.05764259
168	0xbe05ca95	-0.1306556
169	0x3c1b32e5	0.009472583
170	0x3d16a865	0.036781687
171	0xbde6379b	-0.11241075
172	0x3d26cdfe	0.040723793
173	0xbd467e81	-0.048460487
174	0x3d9354d5	0.07193915
175	0x3cb7a297	0.022416396
176	0xbd8328fd	-0.06404302
177	0x3dcdca79	0.10048384
178	0x3e012a0c	0.12613696
179	0x3daee2be	0.085393414
180	0xbd0c362d	-0.034231354
181	0xbd9d4d2e	-0.076807365
182	0x3e0f2f1c	0.13982815
183	0xbc399378	-0.011326663
184	0xbd24e8d7	-0.040261116
185	0x3e9783fe	0.2959289
186	0x3bfbc01b	0.007682813
187	0xbca6078f	-0.020267276
188	0xbd254506	-0.04034903
189	0xbd08db95	-0.033412535
190	0x3dfb2f94	0.12264934
191	0xbd34f700	-0.04418087
192	0x3ddeac59	0.108727165
193	0xbd961586	-0.07328324
194	0x3aff0343	0.0019455928
195	0xbc0c7d45	-0.008574788
196	0x3d824a54	0.06361833
197	0xbc241f47	-0.010017223
198	0xbcee8c6b	-0.02911969
199	0x3d14ee35	0.036359984
200	0xbd9fe21e	-0.078068
201	0xbd396ec0	-0.045271635
202	0x3d0839dc	0.033258304
203	0xbd30bf4f	-0.043151196
204	0xbd4c79c1	-0.0499208
205	0xbc08c295	-0.008347173
206	0x3d9a624d	0.07538281
207	0xbdad12af	-0.08450829
208	0xbc997726	-0.018733572
209	0xbd07be6d	-0.03314059
210	0x3d7eb45b	0.06218372
211	0xbe1cf460	-0.15327597
212	0xbc401451	-0.011723594
213	0x3d50d7b9	0.05098698
214	0xbd8ab695	-0.06773106
215	0x3dd41ae2	0.1035669
216	0xbc13ac56	-0.009013256
217	0xbea95175	-0.3306996
218	0x3d7ee8b3	0.062233638
219	0xbb84a255	-0.004047672
220	0xbd1426fe	-0.03617
221	0x3e9b47b9	0.30328158
222	0x3d084fbc	0.033279166
223	0xbd1225b6	-0.035680495
224	0xbc99b0f6	-0.01876114
225	0x3cd1be31	0.025603386
226	0xbbb517d0	-0.0055265203
227	0xbd049125	-0.032364983
228	0x3e006306	0.12537774
229	0xbda0ce0e	-0.07851802
230	0xbdae70af	-0.085175864
231	0x3ea6a66b	0.32548842
232	0xbda537bf	-0.08067273
233	0x3da9be57	0.082882576
234	0x3d50c111	0.050965372
235	0xbd877fed	-0.06616197
236	0x3cf1ef9b	0.029533198
237	0x3e2f6fa7	0.17132436
238	0xbc4a9499	-0.01236453
239	0x3eac4a3c	0.33650386
240	0xbd6a4c23	-0.057201516
241	0xbd1103de	-0.03540408
242	0x3f028d4e	0.50996864
243	0xbd102216	-0.035188757
244	0xbd150735	-0.036383826
245	0xbdab5ebf	-0.08367681
246	0x3db1153f	0.086466305
247	0xbd0726dd	-0.032996047
248	0xbc8ace05	-0.01694394
249	0x3eaaa809	0.33331326
250	0x3dc3d608	0.095623076
251	0x3c800d16	0.01563124
252	0x3c6e4f7a	0.014545316
253	0xbbd6e10a	-0.0065575885
254	0x3d87e57c	0.066355675
255	0xbd530a39	-0.05152342

l3.weight f4 [1, 300]
0	0xbc81cafc	-0.01584386
1	0xbd41ce80	-0.047316074
2	0xbe708773	-0.2348917
3	0xbc877e5c	-0.016539745
4	0xbb4898c8	-0.0030608643
5	0x3cffbdfb	0.03121852
6	0x3d3afd2f	0.04565161
7	0x3e9aaa2e	0.30207962
8	0x3bc77628	0.0060870834
9	0xbce16792	-0.027515206
10	0xbcc01f41	-0.023452403
11	0xbb12fbc5	-0.0022427898
12	0x3e8a9b3c	0.2707156
13	0xbea5f7ee	-0.32415718
14	0x3ea051d7	0.3131244
15	0x3b8a8b9c	0.0042280685
16	0x3bfb8714	0.0076760147
17	0x3d3870d7	0.045029487
18	0xbbf85132	-0.0075780386
19	0xbe542121	-0.20715763
20	0xbcc59d80	-0.024122953
21	0x3c813434	0.015771963
22	0xbe66b0b2	-0.22528341
23	0xbd3e56ff	-0.046469685
24	0xbd0260fc	-0.031830773
25	0xbb59e80a	-0.0033249878
26	0x3d18df95	0.0373226
27	0x3cf6931b	0.030099442
28	0xbec01af6	-0.3752057
29	0xbc8564dc	-0.016283445
30	0xbe73637b	-0.23768418
31	0xbece41e3	-0.40284643
32	0xbbb6ff4f	-0.0055846344
33	0x3c963d04	0.018339641
34	0xbba0574f	-0.0048932205
35	0xbe76cb5b	-0.24101011
36	0xbe6d250a	-0.2315866
37	0xbe854a4c	-0.26033247
38	0xb98d9bfc	-0.00027009833
39	0xbe5fdab1	-0.21860768
40	0x3d3fb68f	0.04680496
41	0xbcac572e	-0.021037664
42	0x3d0ae3e4	0.03390874
43	0xbe42e248	-0.19031632
44	0xb9b245f0	-0.00034002913
45	0xbeac17e6	-0.33611983
46	0xbe71a3d3	-0.2359765
47	0xbcbcac6f	-0.023031441
48	0xbc5fa339	-0.013649755
49	0x3cc7b319	0.024377393
50	0xba0cb19d	-0.00053670426
51	0xbe87b82c	-0.265077
52	0x3ed729b2	0.42023998
53	0xbd1a5055	-0.037674267
54	0x3c8afb55	0.016965548
55	0x3cae548e	0.021280553
56	0xbd7dc9fb	-0.0619602
57	0xbc7bc1ab	-0.015365998
58	0x3ea66de7	0.32505724
59	0x3c1cbbdd	0.0095662745
60	0xbe99ec07	-0.30062887
61	0xbd3845df	-0.04498851
62	0x3c10f1e5	0.008846735
63	0xbea8cc1d	-0.32968226
64	0x3cd03dd2	0.025420103
65	0x3d4bc2f0	0.049746454
66	0xbd0921e4	-0.033479586
67	0xbe90e885	-0.28302398
68	0x3d3c4870	0.04596752
69	0x3daef559	0.0854289
70	0x3cd6e5b9	0.026232587
71	0x3ce1f2a2	0.027581517
72	0x3c43e800	0.011957169
73	0x3ee297a9	0.44256333
74	0xbce8b9ee	-0.02840897
75	0xbd295d76	-0.041348897
76	0x3d18f0c5	0.03733899
77	0x3c19e166	0.009392118
78	0x3d177dad	0.03698509
79	0xbce73a33	-0.028225994
80	0x3d6f76ca	0.058462895
81	0x3c92a05e	0.017898735
82	0x3b5c3db1	0.0033606107
83	0x3c954295	0.018220225
84	0xbbb0df57	-0.005397718
85	0x3c8abd9c	0.016936116
86	0x3dc523a0	0.096259356
87	0xbb819835	-0.003954912
88	0x3f36e955	0.71449786
89	0xbe4f6310	-0.20252633
90	0xbcf4d43c	-0.029886357
91	0x3ebeeb70	0.37289
92	0x3e9112a9	0.2833455
93	0xba09bb05	-0.00052540033
94	0x3d1f49c5	0.03888871
95	0x3cbfde67	0.02342148
96	0x3f9459c5	1.1589895
97	0xbe5afbd1	-0.21385123
98	0xbef7809b	-0.48340306
99	0x395db4b2	0.00021143517
100	0x3ce4af6a	0.027915675
101	0xbd42be58	-0.047544807
102	0x3d17712d	0.036973167
103	0xbe43fea8	-0.19140112
104	0x3ee1ca03	0.44099435
105	0x3cf6bfa3	0.030120676
106	0xbe96b355	-0.29433694
107	0xbebc8498	-0.3681991
108	0xbe869334	-0.26284182
109	0xbc70450c	-0.0146649
110	0xbec8b5dd	-0.3920125
111	0xbeb4ed80	-0.35337448
112	0xbd2f70ee	-0.042832308
113	0xbca88da6	-0.020575356
114	0x3ca2ac2e	0.019857492
115	0xbd503151	-0.05082828
116	0xbec52aa8	-0.38509107
117	0x3ed908fe	0.42389673
118	0xbcad8bc7	-0.021184815
119	0xbebd7c40	-0.37008858
120	0x3d042ded	0.03227036
121	0xbe5e5989	-0.21713842
122	0xbc9516d6	-0.018199366
123	0x3b9de64d	0.0048187138
124	0xbc740dcb	-0.014895867
125	0xbe89beec	-0.26903474
126	0xbe7c561b	-0.24642222
127	0x3c28dd56	0.010306677
128	0xbe8ca6ac	-0.2747091
129	0x3c0b3a9c	0.00849786
130	0xbb2b2107	-0.0026112215
131	0xbcb04c77	-0.021520836
132	0x3ebc5b30	0.3678832
133	0xbc0d492d	-0.0086234035
134	0x3ec047a6	0.37554663
135	0xbcba08a8	-0.022709206
136	0xbea75972	-0.3268543
137	0x3bebf2cb	0.007200574
138	0x3c872f74	0.01650212
139	0xbd358c37	-0.044323172
140	0x3cd46902	0.025928978
141	0x3b70f344	0.0036766091
142	0x3d4dd248	0.050249368
143	0x3d00eeac	0.031477615
144	0x3d1654cd	0.036701966
145	0xbc14a7e6	-0.009073233
146	0xbe827ac4	-0.25484288
147	0x3cab8e66	0.020941924
148	0xbe8ca454	-0.27469122
149	0xbc957ad6	-0.01824705
150	0x3c6ab4d2	0.0143253375
151	0xbed1092b	-0.40827307
152	0xbcd402a9	-0.025880175
153	0xbb8f5255	-0.0043738284
154	0xbcf3650b	-0.029711267
155	0xbe4269f8	-0.18985736
156	0xbd4b33f8	-0.049610108
157	0x3bd4bb09	0.006492023
158	0xbe86e53c	-0.26346767
159	0x3cbf974f	0.02338758
160	0x3d76a12b	0.060212296
161	0xbb5b2b79	-0.003344266
162	0xbce8aa2b	-0.028401455
163	0x3cccbdb9	0.02499281
164	0x3cc9b208	0.024621025
165	0xbc3d4590	-0.0115522295
166	0xbea435ee	-0.32072395
167	0x3b4b8ab0	0.0031058006
168	0x3f3d4bb7	0.73943657
169	0x3d0f33cc	0.034961507
170	0xbab721af	-0.001397183
171	0x3f67238a	0.90288603
172	0xbe554b91	-0.20829608
173	0xbc8c49b5	-0.01712499
174	0xbe6eeeda	-0.23333302
175	0x3d249c46	0.040188096
176	0xbcdacf4a	-0.026710171
177	0x3e7e181c	0.24813884
178	0xbe98027d	-0.29689398
179	0xbe559051	-0.20855834
180	0x3d425288	0.04744199
181	0x3d4d9eb8	0.050200194
182	0xbeb7cf1f	-0.35900208
183	0xbca144cf	-0.01968613
184	0xbcffe9bc	-0.031239383
185	0xbf30cdf8	-0.69064283
186	0x3d316747	0.043311384
187	0xbcdbac62	-0.026815597
188	0x3ecc38e9	0.3988717
189	0xbd48ea08	-0.049051315
190	0xbebf83c8	-0.3740523
191	0xbce2896a	-0.027653415
192	0xbe733c6b	-0.23753516
193	0x3c473c58	0.012160383
194	0xbf090c04	-0.5353396
195	0xbc547009	-0.012966164
196	0xbd942a1d	-0.07234595
197	0x3d2c8abe	0.042124502
198	0xbd1c8145	-0.03820922
199	0xbe83a91c	-0.25714958
200	0x3d5b7291	0.053576056
201	0x3cd46451	0.02592674
202	0x3d0219e4	0.031762972
203	0x3ebcdda8	0.3688786
204	0x3b206306	0.0024473085
205	0xbba4a66f	-0.0050247232
206	0xbe5a5d39	-0.21324624
207	0x3c6dd982	0.01451719
208	0xbbc81d58	-0.0061070137
209	0xbe4c2880	-0.19937325
210	0xbe5d1f79	-0.21594037
211	0x3f4bc16b	0.7959201
212	0x3dd2a892	0.102860585
213	0xbe73b583	-0.2379971
214	0x3cc66c89	0.024221675
215	0x3e50c36a	0.20387045
216	0x3cdc4711	0.026889356
217	0x3f35ed46	0.71065176
218	0xbe891ec4	-0.26781285
219	0xbc82f56c	-0.015986167
220	0xbcda2049	-0.026626723
221	0xbecaba6a	-0.39595348
222	0xbe7d9a53	-0.24765901
223	0x3c3f492f	0.011675163
224	0xbdcde120	-0.10052705
225	0xbe518781	-0.20461847
226	0x3b9e68c6	0.0048342673
227	0x3aed8cf3	0.0018123671
228	0xbea33806	-0.3187868
229	0x3e8f9895	0.28046098
230	0xbcdc1f3a	-0.026870359
231	0xbec559fc	-0.38545215
232	0x3a98554d	0.0011622101
233	0x3e91d2e6	0.28481215
234	0xbe7ed143	-0.24884515
235	0x3d309907	0.04311469
236	0xbe860824	-0.26178086
237	0xbe73b337	-0.23798834
238	0x3d92f7dd	0.071761824
239	0xbedb0860	-0.42779827
240	0x3c4543a8	0.012040056
241	0x3c441ac8	0.011969276
242	0xbf853f26	-1.0409896
243	0x3c94c97d	0.018162483
244	0x3e9a3a76	0.30122727
245	0x3cf333d3	0.029687798
246	0xbe7531fb	-0.23944847
247	0x3b819dad	0.003955564
248	0x3d251496	0.040302835
249	0xbed12842	-0.40851027
250	0xbe74af83	-0.23895077
251	0x3cb314f7	0.021860583
252	0xbe572e61	-0.21013786
253	0x3cf27b73	0.02959988
254	0xbe4c3c08	-0.19944775
255	0x3eb5e228	0.35524106
