TD3/models/third_training_attempt/train_350_episodes_actor.pth (torch, 528299 bytes, 6 tensors)

l1.weight f4 [400, 24]
000000 ee 21 7e be 1b ea de be fd 0c 81 3f ab 29 f0 be
       -0.2481763 -0.43537983 1.0082089 -0.4690679
000010 92 13 37 3f 57 b1 2f 3e da 69 e3 be 9c a1 26 bf
       0.71514237 0.17157494 -0.44416696 -0.65090346
000020 07 bf 66 bf 5a a7 0f be 36 58 e7 3b 3e 4b 07 be
       -0.90135235 -0.14028683 0.007060076 -0.13212296
000030 c8 90 0c bf 4f cb a1 3d 89 03 8b be 4b 05 d7 3c
       -0.5490842 0.07900106 -0.27151135 0.026247641
000040 7e 9a 57 be 76 dd 8b be f1 4f 86 be 11 6f 45 be
       -0.21055028 -0.273174 -0.26232865 -0.1928065
000050 69 84 66 be 6b 76 07 bd c1 75 3f bd 84 78 42 bc
       -0.22511448 -0.033071917 -0.04674316 -0.0118695535
000060 bc 66 e1 bd 56 bb da 3e 1c 8f 48 bf 17 d3 0e 3f
       -0.11005923 0.4272105 -0.7834337 0.5579085
000070 f5 c8 32 3f 65 c3 ac be fb 66 f2 be a6 f2 b6 be
       0.69837886 -0.33742824 -0.47344193 -0.35732
000080 82 3a 99 bd a3 f1 3e be ac ea 3b 3e 7e 0e 90 be
       -0.074818626 -0.18646865 0.18351239 -0.28136057
000090 8a 35 07 bf 99 4f e2 bd 7e f4 77 bd 02 c8 1c be
       -0.5281607 -0.11050338 -0.0605359 -0.15310672
0000a0 b8 5d 79 bd 52 e4 98 be f6 3f 26 be f0 1d 26 be
       -0.060880393 -0.29861695 -0.16235337 -0.16222358
0000b0 7e 20 55 be 2e f8 9d be 8b 9d ca 3d d5 6c 91 bd
       -0.20813176 -0.3085341 0.0989333 -0.07100836
0000c0 86 46 f3 3e 39 e4 10 3f 1f f7 89 bf 4c ac 6c 3f
       0.47514743 0.5659824 -1.077854 0.92450404
0000d0 4a b6 2a 3f 99 c5 cd 3e f3 84 9c be 28 6b 86 3e
       0.666844 0.40189818 -0.30570182 0.2625363
0000e0 f6 75 bc 3e b4 49 2a 3e 2e cc 8f 3e bb 4e 40 3e
       0.36808747 0.16629678 0.28085464 0.18780033
0000f0 dc 65 e7 be 7f 41 50 bd 91 47 ac be 7a da a5 bd
       -0.451949 -0.050843712 -0.3364835 -0.08098312
000100 5a f8 be be eb 63 cf be cf fa 9b bd 5a 18 cb be
       -0.37298852 -0.4050592 -0.07616197 -0.39667016
000110 e8 e3 04 be 58 7b a7 be 75 9c c4 be 47 7d 0d 3d
       -0.12977564 -0.3271129 -0.38400617 0.034543302
000120 e9 9f d6 3e 87 f1 9d 3f fb bc f9 be 24 41 6c 3c
       0.41918877 1.2339333 -0.48776993 0.014419828
000130 d0 b6 ee 3e 91 fd 22 bf b0 40 ce 3e 09 54 05 3e
       0.4662385 -0.6366816 0.40283728 0.13020338
000140 b5 14 27 bf 43 b3 d9 be b9 30 a8 be cd fa f3 bc
       -0.6526597 -0.42519578 -0.32849672 -0.029782677
000150 4a 52 c5 3b 74 f6 df bd 34 61 f5 bd 30 64 b3 bc
       0.0060217725 -0.10935679 -0.11981431 -0.021898359
000160 a4 60 72 be ef 66 65 be 98 72 20 be 64 3c 36 be
       -0.23669678 -0.22402547 -0.15668714 -0.17796475
000170 c8 2b f3 bd e0 bc 53 be 34 15 82 3c b9 4a 7f be
       -0.11873585 -0.20677519 0.015879251 -0.24930848
000180 7f 7c de 3e b7 ac 49 bf 18 6d b6 3f d3 5c 0c bf
       0.43454358 -0.78779167 1.4252043 -0.5482914
000190 03 31 34 be 8d f2 94 3e 26 80 71 bc 93 f9 c9 bd
       -0.17596821 0.29091302 -0.014740026 -0.09862056
0001a0 36 b0 b6 bd dc 9a 4c 3f 15 ac 82 bd 95 17 8d be
       -0.08920328 0.79923797 -0.06380478 -0.27557054
0001b0 58 03 be 3e 59 a9 d1 3e 0b 56 a8 be a7 77 a0 be
       0.37111926 0.40949515 -0.32878146 -0.31341287
0001c0 99 bd 97 be ec b1 96 be 3b fe bd ba 1d 88 30 be
       -0.2963684 -0.2943262 -0.0014495322 -0.17239423
0001d0 8f 80 47 3d 79 a4 3b be 2f 26 b6 3d dd 35 9a bd
       0.048706587 -0.1832446 0.08894002 -0.07529805
0001e0 18 56 26 3f df 0b c5 3f f5 c6 46 bf 2d 2c 67 3f
       0.6497512 1.5394248 -0.77647334 0.9030178
0001f0 e1 df 4b bf 1d b9 69 be 5b d5 ad 3e d3 9a 96 3d
       -0.7963849 -0.22824521 0.3395184 0.07353749
000200 29 65 e0 be 0c 60 7e 3e 89 5a a4 be 75 30 0a 3f
       -0.4382718 0.24841326 -0.32100323 0.5398019
000210 e1 bf a2 3d 91 ed eb bd fe e7 09 3e 44 ed 1e 3e
       0.07946754 -0.115199216 0.13467404 0.15520197
000220 eb eb ce 3d 46 59 51 3d a3 6a 34 3e 87 bc 1b be
       0.101035915 0.05111053 0.17618804 -0.15208636
000230 1b ac 2f be c7 cf 4c 3d c2 c8 38 3b c5 e0 5b be
       -0.17155497 0.05000284 0.0028195833 -0.21472462
000240 c9 48 2d bf 2f 50 55 3f 3e f4 aa 3c 8c 31 ce 3e
       -0.67689186 0.83325475 0.020868417 0.40272176
000250 aa 32 64 be 14 f3 28 bf cc f3 61 3e 5a 3a fa 3e
       -0.22284952 -0.6599591 0.22065657 0.48872644
000260 48 08 e3 3e 91 dd 80 3e ae 8e ba bd f9 2b 0a bf
       0.44342256 0.25169042 -0.09109245 -0.53973347
000270 bf e3 ee 3d c9 66 55 3d e4 1d 7f be 6b c2 61 be
       0.11664533 0.052099977 -0.24913746 -0.22046821
000280 53 2f 39 be a6 56 eb bd f9 0c 3d be bc 0f 98 be
       -0.18084459 -0.11491136 -0.1846198 -0.29699504
000290 b6 d6 4b be 11 84 b7 be fc a5 c8 be 33 92 84 bd
       -0.19906124 -0.35842946 -0.39189136 -0.06473198
0002a0 b4 00 26 3f a5 dc f2 3f 05 c7 a8 bf 50 0c cc 3e
       0.6484482 1.8973585 -1.3185736 0.39853144
0002b0 ee 58 cc be 78 d6 be 3e ec 4c 52 3f 3c 5d 90 3e
       -0.39911598 0.37273002 0.82148623 0.28196132
0002c0 a1 cd 25 be f6 74 4c 3f 96 9d 97 be 4b 92 3e bf
       -0.16191722 0.7986597 -0.29612416 -0.74441975
0002d0 2f 91 18 3e 88 d2 68 3d df 1f 77 be b2 47 a7 be
       0.14899133 0.056841403 -0.24133252 -0.32671887
0002e0 6a 5b f6 bd d9 02 bc bc 84 6f a6 be 10 05 a8 be
       -0.120291546 -0.022950577 -0.32506955 -0.32816362
0002f0 12 43 50 be 94 f5 b6 be 16 b5 3a be d0 82 b7 be
       -0.20338085 -0.35734236 -0.18233141 -0.3584199
000300 84 5d 21 be a3 aa 85 3f 11 ed 6e bf e7 24 7d bf
       -0.1575833 1.0442699 -0.93330485 -0.98884434
000310 5d 61 2d bd 29 bc e9 bd 60 b5 fc 3e 92 13 28 be
       -0.04232918 -0.11412842 0.49357128 -0.16413715
000320 6b ea b3 be f4 ee 4d 3e c1 b3 c4 3e c3 72 da bd
       -0.35139784 0.20110685 0.3841839 -0.1066642
000330 f7 db 2c 3f a7 73 c5 be f2 79 9f 3e 2d ba 8e 3e
       0.6752314 -0.38564798 0.31147724 0.27876416
000340 22 f7 89 3d f1 c0 25 3d c8 b4 51 3e 74 f4 7b 3e
       0.0673659 0.040467206 0.20479119 0.2460497
000350 f0 4c 04 3d 4a c6 6d 3e 1e 46 35 3e 8d 65 5d be
       0.032299936 0.23220173 0.17702529 -0.2162077
000360 37 f4 3a 3e 5e 70 b1 bf ba 94 74 3f 1b 6d a7 be
       0.18257223 -1.3862417 0.9553944 -0.32700428
000370 81 3a 05 3f 58 fc 1b 3e b7 5d 70 be 31 68 35 bd
       0.52042395 0.1523298 -0.2347325 -0.044288818
000380 e8 d1 f0 bd 2d ba b4 3e 26 9b 3d 3f 4e b7 09 3f
       -0.117587864 0.3529829 0.7406486 0.53795326
000390 26 ea 86 3e 00 c5 8e be bd ec 05 be 5c 82 d5 bd
       0.26350516 -0.27884674 -0.1307859 -0.10425255
0003a0 d1 ac 50 bc c3 2a 61 3d f8 56 61 be d8 84 6d be
       -0.012736515 0.05497242 -0.22005832 -0.23195207
0003b0 ee 0e 1c be 12 38 04 be c8 93 ee 3d 8c fe 96 3c
       -0.1524007 -0.12912014 0.11649281 0.018431924
0003c0 91 29 34 3d 49 a6 9e bf d0 9f 23 3f b5 c5 f5 3e
       0.043984953 -1.2394496 0.6391573 0.480024
0003d0 fa de ac be dc 31 74 3d 6e 0f 1c 3f 1c cc 36 3e
       -0.33763868 0.059617862 0.60961044 0.17851299
0003e0 88 15 94 be 35 4f ed 3e ff ce b1 be 64 d4 e9 bd
       -0.28922677 0.46349493 -0.34728238 -0.114174634
0003f0 83 42 88 3e 6d 92 e6 bd f3 f5 c1 be c5 e8 9d be
       0.26613244 -0.11258397 -0.37882957 -0.30841652

l1.bias f4 [400]
000000 05 be 1c be b7 62 78 be 32 d0 45 bd 6c 57 b0 be
       -0.15306862 -0.24256407 -0.048294254 -0.34441698
000010 fb c6 97 3d 35 fd c5 be ca 0a 27 be 93 e1 99 bc
       0.074109994 -0.38669744 -0.1631271 -0.01878432
000020 1d 03 05 be bb 45 1f bd 25 bc 1d 3c 3c 47 8e be
       -0.12989469 -0.03888486 0.009627377 -0.27788723
000030 40 97 9e 3d 00 c1 04 be cf 92 7f be 1e 47 21 be
       0.077436924 -0.12964249 -0.24958347 -0.15749785
000040 0c 8d 15 3d 8f e7 76 be 4c 8d 14 be eb 1c e4 3d
       0.036511466 -0.2411177 -0.14507025 0.11138328
000050 3f 1f 8d 3c a2 f3 9e 3d b6 0c 85 be d9 5d a0 be
       0.017226813 0.07761313 -0.2598626 -0.313216
000060 5b 94 29 be 56 ef 22 be db 13 5c bd 20 6e 20 bd
       -0.165605 -0.15911612 -0.053729873 -0.039167523
000070 97 20 d3 3e a4 4a 97 3d df 10 b9 bd ef e2 6c be
       0.41235802 0.073872834 -0.09036421 -0.23133443
000080 73 27 83 3e c7 99 34 be ad c2 83 bc 71 d3 94 be
       0.25616035 -0.17636786 -0.01608404 -0.29067567
000090 d4 aa ea bd fe ac fd 3c 77 d8 eb bd 5c ba 33 be
       -0.11458364 0.030966278 -0.11515897 -0.17551559
0000a0 99 55 74 be 4a a4 1e be 74 cf 2b 3e b9 04 74 be
       -0.23860778 -0.15492359 0.16778356 -0.23829927
0000b0 93 fb ee 3d 17 f3 49 3c 27 a0 0e 3c 5f c0 0f 3c
       0.11669078 0.012326024 0.0087051755 0.008773892
0000c0 ef 10 15 be 5f 81 09 bd 90 98 bf bd 9b f7 b0 be
       -0.14557241 -0.033570644 -0.09355271 -0.34563908
0000d0 4f 1f b2 3d 88 87 d7 be c0 b6 35 bd 14 95 28 be
       0.08697378 -0.4209559 -0.044363737 -0.16463119
0000e0 42 88 1a 3d f0 ec c5 be d6 40 c7 3c a6 ef 59 be
       0.0377276 -0.3865733 0.024322908 -0.21282825
0000f0 a3 26 c4 bd 4d 02 1f be 29 dc 8f 3e c5 f6 e4 bd
       -0.09577682 -0.15528221 0.28097656 -0.1117988
000100 4c fc ee 3c 96 c7 e7 bd ef 53 76 bc a2 da fa bc
       0.029173039 -0.11317365 -0.01503466 -0.03062183
000110 3b 4f 6b be ba 5d ea 3c ce a3 84 bd 4a 07 0f be
       -0.22979443 0.028609145 -0.06476556 -0.13967624
000120 ca 78 53 bd f1 c2 ce be 1f b6 e2 be 72 ac a7 3e
       -0.051628865 -0.40383103 -0.44279572 0.32748753
000130 14 fe c5 3d 25 86 56 be 44 46 10 be b4 ab 92 be
       0.09667602 -0.2094961 -0.14089304 -0.28646624
000140 e9 27 dd 3d 29 ba 21 be e4 5c 3e be 4a 60 45 be
       0.10798628 -0.1579367 -0.18590122 -0.19275013
000150 c8 02 0a bf b7 b5 89 be 97 17 e3 bb f9 35 08 be
       -0.53910494 -0.2689645 -0.0069303024 -0.13301839
000160 6a 30 c5 3d a3 c1 bf bb f6 37 93 be 3f b7 ad be
       0.09628375 -0.0058519407 -0.28753632 -0.33928868
000170 4e ff cc bd e7 64 7c be a8 fa a1 3e 76 d0 16 bc
       -0.10009633 -0.24647866 0.31636548 -0.009204974
000180 02 76 35 be 32 9b 52 be dc 4f 3c be 72 49 7e bd
       -0.17720798 -0.20567015 -0.18389839 -0.06208176
000190 3a f4 ad bd e0 cb 84 be f2 83 6c 3d 67 5e 90 be
       -0.08493848 -0.25936794 0.05774302 -0.28197023
0001a0 62 80 4d be 7b 63 cb be 25 b4 15 3d 18 b0 c0 be
       -0.20068505 -0.39724335 0.036548752 -0.3763435
0001b0 46 76 57 3c 21 67 a4 be ce 19 dc bd 0a 4a 46 bd
       0.013150757 -0.3210993 -0.10747109 -0.048410453
0001c0 a6 d4 c6 bd 95 04 5f be b4 16 70 3e c6 53 1e be
       -0.09708528 -0.21779092 0.2344616 -0.15461645
0001d0 88 0a 1f 3d c8 93 54 be 91 bd 60 be 3b b9 14 be
       0.038828403 -0.20759499 -0.21947314 -0.14523785
0001e0 5a 23 d8 3d 68 25 87 be e8 99 06 bc 22 5d 07 bf
       0.10553618 -0.26395726 -0.008215405 -0.52876484
0001f0 7a d3 a2 3e 48 94 44 3d 1d a8 36 be 3b 9d 88 bd
       0.3180197 0.047992975 -0.17837568 -0.06670614
000200 ab d7 d6 3d 07 15 31 be 8d 0e 83 bd d8 2f 25 be
       0.10490354 -0.17293178 -0.0639926 -0.16131532
000210 78 7f ae be 42 60 52 3e c0 cc 63 3e ed ec 4e be
       -0.34081626 0.20544532 0.22246075 -0.20207568
000220 d2 a8 38 3e d3 e2 c7 3d 8f fb 1a bc 44 5e f1 bd
       0.1803315 0.0976006 -0.00945939 -0.11785558
000230 cf 63 8b bd 1a b6 0e 3e 3f 18 28 be 40 53 c1 be
       -0.06806146 0.13936654 -0.16415499 -0.37758827
000240 01 92 f6 3d d5 0f 2f 3e 8c 07 fc 3d 59 d2 6c be
       0.12039567 0.17095883 0.12306127 -0.23127116
000250 33 a1 b2 be fd ff e9 be 16 d9 57 3d 52 54 99 be
       -0.3488861 -0.45703116 0.052697264 -0.29947144
000260 0a b3 11 3d c8 cd ad bd f7 10 6e be cb 91 e6 3d
       0.035571136 -0.08486515 -0.23248659 0.112582766
000270 94 c0 e0 3d 58 db b2 be 6a 21 61 be df c1 d2 3c
       0.10974231 -0.3493297 -0.21985403 0.02572721
000280 c6 f8 40 3b c9 70 e5 be 76 0c ce be 1c 9e 32 3d
       0.0029445156 -0.4481261 -0.40243882 0.043607816
000290 23 80 f6 bd 8f 70 05 bf 5b 36 8d be 46 31 4c 3e
       -0.12036159 -0.52124876 -0.27580532 0.19940671
0002a0 51 3b 66 3e ee 56 56 3e d3 9c 74 be 7c f5 17 be
       0.22483565 0.20931599 -0.23887949 -0.14839739
0002b0 0f b4 87 bd 01 fb 99 be 2d c8 30 bc d3 1e 8b be
       -0.0662614 -0.30074313 -0.010789913 -0.27171955
0002c0 3f 95 07 3b 63 e4 8a 3e 49 22 8d be 2e 53 26 bd
       0.0020688323 0.2712737 -0.2756522 -0.04060667
0002d0 69 b1 04 3e 68 63 de bd f2 7d 9e bd 7d 1f 3a 3d
       0.12958302 -0.10858804 -0.07738866 0.045440186
0002e0 1a 54 53 3e ae fe b0 be 48 6e f1 be b8 a3 73 be
       0.20637551 -0.34569305 -0.4715445 -0.23792922
0002f0 dd e1 5a be 8c 3c cd be b1 04 d9 bd fb e1 8a be
       -0.21375223 -0.40085256 -0.10596598 -0.27125534
000300 9d 08 00 3e e2 60 aa 3d 5d 79 a4 bd 89 70 4e be
       0.12503286 0.0831926 -0.08030961 -0.20160116
000310 de 0b b7 be cf 20 85 3d 27 2d bf be 55 7b 9a be
       -0.3575124 0.06500398 -0.37339136 -0.3017222
000320 9d 82 a8 be f2 a7 00 3e b5 bf 52 3e c2 42 2a be
       -0.3291215 0.12564066 0.20580943 -0.16627029
000330 27 bd 37 be 06 13 e5 bd a3 b0 0e be 35 c5 1f 3e
       -0.1794325 -0.11185269 -0.13934569 0.15602572
000340 05 53 2c be c9 b2 71 3e 51 88 7b 3c ca 95 ce bc
       -0.16828544 0.23603357 0.015352325 -0.02521791
000350 99 15 6e bd 21 e9 84 be 1f 3a d0 3d b2 51 a5 be
       -0.058126066 -0.25959113 0.10167336 -0.3228889
000360 1b ce e6 be e8 04 e0 be d6 75 56 be d1 1a 43 be
       -0.4507912 -0.43753743 -0.20943388 -0.19053198
000370 05 5c d3 3d b5 a1 46 be f0 40 3e be c0 66 31 bd
       0.10320286 -0.19397624 -0.18579459 -0.04331088
000380 20 73 3c 3e 5a 6c 42 be ab 0d 6a be 14 c2 35 be
       0.18403292 -0.18986645 -0.22856776 -0.17749816
000390 c7 54 ac bd 9d 52 b8 bc e7 ba 2d bd 10 2b e1 3d
       -0.084146075 -0.02250033 -0.042414572 0.10994542
0003a0 8b 9c 4b 3e ec b0 63 3d 31 34 b0 be 1e 00 ab 3d
       0.19883935 0.055588648 -0.3441482 0.08349632
0003b0 0a e6 71 be 83 06 b1 be 73 6c 92 be 7c 02 80 3c
       -0.23622909 -0.3457528 -0.28598365 0.015626185
0003c0 84 91 00 be c5 d5 8f 3c 36 e8 14 3e 40 82 a9 bc
       -0.1255551 0.017557988 0.14541706 -0.02069199
0003d0 f8 be 9d 3d 14 6d b4 3d 06 5c e2 bd 49 69 8e bd
       0.0770244 0.088098675 -0.11052708 -0.06953675
0003e0 f2 ec c6 bd b6 7b d0 be c1 1f 96 be 12 11 44 be
       -0.097131625 -0.40719384 -0.293211 -0.19147137
0003f0 ad 16 66 3e 7b 06 e9 3e d9 3d d8 be a3 94 87 be
       0.22469588 0.45512757 -0.42234686 -0.26480588

l2.weight f4 [300, 400]
000000 87 73 2f bc 0a e6 17 bd f1 72 e6 bc 2c 4f 0d bd
       -0.010708696 -0.037084617 -0.02813098 -0.034499332
000010 28 ab 5b bc 7d 1a 6e bd df 25 95 bc d2 46 3d bd
       -0.013407506 -0.05813073 -0.018206535 -0.046210118
000020 8a aa 03 3d 8f 9f 4f bd a5 f8 01 bd 8e 0b 39 bd
       0.03214506 -0.050689276 -0.031731267 -0.045177035
000030 01 11 28 bd f2 9f db ba 69 30 00 bd 5c f7 02 bc
       -0.04103184 -0.0016756041 -0.031296168 -0.007993545
000040 d5 6c 12 bd d9 4d 47 bd 06 53 1d bc c5 87 c3 bc
       -0.03574832 -0.048658226 -0.009602314 -0.02386845
000050 16 56 cb bc 5e 33 12 3d 14 5b 62 3c 6f 6a e6 3c
       -0.024821322 0.03569352 0.01381566 0.028126923
000060 ea d4 96 3c cd 8c 27 bd f5 3f 08 3d df fb 81 b8
       0.018412072 -0.040905762 0.03326412 -6.198114e-05
000070 c6 5d e7 3c f7 08 c5 bc f4 c3 7e 3a 6d 9f fe bb
       0.028242957 -0.024052126 0.00097185303 -0.00777047
000080 91 7b eb bc 09 98 d6 bc 07 71 2e 3d e6 91 70 bc
       -0.028745444 -0.026195543 0.04258826 -0.014683222
000090 ab 5b 78 bd 54 dc 79 bc cd d3 bc 3c a8 28 34 bd
       -0.060634296 -0.015250284 0.023050213 -0.043984085
0000a0 61 8b e0 3c 6c f9 19 bc ee 4e d1 bc 9b ce 11 bd
       0.027410211 -0.009397846 -0.025550332 -0.035597425
0000b0 e0 49 0f bc 73 46 36 bd c3 6f d4 3c b1 19 b8 bc
       -0.0087456405 -0.04450078 0.025932198 -0.022473188
0000c0 8d a5 c7 bc 82 a2 e0 bb 33 d5 eb 3c da 34 87 3c
       -0.024370933 -0.00685531 0.028788185 0.016504694
0000d0 f4 d2 97 bd 2a ba 4e bd 4f 0d f1 3c 18 fc 43 bc
       -0.07413283 -0.05047051 0.029425291 -0.011961959
0000e0 91 5d 09 3d b0 aa ab bb 14 4f 93 3b da fe fc ba
       0.033536498 -0.0052388534 0.004495511 -0.0019302026
0000f0 52 8f 44 bd 1d e2 99 bd af dc 36 3c 94 98 d7 3a
       -0.047988243 -0.07513831 0.0111610135 0.001644867
000100 bc 6a 33 3c cc 71 8a 3c fd e0 86 3c 38 dd 7f 3c
       0.01095074 0.016899966 0.016464705 0.0156167075
000110 10 1a 36 bd 6f 3e c9 bc a6 05 7b 3c 24 18 9d bd
       -0.04445845 -0.024565903 0.015321171 -0.0767062
000120 17 71 2e 3c 9d 47 21 bd 40 03 17 3a 5a ad 25 bd
       0.01064708 -0.039374936 0.0005760677 -0.040448524
000130 a3 a1 d9 bb 68 6b 7e bc 54 32 30 bd 16 cf 93 bd
       -0.006641583 -0.015528537 -0.043016747 -0.07217233
000140 f9 5d 1f 3c 87 54 c4 3c b9 fd da 3b 73 2d 36 bd
       0.009726995 0.023966087 0.006683078 -0.044476938
000150 4c 93 d9 bb b1 0f d9 3b 49 60 2f 3d 68 64 03 3d
       -0.0066398736 0.006624185 0.042816434 0.032078177
000160 92 6a 46 bd 49 7e 64 3b 12 79 8e 3c 72 64 ea 3c
       -0.048441477 0.003486531 0.017391715 0.02861235
000170 e8 8b c8 b9 ad be b9 bb 22 62 e1 3c c0 c0 e0 bc
       -0.0003825121 -0.0056684823 0.027512614 -0.02743566
000180 8c 4f 1d bb 44 8a 37 bc 3b b4 cd bc 22 1b 35 bd
       -0.0024003712 -0.011202399 -0.025110355 -0.04421533
000190 48 db 2b bb 7a c7 f1 3c b0 c7 67 bd ea 84 3f bd
       -0.002622323 0.029514063 -0.05658692 -0.046757616
0001a0 ab f2 4a bd a0 33 67 3b e8 96 3d bc 83 d7 2a bd
       -0.049547832 0.0035278574 -0.011571623 -0.041709434
0001b0 64 64 95 3b 50 a8 b6 3b 7b dc 5e bd aa 50 6e 3c
       0.0045590866 0.0055742636 -0.054409485 0.014545599
0001c0 f9 6a c1 3b 68 e2 7d bc da fb f9 bc a6 9d 1a 3d
       0.0059026447 -0.015495874 -0.0305156 0.037748
0001d0 e8 01 11 bc 4b 0a ef 3c 30 ce 1d bb 56 7c 0b bd
       -0.008850552 0.029179713 -0.0024079196 -0.034054123
0001e0 f8 12 3c bd 1f da b3 3c a1 1f 82 bc 9a 86 1a bd
       -0.045916528 0.021954594 -0.015884222 -0.037726022
0001f0 75 9f 13 3c c9 9e 03 bd cb d7 cb bc d3 f0 9e 3c
       0.0090101855 -0.03213385 -0.024883172 0.019401943
000200 1c ef 3b bd f4 ca 30 bd 05 50 9d bc 32 f2 aa 3c
       -0.04588233 -0.0431623 -0.019203195 0.02086744
000210 d6 bf 0b bd cf 09 10 3d 14 cc 5d bc 60 fc 48 bd
       -0.034118496 0.035165604 -0.013537426 -0.04906881
000220 f8 dc e7 bc d8 2c 59 bc 4b 3a 58 3a d7 2e ea bc
       -0.028303608 -0.0132553205 0.00082484324 -0.028586788
000230 60 44 f1 ba dc 1b e0 bc 5a 49 9f bc 36 1c 58 bc
       -0.0018407218 -0.027357034 -0.019444156 -0.01319032
000240 98 e2 d7 bc b0 e5 b2 bc b9 b1 ed bc 39 04 cf 3c
       -0.026353166 -0.02183804 -0.029015409 0.025270568
000250 d7 c5 41 bd 6c 45 b8 bc 6b 4a cf bc 22 c8 98 bd
       -0.047307815 -0.02249404 -0.02530404 -0.07460047
000260 0c d7 2a bd d2 e2 83 bc ca 6d ee 3a 37 77 a2 bc
       -0.04170899 -0.016099367 0.0018190679 -0.019832237
000270 a9 7a 39 3d bb 60 dc 3c cf 90 db bc 25 44 24 3d
       0.045282993 0.026901593 -0.026802449 0.04010405
000280 7d 4b 22 bd 60 d4 45 bc a8 3f a0 bb 26 e1 88 3b
       -0.039622772 -0.01207456 -0.004890401 0.0041772304
000290 0e 2d 97 3a 6b 27 fb bc 77 46 00 bd 29 23 a4 ba
       0.0011533813 -0.030658444 -0.0313172 -0.0012522686
0002a0 b8 fb 47 bc f9 7a 48 bd c0 58 de 3a bb 46 2d 3c
       -0.0122060105 -0.0489454 0.0016963705 0.0105759455
0002b0 20 06 d3 bc 80 44 82 bb ae 01 41 bc f7 7d 90 bc
       -0.025759757 -0.003975451 -0.011780186 -0.01763819
0002c0 10 24 ff bb 53 5e 1f 3b 47 62 ea bb 39 9f 83 bd
       -0.0077862814 0.0024317696 -0.007152829 -0.06426854
0002d0 8e b2 1b 3c 6a de 83 bb 35 65 41 bd 19 72 c8 bc
       0.00950302 -0.0040243166 -0.04721566 -0.024468469
0002e0 00 b6 6f 3a 83 e8 3e bd 31 af 65 bc 21 aa 08 3d
       0.00091442466 -0.04660846 -0.01401882 0.033365373
0002f0 82 ea 98 3c 25 c9 d3 3c 9e ed bd 3c d0 5b 62 3c
       0.01866651 0.02585275 0.023184594 0.013815835
000300 ff e5 80 3c 0c c6 fa bc 62 a7 07 bc df 1a 08 bc
       0.01573467 -0.030612014 -0.008279653 -0.008307188
000310 06 d3 a9 bc ea 90 1c bd 87 1f 01 bc 8b 97 25 bd
       -0.020730507 -0.03822414 -0.007881052 -0.040427726
000320 57 5b be bc ea ed 9f bd 45 ec fd bc 76 b3 e5 3c
       -0.023236914 -0.078090504 -0.030996451 0.028039675
000330 79 7b 79 bd e3 bf c9 3c 26 9c 42 bc dd 2b 4f 3c
       -0.06090877 0.024627632 -0.011878049 0.012644735
000340 16 f6 23 3d ae 1a bc bc a9 a3 db bc 93 5e 47 bd
       0.040029608 -0.02296194 -0.026811438 -0.048674177
000350 08 56 2d 3d e7 1f 94 3b a3 68 92 bd 27 2c 80 3c
       0.042318374 0.0045204046 -0.07148864 0.015646053
000360 97 6e 68 bc a2 61 2a bd 73 98 65 bd f6 de 46 bd
       -0.014186523 -0.041597016 -0.05605359 -0.048552476
000370 82 e1 35 bd f4 df 75 bc 9d df fe bc 63 b7 53 bc
       -0.044404514 -0.015007008 -0.031112486 -0.012922141
000380 87 20 09 bd 82 6b 9f 3c 17 26 4f 3c 12 60 52 bd
       -0.033478286 0.019460443 0.012643359 -0.05136115
000390 fe d8 1f 3c e6 bd 8e 3c 55 0d ab bb a2 4c aa 3c
       0.009756325 0.017424535 -0.005220095 0.020788494
0003a0 e2 d0 ed 3c 96 46 e1 bb e3 f9 59 bd 9c 3d 1d 3d
       0.029030267 -0.0068748696 -0.053216826 0.038388833
0003b0 ad dc 3a 3d 96 ad 27 bc 2c 05 e5 3c 82 75 0e 3d
       0.04562061 -0.010234257 0.027956568 0.034780033
0003c0 ae b6 7d 3c 16 9e ba bd 06 df 52 3c 5b bc 84 bd
       0.015485449 -0.09112184 0.012870556 -0.064812385
0003d0 80 28 8f bd 0a 7b 2b 3c 6e 53 06 bd 19 dc c6 bc
       -0.06990147 0.0104663465 -0.03279441 -0.024274873
0003e0 ea 52 39 bd 82 0e cc 3c 69 f9 f3 bc 9c 23 b4 3b
       -0.04524509 0.024909262 -0.029782014 0.005497409
0003f0 05 38 51 bd 6c fd 86 bd 8a f0 3a bd cb 28 32 bd
       -0.051078815 -0.06591305 -0.045639552 -0.043495934

l2.bias f4 [300]
000000 8a 10 89 bd 38 4f d2 3d 17 79 0a bf 91 d7 d9 bd
       -0.06692608 0.10269016 -0.5409102 -0.10636819
000010 67 b1 33 bc 19 2a 2e bd 8a 4c 92 bd 05 22 43 be
       -0.010967589 -0.042520616 -0.07143505 -0.19055946
000020 94 1f 2f bd c4 0f 90 bd ea 47 df bd 86 8b 58 be
       -0.042754725 -0.07034257 -0.109023884 -0.21146974
000030 25 46 e1 be 01 64 2f bd 36 94 0f bd b0 5f 86 bd
       -0.4399883 -0.04281998 -0.035053454 -0.0656122
000040 00 76 0d bd 8c 29 a5 bd 9d 14 4d be 06 26 b3 bd
       -0.03453636 -0.08064565 -0.20027395 -0.08747487
000050 40 ab 0c be 23 c7 68 be 83 51 ea be 1f 31 72 be
       -0.13737202 -0.22732215 -0.45765314 -0.2365155
000060 2d 1e 1e be f7 eb 84 bc 71 73 0e 3e 40 1c 84 3d
       -0.15441199 -0.016225798 0.13911225 0.06450701
000070 5c 5c a9 bc 50 6b d5 bd 29 9e d0 bd e4 19 0e bc
       -0.020673923 -0.10420859 -0.10186417 -0.008673165
000080 21 a3 b3 bd 4f 93 59 be 56 d5 c5 b9 ba b8 e0 bd
       -0.08771349 -0.212476 -0.00037733716 -0.10972734
000090 50 b2 78 bd b8 9c dd bc 2d d4 27 bd 4a d9 ab be
       -0.060716927 -0.027052268 -0.04097383 -0.33564216
0000a0 75 ed 3e ba 28 e6 ff bc 92 3b 5c 3d ff e4 70 3c
       -0.00072833087 -0.031237677 0.05376775 0.014703034
0000b0 07 b0 70 3d 03 c7 1b bd 57 37 2c be ea 8c 8f bd
       0.058761623 -0.03803159 -0.16817985 -0.07009299
0000c0 56 b5 da bd f2 b0 9a bd 40 7b fb bd fb c9 1d 3e
       -0.10679118 -0.07553281 -0.122793674 0.1540908
0000d0 e0 f0 64 bd 25 a9 93 bd b7 dd 2d bd 9d 70 ef 3c
       -0.05589378 -0.07209996 -0.042447772 0.029228503
0000e0 ce b5 a9 bd 03 de 51 bd fc 4f e7 bc 8d dc cd bd
       -0.082866296 -0.051237117 -0.028236382 -0.10051832
0000f0 80 a7 5e 3e ea ec 5f 3a 6e 30 c2 bb 59 3a 34 be
       0.21743584 0.0008542078 -0.0059261834 -0.17600383
000100 4d c5 40 bd 70 cf a6 bd 37 d0 a0 bd f6 4c a2 be
       -0.04706316 -0.08145034 -0.07852214 -0.31699342
000110 92 eb 3c bd 71 eb c0 bd 4f a1 90 bd da 2b f8 3d
       -0.046123095 -0.09419907 -0.07062017 0.12117739
000120 a4 88 88 be 7b 7a c9 bc 8f 9f 37 3d 87 54 46 be
       -0.2666675 -0.024594536 0.0448299 -0.19368182
000130 0f db 0d bd aa da ba bd 87 fb c4 bd 64 ef bd bd
       -0.03463274 -0.09123738 -0.096182875 -0.09274176
000140 8d 73 8b bd 82 37 01 3d 31 81 ab 3d 9c fb d9 bc
       -0.06809149 0.031547077 0.08374251 -0.026609235
000150 91 c2 82 3c 61 f0 7e bd 98 f4 90 be 88 78 9e bd
       0.015961917 -0.062240962 -0.2831161 -0.07737833
000160 fb 1b a0 bd 13 e0 35 bd ed d0 82 bd 1d a7 88 3e
       -0.07817837 -0.044403147 -0.06387506 0.26689997
000170 e7 5c c4 3d c1 c5 86 bd 7d f9 bb bd 4a 80 a3 bd
       0.09588032 -0.06580687 -0.091784455 -0.079834536
000180 68 0a 3e 3c cc 21 39 bd 9a f9 d2 be 9c 00 9e bd
       0.011599161 -0.045198247 -0.41206056 -0.0771496
000190 11 2f 21 3c 7c ad 82 bd 29 42 3a bd 1c ff 9e be
       0.009837882 -0.06380746 -0.04547325 -0.31054008
0001a0 c1 06 07 bd b2 50 01 be bd 2c 4d bd 0a 31 47 bd
       -0.032965425 -0.12628439 -0.050091494 -0.04863075
0001b0 7f 75 0a be bd 2d 9a bd 57 7e 57 be cd c5 db 3d
       -0.13521384 -0.07528255 -0.21044289 0.10731087
0001c0 68 5d 96 bd 1f 48 10 bd 09 e1 63 be b2 e2 91 be
       -0.073420346 -0.03522503 -0.22253813 -0.28493267
0001d0 89 c9 01 3e b0 38 c9 be 20 65 6d bd d4 52 20 be
       0.12674536 -0.39301062 -0.05795777 -0.15656596
0001e0 dd 7e dd be 86 f0 a1 be 2c ea b2 bd 23 4d 64 3e
       -0.43260852 -0.31628817 -0.08736071 0.2229505
0001f0 8b 65 dc bd 20 a1 11 bd b1 12 df bd ea 43 43 3e
       -0.10761555 -0.03555405 -0.10892237 0.19068876
000200 8d 1c ee 3d d3 7f 7b 3e 13 f9 e7 bd 0b 78 bf bd
       0.116265394 0.2456048 -0.11326804 -0.09349068
000210 22 55 1f bd c7 b0 95 bd 76 a7 76 be 21 da 91 bd
       -0.03889955 -0.07309108 -0.24087319 -0.07121683
000220 84 2b 60 bd a9 fe a1 bd 7e ef 06 3d fc c8 9d bd
       -0.054729 -0.07909901 0.03294324 -0.0770435
000230 7e ae 09 bd df 78 32 3c 8a 90 41 3a 53 f0 dd be
       -0.033613674 0.010893076 0.0007383904 -0.43347415
000240 fc ea b1 bc c0 62 f5 be 09 dc 4c 3e 68 9f ae bd
       -0.021718495 -0.47926903 0.20005812 -0.08526498
000250 bd a2 5f bd aa 54 aa bd 77 8a da bc 36 59 dd ba
       -0.05459856 -0.0831693 -0.026677353 -0.0016887549
000260 f4 f0 8a bd 45 60 b5 bd dd 3c 08 be 88 74 a2 bd
       -0.067842394 -0.088562526 -0.13304467 -0.07932383
000270 10 81 cc bd 0e 7d 68 3e 82 83 4d be 1d 46 5b 3e
       -0.09985554 0.22703955 -0.20069697 0.21413465
000280 a0 d7 01 bd aa 3b 14 be 09 f0 a3 bd 39 d8 ca bd
       -0.031699777 -0.14475885 -0.080047674 -0.099045224
000290 38 bb cb bd 78 75 18 bd 95 b6 06 bd 55 c7 ce bc
       -0.099478185 -0.037221402 -0.032888968 -0.025241533
0002a0 02 63 f7 bd 6c 8d 28 bd 1e be 99 3d 50 d8 f1 3d
       -0.12079431 -0.041150495 0.07506965 0.118088365
0002b0 34 03 ac be 5d fa bd bc 6a d4 41 3c a4 08 08 bd
       -0.33596194 -0.023190672 0.011830429 -0.033211365
0002c0 57 49 57 bd 26 25 31 be 45 bc 8b bd e7 a3 a5 bd
       -0.052560177 -0.17299327 -0.06823019 -0.080879025
0002d0 a4 9d 98 bd 82 30 63 3d e5 5e 3e be 9d 7d 40 be
       -0.074519426 0.055466183 -0.18590887 -0.18797918
0002e0 a0 17 8d 3d 99 f4 90 bd 27 99 99 be ca 13 a3 be
       0.06889272 -0.07077903 -0.29999658 -0.31851035
0002f0 56 6c 60 bd 0f c8 63 bd ab a1 29 bd 1e e8 8a bd
       -0.054790817 -0.055610713 -0.041413944 -0.06782554
000300 68 99 f3 bd a8 cb 8a bd b0 4d e2 bd 42 15 cf bd
       -0.11894494 -0.067771256 -0.11049974 -0.101114765
000310 7d be 93 bd 2c 5a 0e bd c7 6a 8f be 74 5a b3 bd
       -0.07214067 -0.034753963 -0.28011152 -0.08757487
000320 d2 c4 8e 3d 18 b8 10 3a 72 f8 53 bd e4 51 3a bd
       0.06971134 0.0005520596 -0.051750608 -0.045488253
000330 69 0f 6b bc c3 47 2e be d1 41 b0 be b5 2e 8d bd
       -0.014346936 -0.17019562 -0.34425214 -0.06893674
000340 cd 07 a7 bd fb 5f 94 3d 6e eb 89 bd da 65 95 3b
       -0.08155785 0.07244869 -0.06734358 0.004559261
000350 0c cb 08 3d 6b 79 5d bd c4 04 4e bc 86 6d 64 3d
       0.033396766 -0.05407087 -0.012574378 0.055768512
000360 48 8c 52 be 9c b0 84 bd 96 c1 90 be f0 71 1b bd
       -0.20561326 -0.06478998 -0.28272694 -0.037950456
000370 b0 97 a4 3b ed 4f 02 bd fe 4d b4 bd 39 97 d2 bd
       0.0050229654 -0.031814504 -0.08803938 -0.1028275
000380 95 ab 92 bd c2 b7 87 bd da bb fc bd 8e 7c cc bd
       -0.07161633 -0.06626846 -0.12340517 -0.099846944
000390 2f 7d 13 be e0 3c a9 bc 1a 5f d4 bd ad 33 c7 bd
       -0.14403223 -0.02065891 -0.10369702 -0.09726653
0003a0 43 e4 10 bd 44 54 83 bd 3c cd ae bc 04 ec 00 3d
       -0.035373937 -0.06412557 -0.021338098 0.031475082
0003b0 d9 4d 19 3e c4 c0 c8 bc 29 df 00 3e 9e e6 eb bc
       0.14971103 -0.02450598 0.12585129 -0.02879649
0003c0 cd e5 84 bd f9 32 0e bd c7 19 8a bd 34 c3 ba bd
       -0.064891435 -0.03471658 -0.06743198 -0.09119263
0003d0 ce 65 9f bd d0 a8 b4 bd 83 8d 65 be 0f f9 d2 bd
       -0.077830896 -0.08821261 -0.22417264 -0.103014104
0003e0 ba 1b 86 bc 89 c2 02 bd 0a 9e 32 bb 7f 34 78 be
       -0.016370643 -0.031923804 -0.0027254843 -0.24238776
0003f0 b6 3f b4 bd d7 85 dc bd f8 5f 2b 3e 91 1e dc bd
       -0.088012144 -0.107677154 0.16735828 -0.107480176

l3.weight f4 [4, 300]
000000 0b f9 8b bd ab 44 97 be e7 24 85 3e de bd 03 bd
       -0.068346106 -0.29544577 0.26004717 -0.032163493
000010 3b d4 8c 3e 2d de 02 3c a7 49 0b 3d 0d 6f 40 be
       0.2750567 0.007987541 0.034005787 -0.18792363
000020 32 34 66 bd 6b f3 ba 3c 6c 40 c6 bb da 4f 43 3f
       -0.05620212 0.022821149 -0.00605016 0.7629372
000030 32 e9 6c 3e 45 9a ea be d9 f4 86 3d db c9 60 3c
       0.23135832 -0.45820823 0.0658967 0.013720001
000040 12 f0 34 3d 46 47 a6 be 4c 52 ba bf 11 74 1e 3b
       0.04417426 -0.32476252 -1.4556365 0.0024178068
000050 14 3c ee 3e 22 3a 81 bf bc 05 8b 3d cb 52 2c bf
       0.4653021 -1.0095866 0.06788203 -0.6731383
000060 bb 98 9c be 03 1d ea bc cc 95 63 3c da 18 ba be
       -0.30585274 -0.028578287 0.013890695 -0.36347085
000070 7e 26 c5 3c 4c 15 d8 3d b9 5d 99 bc 67 46 e1 bc
       0.024066206 0.10550937 -0.018721448 -0.02749939
000080 67 1c 6c bd dc 64 90 3e f5 85 a9 3f 1b bb d4 3b
       -0.057644274 0.2820195 1.3244005 0.0064920313
000090 23 55 e4 3c bc d7 7b be eb 2f a3 bd 73 a5 75 be
       0.027872628 -0.24594015 -0.07968124 -0.23988895
0000a0 6c f8 4a 3c bc 67 13 bd 35 4f 17 3d 58 1f 39 bc
       0.01238833 -0.0359876 0.036940772 -0.011298977
0000b0 74 47 40 3d cd 1e aa be 4b 07 01 be de 32 d4 bc
       0.046943143 -0.33226624 -0.12600438 -0.025903162
0000c0 a6 00 11 3e 37 80 90 3c 5d da ad 3c fe 2a 67 3e
       0.14160404 0.017639263 0.021222288 0.22574994
0000d0 5e 1a c7 3c db 12 4e bc 9b dd a1 3d 7c 9d c9 3e
       0.024304565 -0.012577738 0.07903596 0.39377964
0000e0 2a e9 e4 3c ab ee 10 bd b5 e5 ae 3b 5c 69 22 3d
       0.027943213 -0.03538386 0.005337442 0.03965126
0000f0 9e e2 90 3d bc 68 8f bd 44 db 1c bb f7 9a a0 3b
       0.07074474 -0.07002398 -0.0023934403 0.0049012857
000100 e5 3d 97 3a 42 d1 22 bd 44 be 60 bd 8c 3d 74 be
       0.0011538832 -0.039750345 -0.05486895 -0.23851603
000110 b6 ef 87 3c 63 e9 2a ba 01 33 dd bb ea 22 ae bd
       0.016593795 -0.00065197627 -0.006750465 -0.08502753
000120 49 02 70 bf 74 7b 24 3b 48 05 97 be fc 3b 8f 3e
       -0.93753487 0.0025097998 -0.29496217 0.27975452
000130 03 63 3d 39 13 57 c4 3e 49 37 f1 3b 8e 4d 86 bb
       0.0001806133 0.38347682 0.007361327 -0.0040986007
000140 01 fe 0e bc 05 27 94 3d 69 37 72 3f dd 4b 15 3c
       -0.008727551 0.07234005 0.946158 0.0091123255
000150 8d 38 e2 be 98 d6 88 bc a2 fb 52 bf 4a 8c 25 ba
       -0.4418377 -0.016703889 -0.8241521 -0.0006315155
000160 7d c1 07 bc 75 38 8e 3c a5 4a 84 3c 5a ea e5 3d
       -0.008285877 0.017360905 0.016148875 0.1122634
000170 c5 d1 0f 3f f4 d9 4d 3d 08 02 25 3d 22 bb be bc
       0.5617946 0.050256684 0.04028514 -0.023282591
000180 22 82 00 bf e5 30 84 bc 59 dd e8 3c 8f 0c a6 bb
       -0.50198567 -0.016136596 0.02842586 -0.005067415
000190 34 63 10 bb 8c 5e c4 3d f5 f4 b6 bc 8e d7 24 bf
       -0.0022031786 0.09588346 -0.022333601 -0.6439141
0001a0 24 76 5a 3d 4d c5 14 bd 41 c4 cd 3c ff 84 81 3c
       0.053335324 -0.036320973 0.025117995 0.015810488
0001b0 0c b8 58 be 46 12 c3 b9 19 f9 1a 3f b3 77 0a 3e
       -0.21163958 -0.00037206913 0.6053634 0.13522224
0001c0 ca 6c eb 3b 74 5a 33 3c e2 db 8c 3d 9f 3d 1c bf
       0.0071845995 0.010946859 0.06877877 -0.61031526
0001d0 44 f2 74 3e 76 ae a2 be 8a 0d fd 3b 1e d3 8f 3f
       0.23920542 -0.31773728 0.0077225612 1.1236303
0001e0 d1 b1 e0 3e 0a b9 23 bf b5 ab 41 3f 3d 90 d9 3e
       0.43885663 -0.6395422 0.7565263 0.42492858
0001f0 25 07 3e bc 4e 70 0e 3c 85 8d 9b bb fe a3 75 bd
       -0.011598383 0.008693768 -0.004747095 -0.05997085
000200 b7 d8 7c be bd 7c ee bc 0a 1f 09 bc 73 3f db 3b
       -0.24692045 -0.029112214 -0.008369217 0.0066909133
000210 67 86 0b bd 8a da a0 3d ef f9 3d 3f 6c dd d4 3c
       -0.034063723 0.07854183 0.74209493 0.025984488
000220 bb fb 25 bd 56 44 84 bc cc 3e fe 3c 67 10 01 3d
       -0.040523272 -0.016145866 0.031035803 0.031509783
000230 77 cf 33 bd ca e3 cf 3b de f9 e2 39 da b9 8d 3e
       -0.043899026 0.0063442932 0.00043292245 0.27680856
000240 75 0f 43 3b 9c 50 a6 be bc 38 4f bf 58 2e 04 3d
       0.0029763852 -0.32483375 -0.80945945 0.03227076
000250 5c 12 c2 bb 8b 9a 3c 3d ec ed e4 3d fb be 92 be
       -0.0059225988 0.04604582 0.111781925 -0.28661332
000260 07 5a 6b bd 36 6a e6 bc a9 73 c8 3e 0b 36 80 bb
       -0.057458904 -0.028126817 0.39150742 -0.0039126924
000270 83 7e 3e bd e8 4f 63 3d 78 b5 01 be 98 2b 78 bf
       -0.04650737 0.055496126 -0.12666881 -0.9694152
000280 d1 e5 f2 bc 08 45 36 be a4 54 ba bc d8 78 4d 3d
       -0.0296506 -0.17799771 -0.022745438 0.050164074
000290 ce 34 8e 3c 2b 85 09 bf eb 7f 6f be 4d 5c cb 3d
       0.017359164 -0.53718823 -0.2338864 0.09929714
0002a0 69 ca 13 3f 65 17 8f bd 8f b4 9d 3c 82 28 47 bc
       0.5773073 -0.06986884 0.019251136 -0.012155654
0002b0 24 72 6f bf 58 20 16 bb 9b 0a 85 3e 45 fc 74 bc
       -0.9353354 -0.0022907462 0.25984654 -0.014952724
0002c0 3c e4 00 3d 8e 48 cb 3e 3d dc 88 bd 24 c6 da bb
       0.03146766 0.39703792 -0.06682632 -0.0066764522
0002d0 e3 89 89 3c 95 08 2c 3e f8 ab f9 3b fe ef 50 3c
       0.016789382 0.16800149 0.007619377 0.012752531
0002e0 13 6b 15 3f 99 84 27 bc ac 25 ff be 84 96 87 3e
       0.5836651 -0.010224485 -0.4983343 0.26482022
0002f0 cc 13 b6 bc 33 53 94 bd 70 cb 72 3b c5 0e 61 bc
       -0.022226237 -0.072424315 0.0037047528 -0.0137364315
000300 ab 6f cd bc 74 84 10 3d 25 83 41 bd 79 03 b4 3d
       -0.025077661 0.035282567 -0.04724421 0.08789725
000310 f0 64 b4 3c 6f 1c 3b 3d 85 32 19 3f 9a af 8f 3d
       0.022020787 0.045681413 0.5984271 0.07015915
000320 86 90 42 3f 0b e6 bf 3c a1 51 84 39 25 d6 7f bb
       0.76001775 0.023425123 0.0002523782 -0.0039037552
000330 ec 66 b3 3c 64 6c af 3e a0 5d b9 be 59 5a 68 3d
       0.021899663 0.34262383 -0.36204243 0.056726787
000340 30 a7 53 3c e0 c4 91 3e b3 cb 24 bd 26 be 98 3e
       0.012918279 0.28470516 -0.040233325 0.29832572
000350 57 1d 0b 3e 90 fe a8 3c c0 db a5 bd c7 de 42 3e
       0.13585411 0.020629197 -0.080985546 0.19030295
000360 a5 26 52 bd e1 25 80 3c 69 60 81 bd 8a 4c a6 bc
       -0.051306386 0.015643062 -0.06317217 -0.020300169
000370 39 a4 d6 bd 38 6b 1b be 8d eb db 3c 21 3c 4c bb
       -0.10480542 -0.1517762 0.026845718 -0.003116377
000380 26 4b da 3c 12 e2 53 3d f0 03 02 be 07 a0 86 3d
       0.026647162 0.05172927 -0.12696815 0.065734915
000390 e0 75 38 be de 2a c5 3d b9 f1 04 3d df 99 3f 3c
       -0.18013716 0.09627317 0.032457087 0.011694401
0003a0 34 c0 fb ba 3f 0b b2 ba 2e 02 cf 3b c6 ae 4f 3f
       -0.0019207061 -0.0013583674 0.0063173985 0.8112606
0003b0 8b 7e 55 3e 71 86 15 3d 88 f2 cd bd 38 6b 66 3d
       0.20849054 0.036505166 -0.10056025 0.056254596
0003c0 a9 b8 17 3d 82 7b c1 bc 02 69 0c bf 52 67 a0 3d
       0.03704134 -0.023618463 -0.5484773 0.07832207
0003d0 10 80 46 bd 50 73 81 bd 0a cf e5 3c 8d f0 db 3c
       -0.048461974 -0.06320822 0.028052825 0.026848102
0003e0 8c ff 6e bf 26 fe 38 3c e8 b6 d2 bb e7 4e 00 bf
       -0.93358684 0.011291062 -0.0064304955 -0.50120395
0003f0 b0 5f 19 3d 84 95 0d bd 2b b8 c4 3d 33 ac 65 bc
       0.03744477 -0.034566417 0.0960544 -0.014018106

l3.bias f4 [4]
000000 9a 3a bf bd 77 2b a8 be 6a b2 a9 3d 10 4c b4 bd
       -0.09337349 -0.3284566 0.08285983 -0.0880357
