TD3/models/third_training_attempt/train_150_episodes_actor.pth (torch, 528299 bytes, 6 tensors)

l1.weight f4 [400, 24]
000000 4b af 83 bd b1 f1 a3 be e0 15 a0 3e 64 c7 1e be
       -0.06429919 -0.32020333 0.3126669 -0.15505749
000010 18 72 9d 3e 6b 58 fe 3d 67 fa d8 bd ad 2f ba be
       0.3075111 0.12419208 -0.105946355 -0.363645
000020 62 e3 df bd c4 82 b9 3d 32 f9 98 bd 2b 9d 31 be
       -0.10932042 0.09058145 -0.07469405 -0.17345111
000030 3e 33 a4 be 47 c9 5d 3e c5 e4 5d be 59 31 a4 3d
       -0.32070345 0.21658812 -0.216693 0.08017225
000040 1e a5 21 be 07 a0 62 be db 10 58 be 33 6c 11 be
       -0.15785643 -0.22131358 -0.2110018 -0.14201431
000050 f2 14 33 be fe 44 89 3c 5f 70 3c 3d 47 0f 32 bc
       -0.17488459 0.01675653 0.046005603 -0.0108679
000060 9a 8d 34 be 91 d2 de 3c 55 9b 14 bf a2 46 ca bd
       -0.17632142 0.027200015 -0.5804952 -0.098767534
000070 a6 d0 07 3e 7f f3 8d be ac 25 8e be 62 45 61 bc
       0.13263187 -0.27724835 -0.27763116 -0.013749452
000080 cd 2f 91 be 97 91 58 3e 20 92 e8 3d 3c 56 87 be
       -0.28356782 0.21149288 0.11355996 -0.2643298
000090 52 5a c9 bd 24 90 de be 38 22 31 3d 50 2e 4d bd
       -0.0983168 -0.43469346 0.043245524 -0.050092995
0000a0 a5 e2 2a 3d 25 a7 48 be 76 59 74 bd 46 91 74 bd
       0.04172005 -0.1959501 -0.05965563 -0.059708856
0000b0 6c c4 d7 bd 47 a6 53 be c3 b2 2b 3e 5b d1 95 3c
       -0.105355114 -0.20668899 0.16767411 0.018288305
0000c0 42 0f 54 3e 77 41 f1 3d 8c 32 c7 bd 7e f1 36 3d
       0.20708945 0.117800646 -0.09726438 0.0446639
0000d0 62 d8 e5 3e 24 52 42 3e af 41 a4 3c e8 2d 92 3d
       0.4489165 0.18976647 0.020050852 0.07137662
0000e0 67 4f a6 3c 58 c2 d0 3e 66 f5 7b 3e 9f c3 8b bb
       0.020301534 0.40773273 0.24605331 -0.004265263
0000f0 e3 5e e2 bd 59 68 bc bd 5f 7d 3f be 17 11 8d 3d
       -0.110532545 -0.0919959 -0.18700169 0.06888025
000100 06 74 64 be cc b7 82 be c6 14 96 3d 38 b3 7d be
       -0.22309884 -0.2553085 0.07328181 -0.24775398
000110 5c 2e 92 3c 0c 15 36 be ed a6 57 be 8b ce 30 3e
       0.017844371 -0.17781466 -0.21059771 0.1726629
000120 5c f3 23 3e 02 00 d3 3e a9 fe 43 3e 48 e0 3b be
       0.16010803 0.41210943 0.19140114 -0.18347275
000130 b6 a8 2e 3d 53 8c 34 be bb 76 85 3e f7 59 9c 3e
       0.042641364 -0.17631654 0.26067147 0.30537388
000140 b9 d6 c6 be 58 c1 8f be 8d b3 f6 be f0 df 97 be
       -0.38835695 -0.28077197 -0.4818386 -0.29663038
000150 cb 40 90 3d fb 7b 00 3e e6 b4 ed bc 98 11 8b 3d
       0.07043608 0.12547295 -0.029016923 0.06790465
000160 ee 8a 17 be 2f a7 0b be 8d fd 8e bd bf 37 bd bd
       -0.14799091 -0.13637994 -0.06981955 -0.09239148
000170 5d 98 0e bd a2 b9 fd bd e6 cc 31 3e 18 db 42 bd
       -0.034813274 -0.12388922 0.17363319 -0.047572225
000180 47 0f 1b 3e 99 32 4f be 21 52 24 3d 7d aa 02 be
       0.15142547 -0.20234145 0.040117387 -0.12760349
000190 cb 47 18 3e ca 49 bd bd ef 1c dd 3d 65 f2 8f 3e
       0.14871137 -0.0924259 0.10796534 0.2811462
0001a0 59 92 87 bd 3e 1e 23 3e 3c 8e 35 3e ec 6c be bc
       -0.066197105 0.15929505 0.1773004 -0.023245297
0001b0 2e 5a f0 3e 6c 97 e8 3d e4 ed 8e be d3 db 86 be
       0.46943802 0.113570064 -0.2791587 -0.26339588
0001c0 8d 9c 7e be ab 12 80 be 62 12 26 3d fd 6a 06 be
       -0.24864407 -0.25014243 0.040544875 -0.1312675
0001d0 16 1b ba 3d 15 70 16 be 76 f9 91 3d 83 37 a7 bd
       0.090871975 -0.14691193 0.07127659 -0.08164885
0001e0 0c 82 bf 3d 44 b3 a6 3d 85 2d 85 be f8 7a d2 3e
       0.09350976 0.08139661 -0.2601129 0.41109443
0001f0 89 a1 d9 bd 78 fd 1c 3d 91 82 95 3e 38 95 f4 bd
       -0.106265135 0.038327664 0.29201177 -0.11942524
000200 0a e7 33 be ba cc df 3e 9b 66 d7 bb f2 32 c9 3d
       -0.17568603 0.4371088 -0.006573511 0.0982417
000210 d2 cc 6f 3d d3 8d 96 3e 71 e6 1d 3e ee 69 32 3e
       0.05854494 0.29405078 0.15419938 0.17423221
000220 98 23 f6 3d 90 a1 97 3d 51 32 4e 3e 00 92 02 be
       0.12018508 0.074038625 0.20136382 -0.12751007
000230 dd 13 16 be 06 53 a9 3d b5 55 48 3d 57 1b 99 3c
       -0.14656015 0.082677886 0.04890986 0.018689794
000240 fc c3 8f be 01 7d 1e 3e a2 96 84 3e de 72 21 be
       -0.28079212 0.15477373 0.25896174 -0.15766475
000250 42 94 0c bd 80 8e 4a be d3 11 74 bd d2 fc 8f bc
       -0.034321077 -0.19780922 -0.05958731 -0.017576609
000260 f7 03 e1 3d 88 fb 0d bd 10 b7 7e 3e 1b f2 00 3e
       0.10987084 -0.034663707 0.2487452 0.12592356
000270 7d c9 b5 3e a7 76 08 3e 8c b7 0e be 41 d1 e5 bd
       0.35505286 0.13326512 -0.13937205 -0.11221553
000280 ce b6 95 bd 87 f5 dc bb d0 d7 9d bd 97 d7 41 be
       -0.07310258 -0.0067431363 -0.077071786 -0.18929897
000290 b4 b8 ba bd d9 f1 7a be 54 40 b0 be 91 2b 01 be
       -0.091172606 -0.2450632 -0.34424078 -0.12614276
0002a0 35 8d b1 3e 2d 0a 86 3e 7c 89 48 bf f6 58 e7 3d
       0.34678045 0.26179639 -0.78334785 0.11296265
0002b0 a4 8a de bd 1d 71 1f be e6 6a a5 3e 7d b3 8a 3d
       -0.10866287 -0.15570493 0.3230812 0.06772516
0002c0 ca dc 01 be 7b 2b 9a 3e c1 b7 5a 3e cf 55 ba 3b
       -0.1268188 0.30111298 0.21359159 0.0056864987
0002d0 ee fb 15 be a4 c9 a9 3d e2 0b 8e bd c4 71 1e be
       -0.14646885 0.08290413 -0.0693586 -0.15473086
0002e0 dd ab 59 3d 37 81 1b 3e 0c 8d 15 be a5 27 15 be
       0.053142417 0.1518601 -0.14604586 -0.14565904
0002f0 a2 78 af bc 36 83 2b be df 97 4d bd 90 04 4f be
       -0.021419827 -0.16749272 -0.050193664 -0.20216584
000300 91 84 83 3e 72 d9 7f bd f5 ea d4 be f9 2f 8c bd
       0.25687078 -0.06246323 -0.41585508 -0.068450876
000310 b4 11 5e 3e 0c df a4 be 5b 89 4e 3e 4c 1c 2c be
       0.2168644 -0.3220142 0.20169584 -0.1680767
000320 61 1a bd be e8 4d 9c 3b e9 65 05 3f c1 65 82 bd
       -0.36934188 0.0047700293 0.5210863 -0.06367064
000330 e0 2e b3 3e 9f 70 0a 3d 65 4d 5e 3e 28 6b 3b 3e
       0.349967 0.03379881 0.21709211 0.18302596
000340 20 fb eb bc 6c db 67 bd 6d 3f de 3d 68 7e 1b 3e
       -0.02880627 -0.05660574 0.10851941 0.15184939
000350 87 04 82 bd 00 25 0b 3e 4e c2 f0 3d d3 5b f8 bd
       -0.0634852 0.13588333 0.11755811 -0.12126889
000360 f1 27 9b 3d c6 04 26 be 85 2a 48 3d db 51 2a 3d
       0.075759776 -0.16212758 0.048868675 0.04158197
000370 b0 5a 80 3e 0b 5e 75 bd 27 04 eb 3d a4 53 b2 3d
       0.2506919 -0.05990414 0.11475401 0.087073594
000380 2e d7 c4 bd f0 ad f0 3d b0 f9 a7 3e 93 f3 2e 3d
       -0.09611355 0.11751926 0.32807684 0.04271276
000390 08 3f d8 3e 70 f4 24 3e 9c 3a dc bd 81 aa a6 bd
       0.4223559 0.1610887 -0.10753366 -0.0813799
0003a0 6d 9c 0d 3c fa 94 99 3d 5a 52 4d be d2 1f 59 be
       0.008643252 0.07499118 -0.20050946 -0.21203545
0003b0 66 8a 08 be 1c 80 e3 bd 2e 35 07 3e c9 7b 97 bc
       -0.13334045 -0.11108419 0.1320388 -0.018491643
0003c0 a1 60 57 3d c4 a7 ae bd 7b b5 d0 3e 1c 6b 2f be
       0.052582387 -0.085280925 0.4076346 -0.17130703
0003d0 6c 14 d9 3d 6d f1 53 bd 13 89 e1 3d 3d 7e 16 be
       0.10599598 -0.051743913 0.11012473 -0.14696594
0003e0 6f 09 10 be af 70 90 3e a6 50 ce be 46 7e cc bd
       -0.14066099 0.2821097 -0.40295905 -0.09985022
0003f0 79 e5 be 3d 87 0d 69 bd bb ee 81 bd 26 98 09 3c
       0.09321112 -0.056897666 -0.06344362 0.008398091

l1.bias f4 [400]
000000 b8 23 26 be 21 cb 13 be a0 e5 b5 3d f0 15 19 be
       -0.16224563 -0.14432956 0.08881688 -0.14949775
000010 8b 6c 82 3d c2 ca 21 be 99 0d 6c be e0 f2 11 3e
       0.06368359 -0.15800002 -0.23052062 0.14252806
000020 7c 76 e2 bb d8 9c b7 bd 89 0f 3c 3e 6f 11 56 bd
       -0.006911097 -0.089654624 0.18365301 -0.05226272
000030 7a b7 3b bc 7c 5c 26 be cf 92 7f be 6e af aa bc
       -0.011457318 -0.16246217 -0.24958347 -0.020835605
000040 28 bf 0c 3c 41 28 5a be 6a 96 38 be 07 c4 1a 3d
       0.008590497 -0.21304418 -0.18026128 0.037784602
000050 a7 c2 6f 3d c5 f2 c9 3d de f3 69 be d6 98 3f be
       0.058535244 0.09860758 -0.22846934 -0.18710646
000060 9d 2d 72 3d 64 aa cb bd 84 57 6e 3c 54 ed 01 bd
       0.05912553 -0.09944609 0.014547233 -0.031720474
000070 2a 5b bc 3d 71 b3 82 3d e2 ea 11 be 46 e2 3e be
       0.09197076 0.06381882 -0.14249757 -0.18641004
000080 1a 97 5d 3d f2 bd 82 be c6 13 fa bc ca 3e bd bd
       0.05409918 -0.25535542 -0.030527007 -0.09240492
000090 31 e5 4a bd fe ac fd 3c 94 0f 3d be 3e 38 88 3d
       -0.04953498 0.030966278 -0.18462974 0.06651352
0000a0 52 22 45 be db de 2a be ad 17 08 3e 76 95 53 be
       -0.19251373 -0.16686575 0.13290282 -0.20662484
0000b0 24 c5 1b 3c 31 70 1a be 89 25 81 3d b8 03 b5 3d
       0.009507451 -0.1508186 0.063059874 0.088386
0000c0 31 36 1d be f0 57 11 bd 30 36 a2 bd 90 18 5f be
       -0.15352704 -0.035484254 -0.07920492 -0.21786714
0000d0 4c 5b 45 bc 08 22 b8 be c5 2f 9f b9 14 95 28 be
       -0.012045693 -0.35963464 -0.00030362434 -0.16463119
0000e0 26 1f 41 bc 41 e7 4b be a0 f6 a1 3d 8e dc 1b bd
       -0.0117872115 -0.19912435 0.07908368 -0.038052134
0000f0 ad 49 48 3d 61 2e 59 be c0 63 a5 3d 05 69 56 bd
       0.048898388 -0.21209098 0.080756664 -0.05234625
000100 a9 99 b1 3a 3a d3 98 3d 42 d5 18 3d ff 21 e3 bc
       0.0013549823 0.07462163 0.037312753 -0.027726172
000110 32 47 e9 bd 0a 2a 3d 3e ad 8a d8 3d 47 ed 6d 3d
       -0.113905326 0.18473068 0.10573325 0.058087613
000120 49 d2 9d bd 5d df 8e be 7a d3 73 be 7c a4 db 3d
       -0.07706124 -0.27904788 -0.2381114 0.10724732
000130 a6 b6 fc bd e9 33 4f bd 6d 84 2f bd 1e 1a 2e be
       -0.12339525 -0.050586615 -0.0428509 -0.1700215
000140 6f 8e 66 bd 3a 0d a7 bd 11 24 c4 bd f9 e2 2f be
       -0.05628818 -0.0815682 -0.095771916 -0.17176427
000150 ca 13 d5 bd cc c3 29 be 7a 25 0c be 16 fe 75 be
       -0.10404165 -0.16578597 -0.13686171 -0.24022707
000160 ee cf 04 3b 8a 4e 6b bd d1 b0 87 be 43 c2 dc bd
       0.0020265537 -0.057447948 -0.26502088 -0.1077924
000170 43 79 77 3d 3f 4a 80 be 21 40 8a 3d 26 97 bf 3d
       0.06041838 -0.25056645 0.06750513 0.09355001
000180 8b fe 27 bd 28 a4 e1 bd 7d 2c d3 bc a4 0e 42 be
       -0.041014235 -0.110176384 -0.02577805 -0.18950897
000190 4d d3 49 be 33 3c 1d bd 08 e0 af 3d 41 a9 cb bd
       -0.19709511 -0.03838749 0.085876524 -0.09944392
0001a0 5f d7 98 3c 47 a0 43 be f2 ed eb 3d d0 af 5e be
       0.018657384 -0.1910411 0.11519994 -0.21746755
0001b0 eb c0 a2 3d 24 99 92 be 09 2a 1d 3d 15 40 30 bc
       0.079469524 -0.28632462 0.038370166 -0.010757466
0001c0 ac 04 39 3e 01 27 53 bd c5 da 5b 3d c6 53 1e be
       0.18068188 -0.05155087 0.05367543 -0.15461645
0001d0 e5 6c 04 bd a4 27 40 be 25 ef 89 be 91 87 b0 be
       -0.032330412 -0.18765122 -0.26940265 -0.3447843
0001e0 bb 2c 0c 3e c1 84 ee bd ac ab 04 3c a0 df 89 be
       0.13688938 -0.116464145 0.00809757 -0.26928425
0001f0 74 4e 0a 3e 87 5c cd 3c 29 06 b9 bd 06 5e 94 bc
       0.1350649 0.025068535 -0.09034378 -0.01811124
000200 45 e4 28 3e c0 bc 53 bd 92 6e 5f bd 04 e8 04 be
       0.16493328 -0.051693678 -0.054548807 -0.12979132
000210 e7 ac a9 bd aa 6c ba 3d f9 51 ae 3d 46 fe 81 be
       -0.08284932 0.09102757 0.08511729 -0.25389308
000220 41 8e ee bd 0f f3 03 bd 9a 09 2b bc ff 08 03 bc
       -0.116482265 -0.03221422 -0.010439301 -0.00799775
000230 84 29 82 be f1 63 f0 3d 1d 2a 52 be 60 ec f0 bd
       -0.254223 0.11737812 -0.20523877 -0.11763835
000240 fa 54 26 3d e4 cb ed 3d e6 71 40 3e e7 da 64 be
       0.040608384 0.11611155 0.18793449 -0.2234913
000250 d8 9f 5a be 4d 10 39 be 45 5e 4c 3e 4f 82 ce bd
       -0.21350038 -0.18072625 0.19957836 -0.10083448
000260 ba ec 9c 3d 9a 95 26 3d f3 d5 97 bc 27 c2 9d 3b
       0.076623395 0.040670015 -0.018534636 0.0048144045
000270 3c 51 0e 3e 57 d2 22 be f3 9e 40 be 39 16 4c 3d
       0.13898176 -0.15900551 -0.18810634 0.04982588
000280 9f 0d 98 bd b4 51 ec bd 3e 7e 19 be 52 0c cf 3d
       -0.07424473 -0.11539021 -0.14989564 0.10109772
000290 ad 1e 4e be 93 ed 3b be 31 cd 10 be 0c 1b 16 3e
       -0.2012889 -0.18352346 -0.14140774 0.14658755
0002a0 b5 67 1d 3e df fb 86 3d 57 85 22 be 90 ce 7a 3d
       0.15371592 0.06591009 -0.15871178 0.06123215
0002b0 50 52 ef 3d 0d c6 87 be 25 cf 94 3d f3 9e 92 bd
       0.11685622 -0.26518288 0.07266072 -0.071592234
0002c0 73 a2 75 bc 55 61 ae 3d 67 cd 83 be d2 29 31 3e
       -0.014992344 0.08514658 -0.25742647 0.1730111
0002d0 db be 04 3e 78 1f f4 bd a0 38 90 3d 11 87 4c 3e
       0.1296343 -0.11920065 0.0704205 0.19973399
0002e0 97 5e 0b 3d 44 c0 8a be b9 ac 04 be 06 66 70 be
       0.034025755 -0.27099812 -0.12956513 -0.23476419
0002f0 dd e1 5a be 2d 62 f0 bc 20 04 2f be 34 12 04 be
       -0.21375223 -0.029343689 -0.17091417 -0.12897569
000300 a3 e6 fc 3d 32 83 15 3e 6c 52 b9 bd 30 55 f9 bd
       0.12348678 0.14600828 -0.09048924 -0.12174451
000310 1c 7e aa be 17 4e 95 bd 8d e6 8e be 6b 84 41 bc
       -0.3329934 -0.07290285 -0.2791027 -0.011811356
000320 17 4f c1 bc 2f ac 4a 3d b4 8a 9f 3d c2 42 2a be
       -0.023597283 0.049480613 0.077901274 -0.16627029
000330 af 36 a3 bc c7 4d c4 3d f4 d2 0c 3d ce 21 48 3d
       -0.019923536 0.09585147 0.034380868 0.048860364
000340 28 c4 e5 3c 8e 82 4e 3d 1f f2 07 3e 95 e5 08 be
       0.028047636 0.050417475 0.13275956 -0.13368829
000350 b0 4e 80 3d 18 d8 a3 3c d0 66 fe 3d 10 f9 9b be
       0.062650084 0.020000502 0.12421954 -0.30463457
000360 d3 91 60 be 39 6f 49 be 0d a9 59 be 55 de b3 bc
       -0.21930628 -0.19671334 -0.21255894 -0.021956602
000370 54 30 e9 3d bd 1b 3b be 65 32 34 be 32 6c 52 bd
       0.11386171 -0.182723 -0.17597349 -0.051372714
000380 f0 d9 d0 3d a9 09 c2 bd 79 84 5b be 40 ab ea bc
       0.10197818 -0.09474499 -0.21437253 -0.028646111
000390 89 f5 c3 bd 26 26 77 3d 1c 97 ff bd b5 38 86 3d
       -0.095683165 0.060339116 -0.12479994 0.06553785
0003a0 da ec 88 bd 1f 74 43 3d 59 c2 4a be 82 f2 dd 3d
       -0.06685801 0.047718164 -0.198007 0.1083727
0003b0 6d eb 24 be b5 02 56 3c 42 cc c9 bd a1 37 16 3e
       -0.16105433 0.013062169 -0.09853412 0.14669658
0003c0 bb eb b0 bd 49 5e 83 3c 4a a1 52 bd 36 dc 00 3e
       -0.08638712 0.01603617 -0.05142335 0.12584004
0003d0 fa cc dc 3d 07 23 7b 3d 7a ef 93 3c a8 92 9e 3d
       0.10781284 0.0613127 0.018058527 0.07742816
0003e0 60 38 ab 3d 4e 07 58 be 9f ca 25 be 5c 4d c8 bd
       0.08360362 -0.21096537 -0.16190575 -0.0978038
0003f0 25 a4 56 3e 43 37 8a 3c af 8f a2 be bf ff 14 3e
       0.20961054 0.016872054 -0.31750247 0.14550684

l2.weight f4 [300, 400]
000000 87 73 2f bc 0a e6 17 bd bb 01 07 3b 2c 4f 0d bd
       -0.010708696 -0.037084617 0.0020600397 -0.034499332
000010 28 ab 5b bc 7d 1a 6e bd df 25 95 bc d2 46 3d bd
       -0.013407506 -0.05813073 -0.018206535 -0.046210118
000020 8a aa 03 3d 8f 9f 4f bd a5 f8 01 bd 8e 0b 39 bd
       0.03214506 -0.050689276 -0.031731267 -0.045177035
000030 01 11 28 bd f2 9f db ba 69 30 00 bd 5c f7 02 bc
       -0.04103184 -0.0016756041 -0.031296168 -0.007993545
000040 d5 6c 12 bd d9 4d 47 bd b0 0d af 3c c5 87 c3 bc
       -0.03574832 -0.048658226 0.021368831 -0.02386845
000050 16 56 cb bc 2b a9 26 3d 14 5b 62 3c 6f 6a e6 3c
       -0.024821322 0.040688675 0.01381566 0.028126923
000060 ea d4 96 3c cd 8c 27 bd f5 3f 08 3d df fb 81 b8
       0.018412072 -0.040905762 0.03326412 -6.198114e-05
000070 c6 5d e7 3c f7 08 c5 bc f4 c3 7e 3a 6d 9f fe bb
       0.028242957 -0.024052126 0.00097185303 -0.00777047
000080 91 7b eb bc 09 98 d6 bc 07 71 2e 3d a6 0b 89 3c
       -0.028745444 -0.026195543 0.04258826 0.016729187
000090 20 83 f1 bc 54 dc 79 bc cd d3 bc 3c a8 28 34 bd
       -0.02948147 -0.015250284 0.023050213 -0.043984085
0000a0 61 8b e0 3c 6c f9 19 bc ee 4e d1 bc 9b ce 11 bd
       0.027410211 -0.009397846 -0.025550332 -0.035597425
0000b0 e0 49 0f bc 73 46 36 bd c3 6f d4 3c 1d 69 0e 3c
       -0.0087456405 -0.04450078 0.025932198 0.008692053
0000c0 8d a5 c7 bc 82 a2 e0 bb 33 d5 eb 3c da 34 87 3c
       -0.024370933 -0.00685531 0.028788185 0.016504694
0000d0 c6 bc 31 bd 2a ba 4e bd 4f 0d f1 3c 18 fc 43 bc
       -0.04339292 -0.05047051 0.029425291 -0.011961959
0000e0 91 5d 09 3d b0 aa ab bb 14 4f 93 3b da fe fc ba
       0.033536498 -0.0052388534 0.004495511 -0.0019302026
0000f0 6a 8c 8a bc f3 0d 65 bd af dc 36 3c 94 98 d7 3a
       -0.016912658 -0.055921506 0.0111610135 0.001644867
000100 bc 6a 33 3c cc 71 8a 3c fd e0 86 3c 38 dd 7f 3c
       0.01095074 0.016899966 0.016464705 0.0156167075
000110 10 1a 36 bd 6f 3e c9 bc a6 05 7b 3c 2f 25 3e bd
       -0.04445845 -0.024565903 0.015321171 -0.04642218
000120 17 71 2e 3c 9d 47 21 bd 40 03 17 3a 5a ad 25 bd
       0.01064708 -0.039374936 0.0005760677 -0.040448524
000130 a3 a1 d9 bb 68 6b 7e bc 54 32 30 bd 6b 89 38 bd
       -0.006641583 -0.015528537 -0.043016747 -0.045052927
000140 d9 f7 24 3d 87 54 c4 3c b9 fd da 3b 73 2d 36 bd
       0.04027543 0.023966087 0.006683078 -0.044476938
000150 4c 93 d9 bb b1 0f d9 3b 49 60 2f 3d 68 64 03 3d
       -0.0066398736 0.006624185 0.042816434 0.032078177
000160 92 6a 46 bd e2 ff d5 3c 12 79 8e 3c 72 64 ea 3c
       -0.048441477 0.026122991 0.017391715 0.02861235
000170 e8 8b c8 b9 ad be b9 bb 22 62 e1 3c c0 c0 e0 bc
       -0.0003825121 -0.0056684823 0.027512614 -0.02743566
000180 8c 4f 1d bb 44 8a 37 bc 3b b4 cd bc 22 1b 35 bd
       -0.0024003712 -0.011202399 -0.025110355 -0.04421533
000190 48 db 2b bb 7a c7 f1 3c b0 c7 67 bd ea 84 3f bd
       -0.002622323 0.029514063 -0.05658692 -0.046757616
0001a0 ab f2 4a bd a0 33 67 3b e8 96 3d bc 83 d7 2a bd
       -0.049547832 0.0035278574 -0.011571623 -0.041709434
0001b0 64 64 95 3b 50 a8 b6 3b 7b dc 5e bd aa 50 6e 3c
       0.0045590866 0.0055742636 -0.054409485 0.014545599
0001c0 f9 6a c1 3b 68 e2 7d bc da fb f9 bc a6 9d 1a 3d
       0.0059026447 -0.015495874 -0.0305156 0.037748
0001d0 e8 01 11 bc 4b 0a ef 3c 30 ce 1d bb 56 7c 0b bd
       -0.008850552 0.029179713 -0.0024079196 -0.034054123
0001e0 f8 12 3c bd 1f da b3 3c a1 1f 82 bc 9a 86 1a bd
       -0.045916528 0.021954594 -0.015884222 -0.037726022
0001f0 75 9f 13 3c c9 9e 03 bd cb d7 cb bc d3 f0 9e 3c
       0.0090101855 -0.03213385 -0.024883172 0.019401943
000200 1c ef 3b bd f4 ca 30 bd a4 c9 42 3c 32 f2 aa 3c
       -0.04588233 -0.0431623 0.011888895 0.02086744
000210 d6 bf 0b bd cf 09 10 3d 14 cc 5d bc 60 fc 48 bd
       -0.034118496 0.035165604 -0.013537426 -0.04906881
000220 c9 07 8b ba d8 2c 59 bc 93 fe f4 3c d7 2e ea bc
       -0.0010607179 -0.0132553205 0.029906547 -0.028586788
000230 60 44 f1 ba dc 1b e0 bc 5a 49 9f bc 1f 46 92 3c
       -0.0018407218 -0.027357034 -0.019444156 0.017855702
000240 98 e2 d7 bc b0 e5 b2 bc b9 b1 ed bc 39 04 cf 3c
       -0.026353166 -0.02183804 -0.029015409 0.025270568
000250 d7 c5 41 bd 8a db 12 3c 6b 4a cf bc 22 c8 98 bd
       -0.047307815 0.008963475 -0.02530404 -0.07460047
000260 0c d7 2a bd d2 e2 83 bc ca 6d ee 3a fe 28 35 3c
       -0.04170899 -0.016099367 0.0018190679 0.011057137
000270 a9 7a 39 3d bb 60 dc 3c cf 90 db bc 25 44 24 3d
       0.045282993 0.026901593 -0.026802449 0.04010405
000280 7d 4b 22 bd 60 d4 45 bc a8 3f a0 bb 0b c0 87 3c
       -0.039622772 -0.01207456 -0.004890401 0.016571065
000290 0e 2d 97 3a 6b 27 fb bc 77 46 00 bd 29 23 a4 ba
       0.0011533813 -0.030658444 -0.0313172 -0.0012522686
0002a0 b8 fb 47 bc f9 7a 48 bd c0 58 de 3a bb 46 2d 3c
       -0.0122060105 -0.0489454 0.0016963705 0.0105759455
0002b0 20 06 d3 bc 80 44 82 bb ae 01 41 bc f7 7d 90 bc
       -0.025759757 -0.003975451 -0.011780186 -0.01763819
0002c0 10 24 ff bb 53 5e 1f 3b 47 62 ea bb 21 83 0a bd
       -0.0077862814 0.0024317696 -0.007152829 -0.03381646
0002d0 28 5c 27 3d 6a de 83 bb 35 65 41 bd 19 72 c8 bc
       0.04085937 -0.0040243166 -0.04721566 -0.024468469
0002e0 00 b6 6f 3a 83 e8 3e bd 31 af 65 bc 21 aa 08 3d
       0.00091442466 -0.04660846 -0.01401882 0.033365373
0002f0 82 ea 98 3c 25 c9 d3 3c 9e ed bd 3c d0 5b 62 3c
       0.01866651 0.02585275 0.023184594 0.013815835
000300 ff e5 80 3c 0c c6 fa bc 62 a7 07 bc df 1a 08 bc
       0.01573467 -0.030612014 -0.008279653 -0.008307188
000310 06 d3 a9 bc ea 90 1c bd 87 1f 01 bc 8b 97 25 bd
       -0.020730507 -0.03822414 -0.007881052 -0.040427726
000320 57 5b be bc 4a 12 45 bd 45 ec fd bc 76 b3 e5 3c
       -0.023236914 -0.048113145 -0.030996451 0.028039675
000330 79 7b 79 bd e3 bf c9 3c 26 9c 42 bc dd 2b 4f 3c
       -0.06090877 0.024627632 -0.011878049 0.012644735
000340 16 f6 23 3d ae 1a bc bc a9 a3 db bc f7 4b 92 bc
       0.040029608 -0.02296194 -0.026811438 -0.017858488
000350 08 56 2d 3d e7 1f 94 3b a3 68 92 bd 27 2c 80 3c
       0.042318374 0.0045204046 -0.07148864 0.015646053
000360 97 6e 68 bc a2 61 2a bd 73 98 65 bd f6 de 46 bd
       -0.014186523 -0.041597016 -0.05605359 -0.048552476
000370 82 e1 35 bd f4 df 75 bc 9d df fe bc 63 b7 53 bc
       -0.044404514 -0.015007008 -0.031112486 -0.012922141
000380 00 d6 04 bb 82 6b 9f 3c 17 26 4f 3c 12 60 52 bd
       -0.0020269156 0.019460443 0.012643359 -0.05136115
000390 fe d8 1f 3c e6 bd 8e 3c ae a4 d1 3c a2 4c aa 3c
       0.009756325 0.017424535 0.02559122 0.020788494
0003a0 e2 d0 ed 3c 7f f9 5b 3c e3 f9 59 bd 9c 3d 1d 3d
       0.029030267 0.013426184 -0.053216826 0.038388833
0003b0 ad dc 3a 3d 42 ec ab 3c 2c 05 e5 3c 82 75 0e 3d
       0.04562061 0.02098668 0.027956568 0.034780033
0003c0 ae b6 7d 3c 5b 82 95 bd 06 df 52 3c 5b bc 84 bd
       0.015485449 -0.07300254 0.012870556 -0.064812385
0003d0 fb c0 58 bd 0a 7b 2b 3c 6e 53 06 bd 3a 97 5c 3b
       -0.052918416 0.0104663465 -0.03279441 0.0033659474
0003e0 ea 52 39 bd 82 0e cc 3c 69 f9 f3 bc 9c 23 b4 3b
       -0.04524509 0.024909262 -0.029782014 0.005497409
0003f0 05 38 51 bd 10 f0 13 bd 8a f0 3a bd 82 ec 6d bc
       -0.051078815 -0.036117613 -0.045639552 -0.01452172

l2.bias f4 [300]
000000 78 4e 11 bd 32 ac 31 3d e2 de ad bd 23 e7 98 bd
       -0.035475224 0.04337711 -0.08489777 -0.07465961
000010 1f 28 75 3b 19 2a 2e bd 8a 4c 92 bd e8 b1 49 3d
       0.0037407947 -0.042520616 -0.07143505 0.04924193
000020 a7 78 66 bc 4a 24 1e bd 2e 73 a0 bd 09 9e bc bc
       -0.014066852 -0.038608827 -0.07834469 -0.023024576
000030 6d 93 02 bd fe de 8b bc 7c 5f 10 be 8d fd 1b bd
       -0.031878877 -0.017074104 -0.14098924 -0.0380836
000040 7e c1 e8 3c a4 50 9c bd 68 6d 4b 3d 06 26 b3 bd
       0.028412577 -0.076325685 0.049664885 -0.08747487
000050 e6 80 19 3d cb b8 bf 3b 92 ff 09 be ad 4c 5a bc
       0.037476443 0.0058508865 -0.13476399 -0.013323945
000060 e9 63 8d bd ac 79 f8 3c 57 9f 86 bd fd 63 a1 3d
       -0.06903822 0.030331455 -0.065733604 0.078803994
000070 a8 ae bb 3c 98 7e 76 bd fb 26 90 bd e4 19 0e bc
       0.022910431 -0.060179323 -0.07038685 -0.008673165
000080 69 6d 65 bd e8 d5 b8 bd d1 28 28 bd 6f a7 ab bd
       -0.056012545 -0.090251744 -0.04105455 -0.08381545
000090 74 58 ee bc 00 f5 88 bc d8 75 b4 bc 20 08 0c 3d
       -0.029094912 -0.016718388 -0.022028849 0.034187436
0000a0 91 98 11 3c c9 67 8e bd 79 08 41 bd e2 7b 09 3e
       0.008886472 -0.06953389 -0.04712722 0.13426164
0000b0 4e e1 a9 bb 6d 9c 05 3d 9b a7 e8 bd d0 36 1d bd
       -0.005184329 0.032619882 -0.11360093 -0.03838235
0000c0 cc 13 6b bd 49 a5 38 bd f1 23 43 3d 31 6b a7 bb
       -0.057391927 -0.045079503 0.0476417 -0.0051092138
0000d0 d2 e7 c7 bc dc 79 fb bc b1 4f 9a 3d 85 8a 85 bd
       -0.024402533 -0.030697756 0.07534731 -0.06520561
0000e0 f0 1d 54 bd 74 7e a2 bc fc 4f e7 bc 2c 29 6b bd
       -0.051786363 -0.019835688 -0.028236382 -0.05741231
0000f0 6a 5b 1e bd b7 1b 1a 3c 88 96 40 3c 86 51 d1 bd
       -0.038661398 0.009406022 0.011754639 -0.102206275
000100 bb a6 e3 bc 70 cf a6 bd 39 96 41 bd 7e 38 9d 3c
       -0.027789464 -0.08145034 -0.047262404 0.019191977
000110 b5 6d 2c 3d d6 d3 39 bd 4f a1 90 bd 71 ca 1f be
       0.042096812 -0.045368038 -0.07062017 -0.15604569
000120 b7 ed a8 3c 4e d1 e0 3b 4a b9 05 bd 3c e8 f4 bd
       0.020621164 0.0068608886 -0.03264741 -0.11958358
000130 9a b2 3e bb 45 fa ab bc 87 fb c4 bd 97 3d 03 bd
       -0.0029098154 -0.020993361 -0.096182875 -0.03204116
000140 46 0c 18 bd b8 f3 3c bd a7 1a 27 3e 9c fb d9 bc
       -0.03712108 -0.046130866 0.16318761 -0.026609235
000150 5f d1 4e 3d 50 dd 04 3a 9e 7f 9a bd 23 ae 53 bd
       0.05049264 0.00050683785 -0.07543872 -0.05167974
000160 8f 00 3f bd d4 3f 14 bc 2c ac 03 bd e9 d4 7e bc
       -0.046631392 -0.009048421 -0.032146618 -0.015553691
000170 dc 44 1d be 7b 97 20 bd df d7 b2 bc 3b 32 1b bd
       -0.15358299 -0.039206963 -0.021831451 -0.0378897
000180 3c 58 82 bd cc 21 39 bd a1 19 0d be 9c 00 9e bd
       -0.063644856 -0.045198247 -0.13779308 -0.0771496
000190 11 2f 21 3c 07 cf 7a bd 04 52 61 bc 31 32 39 bd
       0.009837882 -0.061232593 -0.013752464 -0.045213882
0001a0 9f 06 a4 ba 49 74 7e bd b1 b1 96 bc d8 b5 93 3c
       -0.001251418 -0.062122617 -0.018395277 0.018031046
0001b0 32 f6 f3 bc bd 2d 9a bd 5a 53 fd bd 64 39 bb bb
       -0.029780481 -0.07528255 -0.12369414 -0.0057136286
0001c0 68 5d 96 bd 1f 48 10 bd 73 4f 37 be fd dc 3e 3b
       -0.073420346 -0.03522503 -0.17901401 0.0029123418
0001d0 1b 07 4b bd ab 04 52 bd 20 65 6d bd f1 d5 8a bd
       -0.049567323 -0.051273983 -0.05795777 -0.06779087
0001e0 cb 9e 46 bd f4 14 0f be 48 e6 2e 3d 71 54 24 3d
       -0.04849128 -0.13972837 0.042700082 0.040119592
0001f0 b9 ef 5b bd b2 6e 1b bc 12 be 9e bd ee 3b 2a bd
       -0.053695414 -0.009486841 -0.07751097 -0.04156106
000200 50 53 b7 3d e7 30 88 bc b3 80 68 bd aa f7 7c bd
       0.089514375 -0.016624881 -0.056763362 -0.06175963
000210 c9 5b ed bb 58 a1 27 bd 93 3b 53 be f1 c8 21 bd
       -0.0072436077 -0.040925354 -0.20628195 -0.039498273
000220 fe 2d bd bc a7 ef 41 bd c6 23 b0 3d 4d e8 3a bd
       -0.02309322 -0.04734769 0.08600573 -0.045631696
000230 7e ae 09 bd df 78 32 3c 8a 90 41 3a 1c f1 25 bc
       -0.033613674 0.010893076 0.0007383904 -0.010128286
000240 87 e1 92 3c 0e 5a ad bb e5 d1 87 3d 0a 83 8c 3c
       0.017929805 -0.0052902764 0.06631831 0.017152328
000250 f5 34 18 bd 1b 29 eb bc ac cd 3f 3d 31 3a 14 bd
       -0.03715988 -0.028706124 0.046827003 -0.03618831
000260 f4 f0 8a bd 77 b6 53 bd fd 5a 9a 3c 70 5b 43 bd
       -0.067842394 -0.051687684 0.018842215 -0.047694623
000270 be 79 b3 bd 13 7b 0e bd 22 3d 0d be 25 ba 70 3c
       -0.08763455 -0.03478534 -0.13792852 0.014692818
000280 8a e4 0a 38 52 9e 6b bd 09 f0 a3 bd 6d f3 89 bd
       3.3114608e-05 -0.057524033 -0.080047674 -0.06735883
000290 b6 ce 82 bd 1d 71 af bc de 31 79 bd 32 39 d3 bb
       -0.06387083 -0.021416241 -0.060838573 -0.006446027
0002a0 4c bf e6 3b a9 8c 01 bd 69 15 4b 3d 9d 48 50 3e
       0.0070418473 -0.031628285 0.049580965 0.203402
0002b0 5f 93 c5 bd 2b e8 68 3c e0 17 da 3d 6d ff ff ba
       -0.096472494 0.014215509 0.10649085 -0.0019531079
0002c0 ff 13 ed bc cc ed c2 3c 29 ca 46 bd 2b 9e 49 bd
       -0.028940199 0.023795031 -0.04853264 -0.049223106
0002d0 a4 9d 98 bd aa c9 62 bc 04 c0 2e be ab df 9f bd
       -0.074519426 -0.013842026 -0.17065436 -0.07806333
0002e0 a4 27 ec 3c c0 83 20 bd d9 bf 8e 3d 6c 8d 1a be
       0.028827496 -0.039188147 0.06970186 -0.1509301
0002f0 56 6c 60 bd 0f c8 63 bd a1 9d 24 bc d8 97 2a bd
       -0.054790817 -0.055610713 -0.010047347 -0.041648716
000300 48 98 f3 bd 93 b6 13 bd 92 31 a2 bd c1 75 9e bd
       -0.1189428 -0.03606279 -0.07919611 -0.077373035
000310 41 5b 26 bd a5 3c ac bc 40 16 5e bd 54 5b 99 bd
       -0.04061437 -0.021025011 -0.054220438 -0.074881226
000320 9b 7d c8 bd 18 b8 10 3a 53 c2 7f bc e4 51 3a bd
       -0.09789582 0.0005520596 -0.015610295 -0.045488253
000330 69 0f 6b bc d5 52 4c bd 49 12 a0 bd 77 46 18 bd
       -0.014346936 -0.049883682 -0.078159876 -0.037176576
000340 c3 ee 2a bd ed d0 d6 3d 31 0a 12 bd d6 7f a8 bd
       -0.041731607 0.10489068 -0.03565425 -0.08227508
000350 76 75 2a 3e cc d7 b6 bc 2f c0 10 3d 58 56 a0 bd
       0.1664637 -0.022319697 0.03533953 -0.07828969
000360 3a db ed bd a2 9f 07 bd 25 ee f7 3b f0 71 1b bd
       -0.1161408 -0.033111222 0.007566231 -0.037950456
000370 a3 76 05 3b 2c 79 e9 3b fe 4d b4 bd e9 11 2a bd
       0.0020364902 0.0071250405 -0.08803938 -0.041520987
000380 b7 e6 f3 bc c2 b7 87 bd cc 20 35 3d 8e 7c cc bd
       -0.0297731 -0.06626846 0.04422073 -0.099846944
000390 0b 7b fd 3c 5f ae f8 bc 1a 5f d4 bd 39 b7 a7 bb
       0.03094246 -0.030356584 -0.10369702 -0.0051182774
0003a0 43 e4 10 bd a5 d5 f7 bc 80 20 00 3d 9b 67 bf 3d
       -0.035373937 -0.03025324 0.031280994 0.09345933
0003b0 3f 1f ba 3d db ab 2d bc b3 fb 18 3d be 59 41 3b
       0.09087991 -0.010600056 0.037349414 0.0029502953
0003c0 cd e5 84 bd 3b 16 9a bc 4f 35 ee bd 90 d1 1f bd
       -0.064891435 -0.018809428 -0.116312616 -0.039018214
0003d0 57 c5 3c bd d0 a8 b4 bd b0 95 d7 bc 0f f9 d2 bd
       -0.046086635 -0.08821261 -0.026316494 -0.103014104
0003e0 b3 fb 4d bd 1b a2 30 bc a2 13 83 3c 37 70 60 3d
       -0.050288867 -0.010780836 0.016000573 0.054794516
0003f0 6f 2a fb bc f9 45 71 bd 4c 51 65 bd be 4b 9b bd
       -0.030659882 -0.05890462 -0.055985734 -0.07582806

l3.weight f4 [4, 300]
000000 41 95 1b bd 3a 36 e4 bb 18 1f fc bc ab 73 2f bc
       -0.037984136 -0.006964472 -0.030776545 -0.01070873
000010 be 31 d9 3c 2d de 02 3c a7 49 0b 3d 67 d3 a4 bd
       0.026512977 0.007987541 0.034005787 -0.08048134
000020 0b a7 16 3b 9e a2 0e bc 26 f1 cc 3c fb bf 4a 3e
       0.002298775 -0.008705763 0.025017332 0.19799797
000030 4e c1 31 bd 7c 09 8a bb e5 bb a6 bc 62 2e 93 bc
       -0.04339724 -0.0042125564 -0.020353267 -0.017966453
000040 14 b4 2f 3d 24 70 21 3b d5 d4 09 bd 11 74 1e 3b
       0.042896345 0.0024633491 -0.033650238 0.0024178068
000050 34 bf fb 3c c5 53 f0 bc f0 c3 82 bd 26 9c 31 bd
       0.030730821 -0.02933682 -0.06385028 -0.043361805
000060 75 d6 47 bb d0 c4 4b 3b db 3b 11 bd 2d 9f ea bd
       -0.0030492817 0.0031092651 -0.035457473 -0.114561416
000070 de 1d bd bc c5 ee bd 3c b0 89 4c 3c 67 46 e1 bc
       -0.02308553 0.023185143 0.012483999 -0.02749939
000080 46 97 e9 bc 5b f2 4c 3d 13 4e 4f 3e ce 5b 11 bd
       -0.028514516 0.050035816 0.20244627 -0.035487942
000090 06 9f 16 3a a1 33 e3 3c e0 d8 c7 bd 8b d5 c2 3c
       0.0005745742 0.02773458 -0.097581625 0.023783466
0000a0 e6 1b 23 3c 73 94 9b 3d 1f 29 27 3e b2 ed cd 3d
       0.009955382 0.07596674 0.1632428 0.100551024
0000b0 20 a5 d5 bc 96 44 50 be 9d 3a 9a 3c 55 9f ce bc
       -0.026079714 -0.20338663 0.018826777 -0.02522246
0000c0 8a 24 c2 3d 22 01 cd 3c 2b 2c 8f bd 64 07 09 3c
       0.094796255 0.025024954 -0.06990846 0.0083635785
0000d0 b8 9e c3 3c c4 37 ef bb 89 17 a1 bc 1c a4 a9 3c
       0.023879394 -0.007300349 -0.019664543 0.020708136
0000e0 e6 ec df 3c 06 95 c0 bb b5 e5 ae 3b 0a b0 0d 3d
       0.027334642 -0.00587714 0.005337442 0.034591712
0000f0 32 34 fd bd 47 ee 3e 3d e1 7f 83 3c 05 93 98 3b
       -0.12363471 0.046613958 0.016052188 0.004656198
000100 c5 bd b6 3c 42 d1 22 bd b1 9c 66 bd 0b 6f 79 bd
       0.022307286 -0.039750345 -0.056301776 -0.060896914
000110 a9 ca 4f 3c 76 fb 42 bc 01 33 dd bb 26 b4 19 bd
       0.012682595 -0.011900773 -0.006750465 -0.03752532
000120 0e 1f d4 be 6b 6b cf bc 53 04 1b 3d 69 32 36 3d
       -0.41429943 -0.025319776 0.03784592 0.04448167
000130 ec 68 ff 3c a3 ac 28 3e 49 37 f1 3b d2 7d 40 3d
       0.03117796 0.16472106 0.007361327 0.04699499
000140 83 85 24 bd dd 51 1a bd da 9d 1a 3e dd 4b 15 3c
       -0.04016639 -0.037675727 0.15099278 0.0091123255
000150 e5 3d aa be 54 6f 74 3c 8a cd fe 3c 9c 70 4c 3c
       -0.33250347 0.014919121 0.031103868 0.01247802
000160 06 86 1b bc 35 e4 8b bc 8e 50 76 bc bf c4 20 bd
       -0.009492403 -0.017076591 -0.015033854 -0.03925013
000170 f9 75 16 3d cf 08 67 3c 5b 4c e6 bb 42 4e 44 bc
       0.0367336 0.014101221 -0.0070281452 -0.011981549
000180 1c 85 61 bd e5 30 84 bc 13 12 bb bd 8f 0c a6 bb
       -0.055058584 -0.016136596 -0.09134307 -0.005067415
000190 34 63 10 bb 01 dc 68 3d c7 56 1c b9 db 5b 07 3d
       -0.0022031786 0.056850437 -0.00014909646 0.033046585
0001a0 9b 27 b2 3c 10 8c 94 bd ed 28 d9 bb 40 54 8f bc
       0.021747401 -0.07253277 -0.006627193 -0.017496228
0001b0 99 7d 14 bc 46 12 c3 b9 72 82 84 bc 00 a1 a6 3c
       -0.009063148 -0.00037206913 -0.016175482 0.020340443
0001c0 ca 6c eb 3b 74 5a 33 3c ea b8 55 3d c9 48 17 be
       0.0071845995 0.010946859 0.0521783 -0.14773859
0001d0 fb 6b 90 3c 98 6d 5a bc 8a 0d fd 3b cf 36 00 3f
       0.017629614 -0.013331793 0.0077225612 0.5008363
0001e0 aa 25 92 be df 25 a0 be 9e ac 5e 3e 73 3e 6c 3b
       -0.2854436 -0.31278893 0.21745536 0.0036047965
0001f0 8b 1b 2b 3d a3 d5 d9 bc 4a ac 96 3c cf 9f 8a 3d
       0.041774314 -0.026591128 0.0183927 0.06768762
000200 06 e8 32 3e df ea 0e 3d 6f 90 be 3c cd bb d7 3b
       0.17471322 0.03489196 0.02326223 0.006583667
000210 ad cd 20 bb 08 86 c5 bb 49 a7 30 3e 90 87 d9 3c
       -0.0024536655 -0.0060279407 0.17251314 0.026553899
000220 2a 54 26 bc 1e 77 58 3c 5f 97 b1 bb 88 7e 02 3d
       -0.010151902 0.0132119935 -0.005419656 0.03185895
000230 77 cf 33 bd ca e3 cf 3b de f9 e2 39 f1 ce fd bb
       -0.043899026 0.0063442932 0.00043292245 -0.0077456166
000240 31 23 ab bb 0b 1f 54 bd 0b 92 eb bd 71 3b 96 3e
       -0.005222701 -0.051787417 -0.11502465 0.29342225
000250 1f 06 10 3d 3d 29 35 bc 58 6f d3 3d d5 e5 bd 3c
       0.035162088 -0.011057195 0.103239715 0.023180882
000260 07 5a 6b bd c5 fb b4 3c 49 aa c0 3d 21 01 ad 3c
       -0.057458904 0.02209271 0.09407479 0.021118702
000270 e2 88 0a bc 93 86 fd bc 6d 4b bf be ee fc 14 be
       -0.008455487 -0.030947959 -0.37362233 -0.1454961
000280 7f ce 04 bd e8 41 38 3d a4 54 ba bc 87 bc 9b 3c
       -0.032423493 0.044984728 -0.022745438 0.019010795
000290 e5 c7 71 3d 83 34 e3 bc 74 b0 80 3d 22 fe dd 3d
       0.059028525 -0.027735 0.06283656 0.108394876
0002a0 ee 08 c2 3d 43 5f 94 bd 2d 06 9c 3c a1 b2 3a be
       0.094743595 -0.07244732 0.019045914 -0.18232204
0002b0 cb 90 eb be 18 bf 07 bc dd 9a 6b be eb 37 32 bd
       -0.46008906 -0.008285306 -0.23008294 -0.04351036
0002c0 44 e0 b8 3a 76 6a 07 bd 79 d7 ca bd 04 5a 04 bc
       0.0014104922 -0.033060513 -0.099043794 -0.008078102
0002d0 e3 89 89 3c bf 52 4d 3b de 51 12 3d a8 d8 3e 3d
       0.016789382 0.0031329838 0.035722606 0.04659334
0002e0 c5 51 da 3e 2a 11 a4 3c bb e7 27 bf 14 f3 86 bd
       0.4264051 0.020027716 -0.6558797 -0.06589332
0002f0 cc 13 b6 bc 33 53 94 bd 29 13 c1 3b 51 aa 8c 3a
       -0.022226237 -0.072424315 0.0058921766 0.0010731911
000300 e4 73 cd bc 46 3a 83 3b b1 40 49 bd 36 1c 75 bd
       -0.025079675 0.0040047495 -0.04913396 -0.059841357
000310 2a e6 18 3d 54 ad 7f 3d 0f 15 37 3e 5c d0 0a 3d
       0.037328877 0.062421158 0.17879127 0.033890113
000320 b6 6b ae 3e 0b e6 bf 3c 7e aa cd bc 25 d6 7f bb
       0.34066552 0.023425123 -0.025105711 -0.0039037552
000330 ec 66 b3 3c 49 5c c6 bb 6d 57 a1 3d 1c a7 cd 3c
       0.021899663 -0.0060534817 0.07878003 0.025104098
000340 31 ff 39 3d c8 a6 86 3d be f9 83 bc 9b 57 d5 3d
       0.045409385 0.0657478 -0.016110297 0.104171
000350 a4 a2 48 bd f0 7f 0c bc 1e 2c 06 3d ff 0c c1 bd
       -0.04898323 -0.008575425 0.032756917 -0.09426307
000360 c8 3d a2 bc 39 58 41 3d e0 2e 80 be 8a 4c a6 bc
       -0.01980485 0.047203276 -0.25035763 -0.020300169
000370 40 5a 91 bb 3e dd e2 bd 8d eb db 3c 08 72 c7 bb
       -0.0044358075 -0.11077355 0.026845718 -0.0060865916
000380 8a 5c d1 3c 12 e2 53 3d 6a a7 59 3d 07 a0 86 3d
       0.025556821 0.05172927 0.053138174 0.065734915
000390 b9 19 34 be 1a 53 10 3d b9 f1 04 3d df ff 7a 3c
       -0.17587937 0.0352355 0.032457087 0.0153197935
0003a0 34 c0 fb ba c9 de 1d 3d 4b 63 39 bd 3f 22 19 3e
       -0.0019207061 0.038542543 -0.04526071 0.1495447
0003b0 5f 81 ac bc 42 53 d5 3c d1 76 93 3d 46 5e d7 3c
       -0.021057783 0.026040677 0.07200397 0.02629007
0003c0 a9 b8 17 3d 33 ec 16 3c 31 29 38 bd dc 0b 19 bd
       0.03704134 0.009211588 -0.04496116 -0.037364826
0003d0 03 05 92 bc 50 73 81 bd 48 1e 83 3d 8d f0 db 3c
       -0.017824655 -0.06320822 0.0640226 0.026848102
0003e0 6c 3d 05 bd 04 d4 64 ba 36 be 79 bc 67 c0 f1 3c
       -0.03252928 -0.00087291026 -0.015243104 0.02951069
0003f0 82 e8 23 3c 63 6b 1e bd a5 ab 15 3b 54 4c 5e ba
       0.010004165 -0.03867663 0.0022837904 -0.00084800017

l3.bias f4 [4]
000000 25 fb 46 bd c3 08 4a 3d 82 71 fb 3c 19 1b 83 bc
       -0.048579354 0.049324762 0.030693773 -0.016004132
