TD3/models/third_training_attempt/train_350_episodes_actor_goal.pth (torch, 528299 bytes, 6 tensors)

l1.weight f4 [400, 24]
-0.2272368 -0.41408843 0.98617816 -0.44916847 0.7359594 0.18010247 -0.42370254 -0.6294659
-0.9013483 -0.16114432 0.0070600375 -0.110719405 -0.52400494 0.079002306 -0.29229242 0.0054659364
-0.23133011 -0.29395527 -0.28310862 -0.21358824 -0.24589592 -0.05385321 -0.06752474 -0.03261078
-0.11005786 0.4272137 -0.7834382 0.557906 0.6983823 -0.3374252 -0.4734372 -0.3573153
-0.07481954 -0.18646882 0.18351541 -0.281361 -0.52815133 -0.11050488 -0.060535654 -0.15310511
-0.06087987 -0.2986166 -0.16235279 -0.16222166 -0.2081292 -0.30852884 0.098934114 -0.07100783
0.47517735 0.56600446 -1.0778513 0.92448866 0.6668514 0.40180355 -0.30568567 0.2623959
0.3680918 0.16623847 0.28076842 0.18779503 -0.45187995 -0.050981376 -0.33648324 -0.080979966
-0.3729852 -0.40505847 -0.07615796 -0.39666623 -0.12977074 -0.32710755 -0.38400608 0.03454658
0.41918227 1.2339246 -0.48776248 0.014425095 0.46623415 -0.6366796 0.40283275 0.13020498
-0.65265363 -0.42519048 -0.32850236 -0.029775951 0.006016524 -0.109356 -0.11981947 -0.021903476
-0.23670138 -0.22402942 -0.15669101 -0.17796989 -0.11874063 -0.20677982 0.015874354 -0.2493137
0.43272704 -0.7899158 1.4266831 -0.55004585 -0.17800829 0.2909097 -0.0113566015 -0.094018154
-0.089202166 0.8018418 -0.063877076 -0.27758238 0.37128958 0.4094992 -0.32734066 -0.31195128
-0.2948872 -0.29282406 7.5614094e-05 -0.1708676 0.050273165 -0.18166941 0.09045169 -0.07293386
0.6497568 1.5394344 -0.7764764 0.9030172 -0.7963844 -0.2282428 0.33952326 0.07353804
-0.43827635 0.24841303 -0.3210041 0.53980994 0.079469204 -0.11520024 0.1346754 0.15520325
0.101037726 0.051112007 0.17619006 -0.15208581 -0.17155272 0.05000484 0.0028212806 -0.2147244
-0.68050575 0.8292153 0.0250014 0.39887595 -0.22803032 -0.65994924 0.22857982 0.49904498
0.4434262 0.25676468 -0.089898646 -0.54426044 0.12988882 0.052100096 -0.24140835 -0.2127373
-0.17311196 -0.10717673 -0.1768838 -0.2892577 -0.19132459 -0.35069194 -0.38415414 -0.056903083
0.64846313 1.8973726 -1.3185871 0.39851892 -0.3991097 0.37272447 0.82149464 0.28193992
-0.16191469 0.7986419 -0.29612508 -0.7444286 0.14900416 0.056820694 -0.24132566 -0.3267092
-0.12028342 -0.022942603 -0.32506406 -0.32815757 -0.20337237 -0.3573341 -0.18232296 -0.35841295
-0.15538713 1.0474241 -0.93636674 -0.98655075 -0.039127864 -0.11412983 0.49372876 -0.16732563
-0.3514025 0.19607857 0.384141 -0.101729155 0.675197 -0.38564542 0.30439946 0.27167496
0.06026903 0.03337165 0.1976967 0.23895146 0.025198974 0.22512183 0.16993794 -0.22370821
0.18257916 -1.3862126 0.955398 -0.3269902 0.5204265 0.15223432 -0.23474467 -0.044259276
-0.1175889 0.352947 0.7402831 0.5379691 0.26352102 -0.2789826 -0.13083328 -0.104300454
-0.012784208 0.0549248 -0.22010669 -0.23200081 -0.15244938 -0.12916833 0.11644483 0.018384093
0.04399518 -1.2394321 0.63914204 0.48003286 -0.3376204 0.059617743 0.6096025 0.17848901
-0.2892229 0.46348 -0.34725228 -0.114156626 0.26618442 -0.1125836 -0.378876 -0.30846328
00000000: c4b0 68be 6603 d4be 2c76 7c3f 69f9 e5be
00000010: d667 3c3f c86c 383e 8aef d8be ad24 21bf
00000020: c3be 66bf 0403 25be e357 e73b dbc0 e2bd
00000030: 3025 06bf f6cb a13d 5aa7 95be 991b b33b
00000040: cde1 6cbe 4e81 96be 9df3 90be e0b6 5abe
00000050: 24cc 7bbe 2f95 5cbd 694a 8abd e292 05bd
00000060: 0466 e1bd c1bb da3e 688f 48bf edd2 0e3f
00000070: 2fc9 323f ffc2 acbe 5c66 f2be 08f2 b6be
00000080: fd3a 99bd aff1 3ebe 77eb 3b3e 8d0e 90be
00000090: ed34 07bf 6250 e2bd 3cf4 77bd 96c7 1cbe
000000a0: 2c5d 79bd 46e4 98be cf3f 26be 6f1d 26be
000000b0: d21f 55be 7ef7 9dbe f89d ca3d 8e6c 91bd
000000c0: 724a f33e abe5 103f 08f7 89bf 4aab 6c3f
000000d0: c6b6 2a3f 32b9 cd3e d582 9cbe c158 863e
000000e0: 8776 bc3e 6b3a 2a3e e1c0 8f3e 574d 403e
000000f0: cf5c e7be d9d1 50bd 8847 acbe d3d8 a5bd
00000100: ebf7 bebe d363 cfbe b4f8 9bbd d617 cbbe
00000110: 9fe2 04be a47a a7be 729c c4be b780 0d3d
00000120: 0f9f d63e 3ef1 9d3f 01bc f9be 3c57 6c3c
00000130: 3eb6 ee3e 6ffd 22bf 1840 ce3e 7454 053e
00000140: 4f14 27bf 91b2 d9be 7631 a8be b2ec f3bc
00000150: 4326 c53b 0af6 dfbd e963 f5bd eb6e b3bc
00000160: d961 72be f867 65be 9c73 20be bd3d 36be
00000170: 4a2e f3bd 17be 53be ef0a 823c 174c 7fbe
00000180: 668e dd3e ec37 4abf 8d9d b63f cecf 0cbf
00000190: ce47 36be 1ef2 943e 0a11 3abc 978c c0bd
000001a0: a0af b6bd 8145 4d3f fcd1 82bd 471f 8ebe
000001b0: ab19 be3e e1a9 d13e 3299 a7be 14b8 9fbe
000001c0: 75fb 96be 09ed 95be 0293 9e38 ebf7 2ebe
000001d0: 3ceb 4d3d 8c07 3abe bc3e b93d 595e 95bd
000001e0: 7656 263f 300c c53f 28c7 46bf 232c 673f
000001f0: d9df 4bbf 7bb8 69be fed5 ad3e 1d9b 963d
00000200: c265 e0be fc5f 7e3e a65a a4be fc30 0a3f
00000210: c0c0 a23d 1aee ebbd 59e8 093e 9aed 1e3e
00000220: deec ce3d d35a 513d 2b6b 343e 62bc 1bbe
00000230: 84ab 2fbe e0d1 4c3d 3ce5 383b b7e0 5bbe
00000240: a035 2ebf 7447 543f bccf cc3c 7839 cc3e
00000250: c880 69be 6ff2 28bf d410 6a3e d382 ff3e
00000260: c208 e33e a976 833e c81c b8bd a754 0bbf
00000270: 9301 053e e966 553d c033 77be cfd7 59be
00000280: 4344 31be 797f dbbd 0721 35be 9619 94be
00000290: 98ea 43be e58d b3be daaf c4be 3513 69bd
000002a0: ae01 263f 1bdd f23f 76c7 a8bf ac0a cc3e
000002b0: 1b58 ccbe bed5 be3e 794d 523f 6e5a 903e
000002c0: f7cc 25be cc73 4c3f b59d 97be df92 3ebf
000002d0: 8c94 183e d1bc 683d 131e 77be 6e46 a7be
000002e0: 2757 f6bd 20f2 bbbc cc6e a6be 4504 a8be
000002f0: d940 50be 7ff4 b6be dfb2 3abe e781 b7be
00000300: ce1d 1fbe fe11 863f bbb5 6fbf 978e 7cbf
00000310: 8a44 20bd e6bc e9bd 04ca fc3e 6957 2bbe
00000320: 07eb b3be d2c8 483e 21ae c43e 6057 d0bd
00000330: b6d9 2c3f 5173 c5be 3fda 9b3e fb18 8b3e
00000340: a9dc 763d b6b0 083d 0171 4a3e b1af 743e
00000350: 146e ce3c 5686 663e 3604 2e3e c413 65be
00000360: 08f6 3a3e 6a6f b1bf f794 743f 426b a7be
00000370: ac3a 053f 50e3 1b3e e860 70be 3749 35bd
00000380: 73d2 f0bd 78b5 b43e 3183 3d3f 58b8 093f
00000390: 3aec 863e cfd6 8ebe 29f9 05be 7a9b d5bd
000003a0: db74 51bc d4f8 603d a663 61be 9f91 6dbe
000003b0: b11b 1cbe b444 04be a17a ee3d 3d9a 963c
000003c0: 4a34 343d b6a5 9ebf d09e 233f dec6 f53e
000003d0: 95dc acbe bc31 743d e90e 1c3f d3c5 363e
000003e0: 0615 94be 404d ed3e 0dcb b1be f3ca e9bd
000003f0: 5349 883e 3b92 e6bd 09fc c1be e6ee 9dbe

l1.bias f4 [400]
-0.17388967 -0.24256283 -0.048280038 -0.34442544 0.07608528 -0.38669446 -0.15794644 -0.018774617
-0.1339135 -0.038905732 0.009610269 -0.27788606 0.07743182 -0.12966014 -0.24958128 -0.1597452
0.036506567 -0.23810922 -0.1469084 0.11699286 0.017258814 0.07917889 -0.2598693 -0.31457534
-0.16560271 -0.15912713 -0.053712722 -0.03914131 0.41375518 0.07387394 -0.08563649 -0.23686251
0.25788164 -0.17636585 -0.016086826 -0.28386626 -0.114577584 0.030966317 -0.11151023 -0.1717427
-0.23860367 -0.15491849 0.17032903 -0.23829812 0.11816632 0.015418809 0.008707741 0.0040127602
-0.14557375 -0.033564318 -0.09356523 -0.34564468 0.0915214 -0.42090824 -0.04436341 -0.16462968
0.037797194 -0.38657522 0.024386572 -0.21284308 -0.09147006 -0.15485632 0.27835968 -0.1117857
0.029180795 -0.11321538 -0.0150064 -0.031802766 -0.2213036 0.028661301 -0.06475791 -0.13974798
-0.051631782 -0.40384662 -0.44280034 0.32455114 0.096830465 -0.20949183 -0.13800907 -0.28687328
0.10798027 -0.16526932 -0.18967775 -0.1927482 -0.5391066 -0.27481097 -0.0026360543 -0.13299976
0.09196988 -0.0014576978 -0.28753608 -0.3392157 -0.10004117 -0.24739759 0.3186736 -0.009199544
-0.17718516 -0.20568582 -0.18389986 -0.06536707 -0.08271809 -0.2606483 0.06005414 -0.2791421
-0.201652 -0.40083212 0.036550324 -0.3763535 0.01311825 -0.3210995 -0.101242445 -0.048409823
-0.097061545 -0.21779606 0.23448299 -0.15461609 0.040061656 -0.21118692 -0.21541195 -0.14841078
0.1056469 -0.2592204 -0.004942344 -0.5287593 0.31802386 0.047993932 -0.17618433 -0.06942512
0.10492425 -0.17292242 -0.06868253 -0.16131268 -0.3403849 0.20546392 0.22247276 -0.20208435
0.18042813 0.097460695 -0.009470047 -0.11805996 -0.06435436 0.14379281 -0.16412607 -0.3775974
0.120403945 0.17157494 0.123069406 -0.23126905 -0.34887195 -0.4635417 0.057161808 -0.29947868
0.03559335 -0.08486591 -0.22951013 0.11846029 0.10832615 -0.3492859 -0.21985345 0.025727438
0.0029558607 -0.44812307 -0.4092201 0.039331578 -0.12346912 -0.52116776 -0.27583864 0.20409152
0.22194555 0.20526 -0.23887926 -0.14839931 -0.06627207 -0.3007237 -0.010764407 -0.26227894
0.0020960672 0.27209443 -0.2756509 -0.040626183 0.12503278 -0.12553695 -0.077406704 0.04830961
0.20034626 -0.35082605 -0.47154176 -0.24057059 -0.21374992 -0.40080196 -0.104423724 -0.2708837
0.12504034 0.0831948 -0.080309145 -0.20159808 -0.34834763 0.06505582 -0.37410662 -0.30171818
-0.3291149 0.12766239 0.20479633 -0.16626881 -0.17943051 -0.11186063 -0.13934219 0.15602574
-0.16826864 0.23603903 0.015352401 -0.026940675 -0.052597232 -0.25954905 0.09857419 -0.32288763
-0.4496206 -0.4375432 -0.20943156 -0.1905921 0.10318242 -0.19397606 -0.18579233 -0.043306675
0.18136568 -0.18986632 -0.23946804 -0.18377 -0.08415222 -0.019460378 -0.044123244 0.10994631
0.19706917 0.060275473 -0.3441535 0.08350795 -0.22498421 -0.35041937 -0.2859741 0.014507743
-0.12556262 0.020062415 0.14234231 -0.0220789 0.08067032 0.0881054 -0.11055013 -0.0695451
-0.09713878 -0.40719253 -0.29331923 -0.19148326 0.22472332 0.45390972 -0.42234403 -0.26479545
00000000: 2210 32be 6462 78be 4ac1 45bd 8858 b0be
00000010: 99d2 9b3d d1fc c5be b6bc 21be 3acd 99bc
00000020: 9f20 09be 9e5b 1fbd 6474 1d3c 1547 8ebe
00000030: 9394 9e3d a1c5 04be 3c92 7fbe 3f94 23be
00000040: e987 153d e7d2 73be 286f 16be f499 ef3d
00000050: 5b62 8d3c 8b28 a23d 970d 85be 0510 a1be
00000060: c293 29be 39f2 22be df01 5cbd a352 20bd
00000070: b8d7 d33e 384b 973d 2f62 afbd 168c 72be
00000080: 1009 843e 4099 34be 85c8 83bc eb56 91be
00000090: a7a7 eabd 13ad fd3c 7a5f e4bd 51dd 2fbe
000000a0: 8554 74be f4a2 1ebe bc6a 2e3e 6c04 74be
000000b0: 2f01 f23d 2c9f 7c3c eaaa 0e3c 797d 833b
000000c0: 4911 15be bd7a 09bd 219f bfbd 57f8 b0be
000000d0: 926f bb3d 4981 d7be 68b6 35bd af94 28be
000000e0: 3bd1 1a3d 30ed c5be 59c6 c73c 89f3 59be
000000f0: a854 bbbd a892 1ebe 2985 8e3e e7ef e4bd
00000100: 900c ef3c 77dd e7bd 67dd 75bc 9e43 02bd
00000110: 699d 62be 1bcb ea3c cc9f 84bd 181a 0fbe
00000120: d97b 53bd fcc4 cebe bab6 e2be 912b a63e
00000130: 0d4f c63d 0785 56be 4052 0dbe 0ee1 92be
00000140: c324 dd3d 5c3c 29be e23a 42be c95f 45be
00000150: e402 0abf 06b4 8cbe a7c1 2cbb 1731 08be
00000160: b45a bc3d 3910 bfba ee37 93be aead adbe
00000170: 63e2 ccbd cb55 7dbe 3029 a33e afb9 16bc
00000180: 0770 35be 4e9f 52be 3f50 3cbe 2cdf 85bd
00000190: 1a68 a9bd b273 85be 54fb 753d b7eb 8ebe
000001a0: dd7d 4ebe de39 cdbe cbb5 153d 68b1 c0be
000001b0: eeed 563c 2767 a4be 3358 cfbd 6149 46bd
000001c0: 34c8 c6bd ee05 5fbe 4f1c 703e ae53 1ebe
000001d0: b117 243d 6241 58be f394 5cbe fff8 17be
000001e0: 675d d83d 89b8 84be 63f3 a1bb c55c 07bf
000001f0: 06d4 a23e 4995 443d aa69 34be c22e 8ebd
00000200: 86e2 d63d 9312 31be 6da9 8cbd 272f 25be
00000210: ee46 aebe 2265 523e e6cf 633e 33ef 4ebe
00000220: 27c2 383e 7999 c73d 4228 1bbc 6cc9 f1bd
00000230: 38cc 83bd 6c3e 133e aa10 28be 7254 c1be
00000240: 5896 f63d 57b1 2f3e d00b fc3d cbd1 6cbe
00000250: 589f b2be 5655 edbe 8022 6a3d 4555 99be
00000260: 55ca 113d 2ece adbd b404 6bbe 4f9b f23d
00000270: 1ada dd3d 9ad5 b2be 4321 61be 59c2 d23c
00000280: 1db7 413b 6370 e5be 4c85 d1be 261a 213d
00000290: 61dd fcbd 406b 05bf b93a 8dbe 5efd 503e
000002a0: b245 633e ad2f 523e c49c 74be fdf5 17be
000002b0: a7b9 87bd 75f8 99be 325d 30bc 6d49 86be
000002c0: 2c5e 093b f64f 8b3e 1d22 8dbe a467 26bd
000002d0: 9808 003e c28c 00be 6887 9ebd 4ce0 453d
000002e0: 9227 4d3e 799f b3be ec6d f1be 2358 76be
000002f0: 42e1 5abe ea35 cdbe 1bdc d5bd 45b1 8abe
00000300: 930a 003e 0962 aa3d 1f79 a4bd ba6f 4ebe
00000310: 9f5a b2be fc3b 853d e78a bfbe ce7a 9abe
00000320: c081 a8be eeb9 023e 21b6 513e 5f42 2abe
00000330: a2bc 37be 3017 e5bd b8af 0ebe 36c5 1f3e
00000340: 9d4e 2cbe 37b4 713e a388 7b3c b1b2 dcbc
00000350: 3270 57bd 9de3 84be 44e1 c93d 8751 a5be
00000360: ac34 e6be aa05 e0be 3a75 56be 932a 43be
00000370: 4e51 d33d a9a1 46be 5840 3ebe 5762 31bd
00000380: edb7 393e 516c 42be 1c37 75be 342e 3cbe
00000390: 0058 acbd 5f6b 9fbc 93ba 34bd 882b e13d
000003a0: 80cc 493e 6ae3 763d e334 b0be 3706 ab3d
000003b0: 4362 66be 2b6a b3be 326b 92be e2b1 6d3c
000003c0: 7d93 00be ef59 a43c 2fc2 113e cfde b4bc
000003d0: 7b36 a53d 9b70 b43d 1b68 e2bd a96d 8ebd
000003e0: b2f0 c6bd 8a7b d0be f02d 96be 3014 44be
000003f0: df1d 663e db66 e83e 7a3d d8be 4593 87be

l2.weight f4 [300, 400]
-0.010708637 -0.037084185 -0.028130999 -0.03449883 -0.013407426 -0.058130603 -0.018206444 -0.046209663
0.032145187 -0.050688956 -0.03173094 -0.045177013 -0.041031506 -0.0016756023 -0.03129601 -0.007993457
-0.03574832 -0.048657928 -0.009602224 -0.023868145 -0.024821075 0.035693903 0.013815718 0.028127272
0.01841245 -0.04090559 0.033264264 -6.198031e-05 0.028242957 -0.024051802 0.0009718651 -0.007770451
-0.0287453 -0.026195336 0.042588674 -0.0146831535 -0.060634002 -0.015250284 0.02305044 -0.043984085
0.027410526 -0.009397846 -0.025550116 -0.035597425 -0.0087456405 -0.0445005 0.025932329 -0.022473022
-0.024370687 -0.0068552396 0.02878851 0.016504727 -0.07413261 -0.05046991 0.029425537 -0.011961959
0.033536956 -0.0052388534 0.004495545 -0.0019302028 -0.04798812 -0.075136945 0.011161073 0.0016448917
0.0109507805 0.016900353 0.016464867 0.015616897 -0.04445803 -0.024565892 0.015321295 -0.07670604
0.010647168 -0.039374497 0.0005760677 -0.040448125 -0.0066415006 -0.015528422 -0.043016344 -0.07217161
0.009727021 0.023966119 0.0066831303 -0.044476938 -0.0066398242 0.0066242707 0.042816434 0.032078877
-0.048441116 0.0034865723 0.01739172 0.028612677 -0.0003825091 -0.005668454 0.027512614 -0.027435487
-0.0024003698 -0.0112022385 -0.025110157 -0.044215143 -0.0026223043 0.0295142 -0.056586843 -0.04675728
-0.049547527 0.0035278765 -0.011571601 -0.041708764 0.004559154 0.0055742636 -0.054409035 0.014545688
0.0059026815 -0.015495874 -0.030515559 0.037748773 -0.008850552 0.029180039 -0.0024079196 -0.03405403
-0.04591611 0.021954833 -0.015884096 -0.03772568 0.009010275 -0.03213327 -0.024882914 0.01940226
-0.045881838 -0.04316163 -0.019202959 0.02086744 -0.034118105 0.035165656 -0.013537426 -0.04906881
-0.02830348 -0.0132553205 0.00082484406 -0.028586788 -0.0018407218 -0.027356884 -0.019444156 -0.0131902415
-0.026352916 -0.02183786 -0.029015383 0.025270715 -0.047307137 -0.022493884 -0.025303872 -0.0746005
-0.041708764 -0.016099045 0.0018190725 -0.019832162 0.045282993 0.02690165 -0.026802186 0.04010465
-0.039622772 -0.01207456 -0.004890401 0.0041773114 0.0011533858 -0.030658238 -0.031316873 -0.0012522693
-0.012206019 -0.048944775 0.0016963939 0.010576015 -0.025759757 -0.003975451 -0.011780032 -0.017637964
-0.0077862833 0.0024318018 -0.007152797 -0.06426803 0.009503131 -0.0040242956 -0.047215495 -0.02446829
0.00091442466 -0.04660846 -0.014018747 0.033365592 0.018666517 0.02585298 0.023184594 0.013815904
0.01573471 -0.030611672 -0.008279559 -0.008307126 -0.02073033 -0.038224123 -0.007880953 -0.040427264
-0.023236707 -0.078090355 -0.030996121 0.028039675 -0.060908183 0.02462773 -0.011878007 0.012644857
0.040030144 -0.02296178 -0.026811127 -0.048673574 0.042318963 0.004520411 -0.07148765 0.015646327
-0.014186385 -0.041597005 -0.05605338 -0.04855213 -0.044404387 -0.015007008 -0.031112486 -0.012922021
-0.0334781 0.019460747 0.012643553 -0.051361002 0.009756451 0.017424874 -0.0052200216 0.020788494
0.029030284 -0.0068747974 -0.053216197 0.038389523 0.04562061 -0.010234221 0.027956653 0.034780458
0.01548558 -0.091121435 0.012870611 -0.06481192 -0.06990067 0.010466492 -0.032794137 -0.024274575
-0.045244813 0.024909262 -0.029781677 0.0054974626 -0.051078625 -0.065911636 -0.045639552 -0.043495417
00000000: 4773 2fbc 96e5 17bd fb72 e6bc a54e 0dbd
00000010: d2aa 5bbc 5b1a 6ebd ae25 95bc 5846 3dbd
00000020: acaa 033d 399f 4fbd 4df8 01bd 880b 39bd
00000030: a710 28bd e29f dbba 3f30 00bd fdf6 02bc
00000040: d56c 12bd 894d 47bd a652 1dbc 2187 c3bc
00000050: 9155 cbbc c533 123d 525b 623c 2a6b e63c
00000060: b5d5 963c 9f8c 27bd 1c40 083d 6dfb 81b8
00000070: c65d e73c 4908 c5bc c3c4 7e3a 449f febb
00000080: 437b ebbc 9a97 d6bc 7671 2e3d 9c91 70bc
00000090: 5c5b 78bd 54dc 79bc 47d4 bc3c a828 34bd
000000a0: 0a8c e03c 6cf9 19bc 7a4e d1bc 9bce 11bd
000000b0: e049 0fbc 2846 36bd 0970 d43c 5819 b8bc
000000c0: 09a5 c7bc eba1 e0bb e2d5 eb3c ec34 873c
000000d0: d6d2 97bd 89b9 4ebd d30d f13c 18fc 43bc
000000e0: 0c5e 093d b0aa abbb 5d4f 933b dcfe fcba
000000f0: 318f 44bd 66e1 99bd efdc 363c 6899 d73a
00000100: e76a 333c 9c72 8a3c 54e1 863c 03de 7f3c
00000110: a019 36bd 693e c9bc 2b06 7b3c 0e18 9dbd
00000120: 7671 2e3c 2747 21bd 4003 173a efac 25bd
00000130: f2a0 d9bb ec6a 7ebc e831 30bd b6ce 93bd
00000140: 155e 1f3c 9854 c43c 29fe da3b 732d 36bd
00000150: e292 d9bb 6910 d93b 4960 2f3d 2465 033d
00000160: 316a 46bd fa7e 643b 1579 8e3c 2265 ea3c
00000170: 818b c8b9 70be b9bb 2262 e13c 63c0 e0bc
00000180: 864f 1dbb 9889 37bc d1b3 cdbc f01a 35bd
00000190: f7da 2bbb c3c7 f13c 9bc7 67bd 9084 3fbd
000001a0: 59f2 4abd f233 673b d096 3dbc cfd6 2abd
000001b0: f564 953b 50a8 b63b 02dc 5ebd 0a51 6e3c
000001c0: 486b c13b 68e2 7dbc c4fb f9bc 759e 1a3d
000001d0: e801 11bc fa0a ef3c 30ce 1dbb 3d7c 0bbd
000001e0: 8812 3cbd 9fda b33c 5d1f 82bc 3e86 1abd
000001f0: d59f 133c 2d9e 03bd 41d7 cbbc 7df1 9e3c
00000200: 98ee 3bbd 40ca 30bd 864f 9dbc 32f2 aa3c
00000210: 6dbf 0bbd dd09 103d 14cc 5dbc 60fc 48bd
00000220: b3dc e7bc d82c 59bc 593a 583a d72e eabc
00000230: 6044 f1ba 8b1b e0bc 5a49 9fbc e21b 58bc
00000240: 12e2 d7bc 50e5 b2bc abb1 edbc 8804 cf3c
00000250: 21c5 41bd 1845 b8bc 114a cfbc 26c8 98bd
00000260: cfd6 2abd 25e2 83bc f26d ee3a 0f77 a2bc
00000270: a97a 393d d960 dc3c 4290 dbbc c644 243d
00000280: 7d4b 22bd 60d4 45bc a83f a0bb d4e1 883b
00000290: 352d 973a fc26 fbbc 1f46 00bd 2f23 a4ba
000002a0: c1fb 47bc 517a 48bd 8959 de3a 0647 2d3c
000002b0: 2006 d3bc 8044 82bb 0901 41bc 7e7d 90bc
000002c0: 1424 ffbb dd5e 1f3b 0362 eabb f59e 83bd
000002d0: 05b3 1b3c 3dde 83bb 0965 41bd b971 c8bc
000002e0: 00b6 6f3a 83e8 3ebd e3ae 65bc 5caa 083d
000002f0: 86ea 983c a1c9 d33c 9eed bd3c 1a5c 623c
00000300: 14e6 803c 54c5 fabc fda6 07bc 9d1a 08bc
00000310: a7d2 a9bc e690 1cbd 1d1f 01bc 0f97 25bd
00000320: e85a bebc d6ed 9fbd 94eb fdbc 76b3 e53c
00000330: dc7a 79bd 18c0 c93c f99b 42bc 602c 4f3c
00000340: a6f6 233d 581a bcbc 02a3 dbbc f15d 47bd
00000350: a656 2d3d f51f 943b 1e68 92bd ba2c 803c
00000360: 036e 68bc 9f61 2abd 3b98 65bd 99de 46bd
00000370: 60e1 35bd f4df 75bc 9ddf febc e2b6 53bc
00000380: 5520 09bd 256c 9f3c e826 4f3c ea5f 52bd
00000390: 85d9 1f3c 9cbe 8e3c b70c abbb a24c aa3c
000003a0: ebd0 ed3c fb45 e1bb 3af9 59bd 553e 1d3d
000003b0: addc 3a3d 6fad 27bc 5a05 e53c f475 0e3d
000003c0: 3bb7 7d3c e09d babd 41df 523c 1dbc 84bd
000003d0: 1528 8fbd a67b 2b3c 2553 06bd 79db c6bc
000003e0: a052 39bd 820e cc3c b4f8 f3bc 0f24 b43b
000003f0: d237 51bd aefc 86bd 8af0 3abd 4028 32bd

l2.bias f4 [300]
-0.06692491 0.102690704 -0.5408806 -0.10636683 -0.010967545 -0.042520132 -0.071434006 -0.19422449
-0.04275408 -0.07034175 -0.109023705 -0.21146706 -0.4399845 -0.042819645 -0.035047486 -0.065612115
-0.034536082 -0.080645904 -0.20027626 -0.08747363 -0.13737243 -0.22715494 -0.45765382 -0.23651697
-0.15441045 -0.016225705 0.13910992 0.06436349 -0.020673705 -0.10420765 -0.1018637 -0.008673136
-0.08771354 -0.21247438 -0.00037733445 -0.10972705 -0.060716704 -0.022529867 -0.04097339 -0.33563706
-0.00072832406 -0.03123752 0.05376754 0.0147028975 0.05876167 -0.038031153 -0.16370478 -0.070092894
-0.106791504 -0.075531825 -0.1227953 0.15409155 -0.055893194 -0.0720986 -0.0424513 0.02922884
-0.082866184 -0.051236577 -0.028236052 -0.100518115 0.21743645 0.0008542247 -0.0059261513 -0.17600226
-0.04706276 -0.081449084 -0.078521006 -0.31634372 -0.046123233 -0.09419853 -0.07061891 0.12117859
-0.2666625 -0.024594205 0.044830557 -0.19368102 -0.034632195 -0.0911873 -0.09618188 -0.09274119
-0.06809018 0.03175092 0.08778503 -0.026609216 0.015933542 -0.062240347 -0.28311342 -0.07737808
-0.07817828 -0.044402897 -0.06387464 0.26689497 0.095880866 -0.06580583 -0.09178454 -0.0798338
0.0115993535 -0.045197874 -0.41205627 -0.0771486 0.009838035 -0.063806094 -0.0454728 -0.31053752
-0.032964755 -0.126283 -0.05009142 -0.04863036 -0.13521178 -0.075281486 -0.21042527 0.10731007
-0.07342033 -0.03522452 -0.22253565 -0.28493136 0.12674494 -0.39301252 -0.05795775 -0.15656517
-0.43258795 -0.31628343 -0.087361865 0.22295287 -0.107615545 -0.035553835 -0.10892238 0.19068886
0.113238275 0.24559604 -0.11326756 -0.09349072 -0.038899146 -0.073091015 -0.24087304 -0.07121645
-0.05472867 -0.07909768 0.03294389 -0.0770428 -0.0336137 0.010893225 0.000738394 -0.43347222
-0.021718279 -0.47925895 0.2000587 -0.085265264 -0.05459828 -0.08316868 -0.026677016 -0.002047437
-0.06784133 -0.088561416 -0.13304514 -0.07932269 -0.09985501 0.22704175 -0.20069648 0.21413437
-0.031699646 -0.14475748 -0.080046885 -0.09904439 -0.099478014 -0.037221275 -0.032894623 -0.025241287
-0.1207926 -0.04114997 0.075059526 0.11808958 -0.33595893 -0.023190513 0.011830323 -0.03321137
-0.0525598 -0.17299223 -0.06823025 -0.08087837 -0.07451855 0.053713195 -0.18591152 -0.18695825
0.06889334 -0.070778355 -0.30014586 -0.31851262 -0.054790508 -0.055610072 -0.04141372 -0.06782494
-0.11894491 -0.06777129 -0.11049893 -0.101115644 -0.07214032 -0.03475364 -0.28010932 -0.08757347
0.06971142 0.0005520711 -0.051749922 -0.045487702 -0.014346945 -0.17019674 -0.34424996 -0.068936564
-0.08155786 0.07244151 -0.06734363 0.004557169 0.033423606 -0.05407078 -0.012574264 0.055768766
-0.2056109 -0.06478957 -0.282726 -0.037949942 0.0050229537 -0.031814385 -0.088038385 -0.10282631
-0.0716158 -0.066267766 -0.1156842 -0.09984607 -0.14405039 -0.020658804 -0.10369654 -0.09726519
-0.03537353 -0.06412498 -0.021337925 0.03147464 0.14971359 -0.024505915 0.12585087 -0.028796336
-0.0648909 -0.034716386 -0.06743303 -0.09119147 -0.077829584 -0.08821124 -0.22416835 -0.10301407
-0.01637099 -0.031923164 -0.0027254485 -0.24238996 -0.08801156 -0.10767664 0.16738139 -0.107479945
00000000: ed0f 89bd 814f d23d 2777 0abf dad6 d9bd
00000010: 38b1 33bc 9729 2ebd fe4b 92bd c9e2 46be
00000020: e71e 2fbd 560f 90bd d247 dfbd d28a 58be
00000030: a645 e1be a763 2fbd f48d 0fbd a55f 86bd
00000040: b575 0dbd ae29 a5bd 3815 4dbe 6025 b3bd
00000050: 5cab 0cbe 4e9b 68be 9a51 eabe 8131 72be
00000060: c61d 1ebe c5eb 84bc d572 0e3e 01d1 833d
00000070: e75b a9bc d26a d5bd ea9d d0bd c519 0ebc
00000080: 28a3 b3bd e292 59be f9d4 c5b9 93b8 e0bd
00000090: 14b2 78bd 8e90 b8bc b7d3 27bd 9fd8 abbe
000000a0: 00ed 3eba d4e5 ffbc 5a3b 5c3d 6ce4 703c
000000b0: 14b0 703d 8ec6 1bbd 3aa2 27be dd8c 8fbd
000000c0: 81b5 dabd 6eb0 9abd 1a7c fbbd 2dca 1d3e
000000d0: 43f0 64bd 6ea8 93bd 6ae1 2dbd 5271 ef3c
000000e0: bfb5 a9bd 72dd 51bd 4b4f e7bc 71dc cdbd
000000f0: a9a7 5e3e 0dee 5f3a 2930 c2bb f039 34be
00000100: e1c4 40bd c7ce a6bd 9fcf a0bd cef7 a1be
00000110: b7eb 3cbd 29eb c0bd a6a0 90bd 7b2c f83d
00000120: fd87 88be c979 c9bc 3fa0 373d 5154 46be
00000130: 7dda 0dbd 68c0 babd 01fb c4bd 18ef bdbd
00000140: dd72 8bbd 410d 023d a3c8 b33d 92fb d9bc
00000150: 0f87 823c bcef 7ebd 3ef4 90be 6678 9ebd
00000160: ef1b a0bd d0df 35bd b5d0 82bd 75a6 883e
00000170: 305d c43d 35c5 86bd 88f9 bbbd e77f a3bd
00000180: 370b 3e3c 6821 39bd 0af9 d2be 1600 9ebd
00000190: b62f 213c c5ac 82bd b041 3abd c6fe 9ebe
000001a0: 0d06 07bd 5550 01be a92c 4dbd a130 47bd
000001b0: f574 0abe 2e2d 9abd b979 57be 62c5 db3d
000001c0: 665d 96bd 9647 10bd 63e0 63be 86e2 91be
000001d0: 6dc9 013e f038 c9be 1b65 6dbd 9f52 20be
000001e0: 2b7c ddbe e7ef a1be c7ea b2bd c24d 643e
000001f0: 8a65 dcbd e6a0 11bd b212 dfbd f143 433e
00000200: 78e9 e73d 877d 7b3e d3f8 e7bd 1078 bfbd
00000210: b654 1fbd beb0 95bd 6ca7 76be eed9 91bd
00000220: 2b2b 60bd f7fd a1bd 2cf0 063d 9ec8 9dbd
00000230: 85ae 09bd 7f79 323c c890 413a 12f0 ddbe
00000240: 88ea b1bc 6e61 f5be 30dc 4c3e 8e9f aebd
00000250: 72a2 5fbd 5754 aabd c289 dabc 4b2e 06bb
00000260: 65f0 8abd b05f b5bd fc3c 08be ef73 a2bd
00000270: c980 ccbd a27d 683e 6183 4dbe 0a46 5b3e
00000280: 7dd7 01bd 4e3b 14be 9fef a3bd c9d7 cabd
00000290: 21bb cbbd 5675 18bd 83bc 06bd d1c6 cebc
000002a0: 1c62 f7bd df8c 28bd cfb8 993d f3d8 f13d
000002b0: cf02 acbe 08fa bdbc f9d3 413c a508 08bd
000002c0: f248 57bd e024 31be 4dbc 8bbd 8fa3 a5bd
000002d0: 2e9d 98bd 5e02 5c3d 975f 3ebe fc71 3fbe
000002e0: f417 8d3d 3ef4 90bd b8ac 99be 1614 a3be
000002f0: 036c 60bd 63c7 63bd 6fa1 29bd cde7 8abd
00000300: 6499 f3bd adcb 8abd 434d e2bd b815 cfbd
00000310: 4ebe 93bd d559 0ebd 7d6a 8fbe b859 b3bd
00000320: dcc4 8e3d ddb8 103a baf7 53bd 5051 3abd
00000330: 730f 6bbc 0e48 2ebe 8841 b0be 9d2e 8dbd
00000340: cf07 a7bd 375c 943d 75eb 89bd 4e54 953b
00000350: 31e7 083d 5279 5dbd 4904 4ebc ca6d 643d
00000360: aa8b 52be 65b0 84bd 76c1 90be 6671 1bbd
00000370: 9797 a43b cd4f 02bd 784d b4bd 9a96 d2bd
00000380: 4eab 92bd 65b7 87bd d6eb ecbd 197c ccbd
00000390: f281 13be a73c a9bc da5e d4bd f932 c7bd
000003a0: d6e3 10bd f553 83bd dfcc aebc 8deb 003d
000003b0: 854e 193e a1c0 c8bc 0ddf 003e 4be6 ebbc
000003c0: 85e5 84bd c532 0ebd 541a 8abd 98c2 babd
000003d0: 1e65 9fbd 18a8 b4bd 638c 65be 0af9 d2bd
000003e0: 741c 86bc ddc1 02bd 709d 32bb 1335 78be
000003f0: 683f b4bd 9285 dcbd 0766 2b3e 721e dcbd

l3.weight f4 [4, 300]
-0.06834499 -0.29544562 0.26005232 -0.032163072 0.27505484 0.007987682 0.0340056 -0.18792321
-0.056201648 0.022820964 -0.0060501103 0.7629461 0.23136011 -0.4582141 0.06589573 0.013719979
0.044174906 -0.32475922 -1.4556303 0.0024177856 0.46530113 -1.0095726 0.06788156 -0.67314565
-0.30585852 -0.028578034 0.013890782 -0.3630689 0.024066329 0.10550852 -0.018721279 -0.02749919
-0.05764408 0.28202263 1.3243808 0.0064920234 0.027872464 -0.24593818 -0.0796818 -0.23988955
0.012388186 -0.03598746 0.03694113 -0.01129891 0.046942804 -0.33226344 -0.1260016 -0.0259029
0.14160141 0.017639453 0.021220427 0.22575131 0.024304377 -0.012577617 0.079033636 0.3937755
0.027942872 -0.035383217 0.005337461 0.039650913 0.07074408 -0.07002286 -0.0023934315 0.00490123
0.0011538981 -0.039750747 -0.05486948 -0.23851864 0.016594134 -0.0006519788 -0.006750558 -0.08502685
-0.9375284 0.0025098005 -0.2949628 0.27975762 0.00018061417 0.38349915 0.007361321 -0.004098522
-0.008727711 0.07234148 0.94616276 0.009112348 -0.44175658 -0.01670366 -0.82416016 -0.000631513
-0.008285891 0.0173608 0.016148591 0.112263225 0.5617922 0.050256077 0.040284958 -0.023282528
-0.5019819 -0.016136669 0.02842567 -0.0050674705 -0.0022031623 0.09588236 -0.022333324 -0.64346755
0.05333466 -0.03632124 0.02511798 0.015810335 -0.21163693 -0.00037207245 0.60542256 0.13522072
0.0071845553 0.010947054 0.06877861 -0.61031044 0.23920707 -0.31773183 0.0077225803 1.123632
0.43888608 -0.6395406 0.75653267 0.4249249 -0.011598422 0.008693625 -0.0047470955 -0.05997164
-0.24691859 -0.029093683 -0.008369152 0.0066908607 -0.034063715 0.07854187 0.7420845 0.025984855
-0.04052263 -0.016145611 0.03103561 0.031510398 -0.043899234 0.006344222 0.00043292282 0.27681315
0.002976347 -0.32483667 -0.8094616 0.03227036 -0.005922519 0.04604575 0.11178192 -0.2861822
-0.05745856 -0.028126528 0.39150456 -0.0039126533 -0.04650694 0.055496078 -0.12666745 -0.96940494
-0.029650917 -0.177999 -0.022745341 0.05016369 0.017359309 -0.53719926 -0.23388843 0.0992977
0.57731324 -0.06986937 0.019249009 -0.012155727 -0.93533486 -0.002290753 0.25984374 -0.014952864
0.03146719 0.39703587 -0.06682655 -0.006676518 0.016789341 0.16800329 0.00761939 0.012755205
0.58365524 -0.010224349 -0.4980324 0.2648207 -0.022226036 -0.07242344 0.0037047814 -0.01373637
-0.025077745 0.03528189 -0.04724455 0.08789831 0.022021143 0.04568216 0.59842527 0.07015846
0.7600255 0.023425205 0.00025237413 -0.0039037121 0.021899328 0.34262866 -0.36204195 0.05672617
0.012918294 0.28470486 -0.040232804 0.29832453 0.13628714 0.020629002 -0.08098417 0.19030143
-0.05130661 0.015643347 -0.06317279 -0.020300059 -0.10480667 -0.15177593 0.02684577 -0.0031164177
0.026647212 0.05172906 -0.12696446 0.065734304 -0.18012215 0.096272774 0.032456625 0.011694349
-0.0019207265 -0.001358347 0.0063174 0.8112498 0.20849277 0.03650453 -0.10056132 0.056254547
0.037041713 -0.023618178 -0.5484765 0.07832133 -0.048461977 -0.06320707 0.02805542 0.026848378
-0.9335825 0.0112909 -0.0064305556 -0.5012011 0.037444793 -0.034566626 0.09605373 -0.014018002
00000000: 75f8 8bbd a644 97be 9425 853e 6dbd 03bd
00000010: fdd3 8c3e c4de 023c 7549 0b3d f16e 40be
00000020: b333 66bd 08f3 ba3c 0140 c6bb 7050 433f
00000030: aae9 6c3e 0a9b eabe 57f4 863d c3c9 603c
00000040: bff0 343d d746 a6be 1852 babf b673 1e3b
00000050: f33b ee3e ad39 81bf 7d05 8b3d 4653 2cbf
00000060: 7d99 9cbe 7b1c eabc 2a96 633c 2be4 b9be
00000070: c026 c53c da14 d83d 5e5d 99bc fb45 e1bc
00000080: 331c 6cbd 4565 903e 4f85 a93f 0abb d43b
00000090: cb54 e43c 38d7 7bbe 3630 a3bd 9ba5 75be
000000a0: d1f7 4a3c 9667 13bd 954f 173d 101f 39bc
000000b0: 1947 403d 6f1e aabe 9006 01be 5232 d4bc
000000c0: f6ff 103e 9d80 903c 76d6 ad3c 5a2b 673e
000000d0: f919 c73c 5912 4ebc 63dc a13d f19c c93e
000000e0: 73e8 e43c feed 10bd dee5 ae3b ff68 223d
000000f0: 46e2 903d 2568 8fbd 1edb 1cbb 7f9a a03b
00000100: 653e 973a aed1 22bd d2be 60bd 3b3e 74be
00000110: 6cf0 873c 8ee9 2aba c933 ddbb 8f22 aebd
00000120: dc01 70bf 777b 243b 5d05 97be 643c 8f3e
00000130: 3f63 3d39 005a c43e 3c37 f13b e54c 86bb
00000140: acfe 0ebc c527 943d b937 723f f54b 153c
00000150: eb2d e2be 1dd6 88bc 29fc 52bf 1f8c 25ba
00000160: 8cc1 07bc 3d38 8e3c 0d4a 843c 43ea e53d
00000170: 9dd1 0f3f 51d9 4d3d d701 253d 00bb bebc
00000180: e381 00bf 0c31 84bc f3dc e83c 060d a6bb
00000190: ee62 10bb f95d c43d 60f4 b6bc 4aba 24bf
000001a0: 7275 5a3d 95c5 14bd 39c4 cd3c ad84 813c
000001b0: 5ab7 58be b812 c3b9 f9fc 1a3f 4d77 0a3e
000001c0: 6b6c eb3b 465b 333c cddb 8c3d 4e3d 1cbf
000001d0: b3f2 743e bfad a2be b30d fd3b 2cd3 8f3f
000001e0: adb5 e03e efb8 23bf 20ac 413f c28f d93e
000001f0: 4f07 3ebc b56f 0e3c 868d 9bbb d3a4 75bd
00000200: 3ad8 7cbe e055 eebc c51e 09bc 023f db3b
00000210: 6586 0bbd 8fda a03d 40f9 3d3f 31de d43c
00000220: 0ffb 25bd cd43 84bc 643e fe3c 0c11 013d
00000230: afcf 33bd 31e3 cf3b ebf9 e239 74ba 8d3e
00000240: d10e 433b fe50 a6be e038 4fbf ed2d 043d
00000250: b111 c2bb 789a 3c3d ebed e43d 7986 92be
00000260: ab59 6bbd 9b69 e6bc 4973 c83e b735 80bb
00000270: 107e 3ebd db4f 633d 1db5 01be ec2a 78bf
00000280: 7be6 f2bc 5f45 36be 7054 babc 7178 4d3d
00000290: 1c35 8e3c e485 09bf 7380 6fbe 985c cb3d
000002a0: cdca 133f ac17 8fbd 19b0 9d3c d028 47bc
000002b0: 1b72 6fbf 7520 16bb 3d0a 853e dbfc 74bc
000002c0: bde3 003d 4948 cb3e 5cdc 88bd b1c6 dabb
000002d0: cd89 893c 0e09 2c3e 13ac f93b 35fb 503c
000002e0: 6e6a 153f 0784 27bc 1afe febe 9496 873e
000002f0: 6013 b6bc be52 94bd ebcb 723b 830e 61bc
00000300: d86f cdbc be83 103d 8083 41bd 0704 b43d
00000310: af65 b43c 371d 3b3d 6632 193f 3daf 8f3d
00000320: 0891 423f 37e6 bf3c 1551 8439 6cd5 7fbb
00000330: 3866 b33c 066d af3e 905d b9be b359 683d
00000340: 41a7 533c d6c4 913e 27cb 24bd febd 983e
00000350: db8e 0b3e 27fe a83c 07db a5bd 61de 423e
00000360: e126 52bd 7a26 803c bc60 81bd 4f4c a6bc
00000370: e1a4 d6bd 266b 1bbe a9eb db3c d03c 4cbb
00000380: 414b da3c dae1 533d f902 02be b59f 863d
00000390: f171 38be a92a c53d 3df1 043d a899 3f3c
000003a0: e3c0 fbba 900a b2ba 3102 cf3b 11ae 4f3f
000003b0: 217f 553e c685 153d 18f3 cdbd 2b6b 663d
000003c0: 0db9 173d e97a c1bc f568 0cbf ef66 a03d
000003d0: 1180 46bd b572 81bd 7bd4 e53c 21f1 db3c
000003e0: 43ff 6ebf 78fd 383c 69b7 d2bb b74e 00bf
000003f0: b65f 193d bc95 0dbd d1b7 c43d c3ab 65bc

l3.bias f4 [4]
-0.09335451 -0.3242321 0.082858734 -0.088052824
00000000: a630 bfbd c001 a6be d7b1 a93d 0a55 b4bd
